model/inpaint/ACS-WFC-F606W-2-32.pth (torch_old, 417988 bytes, 39 tensors)

module.inc.conv.conv.0.weight f4 [32, 2, 3, 3]
00000000: 49f0 8d3c ade9 e6be 6796 f13d 3040 843e
00000010: 0aa2 4bbe cc06 b13c db1b 7fbb 42fb c03b
00000020: c281 023d d3ff fcbe 02ce 9fbf e0e3 273f
00000030: 4221 603e 08e1 ffbe 0934 e1be e8ec 173e
00000040: 7df7 ec3e e1fe 35bd e8fd ffbf 5d87 18c0
00000050: 1373 993d 9475 06c0 c26f f9bf cd9b bd3d
00000060: a11a 003e 91fa b13d 4bde 813d 6dc1 8a3d
00000070: 3f89 033f 5a8b 0c3e 89c7 fe3d 70b9 4b3f
00000080: e342 353f 58e6 ad3e b8fd 3d3e ac98 cb3e
00000090: 8a94 093d e46f 953c 0d16 f1be 7fc2 2d3d
000000a0: 2240 e83d 4ca7 563d 99e6 3a3c 85bb 14be
000000b0: ba0e ae3b 8af3 683f 4b46 b0bc 35e4 a1bf
000000c0: 3b6e 943d 0969 4cbe 2b92 673f 9292 ab3d
000000d0: bb9c d2bf a168 bcbe b650 443e 3af5 8dbf
000000e0: 202b 283e bb58 b9bd 4611 4dbf 3846 29bf
000000f0: c411 843d 3385 203e 026a eabe 1f32 933e
00000100: bbe6 3bbe 8524 4f3f b319 303d 29fe 05bf
00000110: 162a 463f df9a 0e3f 6bba c63e 0781 3f3f
00000120: 9eaf 303d 83e8 2a3e 413f 003c 5377 d4bd
00000130: c977 babe 349c 1d3d dcc9 043e b811 69be
00000140: 7777 e63d 13d3 af3e e78b 0f3e 7fd5 053f
00000150: ef4e a93e f7db 6dbe 260a 9ebe 5efc 68bd
00000160: 8f63 56bf c250 413e 939b c13c 10b6 6dbd
00000170: 1fb5 de3c 26a4 dd3d 7ff5 f3be 93d0 023e
00000180: 1553 0a3c a8a7 0e3e dd33 01be 7995 553e
00000190: 302c b2be 4920 a33e aee7 533e 6bd6 d9be
000001a0: 2071 f03e 2175 34be f9d5 063e 80d6 983e
000001b0: dfd7 3d3e 9420 f33c abd0 c43d 8cf1 81bc
000001c0: 88e9 0abe ebcc 0bbd 4111 833d bec8 20bc
000001d0: 81d7 603c 6111 633f 21b1 f9bc a7b5 233f
000001e0: b6ed 4f3e 0614 fbbf 3c2c 073d 48d4 1e3e
000001f0: 62f1 47bf e95f c4bd 305e a3be 8cba 283e
00000200: 54ba adbe ca46 0ebf 4043 e13d 0577 223d
00000210: 60a3 abbc 86d1 983d f7b3 dc3b bfff 89bd
00000220: d88d 2dbe 553f 15bd b9f1 79be 1c64 263e
00000230: 728a b6be 4636 c73e 17f8 043f 4620 d0bc
00000240: 9731 453c 5b54 9c3d e2a9 513d 68bd f9bc
00000250: 5504 29bf a955 743d 89a0 2a3c bfaf 1b3e
00000260: c619 de3d a46c a8be 8196 e2bd 9647 853e
00000270: 9e95 05bf 71de 1cbf dad2 1ebf 48d6 bebc
00000280: c610 c23d 2997 06be 0b83 6b3d 32de b73c
00000290: 280b 143e 4248 3fbd 5304 9f3d 8f73 9fbe
000002a0: 7372 193d a77d 4b3d a492 93be 8811 6f3f
000002b0: 08cf ba3d dcda 193e 83ce e53e 5f15 0bbf
000002c0: 6e95 afbf a5ca 07be 2662 193d 3a51 aebf
000002d0: 8472 5ebd d927 7f3d 9b57 9e3c 43aa 013e
000002e0: 3873 f53a f164 bc3d 71cb 5ebb 5dd7 2ebb
000002f0: c29d e5bc 0dcb ffbf e9a3 a5be 46ea a4bf
00000300: b32f 3abf ef78 b2bf dd00 3d3e b944 e3bf
00000310: 1c52 dfbe dae1 95bd e058 04bf cf76 d9bd
00000320: 1c2c 96bc 4d71 10bc bb92 113e 9d5f 96be
00000330: fd47 03be a879 99be ce56 66be 7dcf edbe
00000340: df27 243d c24a f93e b8a7 0bbe c43a 123a
00000350: bb46 7c3e f0dd b6be 0d3c 25bf 0476 393e
00000360: 3580 46be 62e2 8ebe a60b 923d fcc4 4abe
00000370: 5f0f ab3c 2722 143e a1d5 273d 9228 763d
00000380: 6036 a53d 912a 82bf 5372 ecbe baf1 803f
00000390: 2c33 42bf 4252 78be a98e 873f 8d4d f63e
000003a0: debd ce3e 1947 903f 1d13 78bf 100e 6ebe
000003b0: 2094 cfbe 5463 d9bd 6188 423d 095d ea3d
000003c0: 711d 4a3d 9f27 b53d eb8f 42be 6df3 223e
000003d0: 5998 3dbf 277a b3bd 520a 2d3e ca17 fc3e
000003e0: 428b 223d 3acf e5bd 7f03 0e3f 1f5e 203f
000003f0: 9eaf 84be 96e0 4f3e 4190 823c c75a afbe
0.017326491 -0.45100155 0.11796265 0.2583022 -0.19886032 0.021609686 -0.0038926515 0.0058893273
0.031862028 -0.49413928 -1.2484744 0.65582085 0.21887687 -0.49976373 -0.43985012 0.14836466
0.4628257 -0.044432525 -1.9999361 -2.383262 0.07492652 -2.1009264 -1.9487231 0.09258232
0.12510158 0.0869037 0.06341227 0.06775174 0.51381296 0.13725033 0.12440402 0.7957983
0.70805186 0.339648 0.18553817 0.39764917 0.033588924 0.01824183 -0.47087136 0.042421814
0.11340357 0.05240564 0.011407518 -0.14524658 0.005311814 0.9099661 -0.021517893 -1.2647768
0.07247587 -0.19961943 0.9045741 0.083775654 -1.645408 -0.36798576 0.19171414 -1.1090462
0.16422701 -0.09050127 -0.8010448 -0.6612277 0.06448701 0.15675811 -0.45784003 0.28749177
-0.18349735 0.809151 0.04299326 -0.5234094 0.7740797 0.55705065 0.388141 0.74806255
0.04313623 0.16690259 0.007827581 -0.10374322 -0.36419514 0.038479045 0.12967628 -0.22760665
0.11253255 0.34340724 0.14018212 0.52278894 0.33068034 -0.23228441 -0.30867118 -0.0568813
-0.83745664 0.18878463 0.023633754 -0.058034956 0.027185975 0.108223245 -0.47648236 0.12774877
0.00844266 0.13931143 -0.1261744 0.208578 -0.34799337 0.3186057 0.20693848 -0.425464
0.46961308 -0.17622806 0.13167562 0.2985115 0.1853938 0.02967862 0.09610113 -0.015862249
-0.13565648 -0.034130972 0.06399775 -0.009813486 0.013723255 0.88698393 -0.03047997 0.63949054
0.20305523 -1.9615486 0.03300117 0.15510666 -0.78102696 -0.09588606 -0.31907797 0.16477412
-0.3393122 -0.55576766 0.10999155 0.039664287 -0.020951927 0.074618384 0.0067353207 -0.06738233
-0.1694864 -0.03643735 -0.24408616 0.16249126 -0.356525 0.38908595 0.51941055 -0.025406014
0.012035749 0.07633277 0.051187404 -0.030485824 -0.66022235 0.059652004 0.010414251 0.1520376
0.1084476 -0.32895386 -0.110638626 0.26031178 -0.5218142 -0.6127692 -0.62040484 -0.023295537
0.094758555 -0.131436 0.05749802 0.022444818 0.14457381 -0.04669977 0.07764497 -0.31142852
0.037462663 0.04968038 -0.28822815 0.93386126 0.09121519 0.15024894 0.44884118 -0.54329485
-1.3717477 -0.13260897 0.037447117 -1.3618538 -0.05430843 0.06229386 0.019328883 0.12662606
0.0018726354 0.091989405 -0.0033995772 -0.002667866 -0.028029326 -1.9983841 -0.32351616 -1.2883995
-0.72729033 -1.3943156 0.1845736 -1.7755347 -0.43617332 -0.073184684 -0.5169811 -0.10618364
-0.01833158 -0.0088160755 0.1421613 -0.29369822 -0.1282043 -0.2997563 -0.22494051 -0.46447363
0.040077087 0.48689848 -0.13638198 0.0005578215 0.24636357 -0.357162 -0.64544755 0.18111426
-0.19384845 -0.2790709 0.07131128 -0.19801706 0.020881353 0.14466153 0.040975217 0.060097285
0.08067012 -1.016924 -0.46180972 1.0073769 -0.7585933 -0.24250129 1.0590411 0.48106042
0.40379232 1.1271697 -0.96904165 -0.23247552 -0.40542698 -0.106146485 0.047493342 0.11443526
0.049344484 0.08845448 -0.19000213 0.15913172 -0.7406059 -0.08763533 0.16898468 0.492369
0.039683588 -0.11221166 0.55474085 0.6264362 -0.25915235 0.20300516 0.015937926 -0.34248945

module.inc.conv.conv.0.bias f4 [32]
00000000: 0de0 6a3e 1906 3d3e c347 f4bd e447 06bd
00000010: 9c9a 843e 99d4 52bd 4da0 173c 357c 3f3b
00000020: 32c8 a53e f11b d63e 9ff2 13be e046 ca3d
00000030: 56cd 55bd af7d 3b3e d948 413e b772 80be
00000040: 85d6 c8bd 31d8 1c3e 450d c4bc 95b4 b73d
00000050: fc6d 563e 982d dfbe 46c6 9e3e a63b 2c3e
00000060: 99dd fabd d77e 8a3e 27ae 683e b7b3 24bd
00000070: c8fc 39be d36e 88bd 8961 9ebd 3b92 e03e
0.22937031 0.18459357 -0.1192775 -0.032783404 0.25899208 -0.05147228 0.009254527 0.002921832
0.323793 0.41818193 -0.14448021 0.098767996 -0.052197777 0.18309663 0.18875445 -0.2508752
-0.09806541 0.15316845 -0.023932109 0.0896999 0.20940393 -0.43589473 0.31010646 0.16819629
-0.12249298 0.27049896 0.22722684 -0.040210452 -0.18162835 -0.06661763 -0.07733447 0.43861565

module.inc.conv.conv.1.weight f4 [32]
00000000: 78f1 df3e c929 af3f f903 e53e 8623 123f
00000010: 9afc fc3e bac1 383f e2f1 c43e 5179 d43e
00000020: b02e 143f 0b87 343e 6c6c f43d f6f8 613f
00000030: c437 b13e 12b8 133f d988 363f ced3 623e
00000040: 461b c13e ca66 673f 952a 5e3f 0ad7 563f
00000050: 3f32 a63e 840c 4c3f bd77 863f 53f3 643e
00000060: 22a0 fd3e 2d2e 2e3f 3d07 273f 5b60 143f
00000070: 003c 4f3f 8b68 123e ad41 b93d 474d 253f
0.43738914 1.3684627 0.44729593 0.57085454 0.4941147 0.72170603 0.38465792 0.41498807
0.5788374 0.1762964 0.11934742 0.8827051 0.34612858 0.57702744 0.7130256 0.2215111
0.3771612 0.9039122 0.86783725 0.83921874 0.3246021 0.797066 1.0505291 0.22358446
0.49536234 0.6803921 0.6524542 0.57959527 0.8095093 0.14297692 0.0904573 0.6457104

module.inc.conv.conv.1.bias f4 [32]
00000000: c368 683e 7c73 8d3e 036b d93d 3a90 4dbe
00000010: f01e 3d3e b23d 553e 8579 b53d d93f 693e
00000020: ccd2 b03e 79c9 a93e 5f52 84be 2a49 d23e
00000030: d553 103e 2782 f2bd 2b3f e03e fd26 4b3e
00000040: 5827 a63c e1ae debd 2512 043e e6b0 88bd
00000050: 3736 7f3d 5488 7cbe 413b cc3e 08ac f83c
00000060: 60d9 023e 49d9 a33e 6789 ce3d ecd1 b03e
00000070: cb17 623d 9e56 7d3e cfe3 9c3b 9834 f93e
0.22696213 0.2762717 0.10616114 -0.2007455 0.18468833 0.20824316 0.08861069 0.22778262
0.34535825 0.33161524 -0.25844094 0.41071445 0.1409448 -0.11841231 0.43798193 0.19839092
0.020282432 -0.10873199 0.12897547 -0.06674366 0.062307563 -0.2466138 0.39888957 0.030355468
0.12778234 0.32001713 0.10084801 0.34535158 0.055198472 0.24740073 0.004787899 0.48672938

module.inc.conv.conv.1.running_mean f4 [32]
00000000: a6cc 97be aea0 bfbf aaff 39bf 69b4 1cbf
00000010: cb81 37be 3c09 21bf 279e 1e3f 4662 9ebf
00000020: 3fe1 44bf fcc2 b6bd ab65 503e 4bd8 debf
00000030: 2e23 3ebf 0335 05bf 271c 6ebf a896 b0be
00000040: 405a 26bf a8f9 90be 7519 adbf 6821 a9be
00000050: e46d 8ebd 2baf 21bf 65a5 56bf 48ae 1a3d
00000060: dd42 94bf 6ee5 74bf bbc4 53be 69b2 50bf
00000070: 6124 b8be 6bcf 16bf f85c 293e 298b ecbe
-0.29648322 -1.497091 -0.7265574 -0.61212784 -0.17920606 -0.62904716 0.6196007 -1.2373741
-0.769062 -0.08923909 0.20351283 -1.7409757 -0.7427243 -0.52034014 -0.9301171 -0.34489942
-0.6498146 -0.28315473 -1.3523394 -0.330333 -0.06954554 -0.6315791 -0.8384612 0.037763864
-1.1582905 -0.9566258 -0.20680515 -0.8152223 -0.35965255 -0.58910245 0.16539371 -0.4619992

module.inc.conv.conv.1.running_var f4 [32]
00000000: a2f1 b840 28f0 2342 6389 0941 bcb3 7b41
00000010: 2e3b b340 cf84 9a40 daa3 1e41 3402 8f41
00000020: 1208 3b41 7ef0 6740 dcf2 3440 aee3 d341
00000030: 0418 8a41 5459 6f41 bbad 4c41 1a24 923f
00000040: 11a8 b940 d9e7 0741 1104 a241 df63 c540
00000050: 3d93 c93f e8bf f340 9e4d 5f41 8b98 5f40
00000060: 141a 4541 0434 a541 3bc9 9240 83c4 2541
00000070: bd80 8340 e6de 5e40 3e8c b93f bdec d840
5.779496 40.984528 8.596042 15.73138 5.600974 4.828712 9.915003 17.876076
11.68947 3.6240535 2.827323 26.486172 17.261726 14.959309 12.792415 1.1417267
5.801766 8.494103 20.251986 6.1684413 1.5748059 7.617176 13.9564495 3.4936855
12.318867 20.650398 4.5870643 10.3604765 4.109465 3.4823546 1.4495924 6.7788987

module.inc.conv.conv.3.weight f4 [32, 32, 3, 3]
00000000: 4462 d53d 7d33 1fbe ab17 54be ae51 b83d
00000010: 0953 ad3d 74dc 61be e74d 01be 49db 62bd
00000020: ac16 5abc 0b8a 2f3e d06c 17be 4470 a7be
00000030: abdd f03d 6cbd 09bf 4b98 4ebe 4a70 cf3d
00000040: 1233 46bb 22b6 d63c 8bf2 05be e44d b63e
00000050: ef3d 183e 1419 f9bd 987d ce3d 4862 cabd
00000060: 83af cc3c 5228 3abd fba5 ae3d ad61 5dbe
00000070: b86a 30be 3b66 85be 5e2f 8ebd c7aa b9be
00000080: d442 0f3d e6dc 1d3e 6f9c 813d b2e5 923b
00000090: 8307 e9bd 7b2d 86bd 0c23 60be 8a2e b0bd
000000a0: 355e 0cbe ecbd 80bd 54b2 4b3d c17b b43d
000000b0: 1979 843d 4f4d 093c 2492 1cbf 4364 87be
000000c0: 74e3 143e c0e2 f83d 8efe 10be 33fe 8bbd
000000d0: f3c8 9c3e 6cbd 333d 11a5 41bc 6468 913e
000000e0: 0bd9 1c3e 1c82 7a3c dbb3 873e ecb0 50be
000000f0: ec9b 6dbe f015 d8bc 8b24 2dbe 5e7f f2bd
00000100: 298b d23c befa f3bd 86e1 ebbd ca6a 2e3e
00000110: d2d5 e83d 2675 c03c 7994 2a3e a168 ca3e
00000120: d8ab 4d3e 4ca4 efbe 0d4c 1bbe f0df afbb
00000130: 942d 8bbd ca06 9a3d 798d 42be 4771 ec3d
00000140: 324f d03d 3666 783e f3ef 3b3e 3362 583e
00000150: 2beb 0a3e e68a fe3d abfc 7c3c f18c 7ebe
00000160: 55ea 86bd 751d 14be f82a b13d d1ac 023e
00000170: b0ec 03be a18a e83d fd27 10be e4fa 33bd
00000180: 24ab 0f3d 27fc 75be 9622 1cbc 2d95 c9bd
00000190: 444b 74bd c2dd 62bd e7e0 273d 4ec1 47be
000001a0: 5334 e6bc 1280 c1bc 0804 1ebe 4c02 463e
000001b0: 3761 19bf 2ec0 35bd f39c a3bd 622e 7cbe
000001c0: 1943 b83d bb71 c53c 9040 bbbd 4215 02bd
000001d0: db08 1b3d 0f56 6bbe bcaa cabc 3d71 9abe
000001e0: 8da6 3a3d feef a63c 1f15 1ebe 1047 1ebe
000001f0: 5e4b 70bb f60e 8fbe 8528 4a3c a0ef c23d
00000200: 5d2f 89be 34a2 c3bc cf75 da3d 71fe 01bd
00000210: a36c 43be db37 3dbe ae64 163c d0fe f03d
00000220: c154 18b9 be24 3b3c ee83 5e3d 33ae 37bd
00000230: 9eaa cf3d 3450 17be 360e f1bc 9d8a 443e
00000240: 6839 8abd c7d3 3cbf 8075 313e c1aa a73d
00000250: de0b 56bd cb68 6e3d fc0a 843d ff52 0c3d
00000260: 3168 553e 6fc1 4c3e 660f 26be 5f42 56be
00000270: 58d4 b5bd 2df9 f93d 4488 8dbe 70b7 93bd
00000280: f6c0 90bd b7af 4e3d 9bee cd3d 3386 6dbe
00000290: f64d 7ebc e4c1 4c3e 25af f23d 54e8 ae3e
000002a0: 115f 5e3e 1954 aebe 0db8 2c3c 8ac1 0dbe
000002b0: a8b2 21bf 7ec7 0dbe 2711 2a3e 6923 aebe
000002c0: cee0 36be f163 823d b4a1 4b3e fd4b 853d
000002d0: abf0 9cbe d8a9 3d3e 0b25 eabc d2d6 82be
000002e0: 9b25 61be f9fa 253d 35fc 3b3d 0306 b73d
000002f0: e1bf eb3d 639e efbe f7e2 7abe 6983 bbbc
00000300: cdd9 f33b b161 14be 4d96 44bc 82e3 1c3e
00000310: 1702 433e 675e 5f3e ff1a cbbd d672 69bc
00000320: d4c3 923d 38ae 1a3e aa15 883d 1a07 6eba
00000330: e55a 443b d932 4f3e f735 b63c 3c79 173a
00000340: 33ac 583e 7f40 ca3d 0bbd 6abe 03b4 c0be
00000350: f53f d83d e9d5 183d 2319 703e 9fd5 e73d
00000360: 356b adbe 8c51 8ebd 4f4f 703e 7b1b 053e
00000370: e783 5a3d a902 703e 2736 393e 4ca1 163d
00000380: 1c34 723e 906f 713e 4d43 f93d 3bc6 3c3e
00000390: c467 8e3e 00b6 8c3e e2ea f33d b53b c1bd
000003a0: 8661 253d 33b4 00be 7e3b f13c 564f 20bf
000003b0: d879 ba3b 15fc 393c da11 fcbe 3edb 8cbe
000003c0: 385f 843d ffd2 bd3c 9f42 0d3d a369 68be
000003d0: 8f7c 7ebc 6f12 f53d 9bab 993c 4988 9a3d
000003e0: cb2c 1b3e 585e b43c 8560 c9bc 2485 4ebe
000003f0: bff7 c53d 9d3a 2dbf aae9 dc3d dd87 ff3d
0.10419133 -0.15546985 -0.20712154 0.08999954 0.08463103 -0.22056752 -0.12627374 -0.055384908
-0.013311069 0.17142503 -0.14787602 -0.3270284 0.1176103 -0.5380466 -0.20175283 0.10128839
-0.0030242843 0.026209895 -0.13080804 0.356063 0.14867376 -0.121629864 0.10082549 -0.09882027
0.024986034 -0.04544861 0.08527752 -0.21619292 -0.1722821 -0.26054558 -0.06942628 -0.36263105
0.03497584 0.15416297 0.063286655 0.004482948 -0.11378386 -0.065516435 -0.2188837 -0.086026266
-0.13707812 -0.06286225 0.049730614 0.08812667 0.0646841 0.008380248 -0.6116049 -0.2644368
0.14539891 0.12152624 -0.14159605 -0.06835594 0.30622062 0.04388182 -0.01181914 0.28399956
0.1531717 0.01528981 0.26504406 -0.2037999 -0.2320401 -0.026377648 -0.16908471 -0.118406996
0.025701122 -0.1191306 -0.115176246 0.17032924 0.11368908 0.02349336 0.166582 0.3953295
0.20085084 -0.46805036 -0.1516573 -0.0053672716 -0.06795803 0.07520826 -0.1899928 0.115450434
0.10171355 0.2425774 0.18353252 0.2113121 0.13566272 0.124288365 0.0154411 -0.24858452
-0.06587664 -0.14464362 0.08650774 0.12761237 -0.12883258 0.11354566 -0.14077754 -0.04394044
0.03507532 -0.2402197 -0.00952973 -0.09842906 -0.05964209 -0.055387266 0.040985968 -0.19507334
-0.028101122 -0.023620639 -0.15431225 0.19336814 -0.59913963 -0.04437273 -0.0798892 -0.24627069
0.08997173 0.024102082 -0.09143174 -0.031758554 0.037850242 -0.22982047 -0.024739616 -0.3016452
0.04556899 0.020378109 -0.15437745 -0.15456796 -0.0036666016 -0.27941102 0.012338762 0.09518361
-0.26793948 -0.023881055 0.106670015 -0.031736795 -0.1908441 -0.18478338 0.009179277 0.117673516
-0.00014527423 0.011422334 0.054325037 -0.044843864 0.101399645 -0.14776689 -0.029425722 0.19193502
-0.067492306 -0.73760647 0.17329979 0.081868656 -0.05225741 0.058205407 0.064474076 0.03425884
0.20840527 0.19995664 -0.16216812 -0.20923756 -0.08878392 0.1220573 -0.27643025 -0.07212722
-0.070680544 0.050460543 0.10055276 -0.23195724 -0.015521517 0.19995838 0.118498124 0.34161627
0.21715952 -0.34048536 0.010541928 -0.1384336 -0.6316323 -0.13845631 0.16608106 -0.3401139
-0.17859194 0.063667186 0.19885904 0.06508634 -0.30652365 0.18521821 -0.028582117 -0.2555452
-0.21987002 0.04052255 0.04589482 0.089366935 0.11511207 -0.46800527 -0.24500643 -0.02288981
0.0074417354 -0.14490391 -0.011998725 0.15321162 0.19043766 0.21813355 -0.099172585 -0.01424857
0.071662575 0.15105522 0.06644757 -0.00090800377 0.0029961404 0.2023424 0.02224253 0.0005778258
0.21159439 0.09875583 -0.22923677 -0.37637338 0.10559074 0.037313376 0.23447089 0.11320042
-0.33870855 -0.069491476 0.23467754 0.12998764 0.053348448 0.23438515 0.18087064 0.03677492
0.2365269 0.23577714 0.1217104 0.18434994 0.27813542 0.27482605 0.11910035 -0.09435216
0.04037621 -0.1256874 0.029447313 -0.6262106 0.0056907944 0.011351605 -0.4923237 -0.2751102
0.06463474 0.0231719 0.034487363 -0.22696547 -0.015532627 0.119664066 0.018758586 0.075455256
0.15153806 0.022017643 -0.024582157 -0.20167977 0.096663944 -0.6766756 0.107867554 0.12477086

module.inc.conv.conv.3.bias f4 [32]
00000000: 05b2 7c3e 6142 ca3d 0d22 8abe aa77 c83d
00000010: 81e6 c0bc a955 553e cc83 a4bd ebbd 0c3e
00000020: 76cf 9f3d 9c31 54bd 9909 063d 6ee9 853e
00000030: f98a 263e da6c c63e 7768 923d d08c 783e
00000040: 78eb 4a3e e907 c3bd d0f3 fc3d d1a0 833e
00000050: 1744 a93d 8abd a93e 65bf ae3e 77ff b6bd
00000060: 402b fe3d 745a 0fbf 1374 a53c d202 613e
00000070: 6e9b 2dbb edb6 fcbd def9 d73d 7ae8 2b3e
0.24677284 0.09875942 -0.26979104 0.09788449 -0.023547413 0.20833458 -0.08032951 0.13744323
0.07803242 -0.051805124 0.032723997 0.26154655 0.16263951 0.38754922 0.07148831 0.24272466
0.19816387 -0.09522993 0.12351191 0.2570863 0.0826494 0.3315242 0.34130397 -0.08935445
0.12410593 -0.55997396 0.02019695 0.21973732 -0.0026490348 -0.12339578 0.10545705 0.16787902

module.inc.conv.conv.4.weight f4 [32]
00000000: 784f df3e 3efb 1d3f 5e48 153f cfff 8c3f
00000010: 297e e13e 1a04 a53f dbb9 d53e 212b 2b3f
00000020: e470 9c3e b291 e23e bc79 a43e 0d90 9f3f
00000030: 50c6 be3e 799c 3b3f 933c f73e 4279 5c3f
00000040: 9807 643f 8fca d83e 8e43 633f 616d d43e
00000050: 0a60 353f bb48 393f f9ab 253f d277 653f
00000060: cf96 e63e 8c47 2d3e 1e7a 2d3f eb83 1b3f
00000070: 4273 e33e e5cb 353f 6186 0f3f b856 553f
0.43615317 0.6171149 0.5831355 1.1015567 0.44041565 1.2891877 0.4174336 0.66862684
0.3055488 0.44251782 0.32124126 1.2465836 0.37260675 0.73285633 0.48288402 0.86122525
0.8907409 0.4234204 0.88774955 0.414897 0.7084967 0.723766 0.64715534 0.89635956
0.45036933 0.16921824 0.6776446 0.60748166 0.44423872 0.71014243 0.5606442 0.8333545

module.inc.conv.conv.4.bias f4 [32]
00000000: d992 d13e 9549 923e 9fca b0be 6e05 513d
00000010: cfd2 4f3e de94 5abc 1132 d8bb 0382 833d
00000020: be23 383d de03 cabd 51de 5cbb ec56 5a3e
00000030: 715b f7bc b795 ec3e ef44 6c3e 09eb a73e
00000040: 81bb fb3d 7650 c7bd c142 af3e b150 6c3e
00000050: 7c2b 5d3e 4aa2 df3e 8f8e 843e ca34 88bc
00000060: 429a 703e 4f87 2fbf 8814 34be 19dd 333d
00000070: 9a6d a83d e2c9 243d 713a af3e 32f6 833e
0.40932348 0.28571764 -0.34529588 0.05103057 0.20295261 -0.013341157 -0.0065977653 0.06421282
0.04495596 -0.09864019 -0.0033701847 0.2132222 -0.03019497 0.46207973 0.23073171 0.32796505
0.12291623 -0.097321436 0.34230617 0.23077656 0.21598619 0.43678504 0.25890014 -0.016626734
0.23496345 -0.6856584 -0.17585957 0.043912027 0.0822403 0.040231593 0.34224275 0.2577377

module.inc.conv.conv.4.running_mean f4 [32]
00000000: db1b 86bd ac83 ccbe 56f6 eb3f 35e2 2ebf
00000010: 0cfb 61be 74d9 3ebf f7a1 893d c2e6 c0be
00000020: b93e 993e 0801 5d3e 3c8d 3abe 875b 0ebf
00000030: 0143 51be d746 9cbe 3526 37be 3dc7 eabe
00000040: 135f 2ebf 627f 5b3f cbc4 1dbf 7664 c6be
00000050: c9b8 3ebf f7a7 49bf c372 abbe 2bbd 70be
00000060: 52c6 01bf 4afe 7340 b524 84bf 2dda 61bf
00000070: 79dd a3bf 5052 f83d ac21 1abf 409d 47bf
-0.06548282 -0.39944208 1.8434551 -0.68313915 -0.22068423 -0.7455056 0.067203455 -0.37676054
0.29930666 0.21582425 -0.18217939 -0.5560841 -0.20435716 -0.30522797 -0.17885669 -0.45855132
-0.6811382 0.85741246 -0.6162841 -0.3874852 -0.7450071 -0.7877192 -0.33485994 -0.23509662
-0.5069324 3.8123956 -1.0323702 -0.88223535 -1.2801963 0.12125075 -0.6020763 -0.7797432

module.inc.conv.conv.4.running_var f4 [32]
00000000: 8e67 7e3f 4266 1c3f fc1b 9c40 d334 8f3f
00000010: 69bf 633f f2aa 3540 0d79 e93f a674 a63f
00000020: f662 5e3f a913 f53f 50f3 8b3f adf2 cd3f
00000030: bb93 4a3f 23d0 6b3f f5d2 873f f254 873f
00000040: 4226 5e3f 4838 6a40 b475 793f 68eb 3d3f
00000050: a991 363f bfa4 5f3f 7c93 253f e08a b13f
00000060: 15d0 6a3f 2c79 1c41 ae5f 0d40 0d52 b03f
00000070: e0d9 3040 763a bd3f 0400 d43f 7960 d43f
0.9937676 0.61093533 4.878416 1.1187996 0.88963944 2.8385587 1.8240067 1.3004348
0.8686975 1.9146625 1.0933628 1.6089684 0.7913167 0.92114466 1.0611254 1.0572798
0.86777127 3.6596851 0.97445226 0.74187326 0.7131601 0.8736076 0.6467817 1.3870506
0.9172376 9.779583 2.2089648 1.377504 2.763298 1.4783466 1.6562505 1.6591941

module.down1.mpconv.1.conv.0.weight f4 [64, 32, 3, 3]
00000000: 8a39 c03d a119 9ebd 5199 acbd d953 6ebb
00000010: 5661 9ebe 401f 0a3b 9ee3 2e3d 1ae7 6ebe
00000020: 0573 8b3d a378 54be 53f1 8dbe 892a 3dbd
00000030: 18ba b8bd 59d8 85be f8cc 203e e60a 833c
00000040: 2284 abbe ffcb f7bd 79eb bfbe a061 afbe
00000050: 2226 4ebe 7990 0cbf 6fb4 cdbe 1927 b3be
00000060: 03d8 20bf 6fca 0fbf 48a1 d2be 35f9 a4bd
00000070: de81 97bb 0a8e 313e 005f 86bd 4795 97bd
00000080: 0857 fabc f04f 98bd b322 29be f0c4 ab3c
00000090: 675e 6a3e 2f1d c9bc 8db6 80be 5268 b8bc
000000a0: 8e14 a43c 73e2 08be eeac 2fbd 610a 8ebd
000000b0: 4663 04be 614b 28bc 6404 b73b 67dd 093d
000000c0: 08dd 8abe c39c 443d fa00 b3bc 43ee 18be
000000d0: 8368 cebd 268c 0fbe c2a4 073e 0655 b93d
000000e0: 7c2e 103e cea4 b5bc a4a2 043c 4e32 003e
000000f0: 71f8 623c a3f8 80bd 83fe f43d 4d5b d4bd
00000100: dc88 88bb 8d10 563e c98b ddbd 7994 27be
00000110: 4d65 bc3e afb4 0abe 54d1 06be 107f 7f3e
00000120: 1c69 95bd 2f69 dfbd ae81 39be 00ca 91be
00000130: 49dc 2fbe 822b a1bd 5ce2 f8bd 3059 7fbe
00000140: 8778 42bd 037e 1abe 5d24 92bd b968 c13d
00000150: 46e5 6ebe 1a1e 09be 21bd 143e fde1 b9be
00000160: 860c 1cbc 22d2 103e e8d0 d93d df42 1cbe
00000170: 2c23 01bd 3d09 c43b f692 e1bd 4dd4 3bbd
00000180: 4ebe 2dbe cf0f 00be b2a3 8dbd 1407 b63e
00000190: d2fe 9a3e 6282 6e3e 1709 de3d 681e 903d
000001a0: eff9 15be 735b cbbd 8d52 febc 098b 60be
000001b0: f20b a0bd 5453 6b3d 07eb a5bd 8584 d8bd
000001c0: 2bab 0fbe 211d 4dbe 88f3 6abe 6986 23be
000001d0: 634f 80be ea45 4d3d 20db 1b3d 3b60 e93c
000001e0: 9d8a 8e3d cd0d 02be 1f07 2cbd 3792 b53d
000001f0: ea07 d8bd ed7c e03d eaa0 6abd d40f a23d
00000200: b00a b6bd 7a61 a7bd 4dc9 33bd 5a02 76bd
00000210: 5f70 b0bd c4c3 25bd 69ad 10bd f7bd 7fbc
00000220: 953b 063d d8d8 e73c caae de3d e8bd 553d
00000230: d9bd e93c 11b7 513e efa4 db3d 4619 7d3e
00000240: 7d94 153e 6538 313d a874 203e d843 183d
00000250: cd5b 953d 31cb 603e c59a a73c 7c63 353e
00000260: b3c7 d33d 7101 c1be 6507 b0be 8bb2 85be
00000270: cb72 bbbe 32a3 d6be 463e b4be ae20 debe
00000280: 455e d9be c41b d8be a3a9 7a3d 0467 1a3c
00000290: b744 c53d b060 733d eb3c 593d bce6 543e
000002a0: a89c dfbc b521 dfbc d44d d83d 35c1 fbbb
000002b0: 0d01 99bd a52a bdbc f78e 8cbd 9a48 83be
000002c0: 1c41 abbd 40f0 c83c fd68 5fbe cd38 3a3c
000002d0: c470 503e a5cd c33d 801a 65bc f644 503d
000002e0: 1dc8 0b3e 6c68 863d 69c3 2e3e 5dc8 1c3d
000002f0: b92a 003d 538f 7d3e c732 293d 1472 ee3d
00000300: a1a3 0a3e e62e 893c 2ab4 c43b 9108 823d
00000310: d6a6 2d3c b2b2 ad3d c9c2 86bd 3118 083e
00000320: 9087 3d3e 0956 173e c6eb 4a3e f9a4 723e
00000330: 5697 333e fa6a 4a3e 94f6 253e 1474 6a3d
00000340: ab61 4a3d 8546 47bb 9b9c 4abe f8a8 2abe
00000350: 441b d1bd ab45 6dbd 35c3 d0bd e202 79be
00000360: 4452 1b3e e7b4 063e a41a 98bc 78a1 afbc
00000370: d177 25bd 0146 ab3d 05ca 193d 56b7 d2bd
00000380: 70c9 823c 96eb ccbe 6f81 adbe 43b6 a8bd
00000390: 3e4e 2bbf bc6a 09bf 4a32 66be 9205 0fbf
000003a0: b004 6abf 56ac 8ebe ea3b e3bc 047c b03d
000003b0: 16a8 3a3d 46c7 25be 8030 4a3d 8ab2 d2bb
000003c0: 6ccf 47bd ee76 3d3d bf1b 473c 8e5b 023d
000003d0: 9e51 20be 2999 b33d 922d 19be 6819 29bd
000003e0: d447 e33d 35c7 583d 558e 643d a0b9 4f3e
000003f0: bb3b 063d 3a4f 51bd 8203 3c3e a44c 9c3d
0.09385975 -0.07719732 -0.0842768 -0.0036365895 -0.30933636 0.0021075755 0.04269754 -0.23330346
0.068090476 -0.20749144 -0.27723178 -0.046183143 -0.090198696 -0.26141623 0.1570319 0.015996408
-0.33499247 -0.12099456 -0.3748434 -0.3425417 -0.20131734 -0.5490795 -0.40176722 -0.34990767
-0.6282961 -0.56168264 -0.41138673 -0.08055345 -0.0046236357 0.1733934 -0.065610886 -0.07401519
-0.030559078 -0.07437122 -0.16517143 0.02096793 0.22887574 -0.024550049 -0.25139275 -0.022510681
0.020029332 -0.13367634 -0.042889528 -0.06935573 -0.12928495 -0.010271878 0.00558524 0.03365841
-0.27121758 0.048001062 -0.021851052 -0.1493464 -0.10078528 -0.14018306 0.13246444 0.0904942
0.14080232 -0.022173312 0.008095417 0.1251919 0.013853178 -0.06297424 0.11962607 -0.10368977
-0.0041667055 0.20904751 -0.108176775 -0.16365232 0.36796036 -0.13545488 -0.1316579 0.24950814
-0.07295439 -0.10908734 -0.18115875 -0.28474426 -0.17173876 -0.078696266 -0.121525496 -0.24936366
-0.047478225 -0.15087132 -0.07135842 0.094438024 -0.23329648 -0.13390389 0.14525272 -0.36305228
-0.00952447 0.1414266 0.10635549 -0.15259884 -0.031527683 0.0059825466 -0.11014359 -0.045856763
-0.16967127 -0.1250603 -0.06915988 0.35552275 0.30272537 0.23291925 0.108415775 0.070370495
-0.14646123 -0.09929552 -0.031045223 -0.21928038 -0.078147784 0.057452515 -0.081014685 -0.10572151
-0.14030139 -0.20030643 -0.22944462 -0.15969242 -0.25060567 0.050115503 0.03805077 0.02848827
0.06960032 -0.12700577 -0.04199898 0.08865779 -0.105483845 0.10961328 -0.057282366 0.07913175
-0.08888757 -0.08172889 -0.043893147 -0.060060836 -0.08615183 -0.0404699 -0.035321627 -0.015609256
0.032771666 0.028301641 0.10873182 0.05218306 0.02853291 0.2047999 0.10724818 0.24716672
0.14607425 0.043266673 0.15669501 0.037174076 0.072929 0.21952511 0.020459542 0.17713732
0.10340824 -0.37696412 -0.34380642 -0.2611278 -0.36611018 -0.41921383 -0.3520376 -0.43384308
-0.42454734 -0.42208683 0.061196934 0.009423975 0.09632247 0.05941838 0.05303661 0.20791143
-0.02729638 -0.027237752 0.105617195 -0.007682944 -0.074709035 -0.023091624 -0.06863206 -0.25641328
-0.08362028 0.024528623 -0.21817394 0.011366081 0.20355517 0.09560708 -0.013983369 0.050847016
0.13650556 0.06562886 0.1706673 0.03827702 0.031290743 0.24761705 0.04130819 0.116428524
0.13538982 0.016745996 0.0060029225 0.0634929 0.010598859 0.08481349 -0.06580121 0.13290478
0.18508744 0.14778914 0.19816503 0.23695745 0.17538199 0.19767371 0.16207343 0.057239607
0.04940955 -0.0030407023 -0.19786303 -0.16666019 -0.10210279 -0.05792777 -0.10193483 -0.24317506
0.151681 0.13154946 -0.01856739 -0.021439299 -0.04039747 0.083629616 0.037546176 -0.10288875
0.015965194 -0.40023488 -0.33887812 -0.08237889 -0.66916263 -0.5367849 -0.22480121 -0.55867875
-0.914134 -0.27865857 -0.02773853 0.08617404 0.045570455 -0.16189298 0.04936266 -0.006429975
-0.048781797 0.046256 0.012152611 0.031825595 -0.15656134 0.08769447 -0.1495879 -0.041283995
0.110976845 0.052924354 0.0557998 0.20285654 0.032771807 -0.051100947 0.18360713 0.076318055

module.down1.mpconv.1.conv.0.bias f4 [64]
00000000: 3638 463d 17ea 6cbd 7cc9 013e 4b77 35bd
00000010: eec9 103e 4c28 163e d15b 5c3d 15b7 a93d
00000020: 0f7c 64bb 36be 3f3e a6f1 f73c 0f24 413d
00000030: 43ba 41bd 5014 07be c713 d73d 6148 fa3d
00000040: 599b 12bd 5835 33be 66ef 953d 3937 bdbb
00000050: edbd d73d 92a1 33be 7f26 1fbe 33c6 f4bd
00000060: 704b 0ebe 72ed f6bd 883b dcbd 6ad6 3c3e
00000070: 5fb0 1cbe d0bd 8dbd 95f0 e3bd 5b14 89bd
00000080: 9ebf 13be 8668 913c 4978 8dbd d0ca 683e
00000090: be6e c23d 39ca 623d 0289 093d ff29 bb3d
000000a0: 33c2 f4bd 3b56 a1bd 9742 e4bd 01a3 b6bd
000000b0: 34b3 f9bd 67a0 18be 9ecd da3d afcc a8bd
000000c0: daea 64bd ae7f c33c 5719 6dbd 9e12 95bd
000000d0: 4ac4 75bd 0a95 053d 89f4 0f3d 4f87 8f3d
000000e0: 866e 303d 3e72 c83d 8e9d 42be bda7 bebd
000000f0: 666b ae3d efed 0a3e d4c4 a93c 7069 083e
0.04839345 -0.057840433 0.12674516 -0.04430322 0.1413953 0.1466381 0.0537985 0.08286873
-0.0034863984 0.18724903 0.030266594 0.04715353 -0.047296774 -0.13191342 0.10501819 0.122208364
-0.035792682 -0.17500818 0.07321052 -0.0057744053 0.10534272 -0.17542103 -0.15542029 -0.11951866
-0.13895965 -0.12057008 -0.10753542 0.18441167 -0.15301655 -0.069209695 -0.11129872 -0.066933356
-0.14428565 0.017750036 -0.06907708 0.22733617 0.09493779 0.055368636 0.033577926 0.091388695
-0.11951103 -0.07877775 -0.111455135 -0.08917809 -0.121923834 -0.14904939 0.106837496 -0.08242165
-0.055888034 0.023864593 -0.057885494 -0.072789416 -0.06000165 0.032612838 0.035145316 0.0700823
0.043074153 0.09787415 -0.19005415 -0.09309337 0.085165784 0.13567327 0.020723738 0.13321471

module.down1.mpconv.1.conv.1.weight f4 [64]
00000000: 7df4 983d 28f2 1b3f 43f4 913d b021 433f
00000010: 0c59 0f3f 410d fb3e 0eda 4a3f bd2d 903e
00000020: d60f 7e3f 6c52 353f 7ac5 883f c4bc f23e
00000030: 4b7e 233f 8530 2f3f 3148 233f 2013 2c3f
00000040: dd3d b93e 5c3e 133e d23a b13e 12fb 173f
00000050: 39f7 7d3f fcf3 bc3e 8551 323f d31f 063f
00000060: 8b1a c63e b55b 153f 99b3 e23e 425c 4d3f
00000070: ee13 253e ca22 853e 677d 0b3e 41ea 71b9
00000080: 83b6 db3e 361c 1c3f b042 0c3f b49b 423f
00000090: 08a0 e13e 05aa 6a3f 8ae2 203f f68d 643f
000000a0: f76e 7a3e bf14 b33e c5d2 523f 1d00 173f
000000b0: 7ab2 8b3e f9bc 043f 5b26 5e3f 4f85 ca3e
000000c0: e70f 113f 48d0 dc3e 33a8 eb3e b4c8 303f
000000d0: 1e66 5f3e 1a90 1b3f 1a39 393e 31f3 d33e
000000e0: 85cd c93e aa76 d53e 7c4f 3a3c 0697 2f3f
000000f0: 44cc fc3e 1df4 4c3f d244 013f b970 d93d
0.074685074 0.60916376 0.07126667 0.7622328 0.5599525 0.4903355 0.79238975 0.28159896
0.99242914 0.7082889 1.0685265 0.47409642 0.6386458 0.6843341 0.6378203 0.6721668
0.3618001 0.14379257 0.3461519 0.5936748 0.99205357 0.36904895 0.6965564 0.5239231
0.38692126 0.5834306 0.44277647 0.802189 0.16120884 0.26003104 0.13622056 -0.00023070817
0.42912683 0.60980546 0.5478926 0.76018834 0.44067407 0.9166568 0.6284567 0.89279115
0.24456392 0.34976766 0.8235286 0.5898455 0.27284604 0.5185085 0.86777276 0.3955483
0.5666489 0.43127656 0.46026763 0.6905625 0.21816298 0.60766757 0.18088189 0.41396478
0.3941461 0.41692096 0.01137149 0.6858982 0.49374592 0.8005999 0.50495636 0.10617203

module.down1.mpconv.1.conv.1.bias f4 [64]
00000000: dd9d 933e 6dee 29bd 7dee a53e eaf1 f5bd
00000010: cbbb 163e 741c 853e f18c 06bd 8eeb 483e
00000020: ff7b 463b 8d3b 763e 51a2 ffbb ae85 b93d
00000030: 8919 b9bb 1506 dfbe c6eb 593d 7c23 2f3e
00000040: bcac 35bd 7c10 66be b352 a5bc a76e b03d
00000050: 3b98 2d3e 39b5 9dbe ebd5 cfbe 5b07 2ebd
00000060: 1371 87be 5d66 76bd 3a19 89bd 6f4e 973e
00000070: c31d 5cbe df44 52be d224 fdbd e871 00be
00000080: 01a5 00be e7a2 6ebd 4ef9 20be 9ba4 923e
00000090: 2daf 5e3e d79c 973e 6b14 743d e054 2b3e
000000a0: eced 42bd f078 223d 6efa 52be 0c91 26be
000000b0: 87fa 9ebe 56fd d7bd 4f29 593e c1a6 28bd
000000c0: 5bc5 03be 53a6 233d 306f 48be 7854 083e
000000d0: bfa6 803c 96f2 5e3e 8152 323d 0298 9c3e
000000e0: 0369 383e 0431 913d 70af 4cbe 7cea d0bd
000000f0: c417 3e3e 6997 133d 117d 61be 44a9 923e
0.28831378 -0.041487146 0.32408515 -0.12009032 0.14720075 0.2599827 -0.032849256 0.19621107
0.003028631 0.24046154 -0.007801332 0.090587005 -0.005648796 -0.43559328 0.053203367 0.1710338
-0.044354185 -0.22467226 -0.020181036 0.08614855 0.16952603 -0.30802324 -0.40592894 -0.042487483
-0.26453456 -0.060156215 -0.06694265 0.29552028 -0.21495728 -0.20534085 -0.123605385 -0.12543452
-0.12562944 -0.058260825 -0.15720102 0.2864121 0.21746512 0.29611847 0.059589785 0.16731596
-0.04759018 0.039666116 -0.20603344 -0.16266268 -0.31050512 -0.10546367 0.21207164 -0.041174654
-0.12868254 0.03995354 -0.19573665 0.13313472 0.01570451 0.21772227 0.043535713 0.30584723
0.18008809 0.07089427 -0.19988799 -0.10200974 0.18563753 0.036033068 -0.22020365 0.28644764

module.down1.mpconv.1.conv.1.running_mean f4 [64]
00000000: 4afc debf ab8a 283f 4239 13bf e01c 3bbf
00000010: 049f 80bf b1fa 8bbf 9256 04c0 d0b8 35bf
00000020: 687e 12c0 9bee 0bc0 07e9 32bf 9b8f af3c
00000030: 58f1 4ebe c3da a13f 382b 0dc0 cf35 9ec0
00000040: 1bfc c2bf eb11 af3f 1440 94c0 d576 35c0
00000050: c1a1 c9bf 3518 353f f291 fcbf 77c5 3c3d
00000060: 3640 9d3f bce3 d83e c0dd 95bf 378e 4dc0
00000070: 2a60 2bbd c728 a9bf 6c99 01bf 7f07 443f
00000080: cb7b bf3e c81b acbf 2bfa e83f e8e0 65c0
00000090: 900a e2bf 0600 28c0 9ce7 21bf e969 5cbf
000000a0: 53f3 8bbf fe00 38bf b9ff 1dbf 8539 2fbf
000000b0: 543f a93f cae0 1dc0 5b5e 9fbf fdda 70bf
000000c0: 35d7 29bf 2d57 f2be 62e1 2d40 a497 a0bf
000000d0: 190f 923d 4e3b ffbf 79df 40bf 8b88 45be
000000e0: 6812 d8bf 758c 37bf 870c fd3e 4a43 7cbf
000000f0: 97c1 afbf 05fe 29c0 fb64 1dc0 549d e8bf
-1.7420743 0.6583659 -0.57509243 -0.73090935 -1.0048528 -1.093588 -2.0677838 -0.70985126
-2.2889652 -2.1864383 -0.6988682 0.021430781 -0.20209253 1.2644886 -2.2057629 -4.9440684
-1.5233186 1.3677343 -4.632822 -2.835378 -1.5752488 0.7074006 -1.9732039 0.046086755
1.2285221 0.42361248 -1.1708298 -3.211805 -0.041839756 -1.3215569 -0.5062473 0.7657394
0.37399134 -1.3445978 1.8201345 -3.5918522 -1.7659473 -2.6250014 -0.6324403 -0.86099106
-1.0933632 -0.71876514 -0.61718327 -0.6844714 1.3222451 -2.466845 -1.245067 -0.9408415
-0.66344005 -0.47332135 2.7168813 -1.2546277 0.07131786 -1.9939973 -0.7534099 -0.19290368
-1.6880617 -0.71698695 0.4942362 -0.98540175 -1.3730954 -2.6561291 -2.4592884 -1.8173013

module.down1.mpconv.1.conv.1.running_var f4 [64]
00000000: 5d50 5040 1ec8 963f 810a d83f bd12 443f
00000010: fc58 2240 975d 993f 836f 6e40 5d80 3b3f
00000020: e209 4740 67df 1c40 401a af3f d612 3340
00000030: 0b7f 2d3f a7f6 1840 8175 a640 bd6b 4641
00000040: a90c 3d40 acfc 5540 18ce 3b41 6ace 6540
00000050: 4667 1240 5aa2 c03f bf77 0741 3124 963f
00000060: 4ebd 0940 1672 913f c26a 8e3f 782a 6b40
00000070: f7b3 e53f b8b0 793f 617d 323f 240b 923f
00000080: 9de8 c13f 936a f43f ff22 2c40 2437 c340
00000090: c124 c13f 21d5 2440 e001 913f f5f0 b93f
000000a0: a83a 0140 6223 663f 9107 6f3f e3d1 a23f
000000b0: 93f8 8640 02ef ba40 aab5 0840 5532 a63f
000000c0: a50e 763f bbc7 b23f 05d9 b840 8595 c43f
000000d0: 590d 803f 4f0b 0d40 a0fe be3f 3143 dd3f
000000e0: 8a05 863f fe90 693f 1ad2 0640 22d8 ed3f
000000f0: a618 fe3f cf04 df40 1dbc ac40 2dbb 6240
3.254905 1.1779821 1.6878206 0.7659109 2.5366812 1.1981686 3.7255561 0.7324274
3.1099782 2.4511354 1.3679886 2.7980247 0.6777198 2.3900545 5.2018437 12.401303
2.9538977 3.3435469 11.737816 3.5907235 2.2875533 1.5049546 8.466735 1.1729795
2.1521792 1.1362941 1.112633 3.674467 1.7945546 0.97535276 0.69722563 1.140965
1.5149113 1.9095024 2.689636 6.100481 1.5089341 2.5755084 1.1328697 1.4526659
2.019205 0.8989774 0.9337092 1.2720302 4.2178435 5.8416758 2.136088 1.298411
0.96116096 1.3967203 5.7764916 1.535813 1.0004073 2.2038152 1.4921455 1.728613
1.047044 0.91236866 2.1065736 1.8581583 1.9851272 6.969337 5.397963 3.5426743

module.down1.mpconv.1.conv.3.weight f4 [64, 64, 3, 3]
00000000: 3ff2 403e d93e 8c3e 14e3 733e 0347 8c3e
00000010: 9fab bb3e 9973 863e b784 253e 78d6 833e
00000020: 7d9e 1a3e beb3 5cbd fd20 1dbd fc3a aebd
00000030: f57d a8bd 964a 06be 86d5 d6bd 07c2 34be
00000040: 820b e4bd 2eff 47be 0180 563e 6760 933e
00000050: 49bf 933e 65e5 973e 5533 973e e1ec 833e
00000060: 890d 6a3e 6aa8 7a3e 2086 ac3d b2ca ac3d
00000070: 7777 c8bb 64e0 20bb e1b8 bc3c 9d75 cdbd
00000080: 2617 cebc ca8e 513d eb6e c6bd 5ab5 3ebd
00000090: 3a46 82be 0fae 3cbe e4d4 29be 6e33 9cbe
000000a0: b964 edbd 69e7 6ebd 0016 c3bd d9b6 41bd
000000b0: d197 973c 8902 833e 4a73 423c cee5 a33d
000000c0: 2e34 7e3e da3f 3d3d 5ef8 ca3d 0d3b 4b3e
000000d0: 03f8 2e3d 04e4 f93d 795c c33c fecd 313d
000000e0: 6bb8 403c 62e4 fe3d d052 f53d 3710 873d
000000f0: 18ed b73d 4227 2e3d 626e 16bd b2dc 86bc
00000100: 82b0 59be 5f1d 4fbe e705 b63d f9e0 19bd
00000110: e7fe 6abe f4e9 af3d eeb9 0cbc 05db 70be
00000120: 6e63 403d 2479 cf3d b1cb 7c3d 1bda 263e
00000130: 8935 ed3d 467e 0c3e 72b7 833c 89d0 f63d
00000140: 05a1 de3d f312 503d ea6c 443d e2d0 013d
00000150: a1a9 883c 3b80 963d a84b 8c3d 5dae 043d
00000160: c527 a03d ce59 b13d 1388 a1bc 0443 5cbd
00000170: aff9 45bd 298b 353d 9bab b6bd 6681 a03c
00000180: 50d9 bbbd aba8 07be ad7a 1cbd 962e bdbd
00000190: 75b9 3abe ddf9 32be 7dde 97bd 5793 e9bd
000001a0: ab69 73bd f72c b8bd baad 4ebd 627e ac3d
000001b0: 86c7 ee3d d9d2 7abc 4fc2 1c3e 13e8 7b3d
000001c0: adb4 0e3e 2e5e a13d 9ca9 733d 2d5b a73d
000001d0: dcf0 9fbb edc5 88bd 1aea 33bb ac9a 883c
000001e0: 714e 09be 2e22 acbc 7e54 c13d fc10 99bd
000001f0: 9d44 953c 21b0 213d 1703 0abd e685 74bd
00000200: 7034 9dbd a43f 1fbb 90ce bf3c 624e c63c
00000210: fd73 9abd 6e3d 03bc 6b08 333d ed72 d9ba
00000220: 87e5 433e 13b4 5b3e adca 8b3d 9f47 303d
00000230: bd30 e43d 3132 a33d a9df 093e 9d27 a33d
00000240: ae3a 663d 3987 e93d ee8e fa3d d140 3cbd
00000250: cdf6 923d 5d0c 3d3e ba07 db3d 13f5 523e
00000260: 67e3 7b3e 303e bb3d 253b 6d3d d009 f3bd
00000270: 223e 1d3d e52b 573d d253 1fbc 6e58 623b
00000280: c26d 50bb 5694 6abc f1aa efbc e7b7 043e
00000290: a9ab 45bd 261c 433d ffd2 cbbc c017 3239
000002a0: 773b e23d a226 883d de57 5a3c 1add 6e3d
000002b0: 0fbe e13d 9f67 063e 1844 fb3d 7f21 2c3e
000002c0: ba54 2a3e 51bb a63d 06ba e83d 64d2 243e
000002d0: c482 0cbd d2fb 7e3d ba96 4c3d 29fc 513d
000002e0: 1b6a c33d bd63 e9bc ab35 c43c 857b 873d
000002f0: ecd4 e2bc 2d32 45bd 017b 023e 6cef a1bd
00000300: c5a6 043d 307e ed3d 2dc9 5bbd 92c1 853d
00000310: 16c3 383d 1dcd c1bd b044 3b3e 2e69 133e
00000320: 7929 123d 0b7c 423e ff33 ae3d 5708 863d
00000330: 644b 013e 36aa 223d 8d16 04bd 8d38 40bd
00000340: 1de5 1e3d 11b1 1dbb 58fc 87bd e601 343d
00000350: 1e89 8d3c db55 01bd 7720 403d 947a 53bd
00000360: 7d17 643c 0654 023c 334e 96bd 1b6a 453d
00000370: 0b44 d0bc a529 11be d765 c6bc 638a d6bc
00000380: a5fc a7bd 6935 57be 2a03 ffbd 1ee5 cabc
00000390: a344 0dbe 1df0 88bc 5cb6 143d dbf1 30be
000003a0: c62a 44bd 3e30 843d a717 77bd 4eb5 eabd
000003b0: 2816 b5bc 89bb eebc 5039 523a 968d 94bd
000003c0: fafb 633d 29a6 26bd 26d9 ab3d 067a 9c3d
000003d0: 32ff 623e 7812 6c3e 847a 1b3e 7e84 673e
000003e0: 97c0 923e f41b fa3d c660 7f3e 5ee0 523e
000003f0: 8d86 923d 3956 f4bb 3428 e8bd aedf 2c3d
0.1884241 0.273917 0.23817092 0.27397928 0.36654374 0.2626007 0.16163908 0.25749564
0.15099521 -0.053882353 -0.03836154 -0.08507344 -0.082271494 -0.1311439 -0.10489945 -0.1765214
-0.111350074 -0.19530937 0.20947267 0.28784487 0.28856876 0.29667202 0.2953135 0.25766662
0.22856726 0.24478307 0.0842402 0.084370986 -0.006117757 -0.002454781 0.023037376 -0.100321986
-0.025157522 0.051161565 -0.09689125 -0.04655967 -0.25444204 -0.18425773 -0.16585118 -0.30507988
-0.11591477 -0.05832616 -0.095256805 -0.047293518 0.018505009 0.25587872 0.011868307 0.08002816
0.24824592 0.04620347 0.099106535 0.19846745 0.04271699 0.12201694 0.023847805 0.04340934
0.011762719 0.12445904 0.11978686 0.065948896 0.08980769 0.042517908 -0.036726363 -0.016462658
-0.21258739 -0.20226048 0.088878445 -0.037568066 -0.229488 0.08589545 -0.008589251 -0.2352105
0.046969824 0.101305276 0.061717693 0.16294138 0.11582477 0.13720044 0.016078684 0.12051494
0.10870556 0.05079932 0.04795543 0.031693347 0.016682448 0.07348677 0.06850368 0.03239285
0.078200854 0.08659707 -0.019718206 -0.05377485 -0.04833382 0.044322167 -0.0891945 0.019592952
-0.091723084 -0.13247935 -0.03820293 -0.09237401 -0.18234809 -0.17478128 -0.07415483 -0.11405056
-0.059426945 -0.08992951 -0.050458647 0.08422543 0.1165915 -0.015309059 0.15308498 0.06150062
0.1393611 0.078792915 0.059487924 0.08171687 -0.0048810076 -0.06678376 -0.0027452768 0.016675316
-0.1340883 -0.021012392 0.09439944 -0.07473943 0.018221194 0.03947461 -0.033694353 -0.059698008
-0.07676017 -0.0024299407 0.023413926 0.024207298 -0.07541654 -0.008010251 0.0437092 -0.0016590037
0.19130526 0.21455412 0.06825767 0.043037053 0.111421086 0.079685576 0.13464226 0.0796654
0.056208305 0.11402745 0.12234293 -0.04596025 0.0717598 0.18461747 0.10694833 0.20601301
0.24598466 0.09142721 0.057917733 -0.11867106 0.038389333 0.052532095 -0.009724574 0.0034537571
-0.0031803702 -0.014317593 -0.029256316 0.12960778 -0.04825941 0.047634266 -0.024880884 0.0001698425
0.11046498 0.066479936 0.013326613 0.058316328 0.11022579 0.13125466 0.12268847 0.16809653
0.16633883 0.081411965 0.11363606 0.16095883 -0.034304395 0.062251873 0.04994843 0.05126587
0.095417224 -0.028489942 0.023951372 0.06615356 -0.02768942 -0.048143554 0.12742235 -0.07906994
0.032385606 0.11596334 -0.053658653 0.06531061 0.045107923 -0.094629504 0.18287921 0.14395592
0.035684083 0.18992631 0.08506011 0.065445594 0.12626415 0.039713107 -0.03224807 -0.04692893
0.03879272 -0.0024061839 -0.066399276 0.043947123 0.017277297 -0.03157602 0.04690596 -0.05163057
0.013921616 0.007954603 -0.07339134 0.048196893 -0.02542307 -0.14176042 -0.024218483 -0.026189035
-0.08202485 -0.21016468 -0.12451775 -0.024767455 -0.13795714 -0.016716057 0.036306724 -0.1727976
-0.047892354 0.06454514 -0.06032529 -0.114603624 -0.022105291 -0.029142158 0.00080194045 -0.07253568
0.055660225 -0.040685806 0.08391027 0.076404616 0.22167662 0.2305392 0.15183455 0.22609136
0.2866256 0.12212363 0.2493926 0.20593402 0.0715457 -0.0074565676 -0.11335793 0.042205505

module.down1.mpconv.1.conv.3.bias f4 [64]
00000000: cf04 52bc 2598 e2bd bdd2 0cbe 1729 9d3d
00000010: 226f b83b 6757 03bd 0dc8 683d c23b cd3d
00000020: 4948 0fbe 7790 f2bd 4375 9d3d 72bf d23c
00000030: c5e2 b0bb 3174 fbbc 6274 66bd c2b2 19be
00000040: 9396 ddbb e0fd 283d 4b1a 8bbd e06f 803d
00000050: 77bb 43bd 9d59 7dbd 6dfc b63c c07c fabd
00000060: 857d c6bd 0ece 1cbd 625e 8dbc 85a3 a63c
00000070: adbd a83d dc8d 8cbd afe7 613c 5914 4cbd
00000080: a791 0bbe c3ae 893d 3236 89bd 869a c6bd
00000090: 7cc9 42be 010c b8bd 63a0 42be 4e65 7abe
000000a0: 2725 5fbb dab9 14bd ad3b adbc 1232 97bd
000000b0: 51a7 17bb a274 9d3c a31e 42bc 44bf 633c
000000c0: 3215 8f3d b3c6 133d a808 d03d f0dd 913d
000000d0: 39d5 35bd 71d0 debd 5710 0cbe b960 923d
000000e0: 8edf 38bd 518f aebd 8c92 dfba e9f0 57be
000000f0: 27bd 79bd d911 e2bd 9384 d73b 6ead 4e3d
-0.012818529 -0.110641755 -0.13752265 0.07673853 0.0056284824 -0.032065775 0.05683141 0.100211635
-0.13992418 -0.11843961 0.076883815 0.025726054 -0.005398127 -0.030695053 -0.056263335 -0.15009597
-0.0067623346 0.04125774 -0.06792124 0.062713385 -0.047786202 -0.06185304 0.022337163 -0.122308254
-0.0969191 -0.038282447 -0.01725692 0.020341644 0.08239303 -0.06862995 0.013788148 -0.049824093
-0.1362978 0.06722786 -0.0669979 -0.09697442 -0.19022173 -0.089866646 -0.19006495 -0.24452707
-0.0034049244 -0.036310054 -0.02114662 -0.07382597 -0.00231405 0.019220654 -0.011848125 0.013900582
0.069864646 0.036078166 0.10157901 0.07122409 -0.044392798 -0.10879601 -0.13678108 0.07147355
-0.045135073 -0.08523429 -0.0017057224 -0.21087994 -0.060971405 -0.110385604 0.0065770834 0.050458364

module.down1.mpconv.1.conv.4.weight f4 [64]
00000000: c7c3 093c 8ef5 623e 3295 073f 32aa 2c3f
00000010: b3ba fb3e 47ce 0f3e 2d16 093e c5f7 243e
00000020: 0517 943e 3cbd 193f 73fa c23e 72a8 353e
00000030: d5a2 7a3e d74d 083f 576d 153f 565d 5f3e
00000040: 62b6 f339 7973 113f 9b39 243f a8e9 363f
00000050: f4a7 c83e f6d8 2c3e 2e14 8f3e fc61 683e
00000060: 3ea3 1e3e bab4 dc3e 5f59 eb3e e7db f73e
00000070: 9fa8 8b3e b50e f03e 2628 a73e 7a9b 743e
00000080: d2d6 363f 6ed1 a73e a1ce d83e f9d6 d33e
00000090: 74ac 063f 728d 243f 1e14 223e c6b3 3a3e
000000a0: 88a5 c23e 8776 0a3a c888 683a 588e 103e
000000b0: 4e4c a33e 3523 223f e597 af3d 1452 b73e
000000c0: 15da 6c3e 4746 ca3e 5b61 ff3e 43d3 393e
000000d0: ea55 813e e187 f03e f84a 903e 95a8 013f
000000e0: 942b ee3e 5034 183f c5cc 133f 2821 d33e
000000f0: 320e c03e 5939 1b3f 6b28 b83e 03aa 993e
0.008408493 0.22163984 0.5296203 0.674472 0.49165878 0.14043532 0.13387366 0.16110142
0.28923813 0.60054374 0.38081703 0.17740038 0.24476178 0.53243774 0.58369964 0.21812949
0.00046484458 0.5681682 0.641504 0.7145028 0.39190638 0.16879639 0.27945083 0.22693628
0.1549196 0.43106633 0.45966622 0.4840996 0.27277085 0.4688622 0.32647818 0.23887435
0.7142154 0.3277697 0.42345145 0.4137495 0.5260689 0.6427833 0.15827987 0.1823264
0.38016915 0.0005281944 0.00088704797 0.141168 0.31894153 0.6333497 0.085738935 0.35804808
0.23130067 0.39506742 0.49878964 0.18146996 0.2526086 0.46978667 0.28182197 0.5064786
0.46517622 0.5945482 0.5773433 0.41236234 0.3751083 0.6063438 0.35968336 0.3001252

module.down1.mpconv.1.conv.4.bias f4 [64]
00000000: 5ecf 97be 9490 6cbe b9b8 c3be 29df 223b
00000010: c667 e9bd 57d2 293c 1cb4 fa3d ddbe 073e
00000020: 6580 12be e0e4 bbbe c28b 883c ef40 713e
00000030: be55 25bc 9e93 ccbd 49db eabd 2495 fabe
00000040: fc24 acbc 5a38 2ebe 835c bcbe d4d9 bfbb
00000050: fade 12be 1e1e 7bbe b747 1dbd efcd ffbd
00000060: 14db a3be c275 86bd 454c d2bd 59b3 0cbe
00000070: 0616 0bbd 89fa 5fbe 373c fdbd 1afa 37be
00000080: e2e3 5fbe 834c fa3c 7323 0dbe 900b 09be
00000090: d3c1 ffbe 788e 15be 6b7c 07bf 4811 f6be
000000a0: 6328 04be 29d7 80bc 4830 1abe 3f26 bcbe
000000b0: 4ccf 55bd 8219 d8bc 3a4b 6d3e 061a 13be
000000c0: 6201 0f3c b2ba 50be b079 0e3d c212 eb3d
000000d0: 1249 b2bd fc83 edbd ac2e 2fbe b1ff afbd
000000e0: 7e9e edbd b33c 88be 9bd2 08be d517 e9be
000000f0: 693e 32bd 3812 69be f742 f3bc a0f4 6c3d
-0.29650396 -0.23102027 -0.3822687 0.0024852252 -0.11396746 0.01036509 0.122413844 0.13256402
-0.14306791 -0.36698055 0.016668204 0.23559926 -0.010091243 -0.09989093 -0.114676066 -0.4894191
-0.02101373 -0.17013684 -0.3678933 -0.0058548246 -0.14342871 -0.24523208 -0.03839847 -0.124904506
-0.3200308 -0.06565429 -0.102684535 -0.1374029 -0.03395655 -0.21872915 -0.12365001 -0.179665
-0.21864274 0.030554062 -0.13783054 -0.13383317 -0.49952564 -0.14605129 -0.5292422 -0.4806006
-0.12906031 -0.015727596 -0.1505748 -0.3674793 -0.052199647 -0.02637935 0.23173228 -0.14365396
0.008728357 -0.20383719 0.03478402 0.11478187 -0.08705343 -0.1159744 -0.17107648 -0.08593691
-0.116024956 -0.2660881 -0.1336159 -0.45525995 -0.04351655 -0.22760856 -0.029695017 0.05785048

module.down1.mpconv.1.conv.4.running_mean f4 [64]
00000000: 3621 c640 8f9f c73f 5a69 7240 2115 73c0
00000010: 9027 2bc0 4c7d e23e 30b9 04c0 380b 9b3f
00000020: 808e 6bc0 9e11 a040 958e 0940 4a7a 043f
00000030: 4190 91bf db87 82c0 bef5 42c0 6a12 b340
00000040: 1ea8 b43d dced 9ec0 a393 1740 e887 36c0
00000050: 8fbb 81c0 67b9 9340 c3b8 73c0 a067 86c0
00000060: 00d2 c840 ff18 91c0 3862 ffbf 6df6 4abf
00000070: e51b 75bf 6149 5540 d0f6 73c0 9411 ebbf
00000080: 9db4 d4bf 667f 97bf 339d 3fbe a294 89bf
00000090: 0664 a740 68d4 39c0 d9d1 ab40 1d88 a040
000000a0: 8c15 66bf 84d3 42c0 a661 9bc0 c5e5 7340
000000b0: d900 bac0 ff06 67c0 d5f1 61bf 2c9f 923e
000000c0: 23ed 8bbf ba71 9040 02ce 31c0 07b5 f1bf
000000d0: 5d5f 09c0 fe55 30c0 699b 0bc0 d969 eebf
000000e0: 687d 78c0 f556 3bc0 b589 e6c0 166d 7f40
000000f0: 1959 dabf 1127 e4bf 13c5 9dbe abfb 84c0
6.191554 1.5595568 3.7876801 -3.7981646 -2.6742897 0.4423622 -2.073803 1.2112799
-3.6805725 5.0021505 2.1493275 0.517491 -1.1372148 -4.079084 -3.046249 5.595998
0.08821128 -4.9665356 2.368386 -2.852045 -4.0541453 4.616382 -3.808152 -4.2001495
6.275635 -4.5343013 -1.9951849 -0.79282266 -0.9574569 3.3326037 -3.8119392 -1.836474
-1.6617619 -1.1835754 -0.1871231 -1.0748484 5.23096 -2.9035892 5.369366 5.0166154
-0.8987663 -3.04416 -4.85567 3.810899 -5.8126035 -3.609802 -0.8825963 0.28637064
-1.0931743 4.5138826 -2.7781987 -1.888337 -2.1464455 -2.7552485 -2.1813605 -1.8626052
-3.8826542 -2.9271824 -7.20431 3.991033 -1.705844 -1.7824422 -0.30814418 -4.155721

module.down1.mpconv.1.conv.4.running_var f4 [64]
00000000: ac96 a541 6e7e 6b41 a763 4341 4f0e 7840
00000010: dd87 3840 a38a f73f 8bcf ec3f 3c1a 533f
00000020: a866 9540 986d 7041 758d 1841 1134 6240
00000030: 82ed c43f b323 1f40 83d2 db3f ac1f 7141
00000040: 4d26 0b40 27bd 9d40 8ae5 2c41 0b33 5e40
00000050: 3af8 6d40 3d1f 8041 a9a9 4040 9051 d73f
00000060: 08c9 9941 4f11 2940 4fdc 1740 df0c 0b40
00000070: 93ef b83f cb04 2c41 1ab7 5940 3b71 b73f
00000080: 9205 bf3f 4759 eb3f 0610 ec3f 6090 983f
00000090: c46c 4541 18fa 9540 b126 5a41 fd19 6341
000000a0: ff4e a63f 9cc4 6e40 117b 6b40 180f 6341
000000b0: ef2f b540 3b0f 2840 b45e fb3f 37f9 3c40
000000c0: a3be 953f 114e 4541 6369 a33f 8c8e 1440
000000d0: a553 6a40 5038 6c40 1f6f b53f 44ce 1240
000000e0: d12b 6840 6ee1 fe3f 7af3 5d41 ab18 4441
000000f0: a969 a53f 4a8a bd3f 1b3c e33f b717 af40
20.69857 14.718367 12.211829 3.8758733 2.8832924 1.9339184 1.8500837 0.82461905
4.6687813 15.026756 9.534535 3.534428 1.5384982 2.486554 1.7173618 15.070232
2.1742127 4.92934 10.80604 3.4718654 3.7182755 16.015253 3.0103552 1.6821766
19.22316 2.6416814 2.3728216 2.1726606 1.4448112 10.75117 3.4018006 1.433143
1.4923575 1.838662 1.844239 1.191906 12.339054 4.686779 13.634446 14.193845
1.2992858 3.73075 3.6793864 14.191185 5.6621013 2.6259296 1.9638276 2.9527109
1.1698803 12.331559 1.2766536 2.3212004 3.6613553 3.690937 1.4174536 2.2938395
3.6276743 1.9912546 13.8719425 12.256022 1.292287 1.4807827 1.7752718 5.471645
