learned_models/mask/ACS-WFC-F606W-2-4.pth (torch_old, 15979 bytes, 39 tensors)

module.inc.conv.conv.0.weight f4 [4, 1, 3, 3]
000000 5a ca 88 3d 76 75 17 3e 59 a6 7e 3d 69 8f 18 be
       0.066792205 0.14790902 0.06217036 -0.14898457
000010 4e b2 4f bf 7d 51 60 3d c5 fc d9 3a fc 2e 15 3f
       -0.81131446 0.054765213 0.0016631117 0.5827482
000020 f7 b7 f1 3c c6 cf 92 3a 4f 4d 9c 3a 0e fa 55 bf
       0.029506667 0.0011200837 0.0011924895 -0.8358468
000030 5d a5 0c 3a 54 69 54 3b e0 27 2b bc 59 df 33 b9
       0.0005365217 0.0032411413 -0.010446519 -0.00017153974
000040 63 8e 08 3d 91 e3 4d 3f 11 76 fc bc 07 42 30 bd
       0.033338916 0.80425364 -0.030818017 -0.04303172
000050 f2 e7 7f bc 60 24 e9 3d c0 f3 4d 3e f8 63 59 3d
       -0.015619265 0.11383891 0.20112514 0.053073853
000060 eb eb 80 bf 61 47 2c 3f e0 0a 94 3d e7 77 8e be
       -1.0071996 0.67296416 0.07228637 -0.27825853
000070 60 e9 67 be c5 6e 21 be a5 f3 61 bd 82 10 9e 3e
       -0.22647619 -0.15764911 -0.055164 0.3087197
000080 a9 89 88 be 4d 4d cc bd 5e 28 4e be dc 07 9e be
       -0.26667526 -0.099756815 -0.20132586 -0.3086537

module.inc.conv.conv.0.bias f4 [4]
000000 7d 67 38 be 1b 02 9a 3e 3f 76 90 3e ce 6a 25 3e
       -0.18008228 0.3007973 0.28215215 0.16154024

module.inc.conv.conv.1.weight f4 [4]
000000 cb 0c e4 3e a3 82 4d 3f 6a 7b 13 3f 49 31 7d 38
       0.4454101 0.8027746 0.5761019 6.03658e-05

module.inc.conv.conv.1.bias f4 [4]
000000 0e 9a ce 3c 90 83 0b 3e 7a 0d 1b 3f 01 cb 29 bd
       0.025219943 0.13624406 0.6056744 -0.041453365

module.inc.conv.conv.1.running_mean f4 [4]
000000 8d 91 3b be 8e bf 83 3e 7d 76 ac 3e 3a 30 58 c0
       -0.18317242 0.25732082 0.3368415 -3.3779435

module.inc.conv.conv.1.running_var f4 [4]
000000 d3 8e d3 40 25 94 0e 41 b1 55 4e 41 27 1b 41 42
       6.6111846 8.911168 12.895921 48.276516

module.inc.conv.conv.3.weight f4 [4, 4, 3, 3]
000000 37 7c 4c bd f1 10 13 be 20 47 b3 bd 1b b3 b2 bd
       -0.049923148 -0.14361931 -0.087538004 -0.08725568
000010 51 a8 bc bf 25 d5 3e be b9 52 85 bd 64 0f 1d bd
       -1.4738866 -0.18635996 -0.06509919 -0.038344756
000020 52 d7 bd 3d 4e af c7 bd e6 e4 d0 bd 66 e2 2c bd
       0.09269585 -0.097502336 -0.10199909 -0.042208098
000030 1d c9 03 bf 9f e4 74 be 19 fd 11 bd a5 fe 17 3e
       -0.5147875 -0.23915337 -0.035641763 0.14843233
000040 55 17 c0 3d 41 bd 85 3c b5 d9 a6 3d 79 83 eb bd
       0.0937945 0.016325595 0.08146993 -0.11499686
000050 c2 18 e7 3a 47 ef 83 3d e4 55 42 bf 33 57 76 3f
       0.001763128 0.06442123 -0.7591231 0.96226805
000060 53 79 6f 3d 26 0c 68 be 37 92 4a be 5e c1 e8 bd
       0.058465313 -0.22660884 -0.19782339 -0.11365007
000070 aa 83 83 3c eb e2 b3 3d b2 be b4 3d 40 d4 bc 3d
       0.016053993 0.087835155 0.08825435 0.09220171
000080 67 4c a1 bc 95 c1 4f be 60 3b 2a bd d3 48 23 be
       -0.019689752 -0.2028869 -0.04156053 -0.15945749
000090 22 bc 81 bd 0c 78 61 be 64 29 b2 3e dd 02 35 be
       -0.063347116 -0.2201845 0.34797204 -0.17676874
0000a0 05 39 ba 3e a9 12 38 3f bc a9 f7 bc f6 15 4c bf
       0.36371627 0.71903473 -0.030232303 -0.7972101
0000b0 6f a3 b0 be a6 95 25 be 7a c6 c9 bd 40 72 5d 3d
       -0.3449969 -0.16170368 -0.098523095 0.054064035
0000c0 c0 6c e6 bd c7 90 19 bf 1a b7 b0 3d 3f 09 88 be
       -0.11251211 -0.5998654 0.08628674 -0.26569554
0000d0 2d ce a4 3e bb 13 a4 3c 8c 78 2a bd b8 86 63 be
       0.3218855 0.02002894 -0.04161887 -0.2221936
0000e0 02 53 a1 be 89 f4 a0 bd e8 95 ce bd 69 4d 29 bf
       -0.31508642 -0.078591414 -0.10087186 -0.66133744
0000f0 91 df 8b bc 80 82 43 be 0f 46 82 be d2 81 02 be
       -0.017074378 -0.1909275 -0.25444075 -0.12744835
000100 09 0f 72 bc 89 ab 85 3c 4e fd 8b bd 25 d5 ad 3d
       -0.0147740925 0.016317146 -0.068354234 0.0848792
000110 8b 54 fe bd d3 13 36 3e 03 1f 0e 3e 28 f1 06 be
       -0.12418469 0.17781 0.13879018 -0.13177931
000120 74 06 dc bc af 52 a1 3c 4f a9 76 3d 50 6b f4 bc
       -0.026858546 0.019692747 0.06022006 -0.029836327
000130 59 59 23 3f 79 27 71 3e 67 09 bb bb 8d 10 63 bd
       0.6380821 0.23550214 -0.005707908 -0.055435706
000140 68 c2 7c be a5 53 27 3e 75 47 a2 3e 34 33 c7 3d
       -0.24683535 0.16340502 0.31695142 0.09726563
000150 00 8c ca 3e f8 96 31 3f d7 95 e7 3d 3e 0c ca 3c
       0.39559937 0.69370985 0.113078766 0.02466404
000160 09 5d de 3d ff d6 b6 3b d2 ae 4a 3c 9c 4d a1 bb
       0.10857589 0.0055798288 0.012370782 -0.004922582
000170 b4 dd 97 bd 40 db ae bb 74 fe 04 3d da 27 fd bf
       -0.074153334 -0.005336195 0.032469228 -1.9777787
000180 e6 04 82 3b 1b 0f 40 bc 14 6b ae 3c 03 d5 c2 3c
       0.003967869 -0.011722351 0.021291293 0.023783213
000190 a5 69 0c be c1 3f 83 bd 70 69 14 3e ef 86 8a bb
       -0.13712175 -0.064086445 0.14493346 -0.004227511
0001a0 32 8a 88 bd b8 02 e7 bd c8 56 1c be 86 b1 f4 bd
       -0.06666984 -0.112798154 -0.1526748 -0.119479224
0001b0 ff b8 0a bb 32 08 fd bc b6 aa a4 3e 86 ef 51 bd
       -0.0021167395 -0.030887697 0.32161492 -0.051253818
0001c0 ae 2e 80 3e 36 f2 ad bc d9 78 ee bc c9 6b 01 bd
       0.25035614 -0.02123366 -0.029110359 -0.031596933
0001d0 99 73 5e 3f 68 89 84 3c f1 75 d8 3b 6b d1 31 bd
       0.8689514 0.016178802 0.0066058566 -0.043412607
0001e0 5e 02 23 bd 68 21 fd 3c ba 25 f9 3c 0b be b4 bd
       -0.03979718 0.030899718 0.030413497 -0.0882531
0001f0 cd ec 51 c0 29 35 15 bc 8b 84 db bc 9c 50 cb bc
       -3.2800782 -0.009106913 -0.0267966 -0.024818711
000200 1a d5 bc 3d fa 3c 11 bc 42 18 c0 bc 2c 04 29 be
       0.092203334 -0.008864636 -0.023449067 -0.16505498
000210 6a a5 5b bc 41 93 f7 bd 85 ca 87 be 29 fe d9 bd
       -0.013406137 -0.12088633 -0.26521698 -0.1064418
000220 3a bc 01 3d 80 09 a1 bc 24 ab 24 3e da 1e a0 3d
       0.031673647 -0.01965785 0.1608091 0.078183845
000230 bf c8 cc 3d a7 34 f4 3d b9 41 eb 3b b9 f9 0a 3c
       0.09999227 0.11924105 0.0071794656 0.00848239

module.inc.conv.conv.3.bias f4 [4]
000000 f0 4e 81 be 61 aa ac 3e 5c 76 6c 3e 87 0a 4c bd
       -0.25255537 0.3372374 0.23092026 -0.049814727

module.inc.conv.conv.4.weight f4 [4]
000000 e1 c0 7a 3f 1f b2 09 3f 60 82 c3 3e 51 5d 62 3f
       0.9795056 0.53787416 0.38185406 0.8842364

module.inc.conv.conv.4.bias f4 [4]
000000 2d 3a dd 3c b4 03 90 3e e9 7b b9 3d 1b 51 5c 3d
       0.02700528 0.28127825 0.09056837 0.053788286

module.inc.conv.conv.4.running_mean f4 [4]
000000 d5 41 1b bf ff bd 4b bf 90 cc eb be 1f 43 40 bf
       -0.60647327 -0.79586786 -0.46054506 -0.7510242

module.inc.conv.conv.4.running_var f4 [4]
000000 ba 3b 9b 3f 1e f7 d7 3e a8 75 35 3f ca c5 5d 3f
       1.2127602 0.42180723 0.70882654 0.8662993

module.down1.mpconv.1.conv.0.weight f4 [8, 4, 3, 3]
000000 03 d6 0e bd 27 9c 77 be 34 55 b0 bd b8 f6 7e bf
       -0.034872066 -0.24180661 -0.08610001 -0.9959521
000010 b1 95 1d bf 68 eb 5d 3d 83 d5 e6 be fd 43 1d be
       -0.61556536 0.05417958 -0.45084772 -0.15357967
000020 22 cc 0a bd 3e 1c 8d 3d e2 98 cd bb bb fb 05 3e
       -0.033886082 0.068901524 -0.0062743286 0.13084309
000030 c9 90 82 3f 8e 53 11 3e fe e9 8d bd e0 9e 2e 3d
       1.0200435 0.1419203 -0.06929396 0.042631984
000040 ed 45 0a 3e bd 05 3c 3b 91 de 82 3d 6c 6b 82 3d
       0.13503237 0.0028689944 0.063901074 0.06368145
000050 59 81 2d 3d 65 d3 1d be cc cb ff bd 35 04 2a 3d
       0.042359684 -0.15412672 -0.12490043 0.04150792
000060 ce 8e e7 bf c8 c2 2d bd a6 a8 0a bb 21 8a 96 3c
       -1.8090456 -0.042422086 -0.0021157651 0.018376412
000070 b3 28 1f 3c bc be 28 3c 4e d9 f9 be 85 65 ac bd
       0.009714293 0.010299381 -0.48798603 -0.08417801
000080 b6 dd 51 bc 71 5c 26 bf 15 97 3d bb 59 1b 1a 3d
       -0.012809208 -0.64984804 -0.0028929163 0.037623737
000090 90 b9 2e bc 1c f7 5c 3d 8d e6 fa 3d d8 e6 17 bd
       -0.010664359 0.0539466 0.12251005 -0.037085384
0000a0 07 68 01 be f3 69 37 be 48 c4 0e 3b 66 03 28 be
       -0.1263734 -0.1791151 0.0021784473 -0.16407546
0000b0 35 45 92 be 9c c1 05 bd 1d 46 82 3c c6 6d 4e bd
       -0.28568426 -0.032655343 0.015902573 -0.050397657
0000c0 ab 39 36 3c 01 a6 e9 bd a7 4e 17 3d 18 18 b4 bc
       0.011122148 -0.11408616 0.036940243 -0.021984145
0000d0 82 90 92 bd 56 15 b6 bd 6f e1 5c 3b 28 b1 70 ba
       -0.07156469 -0.08890788 0.0033703705 -0.0009181672
0000e0 db bf 26 bc d5 2a 55 bc d8 85 c4 bc 0b db ba bc
       -0.010177578 -0.0130107 -0.023989603 -0.022809526
0000f0 20 8e df 3a c1 9d 82 bd d4 88 cd bd a6 d6 e6 bb
       0.0017055906 -0.063777454 -0.100358635 -0.007044631
000100 cc d3 40 bd 6c db b6 bc 10 bf 8e bc 80 cf ca 3f
       -0.047076985 -0.022321425 -0.01742509 1.5844574
000110 c8 23 8b bc 40 1d 5e bd 07 fc a1 bd 56 3c c4 bc
       -0.016984835 -0.054227114 -0.079093985 -0.023954552
000120 ad f2 b1 3c f1 39 24 3c 6e 03 a1 be c0 3d ee 3d
       0.021722162 0.01002358 -0.3144793 0.11632872
000130 c4 dc 1d 3e e6 75 9c bd 75 23 2a 3e 41 a6 6a 3e
       0.15416247 -0.07639675 0.16615088 0.22914983
000140 9f 74 5d 3e 2d aa 2a 3e 99 a0 99 3e 4a 1f 86 3e
       0.21626519 0.1666648 0.3000534 0.26195747
000150 3f 83 a4 be 60 2c 0a bf 95 62 84 3f 7f 3d 43 3e
       -0.32131383 -0.5397396 1.0342585 0.19066428
000160 25 3a 1d 3f 77 9e ac 3e b7 42 02 3d b7 cb ab bd
       0.61416847 0.3371465 0.031801905 -0.08388465
000170 df 78 0b bf 8f d6 de bd 8d 06 fa bd 10 7f 9f bf
       -0.5448131 -0.108807676 -0.12208281 -1.2460651
000180 58 42 08 be 0e 83 04 bf 0c c8 31 3d a0 45 a1 bc
       -0.13306558 -0.51762474 0.04340367 -0.01968652
000190 3e b1 e0 bd c0 e0 b9 bd dc 92 08 be 9f 33 03 bd
       -0.10971306 -0.09076071 -0.13337272 -0.03203165
0001a0 e6 1b 2b be 7d 6b 0d 3e f2 92 0e be c5 8f 64 be
       -0.16709861 0.13810535 -0.13923243 -0.22320469
0001b0 50 ef 40 be ac e7 a2 3c 3d 40 12 3e 22 2e 86 3e
       -0.1884129 0.01988586 0.14282317 0.26207072
0001c0 ee 43 3a 3f 15 68 ab 3f ae 54 b0 be 29 63 02 be
       0.727599 1.3391138 -0.34439605 -0.12733139
0001d0 24 f8 5d 3d 2c 7a ab 3c 5a 99 60 bd fc ea 82 3d
       0.054191723 0.02093228 -0.054833747 0.06392476
0001e0 16 10 af 3e 47 38 47 3f 9f 47 36 bf 51 ba fa 3e
       0.3419196 0.7782025 -0.71203035 0.48970273
0001f0 af bb 8d be 08 e1 6e be f8 99 0d be 2f 10 18 be
       -0.27682254 -0.2332803 -0.13828266 -0.14849924
000200 e1 81 26 3d 48 c1 1a be 80 67 9d 3e 5d 8f 3f bc
       0.040651206 -0.15112793 0.30743027 -0.011691895
000210 bb 0d 51 3c 15 0c 55 3d f5 1f 5a bc e0 95 8f bd
       0.012759621 0.052013475 -0.013313283 -0.07011008
000220 c6 4a 56 be b6 ad 2e bd fa ca 1f bd e1 ec 09 3f
       -0.20926961 -0.042646132 -0.039011933 0.53877074
000230 7f a8 2e be ae 1d 09 bd 17 95 1e 3e 29 a5 e3 bd
       -0.17056464 -0.03347557 0.15486561 -0.11115486
000240 a6 40 3a bd c9 9d 89 be fb 23 10 3f 9e 6f 3a 3e
       -0.04547181 -0.26878193 0.563049 0.18206641
000250 d6 d8 cf be 30 b1 ce 3e ed 91 bb bd 02 e5 fb be
       -0.4059512 0.40369558 -0.091586925 -0.49198157
000260 cb ac 8b be 31 8a 7c 3d df 9e f5 3a 2e b0 02 3e
       -0.27280268 0.061655227 0.0018739364 0.1276252
000270 ee d7 af bc 91 a7 09 3f ff 68 ff 3e 9d 92 71 bf
       -0.021465268 0.5377131 0.49884793 -0.9436434
000280 49 b3 0c bf 1d 38 00 be 59 7c cb 3c c6 fc a1 3d
       -0.5496107 -0.12521406 0.024839567 0.07909541
000290 f8 12 c4 3d 3e 18 66 be d6 d3 96 3f e2 e0 26 3e
       0.095739305 -0.22470185 1.1783397 0.16296723
0002a0 40 70 1e be 42 51 7f be 5c 4e 91 bd dd 04 89 be
       -0.15472507 -0.24933341 -0.07095024 -0.26761523
0002b0 94 82 6d be 8c a8 84 be 48 d6 3f 3e fe 10 34 3f
       -0.23194343 -0.2590984 0.18734086 0.7033843
0002c0 0e 50 09 3e 69 45 ab bd c3 1f 4f 3e 9f 4f 16 be
       0.13409445 -0.08362848 0.2022696 -0.1467881
0002d0 18 3b 9a 3e b8 83 91 3d cc f6 a3 be 82 cc 1f bd
       0.3012321 0.071052015 -0.3202423 -0.039013393
0002e0 ce c1 8a 3f 14 8b d2 bf 1a d8 a7 3c 58 d9 be 3e
       1.0840394 -1.6448693 0.020488787 0.37275195
0002f0 c9 9f a2 be 2b 9b c0 3d 51 56 14 be 22 01 9a 3c
       -0.3176253 0.09404596 -0.14486052 0.018799368
000300 47 16 0d bd f9 ce 05 3f aa b6 69 3e ba 60 47 bd
       -0.034445073 0.5226894 0.22823587 -0.04867623
000310 f9 10 14 bf 40 1e 5e 3d c9 5c 91 3c 69 cd b0 3d
       -0.578384 0.054228067 0.017744439 0.08632929
000320 58 4c 1d 3d ee ad 53 3d ba 06 07 3c 07 8f 40 bf
       0.038402885 0.051679544 0.00824135 -0.7521824
000330 1f 9f 6f 3d 26 9e 0d 3d 37 e1 ff be 43 a4 51 3d
       0.05850136 0.03457465 -0.49976513 0.051182043
000340 f7 4a 46 bb 9c 76 22 bd 88 d3 46 3d 20 69 a7 bd
       -0.0030257085 -0.039663896 0.048541576 -0.08174348
000350 3f e8 bb bd a3 36 03 be a6 5b db be 72 40 b7 be
       -0.09175157 -0.12813811 -0.4284336 -0.35791355
000360 cc e2 86 3d 86 59 ae be c0 21 af be 17 6c ec 3d
       0.06586227 -0.34052676 -0.34205437 0.11544054
000370 6c b5 42 3f 83 8e 95 be 40 61 80 bd 91 45 03 3d
       0.7605808 -0.2921029 -0.06268549 0.032048766
000380 52 fc 29 be 82 9e 02 3e 2d 95 07 bf 1e 04 06 be
       -0.16600159 0.12755778 -0.52962 -0.13087508
000390 2e 91 83 3e 1d f1 c9 bf a6 18 4d be 83 ee c1 3d
       0.256967 -1.5776707 -0.20028934 0.094693206
0003a0 fc 23 0d 3e 18 f9 84 3d 4b 6b 95 3b 47 8f 87 be
       0.13783258 0.06492823 0.0045599095 -0.264765
0003b0 55 ba 46 be cc 73 4e 3d 98 49 26 bf 18 30 63 be
       -0.19407018 0.0504034 -0.64956045 -0.22186315
0003c0 e1 b6 43 3d ef a3 4c 3d 19 b9 84 3d 6e d2 52 bc
       0.04778183 0.049961027 0.06480617 -0.012867553
0003d0 5c cb 33 3d b4 a3 57 be 27 cf 08 3d 5f 88 9a 3e
       0.04389511 -0.21058542 0.03340068 0.30182168
0003e0 fc 94 7e bd 46 89 30 bd 5e bf 3e bc 0e 77 ff 3c
       -0.0621538 -0.043099664 -0.011642305 0.0311847
0003f0 a1 48 0b bf 83 f4 40 be 30 6d 4c 3e 27 63 c4 3e
       -0.544077 -0.18843274 0.19963527 0.38356897

module.down1.mpconv.1.conv.0.bias f4 [8]
000000 c9 91 20 3d b8 31 13 3c c1 af b8 3c 53 72 a2 bc
       0.03920153 0.008984022 0.022544743 -0.019829905
000010 01 bb 49 bd 48 48 00 bd 5b a4 02 3e 47 89 8f bc
       -0.049250606 -0.031318933 0.12758009 -0.017521514

module.down1.mpconv.1.conv.1.weight f4 [8]
000000 82 fa 6a 3f e7 f0 fd 3e 92 aa 49 3f 16 2c f4 3e
       0.91788495 0.49597856 0.78775895 0.47689885
000010 b7 60 af 3e bc f7 2d 3f ce 32 4e 3f f9 21 97 3f
       0.34253475 0.6795614 0.8054627 1.1807243

module.down1.mpconv.1.conv.1.bias f4 [8]
000000 c0 ab a7 3d b6 b8 ed be 94 0e dd 3d 38 f7 1f be
       0.081870556 -0.46429986 0.10793796 -0.1562165
000010 fa d3 d0 bd 0e 21 30 bd dc 20 83 3e 26 1b 56 bd
       -0.10196681 -0.043000273 0.25611007 -0.052271985

module.down1.mpconv.1.conv.1.running_mean f4 [8]
000000 cc d6 ab be 08 b3 19 3e 36 bd eb 3d 6d d2 df 3e
       -0.33562315 0.15009701 0.115106985 0.4371523
000010 05 45 0d bd 02 96 64 be a2 5e d7 be 0e 67 ae bd
       -0.03448965 -0.22322848 -0.42064387 -0.0851575

module.down1.mpconv.1.conv.1.running_var f4 [8]
000000 69 d4 b2 3e ac 5b 77 3d 10 5e e1 3e a2 62 03 3e
       0.3492768 0.06039016 0.44017076 0.12830594
000010 dc 03 8e 3e 52 16 9a 3e 08 1f ab 3e 8c 83 1f 3f
       0.2773732 0.30095154 0.33422112 0.623101

module.down1.mpconv.1.conv.3.weight f4 [8, 8, 3, 3]
000000 6a f3 2c 3d c7 7a 9e bc 42 fd a8 3e df 8a 97 bd
       0.042224325 -0.019345654 0.3300572 -0.073995344
000010 b6 d4 fd 3d ff 28 48 be 1f 07 a0 bd 3b 50 48 be
       0.12394087 -0.19546889 -0.07813858 -0.19561855
000020 70 a7 e8 bd 2f 79 ae bf 1a c7 aa bf 9b ff dc 3d
       -0.11360061 -1.3630732 -1.3342011 0.107909404
000030 a0 1d e1 bf 39 48 8c bf 4e 3e 1b 3d 3b 05 03 bf
       -1.7587166 -1.0959541 0.037901215 -0.51179856
000040 8b fe 7b bf dc e7 5b bd 9d 61 8a 3e be 73 01 3e
       -0.98435277 -0.053687915 0.27027598 0.12641808
000050 24 ef 92 bd 11 12 0b 3e a6 ca 94 bd d5 84 35 be
       -0.07174519 0.1358111 -0.072652146 -0.17726453
000060 53 7b 26 bb 22 fd 51 be 80 ac e5 bc 45 1f 07 be
       -0.0025403097 -0.20506719 -0.028036356 -0.13195522
000070 37 c0 8f bd 34 e2 01 be b6 ce e5 bc a2 02 8d 3d
       -0.07019084 -0.12683946 -0.028052669 0.06885268
000080 db 03 a6 bd 29 f2 d4 3d b4 24 cf bd 23 79 02 be
       -0.08106204 0.10397751 -0.101144224 -0.12741522
000090 e5 ae 04 3e 68 7c 95 be 98 53 bc be 8c 4b 02 3e
       0.12957342 -0.29196477 -0.36782527 0.12724131
0000a0 cd 15 1a bf 49 c3 05 be 76 dc 11 be e8 b0 29 be
       -0.60189515 -0.13062777 -0.14244255 -0.1657139
0000b0 b6 c1 2f bd a8 70 20 bd f7 ba de be c4 68 b9 bb
       -0.042909347 -0.039169937 -0.43502018 -0.005658241
0000c0 bc 50 4d 3e c7 65 33 be 43 5d d5 bd cb 26 56 bc
       0.20050329 -0.17519294 -0.10418179 -0.013070772
0000d0 d5 a1 c5 be 3f f8 ad bd 3e 84 7a 3d 51 44 d3 3b
       -0.3860003 -0.08494615 0.061161272 0.006447353
0000e0 de c8 40 bd 76 60 a7 bd 86 13 81 3e 7b 5e 17 be
       -0.047066562 -0.08172695 0.25210208 -0.14782135
0000f0 59 ce 7b bd 19 0d 35 bc de 0a 1e bc 60 76 85 3d
       -0.061476085 -0.011050486 -0.009646146 0.06516719
000100 bd 71 09 be c5 fd c9 bd af 3f c5 bd 73 e3 d8 bd
       -0.13422294 -0.09862856 -0.09631287 -0.105902575
000110 61 ec 1b bd c4 6f 5d be 51 1e ba 3d ff 7f 55 3e
       -0.038067225 -0.21624666 0.09087814 0.20849608
000120 d6 61 01 3e 22 fb 18 3e 77 fa 94 be a2 9b 56 bc
       0.12634978 0.1493955 -0.2909734 -0.013098629
000130 9d 36 d9 3d 9b 75 64 3e 62 2e 2e 3d 51 98 6b be
       0.1060612 0.22310488 0.042524703 -0.23007323
000140 b8 c1 9d bd 6e 0c 90 bf c2 1f 22 c0 45 78 0e 3d
       -0.077029645 -1.1253793 -2.5331883 0.034782667
000150 45 15 48 bf 45 64 a2 bf 69 86 a8 3b 2c 91 41 bf
       -0.78157455 -1.268685 0.005142976 -0.7561214
000160 4c 97 b5 bf b0 15 0e 3e 22 d0 87 3e 4e df a9 3e
       -1.4186797 0.1387546 0.2652598 0.3317818
000170 da 09 c6 bd 98 34 ff 3d 0d 15 d6 3e 5c 6f 46 be
       -0.09669848 0.12461203 0.41812935 -0.19378418
000180 e9 86 32 3e 10 66 46 be ba 0c b8 bc 17 16 e4 be
       0.17434277 -0.19374871 -0.022467006 -0.44548103
000190 0d 41 d9 be 63 2c 64 bc 28 61 0d bf 82 5f 38 bf
       -0.42432442 -0.013926598 -0.55226374 -0.72020733
0001a0 89 19 3d bd 6e c7 43 bf b3 2e 49 be 73 16 6d be
       -0.04616693 -0.7647618 -0.1964672 -0.23153095
0001b0 61 f2 52 bc b1 32 e2 3e c9 df 15 be 3c 2b 08 3f
       -0.01287517 0.441793 -0.14636149 0.5319097
0001c0 0b 0a 8f 3f 46 61 82 be fe b9 01 3d 05 f1 16 be
       1.117494 -0.2546484 0.031671517 -0.14740379
0001d0 bc d9 d4 be d9 d9 4d bb 35 ab ef be fd c0 be bd
       -0.41572368 -0.0031410365 -0.46810308 -0.09314153
0001e0 7c 07 a1 be 54 45 97 bc 47 55 56 be ac c7 49 be
       -0.31451023 -0.018465675 -0.20930968 -0.19705075
0001f0 f6 4d 24 3e 93 24 87 be a0 11 20 3e 49 6d 40 be
       0.16045365 -0.2639509 0.15631723 -0.18791689
000200 8a a7 87 bc 05 bb db 3e c8 9c 01 3d fc 9e b4 bc
       -0.016559381 0.42916122 0.03164366 -0.022048466
000210 44 8b 5b 3e 23 87 10 be 9f 79 bc 3d e8 7b 47 bc
       0.21439844 -0.1411405 0.09202885 -0.012175538
000220 35 52 70 be 1a e7 62 3d 8b 6d 96 be 91 a3 14 3e
       -0.2346886 0.055396177 -0.2938045 0.1451552
000230 2a ef 91 be 12 6d cc 3d 27 75 2d 3e cc 5b 02 3e
       -0.2850278 0.09981741 0.16939221 0.1273033
000240 3e 24 9a be 49 e2 b8 be b3 ca 5c 3e ab 88 8a 3e
       -0.30105776 -0.36110142 0.21561699 0.27057394
000250 b9 25 ee 3e 51 2a 06 3d 5e 50 00 bf 13 3b 83 3e
       0.46513155 0.0327552 -0.5012263 0.25631008
000260 f3 98 28 bd 5f 2a 39 3c d4 69 e2 bd 0b ad 83 3d
       -0.04116149 0.011301606 -0.11055341 0.0642949
000270 64 02 27 3e 37 da 86 bc 89 e0 6f 3c 43 24 74 3d
       0.16309506 -0.016461475 0.014640936 0.059604894
000280 8c 5b 46 3d 50 a0 c2 3c 84 7c 60 3f 84 de 2c 3e
       0.04842715 0.023758084 0.87689996 0.16881758
000290 ae 75 04 bf 42 37 4d 3e 82 78 95 be dd 24 b5 3d
       -0.51742065 0.2004061 -0.29193503 0.08844922
0002a0 d6 b6 02 bf 4c 0f 74 be 89 7a 2f be be 8f 81 3e
       -0.51060236 -0.2383396 -0.17136587 0.2530498
0002b0 27 40 54 3f 6d ce 31 3d 86 93 03 be a5 f6 62 3e
       0.8291039 0.043409754 -0.12849244 0.221644
0002c0 2c b6 bb 3d ae a4 a9 be 99 7e 21 3c 55 b7 16 be
       0.09165606 -0.33133453 0.009856843 -0.14718373
0002d0 ed bc 73 be 87 76 11 bf af c9 41 bd e9 7f ca 3d
       -0.23802538 -0.56821483 -0.04731148 0.09887678
0002e0 17 c1 01 be e5 13 68 be c0 a9 8c 3d 84 e6 48 be
       -0.12671314 -0.22663839 0.06868315 -0.19619185
0002f0 24 87 19 be e9 8b ac 3d 92 50 71 3d 92 2c fb be
       -0.14992958 0.08425123 0.05891473 -0.49057442
000300 77 8a 16 3e b6 05 7e 3e ff a8 7b 3e 40 3c ce bd
       0.14701258 0.24806866 0.24576186 -0.100700855
000310 96 c6 c7 3d 40 81 0d bf de 67 fc be a6 ec f1 3e
       0.09754674 -0.55275345 -0.49297994 0.4725086
000320 71 6a 10 be 5b 30 a2 be a5 13 13 3f 93 8f 3f 3e
       -0.14103104 -0.31677517 0.5745185 0.18707113
000330 84 e8 72 be 9d 20 c5 3d 10 75 c2 3d 7e 26 a6 be
       -0.2372151 0.09625361 0.09494984 -0.32451242
000340 aa 20 35 3c b7 ab 00 bf 25 7e 29 3d 89 2f b7 3e
       0.011055151 -0.50262016 0.041380066 0.35778454
000350 00 a9 5e 3e d4 14 ef be a8 78 3d 3f fe da 3b 3f
       0.21744156 -0.46695578 0.7401223 0.7338103
000360 42 91 80 bc 50 8b a9 3e 93 49 0c 3e 23 56 ba be
       -0.015694264 0.331141 0.13699941 -0.36393842
000370 a4 ad 3c 3d 33 60 36 bd b0 93 08 bf a9 60 e3 be
       0.046064034 -0.044525336 -0.53350353 -0.44409683
000380 ad 8b a4 bf 31 f2 5b 3d c5 2c e5 3d 4f 08 a5 bc
       -1.2855126 0.05369777 0.1119018 -0.020145563
000390 0f cb c1 3c bc 8f 2c bf a4 d4 e4 bc 10 ec 05 bf
       0.023656396 -0.6740682 -0.027933426 -0.5231333
0003a0 9e 4c d3 3a e6 77 ad bd 6b 08 ee be 25 f6 bf bd
       0.0016120856 -0.084701344 -0.46490797 -0.0937312
0003b0 ed d2 1d bd b5 c1 df bd 8a cc 2c 3f 90 f4 65 3e
       -0.038531233 -0.109256186 0.674996 0.22456574
0003c0 4e cf 85 bc 96 1b e1 3e 18 02 d8 be ff 61 ae bd
       -0.016334202 0.4396636 -0.42189097 -0.08514785
0003d0 8a 90 72 be 62 3d 73 3d 8f 30 f8 3d a8 d2 c1 be
       -0.2368795 0.05938471 0.12118637 -0.3785603
0003e0 16 b1 fe 3d cf c6 47 3e 96 45 81 3d ee 68 25 3e
       0.1243612 0.19509433 0.063121006 0.16153309
0003f0 d8 01 47 3e 7c d5 9f 3e d1 2e 91 3d 50 8a 97 3e
       0.19434297 0.31217563 0.07089008 0.29597712

module.down1.mpconv.1.conv.3.bias f4 [8]
000000 26 32 71 bc 11 71 48 bd a1 bd 19 3e 52 f1 68 3d
       -0.014721429 -0.048935954 0.15013744 0.056870766
000010 1a 3f 2b 3e a0 b5 76 bf d6 12 4f 3e d2 bc 1c 3d
       0.1672329 -0.9637089 0.20222029 0.03826601

module.down1.mpconv.1.conv.4.weight f4 [8]
000000 bf 34 72 3f 26 97 65 3f 2b c5 03 3e eb 13 b1 3e
       0.94611734 0.8968376 0.12868182 0.3458551
000010 f3 8f 25 3f 71 57 24 3e e6 b4 69 3f ee de c9 3e
       0.64672774 0.16048981 0.91291654 0.39427894

module.down1.mpconv.1.conv.4.bias f4 [8]
000000 b5 41 e2 3d b9 9e ec bc 20 f8 ba 3e d3 69 d2 3d
       0.11047689 -0.028884279 0.3651743 0.102740906
000010 97 bc 2c 3e 2d 73 c7 bf bc 2e 7a 3d bd a9 e5 3d
       0.16868816 -1.5582024 0.061079726 0.11214016

module.down1.mpconv.1.conv.4.running_mean f4 [8]
000000 4b b2 08 bf 68 8e 9f bd 15 26 69 bc 7e 69 1f bf
       -0.53397053 -0.07790834 -0.014230271 -0.62270343
000010 71 0c 3d bf c3 db d1 3e bd 81 d5 be 7c 44 88 bd
       -0.7384711 0.40987977 -0.41700545 -0.06653687

module.down1.mpconv.1.conv.4.running_var f4 [8]
000000 3c b1 17 40 3a 7b 9d 3f 5a b7 58 3e bd 87 db 3e
       2.3701925 1.2303231 0.21163693 0.42876998
000010 bd dd a3 3f 60 1a d9 3e 97 c6 7a 3f 61 1d a2 3e
       1.2802044 0.42402935 0.97959274 0.3166304

module.up8.up.weight f4 [8, 4, 2, 2]
000000 44 b1 42 3e f2 e4 1e 3f fc 51 8d 3e de cd 3f 3f
       0.19012934 0.6206809 0.27601612 0.74923503
000010 af 0b 8a be 90 4a f1 be 6e a5 4b be 0a 59 f0 3b
       -0.2696204 -0.471272 -0.19887325 0.007334833
000020 48 b7 68 be 73 5f 6d 3f a5 05 1a bf ba 7b ff 3e
       -0.22726166 0.9272377 -0.6016486 0.49899083
000030 15 a7 33 3d c8 91 e6 3e cf 91 a6 be f9 00 32 3d
       0.043860514 0.45033097 -0.32533118 0.04345796
000040 73 8d e5 bd 0c 4f 09 be b8 b5 a7 be f8 18 74 be
       -0.1120862 -0.1340906 -0.32755828 -0.2383765
000050 bf 49 17 3d d5 b2 96 3c 46 5b a7 3c b2 4d bc be
       0.036935564 0.01839582 0.020429265 -0.36778027
000060 34 75 08 3f 41 88 ee 3e 21 c9 c7 3e 80 87 c8 3e
       0.5330384 0.46588328 0.39020637 0.39165878
000070 22 a5 ab 3e b3 cc a4 3e f0 c4 62 3e ac dd 63 3e
       0.33524424 0.32187423 0.22145438 0.2225253
000080 e7 7c cd 3c 2d f1 42 3d 1b ab bb bd 4c 15 05 be
       0.025083972 0.047593284 -0.09163495 -0.12996405
000090 db c0 95 be 6e 1a 93 be 70 c7 9f be 54 72 a0 be
       -0.292487 -0.28731102 -0.31206846 -0.31337225
0000a0 35 0f 58 3e ff f0 04 3e e8 43 5f 3e 46 54 9a 3d
       0.21099551 0.12982558 0.21803248 0.07535605
0000b0 fa f8 8e 3e d8 13 36 3e d5 22 d4 3e a4 b9 94 3d
       0.2792433 0.17781007 0.41432825 0.07261971
0000c0 7a de 2c be ea a9 a7 3d 3e 48 88 be f8 b7 80 be
       -0.16881743 0.081867054 -0.26617616 -0.25140357
0000d0 e9 78 1a 3e 35 63 d3 be 5f e7 f9 bc e3 e6 be be
       0.15085186 -0.41286626 -0.030505834 -0.37285528
0000e0 73 70 9b 3e 10 51 c3 3d f6 df df bd 03 02 68 be
       0.3035923 0.09536946 -0.10931389 -0.22657017
0000f0 ea be b3 3e f1 59 71 3d 25 1a 87 3d 2e 7d d2 be
       0.35106593 0.058923665 0.065967835 -0.4111113
000100 b3 ae 12 bf f0 32 db 3e e6 14 21 bf be 58 ce 3e
       -0.5729782 0.428123 -0.62922513 0.4030208
000110 c1 84 ba bd 6d e7 6b be 24 11 80 be 8e 9b 93 be
       -0.09107352 -0.230375 -0.25013077 -0.28829616
000120 ae a2 8a 3d 77 a5 cb 3c c9 40 7e 3e 30 c2 69 3e
       0.0676931 0.024859173 0.24829401 0.22827983
000130 15 e2 8b 3e ae c9 02 be 1a 6a 3e 3e 1a fe 88 3d
       0.27320924 -0.12772247 0.18595162 0.06689091
000140 e1 56 d7 be 28 61 4b be 11 08 a2 be 98 ce 2e be
       -0.4205847 -0.19861281 -0.3164678 -0.17070997
000150 73 00 4f bf 59 db 11 be fd 28 2f bf e2 fd 06 be
       -0.8086006 -0.1424383 -0.6842192 -0.13182786
000160 a7 f0 ed be df 53 f5 be 29 1e 7b be b8 8c b5 be
       -0.46472666 -0.4791555 -0.24523224 -0.35458922
000170 64 0e 31 bf f2 80 26 bf aa 82 49 bf a9 8d 81 be
       -0.69162583 -0.65040505 -0.78715 -0.2530339
000180 87 08 81 3d 0c cc 5a 3e 9e 7d db be 8d 63 9b 3e
       0.063004546 0.213669 -0.42869276 0.3034939
000190 84 69 19 be 6e a5 01 3e 67 a6 2a be fa 22 3a bf
       -0.14981657 0.12660763 -0.1666504 -0.7270962
0001a0 60 95 7d 3a e6 8b 72 be 2f 6d 48 3e 79 59 d6 be
       0.00096734427 -0.2368618 0.195729 -0.41865137
0001b0 4a a3 7f 3e d0 4d 60 3d 15 0b 96 3e d8 12 cb be
       0.24964634 0.054761708 0.2930533 -0.39662814
0001c0 86 c3 ba be d0 7f 7d be 7d ca a5 be 76 42 14 be
       -0.36477298 -0.24755788 -0.3238105 -0.14478478
0001d0 90 86 89 be 7b 56 0b bf f7 92 91 be 51 45 93 be
       -0.26860476 -0.54428834 -0.28432438 -0.28763822
0001e0 03 23 dd 3d f4 fc 8a bd cc 5c f7 3c 93 d5 34 bc
       0.107976936 -0.06786528 0.030195616 -0.011037248
0001f0 dd 05 fc 3c 94 f3 9b 3e 50 de 51 bc 57 ab ee 3e
       0.030764515 0.30459273 -0.012809351 0.46615097

module.up8.up.bias f4 [4]
000000 e8 a3 00 be c5 90 8b 3e 6a 55 cd be 41 cf f9 3b
       -0.12562525 0.27258888 -0.40104228 0.0076235835

module.up8.conv.conv.0.weight f4 [4, 8, 3, 3]
000000 e6 a5 14 bf e0 45 36 bf 98 dc ef be 9f 5f 88 3e
       -0.5806564 -0.7120037 -0.46847987 0.26635453
000010 92 fe 1e be 23 c5 27 3e c2 1b ef bd 65 a6 fd 3e
       -0.15526798 0.16383795 -0.11675216 0.4954101
000020 d8 2f 63 bd f9 2c 23 3c c5 ef a9 3e 7b 8e d7 3d
       -0.05546555 0.009959453 0.33190742 0.10525223
000030 83 ec dc 3e ec 05 b2 3e 31 1c dc bb 6b 5f e4 be
       0.43149194 0.34770143 -0.006717228 -0.44604048
000040 62 9c 22 3c 4a e3 d6 3d 3c b2 a8 3d e8 6f 85 be
       0.00992498 0.10492571 0.082371205 -0.2606194
000050 18 f7 a5 3d d0 23 09 bf 0d c6 4c bf a7 d1 db be
       0.0810377 -0.5357027 -0.799897 -0.4293339
000060 60 95 ea bc 3c 1f 07 3d 7b d3 47 bb 6d cf a1 3e
       -0.02863568 0.03298877 -0.0030491042 0.31603566
000070 cb d7 86 3d f9 cf aa 3c b9 fd 81 bf 2d 3d 90 bb
       0.06584128 0.020851122 -1.0155555 -0.004401824
000080 d0 c9 85 bd 01 fc 01 3f 6d 22 a6 bd d6 43 76 3c
       -0.06532633 0.5077515 -0.08112035 0.015030822
000090 8a 36 bd bd 90 17 1a be 36 28 42 be 4c 6c cd 3d
       -0.09238918 -0.15048051 -0.18960652 0.100304216
0000a0 28 77 21 3f 30 0c a9 bd 83 83 80 be cc 0b f2 3e
       0.63072443 -0.08254278 -0.25100335 0.47274625
0000b0 17 7f 10 be 96 c4 be bd 05 36 07 be f3 51 74 bc
       -0.14110981 -0.093148395 -0.132042 -0.014912116
0000c0 81 34 b7 3d 72 cf 28 bd f3 86 9d bd b3 28 9a 3e
       0.08945561 -0.04121346 -0.07691755 0.30109176
0000d0 49 86 b3 3d 7a e2 10 3e d4 f9 d9 bc 7f 32 48 3e
       0.08765847 0.14148894 -0.026608385 0.19550513
0000e0 ea 92 88 3e a4 25 55 3e 27 1a c0 3d 37 32 f6 3e
       0.26674587 0.2081514 0.09379988 0.48085186
0000f0 0d e6 35 bd 03 45 0c 3f f2 dd 32 3e d1 66 74 3e
       -0.044408847 0.54792804 0.17467478 0.23867346
000100 e8 bc a3 3c a8 bb 34 3d 2d b9 91 3e d1 23 f9 3d
       0.019987538 0.044124275 0.2846159 0.121650346
000110 5a fd de 3d 87 a2 c9 3e 45 39 98 bc af ec 65 3e
       0.10888167 0.3938181 -0.018581996 0.22453569
000120 d0 2c 20 bc 8c 06 9a bf 74 17 91 ba b9 ac 16 bc
       -0.009776309 -1.2033248 -0.0011069612 -0.009196454
000130 b6 a7 1d 3e a6 40 42 bd d4 63 75 bc c4 56 23 be
       0.15396008 -0.047424935 -0.014977414 -0.15951067
000140 43 22 78 3d 29 1d b0 3c 64 f1 e4 3e ef 2e 33 3e
       0.06057955 0.02149828 0.44715416 0.17498372
000150 be 8e 71 bf f9 05 c6 bc a7 12 50 3e 60 c3 0c 3d
       -0.9435843 -0.02417277 0.20319615 0.03436601
000160 24 76 80 3e fa 04 ee 3d 96 5a a6 3d f5 5a dd 3e
       0.25090134 0.11622043 0.08122747 0.43233457
000170 0d 76 46 3d 53 3a 56 bd e0 f8 a3 bb fd c2 2d bd
       0.048452426 -0.052301716 -0.0050040334 -0.042422283
000180 83 1c 37 3b 14 ea 53 3a 92 83 60 3d cc 3b 85 bd
       0.0027940578 0.00080838916 0.054812975 -0.06505546
000190 88 71 d3 3d 0b da 1e bd 2d 0b 85 3f 2b f5 bf 3d
       0.10324389 -0.03878216 1.0394036 0.09372934
0001a0 fc 5e d0 bd fe 22 02 3e 56 28 7b bc 53 93 15 3d
       -0.10174367 0.12708661 -0.015329441 0.036517452
0001b0 56 d8 a6 bd 8b 3a 2f 3f 84 b8 f2 bd f5 2a 4b 3e
       -0.081467316 0.68448704 -0.118516 0.19840606
0001c0 91 70 6c 3f ca 48 32 bd 85 2b ce 3c e0 bb 8c 3e
       0.9235926 -0.04352645 0.025167236 0.27487087
0001d0 64 5f 7b bd 4c d8 f3 3e 08 1f 26 3e ee 1a db 3d
       -0.06137027 0.4762596 0.16222775 0.10698496
0001e0 06 fc 13 3f 59 ee 3e bc f7 55 1c 3a ad 23 d9 3e
       0.5780643 -0.011653506 0.00059637375 0.4241003
0001f0 50 cb 2c bb 83 da 1c 3e 7b c3 c6 3e 91 01 8d 3c
       -0.00263663 0.1531773 0.38821015 0.017212661
000200 ce 37 ec 3d f4 45 e0 3e de 38 f3 be d8 1f c7 3d
       0.115340814 0.4380337 -0.47504324 0.097228706
000210 f9 ce 9c 3d 81 9f 4b 3d 87 c7 16 be c8 54 47 bb
       0.076566644 0.04971266 -0.14724551 -0.0030415524
000220 7e 8d 02 be 5c f2 23 bd f4 39 bc 3d da 0d 8a 3d
       -0.12749287 -0.040026054 0.09190741 0.06740923
000230 a1 13 90 3c 3e 7c 82 3d 86 62 a4 bd 01 92 26 3e
       0.017587485 0.063713536 -0.08026604 0.16266634
000240 2f 2a 16 3d 6c 03 12 3d 4a bf 43 bc f3 7a 43 bd
       0.036661323 0.035647795 -0.011947462 -0.047724675
000250 59 7f 9f 3e 8e f6 bd be 1d 16 b0 bc ab c9 f8 bd
       0.31151846 -0.3710217 -0.02149492 -0.1214784
000260 09 9e fb bd b6 3d 24 3e 09 fa ef 3c f8 b3 34 bd
       -0.12286002 0.16039166 0.02929403 -0.044116944
000270 9d 93 5b bd d1 a5 13 bf 09 e4 f9 bd 6c 6f 5a 3e
       -0.053607572 -0.5767489 -0.122016974 0.21331567
000280 67 b7 8b bd 2a e6 50 3d d8 b1 f4 3c a6 fe 27 3c
       -0.068220906 0.05100075 0.029869959 0.010253584
000290 25 dc 13 bd 94 c9 9d 3d 60 63 c2 c0 74 f9 45 bd
       -0.036098618 0.077044636 -6.0746307 -0.0483336
0002a0 cf 8d fd 3b b9 c2 d2 bc 20 d3 0c 3d 55 f8 b3 3b
       0.007737852 -0.025727617 0.034381032 0.00549225
0002b0 d3 c8 0e bd 47 71 12 bd 82 9c 87 3c b5 1a 8d 3d
       -0.03485949 -0.03575256 0.01655412 0.068898596
0002c0 5f ae b5 bc eb 40 16 bf 1f 6d 13 3d fd 4a fc bb
       -0.022177873 -0.58692807 0.035992738 -0.007699369
0002d0 ef 3d 8a 3d e1 f3 5f 3e bf b6 a7 3d b7 1b 76 bc
       0.06750094 0.21870376 0.08189153 -0.015021256
0002e0 ca 39 16 be 2e 63 43 3d 46 0f de bc 47 5e 58 be
       -0.14670482 0.047702007 -0.027106892 -0.21129714
0002f0 f5 90 09 3e 29 11 1f 3c db 2e c8 bb ca b5 08 be
       0.13434203 0.009708681 -0.006109101 -0.13350597
000300 2b a4 aa 3d 1d b9 a3 3e 61 91 96 3e e7 63 6f 3d
       0.08332094 0.31977168 0.2940779 0.058444884
000310 c2 56 f6 3d d9 59 54 3e e4 5b b4 bc b5 cb 01 be
       0.120282665 0.20737399 -0.022016473 -0.12675364
000320 a7 83 44 bd 73 ba 24 3d 9c 85 ae 3d f4 35 d0 bd
       -0.047977116 0.040216874 0.08521578 -0.10166541
000330 f8 83 47 be 41 15 f8 be 65 22 10 be 3e 60 be 3d
       -0.19483936 -0.48453715 -0.1407562 0.092957005
000340 28 b0 9c 3e f8 63 4c 3e d2 37 f6 3d 60 16 a2 3e
       0.30603147 0.1996001 0.12022366 0.31657696
000350 a5 02 a9 3e 2e ef 4c 3e c7 c9 02 3f ec 77 9d 3e
       0.3300983 0.20013115 0.5108914 0.30755556
000360 a3 3c c4 3d 74 ca 69 bf ad e1 24 3f 55 d2 9f be
       0.09581878 -0.91324544 0.64406854 -0.31215158
000370 9e d4 74 3c 83 a2 19 3e ca 12 d2 3d cf c7 30 bd
       0.01494327 0.150034 0.1025749 -0.043159302
000380 14 9e be bd 9e 23 f2 be d9 a7 9c 3e ce 20 09 ba
       -0.09307495 -0.472928 0.30596808 -0.00052310235
000390 0e a7 81 bf 5a 6a d8 be 62 5a 3f 3e 65 89 30 be
       -1.0129106 -0.4226864 0.18686822 -0.17239912
0003a0 7e f7 2d 3e ff e6 8d 3d 2b 95 39 3d 33 ec ca 3e
       0.16988942 0.06928825 0.045308273 0.3963333
0003b0 ea 5a 9d 3d 19 59 f0 3c c3 95 24 3b b8 a0 dc 3b
       0.07683356 0.02933936 0.002511368 0.0067330264
0003c0 3d be 17 bc ee 63 17 3d 37 82 9c bc 01 7a 32 3d
       -0.009261665 0.036960535 -0.01910506 0.043573383
0003d0 e9 f2 be 3d da 48 78 bd ea 36 84 3f df 4c 37 3e
       0.09323675 -0.06061635 1.0329258 0.17900418
0003e0 a2 62 3c be 02 1d 34 3e 70 d1 f0 bb e2 7d 86 bd
       -0.18397 0.1758919 -0.0073491856 -0.06566979
0003f0 4e 43 85 3e d0 cf 42 3d 6d d7 c2 3d 8c ea 1c 3e
       0.26027912 0.047561467 0.095137455 0.15323848

module.up8.conv.conv.0.bias f4 [4]
000000 4a f2 0f be 97 e7 34 be 20 6a dc bc b7 3b 73 bc
       -0.1405727 -0.1766647 -0.026906073 -0.01484578

module.up8.conv.conv.1.weight f4 [4]
000000 df 1a cd 3e 99 79 c5 3e bd 68 13 3f bd d4 7b 3e
       0.40059564 0.38569334 0.5758169 0.24592872

module.up8.conv.conv.1.bias f4 [4]
000000 20 d4 4a 3e e3 b7 a0 3c dd 6a df 3e 5c f3 25 be
       0.19807482 0.019618934 0.43636218 -0.16206115

module.up8.conv.conv.1.running_mean f4 [4]
000000 7a ec 40 bf 57 4d 07 bf 37 d9 d8 3e 31 86 be be
       -0.75360835 -0.52852386 0.42353222 -0.37211755

module.up8.conv.conv.1.running_var f4 [4]
000000 fb 85 90 3e 48 ac 99 3e c8 d9 5e 3e 96 55 f0 3d
       0.2822722 0.30014253 0.21762764 0.11735074

module.up8.conv.conv.3.weight f4 [4, 4, 3, 3]
000000 e6 97 42 3e ff 17 06 3f 7f 09 13 3e 83 14 9c 3e
       0.19003257 0.52380365 0.14359091 0.304844
000010 4c 1d 1c bf 27 30 c7 3e d5 0b f9 3c d0 8f a1 3d
       -0.60982203 0.38903925 0.03040115 0.07888758
000020 92 98 60 3d 81 7c ac be 93 cf 03 3f d9 b3 01 bf
       0.054833002 -0.3368874 0.5148861 -0.5066505
000030 d6 37 9f bd 4f d3 46 bd d9 ea c7 be 34 f7 d0 be
       -0.07774322 -0.048541363 -0.39046362 -0.408136
000040 d1 da d0 3d a2 50 5d be ca d2 b4 bd c3 8a 29 3f
       0.10197986 -0.2161279 -0.08829267 0.6622736
000050 6f e6 49 be e0 b5 0f be 46 b1 ed bd d5 3d 07 bd
       -0.1971681 -0.14034224 -0.11606078 -0.033017952
000060 63 6a 19 be 6a 9e b3 be e1 05 14 bd 5a 53 0d be
       -0.1498199 -0.35081798 -0.03613842 -0.13801327
000070 2b fb f2 be 78 2c 29 be 82 7b 18 3e 74 0e b7 bd
       -0.4745725 -0.1652087 0.14890864 -0.089383036
000080 4b 8b c1 3c 94 89 e9 bd f8 a0 4d bd eb a9 0e bd
       0.02362599 -0.11403194 -0.05020234 -0.034830015
000090 bc 68 68 3d 50 fb 37 3e 86 68 0a bd 09 c2 ab bd
       0.056740507 0.17966962 -0.033791088 -0.08386619
0000a0 0a 6e 85 3f 40 6a f8 3c d6 a5 7e bd 64 9c 7d 3e
       1.0424206 0.030324101 -0.062169872 0.2476669
0000b0 c8 32 8d bd eb 91 37 bd 99 91 47 3d f1 53 41 bc
       -0.068944514 -0.044816893 0.048722837 -0.011799798
0000c0 a1 6f d6 be d7 a0 9c be 69 88 11 be 91 fe 64 bd
       -0.4188204 -0.3059146 -0.14212193 -0.055906836
0000d0 c4 7f 12 3f e2 69 de bc e0 cf 9c be f9 f3 b8 be
       0.57226205 -0.027150098 -0.30627346 -0.36123636
0000e0 32 a3 23 be 26 2d 43 be bb 32 f8 3d 88 f8 2b be
       -0.15980223 -0.19060192 0.12119051 -0.16794026
0000f0 eb 3b bc bd fe 9f 51 3e 00 81 84 bd 4a cf 73 3d
       -0.09191116 0.20471188 -0.06469917 0.059523858
000100 e8 de ae be ae 0b d0 3c 07 ff e3 bd 92 ba 16 bf
       -0.3415444 0.025396194 -0.11132627 -0.58878434
000110 f3 0a 79 bc 2b c2 6f 3d 90 4a 50 bf a8 bd cb 3c
       -0.015200364 0.058534782 -0.81363773 0.024870709
000120 95 ce cf 3d 1b e3 d0 3e ee 60 6e 3e 1c 40 43 3d
       0.10146824 0.40798268 0.23279163 0.04766856
000130 aa e3 09 3f 8a 68 00 bd 03 7d 99 3d 05 5c ba bd
       0.5386301 -0.031349696 0.07494547 -0.090995826
000140 c5 1a a0 3d a6 c2 7e 3e 9e b7 c0 be 5a d5 91 3e
       0.07817606 0.2487894 -0.3764009 0.28483087
000150 37 9a 94 3e 46 be b7 be d3 02 7e 3e 40 67 9f 3e
       0.29023907 -0.35887355 0.24805765 0.3113346
000160 1b 07 9a be a8 93 9a 3e ac e6 63 3c 3a cb c2 3e
       -0.30083546 0.30190778 0.013909977 0.38045675
000170 9f de bb ba db 9e 37 3d 7d af 30 be a8 18 28 3d
       -0.0014333314 0.04482923 -0.17254443 0.04103914
000180 58 ea 1a bd 39 b6 74 bd df 8a 07 bd 3a 06 94 be
       -0.037821144 -0.059744094 -0.033091422 -0.28911
000190 7d 62 5a 3e a8 e7 b6 be 8a 6b b6 be f7 ee 80 be
       0.21326633 -0.35723615 -0.3562892 -0.25182316
0001a0 74 52 91 be f5 d2 ae be 1b 19 51 3e 77 5d 9d be
       -0.2838322 -0.34145322 0.20419733 -0.3073537
0001b0 08 23 5a be 78 ec e5 3d 09 05 a4 bd a9 a0 3d be
       -0.21302426 0.112267435 -0.08008773 -0.18518318
0001c0 5c 59 d9 be 44 0c 00 be 7d f0 be bd 92 bb 5f be
       -0.42450988 -0.12504679 -0.09323213 -0.21848896
0001d0 82 14 6f be af 2e db 3b 79 8d ac 3d 38 73 3c bb
       -0.23347667 0.0066889147 0.08425421 -0.00287552
0001e0 cb b4 1e be 94 18 ef be 1b 2d 78 bd b7 79 ab bd
       -0.15498655 -0.4669844 -0.06058989 -0.08372825
0001f0 02 33 f2 bc 23 15 b8 bd 3b 10 aa bc 3f fe d8 3f
       -0.029565338 -0.089884065 -0.020759692 1.695259
000200 12 fa b8 3e 8d 40 8b bc af dd 33 3e 3d 44 45 3e
       0.36128289 -0.016998554 0.17565034 0.19264312
000210 c5 8e 09 3d 80 d9 ce 3e e3 2e 3e 3e 5c 7d e0 bc
       0.03358342 0.40400314 0.18572573 -0.027403526
000220 97 70 52 bd a6 60 66 bd f1 3f 8d 3d f7 0e 1c 3e
       -0.051376905 -0.056244515 0.068969615 0.15240084
000230 23 bc de 3d 72 ab a6 3d 13 70 61 3d cc 85 85 3d
       0.10875728 0.08138169 0.055038523 0.0651966

module.up8.conv.conv.3.bias f4 [4]
000000 fa bc 01 3e 55 7d b4 3e 03 5b 54 be db b7 06 3e
       0.12669745 0.3525187 -0.20737843 0.13156073

module.up8.conv.conv.4.weight f4 [4]
000000 13 f8 be 3f 18 4c c6 3f 9e 11 10 40 77 66 b3 3f
       1.4919456 1.5491972 2.2510753 1.4015645

module.up8.conv.conv.4.bias f4 [4]
000000 b1 12 c5 3f b5 59 f9 3f fe c8 02 40 08 c8 ca 3f
       1.5396329 1.9480501 2.0435176 1.5842295

module.up8.conv.conv.4.running_mean f4 [4]
000000 d1 40 95 3d 94 d1 fd bd 50 42 d8 3d 5f 03 a4 3f
       0.072877534 -0.123934895 0.10559523 1.2813529

module.up8.conv.conv.4.running_var f4 [4]
000000 fe 30 cd 3e 8b cd db 3e 58 d3 cf 3e e3 1c 6d 3e
       0.4007644 0.42930254 0.4059093 0.2315555

module.outc.conv.weight f4 [1, 4, 1, 1]
000000 19 b9 b3 bf 2f d8 b1 bf 2d b0 bc bf 93 80 8d bf
       -1.4040862 -1.3894099 -1.4741265 -1.1054863
