learned_models/mask/ACS-WFC-F606W-2-32.pth (torch_old, 416836 bytes, 39 tensors)

module.inc.conv.conv.0.weight f4 [32, 1, 3, 3]
0	0x3d5977ea	0.053092875
1	0x3eb9a178	0.36256003
2	0xbb818c1b	-0.0039534695
3	0xbf7b33ed	-0.9812611
4	0xbe47daa4	-0.19516999
5	0x3ee2aad8	0.44270968
6	0xbbf37423	-0.007429616
7	0x3e9922f3	0.29909477
8	0x3cc22a61	0.023701848
9	0x3c6ad13a	0.01433211
10	0x3bc42bed	0.0059866817
11	0x3d20f448	0.039295465
12	0xbea7312d	-0.32654706
13	0xbf8bc78d	-1.0920273
14	0x3dbc1c68	0.091851056
15	0x3d93a307	0.072088294
16	0x3f185b64	0.5951445
17	0x3eb8a9fb	0.36067185
18	0xbee2b62e	-0.44279617
19	0xbf29ea32	-0.6637298
20	0xbaa9d520	-0.0012957193
21	0x3ec0f54c	0.37687147
22	0xbeaaa71e	-0.33330625
23	0x3ee12ccd	0.43979493
24	0xbd5153cb	-0.0511053
25	0x3cb35530	0.021891207
26	0x3f2f88bc	0.68568015
27	0x3ea26f32	0.3172546
28	0x3e1aa02e	0.15100166
29	0x3dcee3a2	0.10102011
30	0x3d04ce41	0.03242326
31	0x3f310e5c	0.69162536
32	0x3cff9833	0.031200504
33	0x3b67c344	0.003536419
34	0xbe886d9c	-0.26646125
35	0xbfbfde61	-1.498974
36	0xbe2df8c8	-0.16989434
37	0x3edbb68c	0.4291271
38	0x3c7b7ad4	0.015349109
39	0x3e8a1e8d	0.26976433
40	0xbd22a9cb	-0.03971271
41	0xbddcf5da	-0.1078908
42	0x3e15bbf0	0.14622474
43	0xbfb09853	-1.3796486
44	0x3aa39a8c	0.0012481972
45	0xbf7bea1a	-0.98404086
46	0x3d7bf385	0.061511535
47	0x3c9a19cb	0.018811127
48	0xbed7b7c5	-0.42132393
49	0x3e3d2f30	0.18475032
50	0x3f22a18b	0.63527745
51	0x3d6f40c5	0.05841138
52	0x3ea5827a	0.32326108
53	0x3d5c7fc7	0.053832795
54	0x3eb0420c	0.3442539
55	0x3b5de058	0.0033855643
56	0x3bfcf320	0.0077194124
57	0xbc8c647e	-0.017137762
58	0xbf83e082	-1.0302889
59	0xbd2c353c	-0.042042956
60	0x3f0d1ed8	0.5512519
61	0x3d1a5039	0.037674163
62	0x3db35b78	0.08757681
63	0x3bbb9f9d	0.0057258145
64	0x3eaf2e18	0.34214854
65	0xbb80d24f	-0.0039313207
66	0x3cc383c4	0.023866542
67	0x3f673534	0.90315557
68	0xbc0ce0fd	-0.008598563
69	0x3c14d17b	0.009083147
70	0xbf702a7c	-0.93814826
71	0xbec68d10	-0.38779497
72	0x3cccf9b6	0.025021415
73	0x3eef9dd2	0.46800095
74	0x3f248612	0.64267075
75	0x3d627b60	0.05529344
76	0x3d28042a	0.041019596
77	0xbefc948c	-0.49332082
78	0x3c0447f7	0.008073798
79	0x3bf2e5e4	0.007412659
80	0xbf530f0e	-0.82444847
81	0x3e12f5dd	0.14351602
82	0x3e82d461	0.25552657
83	0xbfb16093	-1.3857597
84	0x3dcd3ad6	0.10020988
85	0x3eb8a4c8	0.36063218
86	0x3e6016fa	0.21883765
87	0x3d66dc80	0.05636263
88	0x3de1363c	0.109966725
89	0x3dd17516	0.102274105
90	0x3e3dd8e5	0.1853977
91	0x3f00b6aa	0.50278723
92	0x3d4f5437	0.050617423
93	0x3f6912c6	0.9104427
94	0xbf85c3d9	-1.0450393
95	0xbf2070fd	-0.62672406
96	0x3db107bd	0.08644054
97	0x3e3871cb	0.18012159
98	0xbe4f6e0d	-0.20256825
99	0x3c59a65c	0.013284292
100	0x3f418b41	0.7560311
101	0x3db93d04	0.09044841
102	0x3d2dd093	0.04243524
103	0xbf1de675	-0.61679775
104	0xbd013ddf	-0.031553145
105	0x3eb9104b	0.36145243
106	0xbf40d809	-0.75329643
107	0xbcfff6c7	-0.031245602
108	0x3c4961ad	0.012291354
109	0x3c0d5879	0.008627051
110	0x3c111dd9	0.008857214
111	0x3c863386	0.01638199
112	0xbb961d7e	-0.0045811525
113	0x3f60819b	0.8769776
114	0x3c16ac2a	0.009196321
115	0xbf7b1e69	-0.9809328
116	0x3ca97117	0.020683808
117	0x3dd3a3e7	0.10333996
118	0x3e0dafbf	0.13836573
119	0x3d673748	0.056449205
120	0x3e2a5dc8	0.16637337
121	0x3f088721	0.5333119
122	0x3ce9fe07	0.028563512
123	0x3dde84f6	0.10865204
124	0xbf979956	-1.184367
125	0x3d25879f	0.04041254
126	0x3bbab752	0.005698123
127	0xbdaaca8d	-0.08339415
128	0xbc3f556e	-0.011678083
129	0xbf831a5a	-1.0242417
130	0x3d4983e2	0.04919804
131	0x3daf8579	0.0857038
132	0xbb9c3405	-0.0047669434
133	0x3d3331c4	0.043748632
134	0x3f6e661a	0.93124545
135	0x3ae12839	0.0017178125
136	0xbf90b445	-1.1305014
137	0xbdef12d3	-0.11673512
138	0xbc6d807f	-0.014495968
139	0x3f3ad549	0.729817
140	0xb972855e	-0.00023128602
141	0x3a18f4f7	0.00058348424
142	0x3ed8f8c7	0.42377302
143	0xbc0fd733	-0.008779335
144	0x3eb1d86e	0.34735435
145	0x3e0a1fe0	0.13488722
146	0x3f02d416	0.5110487
147	0x3e2ead3e	0.17058274
148	0xbf5e094d	-0.8673294
149	0xbf361751	-0.7112933
150	0x3e050768	0.12991107
151	0x3c693927	0.014234818
152	0x3d8f39ca	0.06993444
153	0x3e1ee105	0.15515526
154	0x3ef6ec53	0.48227176
155	0xbf22fb40	-0.6366463
156	0x3ed0bef2	0.4077068
157	0xbf20d38f	-0.6282281
158	0x3dec12d7	0.11527031
159	0xbd02fd48	-0.03197983
160	0x3ac0c792	0.0014707914
161	0x3d849b1e	0.06474899
162	0x3d089e89	0.033354316
163	0x3ba7af19	0.005117309
164	0x3e8cedf4	0.27525294
165	0x3d7e094b	0.06202058
166	0xbe296508	-0.16542447
167	0x3f096e27	0.53683704
168	0xbfe3be75	-1.7792498
169	0x3e80d04d	0.2515892
170	0x3e4b8960	0.19876623
171	0x3ca03207	0.019555105
172	0x3e458959	0.19290675
173	0x3de33849	0.1109472
174	0xbfa69baa	-1.3016255
175	0x3ee24b1c	0.4419793
176	0x3e80e695	0.2517592
177	0x3da113b6	0.07865088
178	0x3cba274f	0.022723822
179	0x3dc5bf79	0.09655661
180	0x3c0513aa	0.008122364
181	0xbe9cf7d4	-0.30657828
182	0x3d84d380	0.06485653
183	0x3bf488df	0.0074626054
184	0x3f37da66	0.71817625
185	0x3ea1e375	0.31618848
186	0xbe953205	-0.29139724
187	0x3e193e6e	0.14965221
188	0xbf1b1c7f	-0.60590357
189	0xbafe6710	-0.0019409377
190	0x3f00a7b9	0.50255924
191	0x3eb24c71	0.34823945
192	0xbf34b45d	-0.7058771
193	0x3ecbd8a0	0.3981371
194	0xbc935351	-0.017984064
195	0x3cd0142b	0.025400242
196	0xbf207a97	-0.6268706
197	0x3dd9310c	0.10605058
198	0xbef95ba4	-0.4870273
199	0x3ed880f9	0.42285898
200	0x3bbacefe	0.005700945
201	0x3ebfde51	0.374743
202	0xbecc0389	-0.39846447
203	0xbc45c47e	-0.012070773
204	0xbee55e1c	-0.44798362
205	0x3f0a3f48	0.5400281
206	0x3b0c2e45	0.0021389883
207	0x3eb41ab2	0.35176617
208	0x3e28eaf2	0.16495875
209	0x3d57833d	0.052615393
210	0xbe297394	-0.16547996
211	0xbc372c07	-0.0111799305
212	0x3ea06afe	0.3133163
213	0xbf616877	-0.88050026
214	0x3df8e8c3	0.12153771
215	0x3b4228b6	0.0029626316
216	0xbf78ac6a	-0.97138083
217	0xbc20486e	-0.009782894
218	0x3e4ff850	0.20309567
219	0xbf0c9d3b	-0.54927415
220	0x3dcbf893	0.09959521
221	0x3f27b149	0.6550489
222	0x3f03b09c	0.5144136
223	0x3cbb7787	0.022884144
224	0x3c7859aa	0.015158096
225	0x3c0e3888	0.00868047
226	0xbf972a47	-1.1809777
227	0xb875386c	-5.84651e-05
228	0x3d3a860e	0.045538
229	0x3d1c160b	0.03810696
230	0x3d067f7b	0.03283642
231	0x3e913138	0.28357863
232	0x3e7de014	0.2479251
233	0x3e9472b1	0.28993753
234	0x3f0b2882	0.54358685
235	0xbe75f209	-0.2401811
236	0x3e88602c	0.26635873
237	0xbf1ebab1	-0.6200362
238	0xbec5f016	-0.38659734
239	0x3e90a922	0.28254038
240	0x3ca4b458	0.020105526
241	0x3ef39655	0.47575632
242	0xbeb526f5	-0.35381284
243	0x3d81fbf1	0.06346882
244	0x3e666081	0.22497751
245	0x3c758ef8	0.0149877
246	0x3dda6121	0.10663057
247	0xbfc91d82	-1.571213
248	0x3efd17b1	0.49432138
249	0x3dd7d95d	0.10539506
250	0x3e7b9a0d	0.24570484
251	0x3e9c50f3	0.3053051
252	0x3e46ba6c	0.19407052
253	0x3f174518	0.59089804
254	0x3c8c14cd	0.017099762
255	0x3dfdd408	0.123939574

module.inc.conv.conv.0.bias f4 [32]
0	0xbd97dcb4	-0.07415143
1	0xbd0918d8	-0.03347096
2	0xbe5ba04f	-0.21447872
3	0x3d88a0cb	0.06671294
4	0x3dbdeb3d	0.09273384
5	0x3e534b72	0.20634249
6	0xbd82d5ed	-0.06388459
7	0xbe6ba6dc	-0.2301287
8	0x3e609b0e	0.21934149
9	0xbe8569e4	-0.2605735
10	0x3e0de7c0	0.13857937
11	0xbea469a2	-0.3211184
12	0xbe1797c3	-0.14803986
13	0x3dc341e8	0.09534055
14	0xbe878a7d	-0.26472846
15	0x3d6e1e0a	0.058134116
16	0x3d6f3b9b	0.058406454
17	0xbe6072b9	-0.21918763
18	0x3d7f8c12	0.06238944
19	0x3e14485b	0.14480726
20	0x3e1f6d89	0.15569128
21	0xbd09f737	-0.033683028
22	0xbe9015ed	-0.28141728
23	0xbdddc6f1	-0.10828961
24	0x3e09aa71	0.13443924
25	0xbdfaa4cc	-0.12238464
26	0x3e0001cc	0.12500685
27	0x3e71c5c4	0.23610598
28	0xbe724413	-0.23658781
29	0x3b0c0d30	0.0021370165
30	0x3e85131d	0.25991145
31	0x3c4ae23f	0.012383043

module.inc.conv.conv.1.weight f4 [32]
0	0x3fd0862e	1.6290948
1	0x3f898818	1.0744658
2	0x3f6a4b1c	0.9152086
3	0x3f8bdfe3	1.09277
4	0x3f3a108b	0.7268149
5	0x3f88bbbd	1.0682293
6	0x3f9610f7	1.1723927
7	0x3f70d067	0.94067997
8	0x3f9d9f56	1.231425
9	0x403a6ecc	2.9130125
10	0x3f89a280	1.0752716
11	0x3eeba6dd	0.46025744
12	0x40102304	2.2521372
13	0x401758a0	2.3647842
14	0x3f7cb957	0.98720306
15	0x3f56a04b	0.8383834
16	0x3f897e1e	1.0741613
17	0x3f5ef3ec	0.87090945
18	0x3f81c510	1.0138264
19	0x3fecdc84	1.8504796
20	0x3f4d8102	0.80274975
21	0x3f7d222e	0.9888028
22	0x3f8eeb0f	1.1165484
23	0x3fac99cc	1.3484435
24	0x3fab224d	1.3369843
25	0x3fe94ef0	1.8227215
26	0x3ef2f14f	0.4744973
27	0x3ff13197	1.8843259
28	0x3f72e0cf	0.9487428
29	0x3f525ff5	0.8217767
30	0x3f6503cb	0.8945891
31	0x3f306f8a	0.68920195

module.inc.conv.conv.1.bias f4 [32]
0	0x3e2bb5f5	0.1676863
1	0x3c97b1d5	0.018517414
2	0x3cc98401	0.024599077
3	0x3e0320a9	0.12805428
4	0x3d4d5278	0.050127476
5	0xbf05958d	-0.5218132
6	0x3d239075	0.039932687
7	0xbd592e26	-0.053022526
8	0x3d31888e	0.04334312
9	0x3ed15fd8	0.40893435
10	0x3d6a41bd	0.0571916
11	0x3ed68c82	0.41904074
12	0x3d9e6d8d	0.07735739
13	0x3e282923	0.16421942
14	0x3ea04dde	0.31309408
15	0xbda14205	-0.0787392
16	0x3c16518f	0.0091747185
17	0x3d133a14	0.03594406
18	0x3d8075c0	0.06272459
19	0x3d0d998c	0.03457026
20	0x3e2a844e	0.16652033
21	0x3d7bfce3	0.06152047
22	0x3be70a10	0.00705076
23	0x3e503423	0.20332389
24	0x3d70df28	0.05880657
25	0x3de3097c	0.110857934
26	0x3bdfa755	0.0068253675
27	0x3e450f97	0.19244228
28	0xbf9d793a	-1.230262
29	0xbd3ce09e	-0.04611265
30	0xbf406c18	-0.7516494
31	0x3c79743a	0.0152254645

module.inc.conv.conv.1.running_mean f4 [32]
0	0xbe4b605f	-0.19860981
1	0xbefcad0f	-0.49350783
2	0xbe826997	-0.25471184
3	0xbf72e587	-0.9488148
4	0xbfba6e82	-1.4564974
5	0xbe32cb5e	-0.17460391
6	0xbe9bd4cc	-0.3043579
7	0xbe73a526	-0.23793468
8	0xbcfe8dc0	-0.031073451
9	0xbedef6a6	-0.43547553
10	0x3dfe5a9d	0.12419627
11	0xbf63ab42	-0.88933194
12	0xbe9f68a6	-0.31134528
13	0x3aaba5b6	0.001309565
14	0xbe812328	-0.25222135
15	0x3c3940d0	0.011306956
16	0xbeca93b3	-0.3956581
17	0xbe9fced1	-0.31212476
18	0xbf9c280b	-1.219972
19	0xbe42734b	-0.18989293
20	0x3e5172b3	0.2045391
21	0xbe131283	-0.1436253
22	0xbe84da02	-0.25947577
23	0xbe2d1922	-0.16904119
24	0x3c91e165	0.017807672
25	0xbf453872	-0.77039254
26	0x3e48a351	0.1959355
27	0x3dafb5bb	0.08579584
28	0x3e7ce9fd	0.24698634
29	0x3ea8a59b	0.32938847
30	0xbe3d6dd2	-0.18498924
31	0xbecad599	-0.39616087

module.inc.conv.conv.1.running_var f4 [32]
0	0x42652bcd	57.292774
1	0x422ab248	42.674103
2	0x42a4138f	82.0382
3	0x42f19152	120.78383
4	0x427d14a1	63.270145
5	0x4288b1be	68.34715
6	0x425045a0	52.067993
7	0x41e2a4a3	28.330389
8	0x4248e797	50.226162
9	0x429d390f	78.61144
10	0x42943f11	74.12318
11	0x4235ab4f	45.417294
12	0x42515576	52.333458
13	0x41f377ba	30.43346
14	0x42eaa2e9	117.318184
15	0x41b7a81e	22.957088
16	0x42209600	40.146484
17	0x41d69862	26.824406
18	0x430d4492	141.26785
19	0x428e9e22	71.30885
20	0x4189d3b3	17.228369
21	0x425e2947	55.54031
22	0x41873d62	16.904972
23	0x423f6d1b	47.85655
24	0x42be83a4	95.25711
25	0x4254106a	53.01603
26	0x41300d1e	11.003202
27	0x42050ea6	33.264305
28	0x41c05031	24.039156
29	0x42ac79ca	86.23787
30	0x4225b57f	41.427242
31	0x41853283	16.649664

module.inc.conv.conv.3.weight f4 [32, 32, 3, 3]
0	0xbde64c5c	-0.11245033
1	0xbc935849	-0.017986434
2	0xbcf2326b	-0.029565057
3	0x3bfbacb2	0.007680499
4	0xbf0c736a	-0.5486361
5	0xbd5729b3	-0.05253
6	0x3dba7057	0.091034584
7	0xbee1dc1d	-0.44113246
8	0x3e533c98	0.20628583
9	0xbf293cb7	-0.6610827
10	0xbedbab17	-0.4290397
11	0xbdb247cd	-0.08705101
12	0xbe9ae5b1	-0.30253366
13	0xbf4f10c0	-0.80884933
14	0x393702ec	0.00017453328
15	0xbe2fdbb1	-0.1717365
16	0x3e5d7d74	0.21629888
17	0xbdb1acc0	-0.086755276
18	0x3ca26cc5	0.019827256
19	0xbd9e3802	-0.077255264
20	0x3e3ecd27	0.18632947
21	0xbd807823	-0.06272914
22	0xbfc60968	-1.547162
23	0xbf6c360b	-0.92269963
24	0xbdb10b8c	-0.086447805
25	0xbebaf67b	-0.36516175
26	0xbe9f5141	-0.3111668
27	0x3e0e677d	0.13906665
28	0x3e2a4871	0.16629197
29	0x3e41c568	0.18922961
30	0x3da34e53	0.079739235
31	0x3e6b2130	0.22961879
32	0x3eb747a5	0.35796848
33	0x3e4f8447	0.20265304
34	0x3daf75fd	0.08567426
35	0x3e583b34	0.21116334
36	0xbe7d9308	-0.24763119
37	0x3e5e3857	0.2170118
38	0x3edb153d	0.4278964
39	0xbd8e3653	-0.06943955
40	0x3da4cf9a	0.08047409
41	0x3ec4ccc2	0.38437468
42	0x3e9a2fea	0.3011468
43	0x3ebcf5b7	0.36906216
44	0x3e66e8a7	0.22549687
45	0xbe9aa5ca	-0.30204612
46	0xbe4c85f9	-0.19972982
47	0x3c1f7ca5	0.009734307
48	0x3e2b8535	0.16750033
49	0xbfa4b78e	-1.2868516
50	0xbf1c7eee	-0.6113118
51	0xbe62314b	-0.22089116
52	0xbec0f791	-0.37688878
53	0xbfda5455	-1.7056986
54	0xbe0be76e	-0.13662502
55	0xbeceb6ef	-0.40373942
56	0x3ce82026	0.028335642
57	0xbe500bab	-0.20316951
58	0xbe9a4d02	-0.30136877
59	0x3f342c0d	0.70379716
60	0xbcc22eaa	-0.023703892
61	0x3e6a8b65	0.22904737
62	0x3f20137f	0.6252975
63	0xbe8e27b5	-0.2776467
64	0xbf5617fc	-0.8363035
65	0xbeace888	-0.33771157
66	0xbfe05b80	-1.7527924
67	0xbf1f5fa1	-0.62255293
68	0x3dc4ff14	0.09618965
69	0x3d39fbee	0.045406274
70	0xbda0a957	-0.07844799
71	0xbf931f77	-1.1493977
72	0x3ec24a30	0.37947226
73	0x3d14b955	0.03630956
74	0x3c69fea9	0.014281907
75	0x3e83bf79	0.2573202
76	0x3e9c3fc2	0.30517393
77	0x3e162bbe	0.14665124
78	0x3e9138e9	0.28363732
79	0x3f4778a3	0.7791845
80	0x3efa273d	0.4885806
81	0x3d54d892	0.05196435
82	0x3e12f03d	0.14349456
83	0xbd69b0c0	-0.057053328
84	0x3ec0578b	0.3756679
85	0xbee5927d	-0.44838324
86	0xbd940b36	-0.07228701
87	0x3e0857d9	0.13314761
88	0xbe85f719	-0.26165083
89	0xbd724a6b	-0.059153
90	0x3efa5872	0.48895603
91	0xbf0dc4d2	-0.5537845
92	0xbd522165	-0.05130138
93	0x3d94d882	0.07267858
94	0x3ef2a1e4	0.47389138
95	0x3e21de3f	0.15807436
96	0xbe0394fd	-0.12849803
97	0x3e9497c5	0.2902204
98	0x3f5b8106	0.8574375
99	0x3f1e0c53	0.61737555
100	0x3c8e16b3	0.017344808
101	0x3d52277d	0.05130719
102	0x3e1255e0	0.14290571
103	0xbdf778ec	-0.12083611
104	0x3f8b4216	1.0879543
105	0xbd9e301e	-0.077240214
106	0x3e209ab1	0.1568401
107	0x3f1f1d0c	0.62153697
108	0xbf02e31c	-0.5112779
109	0x3d6b9ac8	0.057520658
110	0xbdb1289d	-0.086503245
111	0xbe8dcee7	-0.27696916
112	0x3e82d0a4	0.25549805
113	0x3e598112	0.21240643
114	0xbe12d7a4	-0.14340073
115	0x3e9e5776	0.30926102
116	0x3f03bffc	0.5146482
117	0xbeb765c5	-0.35819831
118	0x3eb3be03	0.35105905
119	0x3e9a6c77	0.30160877
120	0xbea61693	-0.32439098
121	0xbe1208c2	-0.14261153
122	0x3f4232d6	0.7585882
123	0xbcc698f3	-0.024242854
124	0xbda9d114	-0.082918316
125	0x3d908b78	0.070578516
126	0x3ebb7d2f	0.36618945
127	0x3e777eed	0.24169512
128	0x3dff02be	0.12451695
129	0x3ee964ac	0.4558462
130	0xbfe00ef9	-1.7504569
131	0xbee640f9	-0.44971445
132	0x3ea65029	0.32483032
133	0xbc040e13	-0.008059996
134	0xbe425fcb	-0.18981855
135	0xbe9f05cb	-0.31059107
136	0xbdea13ef	-0.11429583
137	0xbf117b54	-0.5682881
138	0xbe18aebd	-0.14910407
139	0x3ea852a8	0.32875562
140	0xbf06b232	-0.52615654
141	0x3d011c23	0.031520974
142	0x3dbbad9c	0.09163973
143	0xbe66cec3	-0.22539811
144	0xbc80d99a	-0.01572876
145	0x3d50e65a	0.05100093
146	0x3d8395a6	0.064250275
147	0xbdb8023d	-0.08984802
148	0xbddc6ff7	-0.10763543
149	0x3e3c325c	0.18378586
150	0x3ebd8299	0.370137
151	0x3edabe17	0.42723152
152	0x3eb71c4b	0.35763773
153	0xbee54791	-0.44781163
154	0xbe9c37cd	-0.30511323
155	0x3e1bf985	0.15231903
156	0xbec70f87	-0.38879034
157	0xbf109553	-0.5647785
158	0x3e28f421	0.16499378
159	0x3ef9bf1e	0.48778623
160	0xbd4a4d5d	-0.049390186
161	0x3eaaa4aa	0.33328754
162	0xbe3df9e6	-0.1855236
163	0xbe89ffa0	-0.2695284
164	0x3e5cc548	0.21559632
165	0xbe8bebba	-0.27328283
166	0xbe256fbc	-0.16155905
167	0xbdd005a7	-0.10157328
168	0xbdd8833c	-0.10571906
169	0x3c244b0f	0.010027661
170	0xbe0c1204	-0.13678747
171	0xbebf9bd5	-0.37423578
172	0xbf2f7637	-0.68539757
173	0xbe993e88	-0.2993052
174	0xbf06987d	-0.5257643
175	0xbec8dab8	-0.3922937
176	0x3d1fcbcb	0.03901271
177	0xbe99aa90	-0.3001294
178	0xbe7d1a75	-0.24717124
179	0xbd6e7ac3	-0.058222543
180	0x3e61708a	0.22015586
181	0x3d911a50	0.07085097
182	0xbdb3f02d	-0.08786044
183	0xbe44ecd7	-0.19230972
184	0x3ed524db	0.4162968
185	0xbe617e6e	-0.22020885
186	0x3e22f11e	0.15912291
187	0xbe395f06	-0.18102655
188	0xbf612e05	-0.87960845
189	0x3f00b589	0.50277
190	0x3e38c1f7	0.18042742
191	0xbe6c7f97	-0.23095547
192	0x3dd2944e	0.10282193
193	0xbe2ff2f7	-0.17182527
194	0x3e460bde	0.19340464
195	0xbc973033	-0.0184556
196	0x3e8dbc36	0.27682656
197	0xbd8c95e9	-0.068645306
198	0xbec73726	-0.38909262
199	0x3d553b45	0.052058477
200	0x3de29645	0.11063818
201	0xbd1e29cd	-0.038614083
202	0xbd7cb959	-0.0617002
203	0xbe6aaea1	-0.22918178
204	0xbc9a5d68	-0.018843368
205	0xbd896101	-0.06707955
206	0x3d047677	0.03233954
207	0xbdacdfac	-0.084410995
208	0x3eed30f1	0.46326402
209	0x3d1d1075	0.038345773
210	0x3cf90d1c	0.030401759
211	0xbce802d2	-0.028321657
212	0xbd36b571	-0.04460663
213	0x3de304cb	0.110848986
214	0xbe2f8cc6	-0.17143545
215	0x3d41d11e	0.04731857
216	0xbeb163c9	-0.34646443
217	0xbec777fb	-0.38958725
218	0xbe182858	-0.1485914
219	0xbdfbd9f1	-0.122974284
220	0xbccd663e	-0.025073167
221	0xbc5424d3	-0.012948233
222	0xbe1f53c7	-0.15559302
223	0xbf216630	-0.6304655
224	0xbe92454f	-0.28568503
225	0xbe45f632	-0.19332197
226	0xbeb82657	-0.3596675
227	0xbd8bfb7e	-0.06835078
228	0x3c84a8dd	0.016193802
229	0xbe98f0ad	-0.2987112
230	0xbea7c0b3	-0.32764205
231	0xbe808008	-0.2509768
232	0x3e4f5824	0.20248467
233	0x3d62e4f2	0.05539412
234	0x3e115728	0.14193404
235	0xbdf74ef6	-0.120756075
236	0xbcdd5100	-0.027016163
237	0x3e16bcd2	0.14720467
238	0xbe90b6c5	-0.28264442
239	0xbf272030	-0.6528349
240	0x3e309e06	0.17247781
241	0xbf03b024	-0.51440644
242	0x3eb8e123	0.36109266
243	0xbed3ef86	-0.4139368
244	0xbe4bc122	-0.19897893
245	0x3dadc5a6	0.08484964
246	0x3ec89c29	0.3918164
247	0xbf3aa9e0	-0.7291546
248	0xbbe2a7ca	-0.0069169747
249	0x3e37f1f6	0.17963395
250	0xbdbce81c	-0.09223959
251	0x3efe9c70	0.49728727
252	0x3e86edfb	0.2635344
253	0xbcfa3946	-0.030544888
254	0xbddff528	-0.10935432
255	0x3f2a56a3	0.6653845

module.inc.conv.conv.3.bias f4 [32]
0	0x3cd11242	0.025521401
1	0xbd4fb620	-0.050710797
2	0x3d3c142a	0.045917667
3	0x3c9e6c90	0.019338876
4	0x3bef2ee5	0.0072992914
5	0xbc3695cf	-0.011144116
6	0xbd961a33	-0.07329216
7	0x3cefdf63	0.029281324
8	0x3c38a6f4	0.0112702735
9	0xbd509f36	-0.050933085
10	0x3d189104	0.037247673
11	0x3baf37c7	0.0053472253
12	0xbca55e92	-0.020186696
13	0x3cbe6775	0.023242692
14	0x3cb47776	0.02202962
15	0x3db701d3	0.08935895
16	0x3dbc6140	0.091982365
17	0x3cf2e799	0.02965145
18	0x3d9fc3dc	0.07801029
19	0xbb74a1df	-0.0037327928
20	0xbe9471d8	-0.28993106
21	0x3e165c2c	0.14683598
22	0xbd19a397	-0.037509527
23	0x3d1a77ec	0.037712023
24	0xbbc1de25	-0.0059163743
25	0xbcdc70b5	-0.026909212
26	0xbc5286d7	-0.012849531
27	0x3c5fcb34	0.013659287
28	0xbdf78334	-0.12085572
29	0x3e34a869	0.17642368
30	0x3da98b2c	0.08278498
31	0x3bdf289b	0.0068102605

module.inc.conv.conv.4.weight f4 [32]
0	0x3ff6e10f	1.9287432
1	0x3eef1f46	0.46703547
2	0x3faf5d85	1.3700415
3	0x3fdccdeb	1.7250341
4	0x3fbb1186	1.4614723
5	0x3f644b13	0.89177054
6	0x3fbafcaf	1.4608363
7	0x3f2cdf4f	0.6752824
8	0x3f84a992	1.0364249
9	0x3ec548ac	0.38532007
10	0x3fa102a4	1.2578931
11	0x3fcced59	1.6009933
12	0x3fdb074c	1.7111602
13	0x3f5d086c	0.86340976
14	0x3f787e98	0.97068167
15	0x3fb86ac5	1.4407583
16	0x3e576260	0.21033621
17	0x3fa696af	1.3014735
18	0x3fe7668c	1.807817
19	0x3fe7fb0b	1.8123487
20	0xbf4d1486	-0.8010944
21	0x3fdc64c3	1.721825
22	0x3f8aa391	1.0831167
23	0x3ee79c2d	0.4523634
24	0xbc510a1f	-0.012758761
25	0x3e53fd82	0.20702174
26	0x3e63039c	0.22169346
27	0x3fb79bf0	1.4344463
28	0x3f8d0f10	1.1020222
29	0x3e71c290	0.23609376
30	0x4001da87	2.0289629
31	0x3f8ea583	1.114426

module.inc.conv.conv.4.bias f4 [32]
0	0xbce76297	-0.028245253
1	0xbbc889db	-0.0061199493
2	0xbda25498	-0.07926291
3	0xbd5a2e51	-0.053266827
4	0xbc9f50b4	-0.019447662
5	0xbccaf5d1	-0.024775418
6	0x3cfc121b	0.030770352
7	0xbd9cc27e	-0.07654284
8	0xbdf5cf5a	-0.1200244
9	0x3f309e2e	0.68991363
10	0xbbfacf8a	-0.007654135
11	0x3d24cde9	0.040235434
12	0x3a69608d	0.0008902632
13	0xbced4a7f	-0.028966187
14	0xbd6dc3bd	-0.058048
15	0x3e00431f	0.12525605
16	0x3cb99e79	0.022658573
17	0xbc9d4b0e	-0.019200828
18	0x3aa532b2	0.0012603609
19	0xbd005c94	-0.03133829
20	0xbe0de2e0	-0.13856077
21	0x3e23c2b6	0.15992245
22	0x3dac1f93	0.0840446
23	0x3b0546ef	0.002033647
24	0xbd652272	-0.055941053
25	0x3ddfc635	0.10926477
26	0xbd82a5f4	-0.06379309
27	0x3dc1a73c	0.094557256
28	0xbd93e3d4	-0.07221189
29	0xbf790a0f	-0.97280973
30	0x3d9760ff	0.073915474
31	0xbc5ef8dd	-0.013609138

module.inc.conv.conv.4.running_mean f4 [32]
0	0x3e43ab5b	0.19108336
1	0xbf87bfa4	-1.0605359
2	0xbf325398	-0.69658804
3	0xbe72023f	-0.2363367
4	0xbf8c3975	-1.0955034
5	0xc0182fde	-2.3779216
6	0xbfb5ced2	-1.4203742
7	0x3f0ab112	0.5417644
8	0xbf0b581b	-0.54431313
9	0xc04b5ad1	-3.177418
10	0xbf428425	-0.75982887
11	0xbfabad54	-1.341227
12	0xbf80d43c	-1.0064769
13	0xbf4b0cd5	-0.79316455
14	0xbee90519	-0.45511702
15	0xbf121ccf	-0.5707521
16	0xbf346fd8	-0.7048316
17	0xbf112786	-0.5670093
18	0xbf1b9a5c	-0.6078241
19	0xbee4a680	-0.4465828
20	0x4074ebaa	3.8268838
21	0xbfb7a972	-1.4348586
22	0xbfb6317f	-1.4233855
23	0xc07ffb29	-3.9997046
24	0x3fa1dcc8	1.2645502
25	0xbf74d965	-0.9564422
26	0xbfe273b9	-1.7691566
27	0xbf341114	-0.7033856
28	0xbe986832	-0.29766995
29	0x3eda957e	0.42692178
30	0xbf8b668d	-1.0890671
31	0x3d11b88b	0.035576385

module.inc.conv.conv.4.running_var f4 [32]
0	0x41813cba	16.154652
1	0x41a2a390	20.329865
2	0x41801229	16.008867
3	0x41842416	16.51762
4	0x41a3a972	20.457737
5	0x41e57176	28.6804
6	0x420ab2da	34.67466
7	0x411b116a	9.6917515
8	0x40d42b6a	6.6302996
9	0x429d1e04	78.558624
10	0x41a36094	20.422157
11	0x4245baa8	49.43228
12	0x4225a536	41.41134
13	0x41008743	8.033023
14	0x41b6a8a1	22.832338
15	0x420f58b7	35.836636
16	0x404aceff	3.168884
17	0x423dda13	47.462963
18	0x41fcd09c	31.60186
19	0x41a7acc3	20.959356
20	0x438cd1c2	281.63873
21	0x42151260	37.267944
22	0x41b0ae7d	22.0852
23	0x422ba261	42.908573
24	0x4063d959	3.5601408
25	0x41629d9f	14.163482
26	0x4110bdcf	9.04634
27	0x419bc4bf	19.471067
28	0x413e5177	11.894889
29	0x41b58cf3	22.693823
30	0x422b214a	42.78251
31	0x40bbc3c2	5.867646

module.down1.mpconv.1.conv.0.weight f4 [64, 32, 3, 3]
0	0xbe7e445d	-0.24830766
1	0x3dbc97fd	0.09208677
2	0xbe0818b5	-0.13290675
3	0x3e57c298	0.21070325
4	0xbe8f8cf4	-0.28037226
5	0x3e7c7a9f	0.24656151
6	0x3f110d9e	0.56661403
7	0x3e1b3680	0.15157509
8	0xbd0ffe75	-0.03515478
9	0xbed63eac	-0.4184469
10	0x3e9eec9c	0.31039894
11	0xbe65f898	-0.22458112
12	0x3ec31735	0.38103643
13	0x3f0ad733	0.5423462
14	0x3e25926d	0.16169138
15	0xbe205c93	-0.15660314
16	0x3ebe8faf	0.37218997
17	0xbe1a0c91	-0.15043856
18	0x3d953eb6	0.07287352
19	0x3c8061c8	0.015671626
20	0xbe05ce8f	-0.13067077
21	0xbe804ceb	-0.25058684
22	0x3e6bcb2d	0.23026724
23	0xbf4d0630	-0.80087566
24	0xbdbf6df3	-0.09347143
25	0xbf40c7de	-0.75304973
26	0x3e029797	0.1275314
27	0xbd9cd498	-0.076577365
28	0x3e8b97d6	0.2726428
29	0xbe8f1f2c	-0.2795347
30	0xb9c2f5e7	-0.00037185775
31	0x3e8458bb	0.25848946
32	0x3dd72a10	0.1050607
33	0x3d28909f	0.041153546
34	0x3ec4a71d	0.38408747
35	0xbba56519	-0.005047452
36	0x3e3fcc3f	0.18730257
37	0xbdce58bc	-0.100755185
38	0x3de629a5	0.11238412
39	0xbc843601	-0.016139032
40	0xbf064baa	-0.52459204
41	0xbe836ea4	-0.2567035
42	0xbf871fef	-1.055662
43	0xbeee7e4e	-0.46580738
44	0x3d1a2de0	0.037641406
45	0x3e75e35c	0.24012512
46	0x3e9bc33b	0.30422387
47	0x3eb1a9aa	0.34699756
48	0x3f42678d	0.75939256
49	0xbc0d302c	-0.008617442
50	0xbe7690f1	-0.24078728
51	0x3ee1aaa9	0.44075516
52	0xbf14d491	-0.5813685
53	0xbeaa0aff	-0.33211514
54	0xbe8d3bba	-0.2758463
55	0xbdf1b21e	-0.11801551
56	0x3c8118cb	0.015758893
57	0xbd39ab0d	-0.045329142
58	0x3f19ee79	0.60129505
59	0xbe5b5c76	-0.2142199
60	0x3dd9c3a4	0.106330186
61	0x3ddeadc3	0.10872986
62	0x3e32d268	0.17463076
63	0x3f2795d0	0.6546297
64	0xbd86bb82	-0.06578733
65	0xbedb0ab8	-0.42781615
66	0xbf1ec009	-0.6201177
67	0x3d505c2b	0.05086915
68	0xbef62f45	-0.4808294
69	0xbf17a662	-0.59238255
70	0x3ef93964	0.48676598
71	0xbeb5f8fc	-0.35541523
72	0xbf975e33	-1.1825622
73	0xbed59edd	-0.41722766
74	0x3e1a0aaf	0.15043138
75	0x3cc0cc11	0.023534806
76	0x3e346eb0	0.17620349
77	0x3c82d8d1	0.015972527
78	0xbf03c68a	-0.5147482
79	0xbf30d045	-0.69067794
80	0xbe701a1d	-0.23447461
81	0xbcf8eb90	-0.030385762
82	0x3e3f9423	0.18708853
83	0x3ee659c3	0.44990358
84	0xbebf58f7	-0.37372562
85	0xbe381772	-0.17977694
86	0x3e4e9760	0.20174932
87	0x3e5f2337	0.21790777
88	0x3e9f69a9	0.311353
89	0x3ec2cbc4	0.38046086
90	0xbea64d02	-0.32480627
91	0xbf8862ee	-1.0655191
92	0xbdf14217	-0.11780184
93	0xbf402a87	-0.7506489
94	0xbed18736	-0.4092347
95	0xbe9cb483	-0.3060647
96	0xbef3185d	-0.47479525
97	0xbe8409b8	-0.25788665
98	0xbdf85319	-0.121252246
99	0xbe3ef018	-0.18646276
100	0xbe54f092	-0.20794895
101	0x3d6356b8	0.055502623
102	0xbedf3add	-0.43599597
103	0x3d94c0d0	0.072633386
104	0x3efd899e	0.49519056
105	0xbf6a097b	-0.91420716
106	0x3f807c5e	1.0037954
107	0x3ee28f7f	0.44250104
108	0x3ef685f3	0.4814907
109	0x3ec22f99	0.3792694
110	0x3eeb8e86	0.46007174
111	0xbc95123e	-0.018197175
112	0x3e50ec1b	0.20402567
113	0x3ecb3083	0.3968545
114	0xbf11cf3b	-0.56956834
115	0x3ea85144	0.328745
116	0x3dedd40e	0.11612712
117	0xbe9588d7	-0.29205963
118	0xbe9e1c1a	-0.30880815
119	0xbf1050e9	-0.5637346
120	0x3f0a7ec8	0.540997
121	0x3eb35841	0.3502827
122	0xbedeecec	-0.43540132
123	0xbde8896a	-0.11354335
124	0xbd146d2d	-0.03623693
125	0x3e3c4819	0.18386878
126	0xbed5489a	-0.41656953
127	0x3d296cd0	0.041363537
128	0x3eff3d93	0.49851665
129	0x3ea57653	0.32316837
130	0x3ee682fc	0.45021808
131	0x3ea92d30	0.33042288
132	0xbe05126c	-0.12995309
133	0x3c44ce6a	0.012012104
134	0x3f1def27	0.6169304
135	0x3e5e1211	0.2168658
136	0xbc75a20e	-0.01499225
137	0x3e8a1ea0	0.2697649
138	0xbdb5ec4a	-0.08882959
139	0xbe40caa2	-0.18827298
140	0xbd518516	-0.05115231
141	0xbf2e2aef	-0.6803426
142	0xbe9c299c	-0.30500495
143	0x3e07e64b	0.13271444
144	0x3e2623e2	0.16224626
145	0x3ebc2f42	0.36754805
146	0xbdf34997	-0.118792705
147	0xbcd845d9	-0.026400493
148	0xbe15a4cd	-0.14613648
149	0x3d84b0be	0.064790234
150	0xbd978ee2	-0.074002996
151	0xbe87cddc	-0.26524246
152	0xbf2c9823	-0.6741964
153	0xbe3c56b3	-0.18392448
154	0xbe22a597	-0.1588348
155	0xbbc6d9b5	-0.006068433
156	0x3e6cfcfb	0.2314338
157	0x3d9fa176	0.07794468
158	0x3dbf2e28	0.093349755
159	0xbee73e9c	-0.45164955
160	0xbdb45fcb	-0.088073336
161	0x3d9c2623	0.076244615
162	0x3f019aed	0.50627023
163	0x3f58e813	0.8472912
164	0x3e034253	0.1281827
165	0x3f8163e0	1.0108604
166	0x3e4f6f02	0.2025719
167	0x3e14c740	0.14529133
168	0xbf8160fe	-1.0107725
169	0xbe6f203d	-0.23352142
170	0x3ef89a25	0.48555103
171	0xbebfe36c	-0.37478197
172	0xbd94ced8	-0.07266015
173	0x3dade082	0.08490087
174	0x3e233d01	0.1594124
175	0x3f09010c	0.5351722
176	0xbebf569b	-0.37370762
177	0x3dd7eebb	0.10543581
178	0xbef40b12	-0.47664696
179	0xbd4c64e8	-0.04990092
180	0xbf1fadd0	-0.6237459
181	0xbecb5ff6	-0.3972165
182	0xbdc62df1	-0.096767314
183	0xbe78c2d0	-0.24293065
184	0x3f982677	1.1886739
185	0xbec5f054	-0.38659918
186	0xbeba65b0	-0.36405706
187	0x3f874e89	1.0570842
188	0x3c84bb22	0.016202513
189	0x3e908281	0.28224567
190	0x3ea3e551	0.32010892
191	0x3de8c52a	0.11365731
192	0xbf25fd45	-0.64839584
193	0xbefe8bb0	-0.49715948
194	0xbe19ad6d	-0.15007563
195	0x3e8de695	0.27714983
196	0x3ec929b7	0.39289638
197	0xbe0dcba3	-0.13847212
198	0xbdfab522	-0.122415796
199	0xbe811f10	-0.2521901
200	0x3f3a5274	0.72782063
201	0x3f36a1c7	0.713406
202	0x3f01d021	0.50708205
203	0x3ead4fa6	0.3384983
204	0xbf71fbea	-0.94525015
205	0x3d833d07	0.064081244
206	0xbeb743d0	-0.35793924
207	0x3cd8c776	0.026462298
208	0xbec00335	-0.37502447
209	0x3ed73ba5	0.42037693
210	0xbf24fbb1	-0.6444655
211	0xbe82fc1d	-0.25582972
212	0xbedfc8f4	-0.43708003
213	0xbe4343fb	-0.19068901
214	0xbdd0fd1d	-0.102045275
215	0xbdaf62a0	-0.08563733
216	0x3b951f32	0.004550838
217	0xbc670e6f	-0.014102562
218	0xbb50b518	-0.0031846222
219	0xbcae4cdc	-0.021276884
220	0x3da29392	0.07938303
221	0x3d8bf8bf	0.06834554
222	0xbcb7ff74	-0.022460677
223	0x3c2850c3	0.010273161
224	0x3c825bca	0.015912909
225	0xbf06d46d	-0.52667886
226	0xbd00367a	-0.031301953
227	0xbab06c96	-0.0013460096
228	0xbf11f90f	-0.5702066
229	0xbd6bd8e0	-0.057579875
230	0xbdf44881	-0.119278915
231	0xbf26663a	-0.64999735
232	0x3eab1e06	0.33421344
233	0xbc55ded6	-0.0130536165
234	0xbe571b80	-0.21006584
235	0xbda2fa06	-0.079578444
236	0x3f0a562f	0.54037756
237	0xbe0d8f39	-0.13824166
238	0xbe679f5c	-0.22619385
239	0x3e285b32	0.16441038
240	0x3e44f97b	0.19235794
241	0x3e9c4a15	0.3052527
242	0x3e0969b1	0.13419224
243	0xbf0da97c	-0.5533674
244	0xbf32d549	-0.698567
245	0xbcc24df6	-0.023718815
246	0xbdb285dd	-0.08716939
247	0xbf215084	-0.6301348
248	0xbdc0e899	-0.094193645
249	0x3e5ac68d	0.21364804
250	0x3f24a9ca	0.6432158
251	0xbdfcc465	-0.12342147
252	0xbe45690c	-0.19278353
253	0xbe6303ee	-0.22169468
254	0x3e61dc15	0.22056611
255	0xbda38de6	-0.07986049

module.down1.mpconv.1.conv.0.bias f4 [64]
0	0xbd2ab126	-0.04167285
1	0x3d4d6777	0.0501475
2	0xbd7e26e6	-0.062048815
3	0xbd4214d5	-0.04738315
4	0x3cdeee00	0.027213097
5	0x3c891d3c	0.016737573
6	0x3c23be12	0.009994047
7	0xbcfc3379	-0.030786263
8	0xbd5699c0	-0.05239272
9	0xbca2eb5f	-0.019887624
10	0x3cb0869d	0.021548564
11	0x3e4c8fca	0.19976726
12	0x3dadd2ea	0.08487494
13	0x3c9da2f7	0.019242747
14	0xbdc47754	-0.095930725
15	0x3d10c91b	0.03534804
16	0xbbdea0c9	-0.0067940694
17	0xbc3b30d1	-0.011425213
18	0x3d25ef08	0.04051116
19	0xbd658f6b	-0.056044977
20	0x3d63738e	0.055530123
21	0x3dd429e3	0.10359552
22	0xbce763cb	-0.028245827
23	0x3cc359b8	0.023846492
24	0x3d188fc6	0.037246488
25	0x3d4dadc6	0.05021455
26	0xbc0b90a3	-0.008518371
27	0xbccbbb98	-0.024869725
28	0xbc676eee	-0.014125569
29	0xbdb216dd	-0.08695767
30	0xbccbac03	-0.024862295
31	0xbd51ca9b	-0.05121861
32	0xbd1b697d	-0.0379424
33	0xbd6944c7	-0.056950357
34	0xbb27c005	-0.002559663
35	0x3db34a07	0.08754354
36	0x3c2cbaf6	0.010542622
37	0x3f75707c	0.9587476
38	0x3cbf0c7f	0.023321388
39	0x3d1a8198	0.037721246
40	0xbe02f779	-0.12789716
41	0x3d026b2d	0.031840492
42	0x3cc972ba	0.024590839
43	0xbaaf4e12	-0.0013374707
44	0xbd146a07	-0.036233928
45	0x3d1ab885	0.037773628
46	0xbc9675d5	-0.018366734
47	0x3d8ac2f8	0.067754686
48	0x3d9181eb	0.07104858
49	0xbdb300b6	-0.0874037
50	0xbdad8d07	-0.084741645
51	0xbbcfb496	-0.006338666
52	0xbd6e36c2	-0.05815769
53	0xbd25fd4d	-0.04052477
54	0xbc5f90c3	-0.013645354
55	0x3dff5ec8	0.1246925
56	0x3c04442f	0.008072897
57	0x3cb25a1c	0.021771483
58	0x3e3f6b80	0.18693352
59	0x3c3c314d	0.011486364
60	0xbce1a9b2	-0.027546737
61	0xbd600753	-0.054694485
62	0x3d16c728	0.036811024
63	0xbcc52f16	-0.024070304

module.down1.mpconv.1.conv.1.weight f4 [64]
0	0x3f1e76fc	0.61900306
1	0x3f1a1947	0.6019482
2	0x3f20151f	0.6253223
3	0x3f1deded	0.6169117
4	0x3f04a2b9	0.51810795
5	0x3f641f11	0.89109904
6	0x3f40a206	0.7524723
7	0x3e66d0c2	0.22540572
8	0x3f0260ce	0.5092896
9	0x3f2859df	0.6576213
10	0x3f31c436	0.6944002
11	0x3f458773	0.77159804
12	0x3e9c5134	0.30530703
13	0x3f2d9425	0.67804176
14	0x3f332f1c	0.6999376
15	0x3f1b1f25	0.605944
16	0x3f36376e	0.7117833
17	0x3ed2240b	0.41043124
18	0x3f00ed2b	0.5036189
19	0x3f291bfb	0.6605832
20	0x3e9c29d1	0.30500653
21	0x3f6fe3a7	0.93706745
22	0x3f740418	0.95318747
23	0x3f57cb62	0.8429471
24	0x3ed98091	0.424809
25	0x3f21f8ff	0.6327056
26	0x3f2fb81c	0.68640304
27	0x3f0f7451	0.5603686
28	0x3f6d2dd0	0.9264803
29	0x3f695b46	0.911549
30	0x3f411863	0.75427836
31	0x3f160c0d	0.5861214
32	0x3ef7b2af	0.48378512
33	0x3f522b31	0.82097155
34	0x3e2aa151	0.166631
35	0x3ea56d99	0.3231018
36	0x3f8ffc01	1.124878
37	0xbe8f961d	-0.28044215
38	0x3f04b46c	0.518378
39	0x3f1d4807	0.6143803
40	0x3eda220f	0.4260411
41	0x3f33e9f5	0.70278865
42	0x3f37e73d	0.71837217
43	0x3ec34d99	0.3814514
44	0x3ef9450c	0.4868549
45	0x3f40daa3	0.75333613
46	0x3f86b20f	1.0523089
47	0x3f80cbeb	1.0062231
48	0x3faf395c	1.368938
49	0x3e9527b5	0.29131857
50	0x3ef7782b	0.48333868
51	0x3f06c823	0.52649134
52	0x3ef88a64	0.48543084
53	0x3f3bedb0	0.7340956
54	0x3f81b3c4	1.0132985
55	0x3fa47050	1.2846775
56	0x3f36ec64	0.71454453
57	0x3f265654	0.64975476
58	0x3ec5d699	0.38640288
59	0x3f24e47d	0.64411145
60	0x3f6f8799	0.9356628
61	0x3f81f956	1.0154216
62	0x3f7519b9	0.95742375
63	0x3f082eb6	0.53196275

module.down1.mpconv.1.conv.1.bias f4 [64]
0	0xbe317e40	-0.17333317
1	0xbdbc5508	-0.09195906
2	0x3d97a1bf	0.074038975
3	0x3ddebd88	0.10875994
4	0xbdd4707b	-0.103730164
5	0xbe76424e	-0.2404873
6	0x3c7f3df1	0.015578733
7	0x3e9649f8	0.2935331
8	0xbe3ba32d	-0.18323965
9	0xbcfbf688	-0.030757204
10	0xbe45b7a5	-0.19308336
11	0xbc6fd3d4	-0.014637906
12	0xbe9408aa	-0.2891286
13	0xbd10afe0	-0.035323977
14	0xbb2b7db4	-0.0026167454
15	0xbdd5c69d	-0.10438273
16	0x3c6ffe37	0.014648012
17	0x3e379292	0.17927006
18	0x3d2be9eb	0.04197113
19	0xbcba8256	-0.022767227
20	0xbd9d5eb9	-0.076840825
21	0xbe581ced	-0.21104784
22	0xbdd96251	-0.106144555
23	0xbdd4af9c	-0.10385057
24	0x3df25d23	0.11834171
25	0x3da47207	0.080295615
26	0x3c5af7f2	0.013364779
27	0x3dde7017	0.10861223
28	0xbe6fa5ef	-0.23403142
29	0x3dd823de	0.10553716
30	0xbe2f258a	-0.17104164
31	0xbdcfe2ba	-0.101506665
32	0xbd30d7de	-0.043174617
33	0xbe1e6f59	-0.15472163
34	0x3f5e97b0	0.86950207
35	0xbdc116a7	-0.09428149
36	0xbda4ed9c	-0.08053133
37	0xc04ee1f3	-3.2325408
38	0x3d5cb206	0.053880714
39	0xbec854da	-0.39127237
40	0xbedcc6aa	-0.4312032
41	0xbe234bb4	-0.15946847
42	0x3cb26560	0.021776855
43	0x3e4d4d85	0.20049103
44	0xbe050fd8	-0.12994325
45	0xbc820627	-0.015872074
46	0xbdc4cdbc	-0.09609553
47	0x3d0e59d0	0.03475362
48	0xbe3f7802	-0.18698123
49	0xbf3aa3bf	-0.72906107
50	0xbed7bc77	-0.42135975
51	0x3defbb11	0.11705602
52	0xbe8f6e30	-0.28013754
53	0xbc53f2b6	-0.012936285
54	0x3a6ad060	0.0008957442
55	0xbdca9ea9	-0.09893543
56	0x3de7eff3	0.113250636
57	0xbe145a39	-0.14487542
58	0xbe2f5642	-0.17122748
59	0xbe4ff183	-0.20306973
60	0xbe565621	-0.20931293
61	0xbdf9cc02	-0.121971145
62	0xbd02793d	-0.031853903
63	0x3e197fe6	0.14990196

module.down1.mpconv.1.conv.1.running_mean f4 [64]
0	0xbdf7e81a	-0.12104817
1	0xbf577f2b	-0.8417842
2	0xbf83fa0d	-1.0310684
3	0x3fe73d09	1.8065501
4	0x40217976	2.5230384
5	0x3f801c73	1.0008682
6	0xc05b7068	-3.4287357
7	0x3fe1a1b9	1.7627479
8	0x3e2b3ecc	0.16723174
9	0x3f992f68	1.1967592
10	0x3e38d7c0	0.18051052
11	0xbf6e18ba	-0.9300648
12	0x40c66599	6.199902
13	0x3faf2e0f	1.3685931
14	0xbd9915f3	-0.074748896
15	0x3fdbe6f6	1.7179859
16	0xbf18fe9a	-0.5976349
17	0x3ee8c8be	0.45465654
18	0xbf851377	-1.0396565
19	0xc06a5ed1	-3.6620371
20	0xbef2688e	-0.47345394
21	0xc00a2432	-2.1584592
22	0xbfdfd309	-1.7486278
23	0xc030ef76	-2.7646155
24	0xbf45c312	-0.7725078
25	0x4066b4e8	3.6047916
26	0x3fa4d880	1.287857
27	0x408ebf3b	4.4608436
28	0x3e423cd4	0.18968517
29	0xbf978bc9	-1.1839534
30	0xc028e056	-2.6386924
31	0x4016db05	2.357118
32	0xbca40c5d	-0.020025427
33	0x3fc626ca	1.5480587
34	0xc0a28f09	-5.0799603
35	0x4002f97f	2.046478
36	0xbe9ff336	-0.31240243
37	0xc13c3be5	-11.764623
38	0xc03a0952	-2.9068189
39	0x4028c907	2.6372697
40	0xbf947010	-1.1596699
41	0xbfd817e7	-1.6882294
42	0xbe89a05e	-0.26880163
43	0xbe73162a	-0.23738924
44	0xbfa91554	-1.3209634
45	0xbeaadb3e	-0.33370394
46	0xbf16af6b	-0.58861417
47	0x3e06ddcd	0.13170548
48	0x3e93409d	0.28760234
49	0x40a276b8	5.076992
50	0x3fa0622c	1.252996
51	0xbf42b9c1	-0.7606469
52	0xbdce4784	-0.10072234
53	0x3d1d5dfa	0.0384197
54	0xbfaa00e8	-1.3281527
55	0xc09d66d2	-4.9188013
56	0xc00206f9	-2.0316756
57	0x3f170b84	0.59001946
58	0x403a6110	2.9121742
59	0x3fc926db	1.5714983
60	0xc03e396c	-2.9722548
61	0xbf18e10c	-0.59718394
62	0x3f51c81a	0.81945956
63	0x3f112313	0.56694144

module.down1.mpconv.1.conv.1.running_var f4 [64]
0	0x407b6f21	3.9286578
1	0x40c95bd9	6.292462
2	0x40b7a738	5.7391624
3	0x40bbe05c	5.8711376
4	0x3ffa2375	1.9542071
5	0x406bf93e	3.6870875
6	0x40cc1b18	6.3783073
7	0x400f52b5	2.239423
8	0x3fe17100	1.761261
9	0x40946745	4.637606
10	0x40594ef2	3.3954434
11	0x405c3f18	3.441351
12	0x406e70c0	3.7256317
13	0x40a9afc2	5.302705
14	0x4095c414	4.6801853
15	0x408a4a74	4.3215885
16	0x4079cdda	3.9031892
17	0x4064498b	3.5669887
18	0x4058fe24	3.3905115
19	0x4088ff22	4.281144
20	0x40976c88	4.7319984
21	0x40b66f52	5.701089
22	0x40bbec15	5.8725686
23	0x40371ac8	2.8610096
24	0x40493ea5	3.1444485
25	0x407e9c40	3.9782867
26	0x4010171f	2.2514112
27	0x4052a4c7	3.2913072
28	0x408877ef	4.2646403
29	0x40d80cb1	6.7515492
30	0x40362c42	2.8464513
31	0x40abba52	5.366494
32	0x400de931	2.2173579
33	0x4098d79b	4.776319
34	0x409d7480	4.920471
35	0x4003c50c	2.0589018
36	0x40e171e4	7.0451527
37	0x41464ec0	12.394226
38	0x410bc1ac	8.734783
39	0x40425ae1	3.0367968
40	0x4066705f	3.6006086
41	0x41bc6c60	23.552917
42	0x40e976d0	7.2957535
43	0x40735b74	3.8024569
44	0x40afd504	5.494753
45	0x404c7b6e	3.1950336
46	0x40853903	4.1632094
47	0x410fa025	8.976598
48	0x40f02bf7	7.505367
49	0x40b8f522	5.7799234
50	0x4087cb72	4.2435846
51	0x40b1534b	5.5414176
52	0x403aa57a	2.91635
53	0x4006ca00	2.106079
54	0x408fc955	4.4933267
55	0x4154d109	13.301034
56	0x40671041	3.610367
57	0x40553d98	3.3318844
58	0x404cb036	3.198255
59	0x401b3015	2.4248097
60	0x40766222	3.8497396
61	0x40737969	3.8042853
62	0x408fe041	4.4961247
63	0x409f37b7	4.975551

module.down1.mpconv.1.conv.3.weight f4 [64, 64, 3, 3]
0	0xbbcf4e01	-0.0063264375
1	0x3e8e5601	0.2779999
2	0x3ef9c7be	0.48785204
3	0x3e482b67	0.19547807
4	0xbf1a1ff6	-0.6020502
5	0x3d9f9714	0.07792488
6	0xbf000678	-0.5000987
7	0xbefd025c	-0.49415863
8	0x3d338b64	0.043834105
9	0x3e4a4a3f	0.19754885
10	0xbf3f7c5d	-0.7479914
11	0x3e0db51d	0.1383862
12	0x3c5c2116	0.013435623
13	0xbf1e6b5f	-0.61882585
14	0x3e13a076	0.1441668
15	0x3e34708f	0.17621063
16	0x3e4c212f	0.19934534
17	0xbd59ad59	-0.053143833
18	0xbcf0b01d	-0.029380852
19	0x3e3c4375	0.18385108
20	0x3dd72dbc	0.1050677
21	0xbe8e0ada	-0.27742654
22	0x3f406b17	0.75163406
23	0xbdda8d01	-0.106714256
24	0xbe8ed695	-0.27898088
25	0x3e75b661	0.23995353
26	0xbebdc19a	-0.3706177
27	0xbf259e7f	-0.6469497
28	0xbc9fdcd5	-0.01951448
29	0xbdcd0fbb	-0.10012766
30	0xbdd19985	-0.1023436
31	0x3ed2ebeb	0.41195616
32	0x3bebe291	0.0071986397
33	0xbebab621	-0.36467078
34	0x3e1f5b36	0.15562138
35	0xbf320a9d	-0.69547445
36	0xbf11f30e	-0.570115
37	0xbdb2aeea	-0.087247685
38	0x3e4c6a64	0.1996246
39	0x3e92e9b6	0.28693932
40	0xbdb1c7b4	-0.086806685
41	0x3d8f087b	0.069840394
42	0xbe933fd7	-0.28759643
43	0x3e8076b5	0.25090566
44	0xbe010a6d	-0.12601633
45	0x3ef9db30	0.4880004
46	0x3e0d491f	0.13797425
47	0x3e13fa84	0.14451033
48	0x3bb3bf0a	0.00548542
49	0xbf656201	-0.8960267
50	0x3e1f37a2	0.15548566
51	0x3e612caa	0.21989694
52	0xbc94e03c	-0.01817333
53	0x3e41f4e8	0.1894108
54	0x3f01f951	0.5077105
55	0x3ec1457e	0.3774833
56	0x3f477242	0.7790872
57	0x3e12d009	0.14337172
58	0xbd2bbd3b	-0.04192851
59	0x3d96333a	0.073339894
60	0x3e610324	0.21973854
61	0x3d869977	0.0657224
62	0xbf0b9baa	-0.545344
63	0x3e1dd989	0.15415014
64	0xbf07eda2	-0.53096974
65	0x3e1a88ea	0.15091291
66	0xbe79ec37	-0.24406515
67	0xbf3d953f	-0.74055856
68	0x3c08c48a	0.00834764
69	0x3e93182f	0.28729388
70	0xbe49e5e5	-0.19716604
71	0x3e590ca9	0.21196236
72	0xbf0a09de	-0.53921306
73	0xbe54b315	-0.2077144
74	0x3dab695c	0.08369705
75	0x3e9a2d0b	0.3011249
76	0xbdd3061f	-0.10303902
77	0x3ead5b7e	0.33858865
78	0x3e0d932e	0.13825676
79	0xbe120f02	-0.14263538
80	0xbde5897a	-0.11207862
81	0xbf849876	-1.0359027
82	0x3d561d38	0.05227396
83	0xbdaaff8f	-0.08349525
84	0xbe00f0de	-0.12591884
85	0x3d65a3a5	0.056064267
86	0x3e0b7c6c	0.13621682
87	0xbdc90244	-0.09814885
88	0x3e1988da	0.14993611
89	0x3e85469c	0.26030433
90	0xbde23d5f	-0.11046862
91	0xbd8d451e	-0.06897949
92	0x3d967666	0.073468015
93	0xbd9415b1	-0.072307
94	0x3d334524	0.04376711
95	0x3efdcd5a	0.49570733
96	0xbc74473d	-0.014909563
97	0x3e95e917	0.29279396
98	0x3d9703ef	0.07373797
99	0xbfb28c44	-1.3949056
100	0xbf849a9c	-1.0359683
101	0xbf9379fa	-1.1521599
102	0xbf959c08	-1.1688242
103	0xbe9d35ed	-0.30705205
104	0xbf4a8417	-0.79107803
105	0xbff1ccd4	-1.8890634
106	0xbf9a624a	-1.2061245
107	0xbf871b1c	-1.0555148
108	0x3e6abe09	0.22924055
109	0xbe39d4ed	-0.18147631
110	0x3e9dfebb	0.30858406
111	0xbf14fb58	-0.5819602
112	0x3d569890	0.05239159
113	0x3e69be32	0.2282646
114	0x3e9182ad	0.2842001
115	0x3f584328	0.8447747
116	0x3f0e0c40	0.5548744
117	0x3ec5564b	0.385424
118	0x3cd0b604	0.025477417
119	0x3e59a167	0.21252976
120	0x3f084357	0.5322775
121	0xbe4a57ef	-0.19760107
122	0x3e25d30a	0.16193786
123	0x3eaa8e06	0.3331148
124	0xbcab2d74	-0.020895697
125	0x3e67d1ec	0.22638673
126	0x3d94a34f	0.07257711
127	0x3ddd6918	0.10811061
128	0x3eab0c56	0.3340785
129	0x3b960eb9	0.004579392
130	0xbe4ab463	-0.19795375
131	0x3e9c8027	0.30566522
132	0xbef2587d	-0.47333136
133	0xbeda1e5c	-0.42601287
134	0xbe5452a9	-0.20734657
135	0xbe1ce3ee	-0.15321323
136	0x3e164be3	0.14677386
137	0x3e5a43be	0.21314904
138	0x3e9c3571	0.30509523
139	0x3d315e5d	0.043302882
140	0xbbec81fa	-0.007217643
141	0x3ebbc4cf	0.3667359
142	0xbde004d3	-0.1093842
143	0xbd8c7981	-0.068591125
144	0x3d7825f4	0.06058307
145	0x3e35f83b	0.17770474
146	0xbdb24c2f	-0.08705937
147	0xbd1a94a4	-0.03773941
148	0xbd83d324	-0.06436756
149	0x3ca5ac15	0.020223657
150	0x3d4fbd85	0.05071785
151	0x3dac80ee	0.08423029
152	0xbd248210	-0.0401631
153	0x3e38fccd	0.18065186
154	0x3dad24b2	0.08454265
155	0xbe6fb955	-0.23410542
156	0xbe0b4e6f	-0.13604139
157	0xbd9e6e04	-0.077358276
158	0x3d87c5d4	0.066295296
159	0x3f148bad	0.5802563
160	0x3ec0d8ee	0.37665504
161	0xbc9270f9	-0.017876135
162	0x3ec92937	0.39289257
163	0xbed6cbe8	-0.41952443
164	0x3e847dfd	0.2587737
165	0x3dab89e3	0.08375909
166	0xbf01222b	-0.5044276
167	0xbda2d1a5	-0.07950143
168	0xbdf5cb74	-0.12001696
169	0x3d6244b6	0.05524131
170	0x3ea753db	0.32681164
171	0x3f267e83	0.6503679
172	0x3b375824	0.002797612
173	0xbe5afb3e	-0.21384904
174	0xbda4982d	-0.08036838
175	0xbe641a99	-0.22275771
176	0xbe9ce60a	-0.30644256
177	0x3b1590e3	0.0022821955
178	0xbe929955	-0.28632608
179	0x3efa7883	0.48920068
180	0xbf1523cd	-0.5825775
181	0x3d7f5094	0.062332705
182	0x3eb5def3	0.3552166
183	0xbe4f3c5b	-0.20237868
184	0x3e4ed0d8	0.20196855
185	0x3f1d6d04	0.6149447
186	0x3e3bc369	0.18336262
187	0x3f0d5366	0.5520538
188	0x3f5ab6c5	0.85435134
189	0x3d68450d	0.056706477
190	0x3f007258	0.50174475
191	0x3e87712f	0.2645354
192	0xbf26a762	-0.65099156
193	0x3d83738f	0.064185254
194	0x3e64df97	0.22350918
195	0xbf0c940d	-0.5491341
196	0xbf9f7119	-1.245639
197	0xbb93dccb	-0.0045124046
198	0xbf6f9656	-0.9358877
199	0x3d90baaa	0.07066853
200	0xbe46dc53	-0.19419985
201	0xbfaad5fc	-1.3346553
202	0xbf59c89c	-0.8507173
203	0xbf568770	-0.8380041
204	0xbfcb3e49	-1.5878383
205	0xbf81d223	-1.0142254
206	0xbf3cb7ec	-0.7371814
207	0xc00779d7	-2.1168115
208	0xbf48448f	-0.7822961
209	0xbf5c044f	-0.85944074
210	0xbfc1ace6	-1.513089
211	0xbf4859c7	-0.7826199
212	0xbe8064e3	-0.2507697
213	0xbfc1b836	-1.5134342
214	0xbf192242	-0.598179
215	0x3e1ad01b	0.15118448
216	0xbe84321a	-0.25819474
217	0xbeac01a3	-0.33595
218	0x3ed004ae	0.4062857
219	0xbc8baae0	-0.017049253
220	0x3e6a3607	0.22872172
221	0x3ed03ab6	0.40669793
222	0xbf0a2b86	-0.5397266
223	0x3da64f31	0.08120573
224	0x3c86e478	0.016466364
225	0x3efe9831	0.49725488
226	0x3e28301a	0.164246
227	0x3e72ab12	0.2369807
228	0xbc453afd	-0.01203799
229	0xbd7e20f8	-0.06204316
230	0xbe8fca51	-0.28084043
231	0x3df0e0bb	0.11761614
232	0xbe3da1d6	-0.18518767
233	0xbed09fcc	-0.40746915
234	0xbe7e359a	-0.24825135
235	0xbc9476d0	-0.01812306
236	0xbe261938	-0.16220558
237	0xbd875a11	-0.06608976
238	0x3de186b8	0.11012024
239	0x3d44f5d4	0.048086002
240	0xbe1e5c93	-0.15465002
241	0xbea62ae7	-0.32454607
242	0xbd3b4ef0	-0.045729578
243	0x3e328bf0	0.17436194
244	0xbe82c224	-0.25538743
245	0x3e87ad14	0.26499236
246	0xbdd664c7	-0.104684405
247	0x3d83b40d	0.06430826
248	0x3cd4a30e	0.025956657
249	0x3eb83bc0	0.35983086
250	0x3ea0b605	0.3138887
251	0xbe01cccd	-0.12675782
252	0xbe364ac4	-0.17801958
253	0x3e938f5c	0.28820312
254	0x3e10903b	0.1411752
255	0xbe9f5fef	-0.3112788

module.down1.mpconv.1.conv.3.bias f4 [64]
0	0x3d132eb0	0.035933197
1	0x3d0e8bd1	0.034801308
2	0x3d3e09f3	0.046396207
3	0xbd56e238	-0.052461833
4	0x3c8a8dfc	0.016913407
5	0xbd5c30d4	-0.053757504
6	0xbd8860fd	-0.06659124
7	0x3e1f418b	0.15552346
8	0xbe0cf491	-0.1376517
9	0x3d82c82c	0.06385836
10	0xbd1adad7	-0.03780636
11	0xbce5795f	-0.028011976
12	0x3a9a8042	0.0011787491
13	0xbd86472d	-0.065565445
14	0x3c3bf45b	0.011471833
15	0x3d5b87e7	0.053596403
16	0xbd64ea3d	-0.05588745
17	0x3b9f49b5	0.0048610815
18	0xbb319533	-0.0027096986
19	0xbce16ea6	-0.027518582
20	0x3d63c3dc	0.055606708
21	0xbe716de4	-0.23577076
22	0xbd08630a	-0.033297576
23	0x3d475407	0.04866412
24	0xbce5b807	-0.028041853
25	0xbd58b643	-0.052908193
26	0x3df3e059	0.11908025
27	0x3d92afa8	0.0716241
28	0xbcc8dbaa	-0.024518806
29	0x3c0349f8	0.008013241
30	0xbc2c5f4a	-0.010520766
31	0xbce58bd8	-0.028020784
32	0x3e09c104	0.13452536
33	0x3e073ebe	0.13207528
34	0xbd58b020	-0.05290234
35	0xbc8509e1	-0.016240062
36	0x3d39e406	0.045383476
37	0x39d8c350	0.0004134425
38	0x3d4bb9a3	0.049737584
39	0x3dbd346e	0.09238516
40	0xbcd00387	-0.025392307
41	0x3d0a05e1	0.033697013
42	0x3dd3ba7d	0.10338304
43	0x3c839167	0.016060544
44	0x3d538784	0.05164291
45	0x3d82ff77	0.06396382
46	0x3d30c122	0.043152936
47	0xbf8e6a92	-1.1126273
48	0x3bed5b01	0.0072435145
49	0x3abf3f1d	0.0014590953
50	0x3d70fd20	0.05883515
51	0xbbb87564	-0.0056292284
52	0xbd3d543a	-0.046222903
53	0x3bae7427	0.005323905
54	0xbcde264a	-0.027117867
55	0xbdc117cf	-0.09428369
56	0x3c164862	0.009172531
57	0xbd678ab2	-0.056528755
58	0x3d249e36	0.040189944
59	0x3c23e6a9	0.010003724
60	0x3ca241ee	0.019806828
61	0xbe204608	-0.15651715
62	0xbc225416	-0.009907743
63	0x3d22e92c	0.03977315

module.down1.mpconv.1.conv.4.weight f4 [64]
0	0x3e2859a1	0.1644044
1	0x3f85539a	1.0416138
2	0x3f4dcd51	0.8039141
3	0x3b731721	0.0037092643
4	0x3d490bb8	0.04908344
5	0x3f09d3d6	0.5383886
6	0x3e044b70	0.12919402
7	0x3e0fbca7	0.14036809
8	0x3e98b5a5	0.29826084
9	0x3ed2fd0f	0.41208693
10	0x3e985416	0.29751652
11	0x3e020da4	0.12700516
12	0x3f5a7453	0.85333747
13	0x3edb24ca	0.42801505
14	0x3d32fbc0	0.04369712
15	0x3f259568	0.646811
16	0x3f3aa593	0.72908896
17	0x3e6e3bbf	0.23264979
18	0x3f207148	0.62672853
19	0x3e2fe8ff	0.17178725
20	0x3f18c40e	0.59674156
21	0x3e90365b	0.2816647
22	0x3ec30c5c	0.38095367
23	0x3eed251a	0.4631737
24	0x3e57f51b	0.21089594
25	0x3edb372b	0.42815527
26	0x3ec1a095	0.37817827
27	0x3e87d5f7	0.2653043
28	0x3e5079ca	0.20358959
29	0x3ee66a87	0.4500315
30	0x3f02c810	0.5108652
31	0x3ea5b421	0.3236399
32	0x3ea76643	0.32695207
33	0x3f13720e	0.5759591
34	0x3f533373	0.8250038
35	0x3f13f0ea	0.5778948
36	0x3ecc7f15	0.39940706
37	0x3eb48f88	0.35265756
38	0x3ed4cc9b	0.41562352
39	0x3e7eb09f	0.24872063
40	0x3eb43508	0.3519671
41	0x3f112fe5	0.56713706
42	0x3f553732	0.83287346
43	0x3ed144a4	0.4087268
44	0x3eae2fd2	0.3402086
45	0xbc9f6c09	-0.019460695
46	0x3ec5f736	0.3866517
47	0x3e12fc2b	0.14354007
48	0x3e243251	0.16034819
49	0x3f376c39	0.7164951
50	0x3f56077f	0.8360519
51	0x3ec48a78	0.38386893
52	0x3f6424f0	0.8911886
53	0x3e517b90	0.20457292
54	0x3eb009b1	0.34382394
55	0x3f17c56a	0.59285605
56	0x3ec2a4c6	0.38016337
57	0x3e9922b9	0.29909304
58	0x3e524574	0.20534307
59	0x3e4f34b7	0.20234953
60	0x3ecf0a11	0.40437368
61	0x3e6f45bd	0.23366447
62	0x3f235025	0.63794166
63	0x3f23486c	0.6378238

module.down1.mpconv.1.conv.4.bias f4 [64]
0	0x3dca1df5	0.09868995
1	0xbdee91f4	-0.11648932
2	0xbe89ae71	-0.268909
3	0xbd5ef319	-0.054431055
4	0xbe47712e	-0.19476768
5	0xbdbe8e76	-0.09304516
6	0x3ddc434a	0.10755022
7	0xbe03a95c	-0.12857574
8	0xbf644268	-0.8916383
9	0xbc4f6109	-0.012657412
10	0xbcc0c252	-0.02353016
11	0x3cecbcea	0.028898675
12	0xbcf4573d	-0.029826755
13	0xbdc30410	-0.09522259
14	0xbdb21261	-0.08694912
15	0xbd984929	-0.07435829
16	0xbeb47d68	-0.35251927
17	0xbde1d7a8	-0.11027461
18	0xbe206e5f	-0.15667103
19	0x3db31fdb	0.0874631
20	0xbdb3d48e	-0.08780776
21	0xbec51ee9	-0.38500145
22	0xbe02c967	-0.12772141
23	0x3c921b8b	0.0178354
24	0xbe817138	-0.25281692
25	0xbe08d9d9	-0.13364352
26	0x3c155ef4	0.009116877
27	0xbd190a43	-0.037363302
28	0x3da57040	0.080780506
29	0xbe9039b3	-0.2816902
30	0xbdd5e73a	-0.104444936
31	0xbd1e8807	-0.038703945
32	0x3c3af6e4	0.011411402
33	0xbcf6b195	-0.030113975
34	0xbe3debd6	-0.18546996
35	0xbe5eb432	-0.21748427
36	0xbbe81ab1	-0.00708326
37	0xbbe5e7d3	-0.007016161
38	0xbdaad9f9	-0.08342356
39	0xbde8af26	-0.11361532
40	0xbe04e198	-0.12976682
41	0xbdc04bdc	-0.09389469
42	0xbe2bb2ff	-0.167675
43	0x3d993836	0.074814245
44	0x3dbdd2fe	0.09268759
45	0xbe9bdc36	-0.30441445
46	0x3d3e5d49	0.046475682
47	0xbf437aee	-0.7635945
48	0xbe21e2ec	-0.1580922
49	0xbd354453	-0.044254612
50	0xbdc34c76	-0.09536068
51	0xbd0aa8b4	-0.033852294
52	0xbe56cd1e	-0.20976683
53	0x3c93ee1f	0.01805788
54	0xbd2a0788	-0.04151109
55	0xbeae2272	-0.34010655
56	0xbdf562ad	-0.119817115
57	0xbd3cdb43	-0.04610754
58	0x3de3eabd	0.11128757
59	0xbabac28b	-0.0014248652
60	0xbba49f0c	-0.0050238427
61	0xbfbba8a6	-1.4660842
62	0xbd4385ff	-0.04773521
63	0xbd8b2282	-0.06793691

module.down1.mpconv.1.conv.4.running_mean f4 [64]
0	0xc0356661	-2.8343737
1	0xc041933a	-3.024611
2	0x402597c4	2.587388
3	0x3f58485c	0.8448541
4	0xc02f0ebd	-2.7352746
5	0xc04f28fd	-3.2368767
6	0xbfbf22b2	-1.4932463
7	0x411cbe0e	9.7964
8	0x41379ade	11.475309
9	0x401be99e	2.4361339
10	0xc00c3f9c	-2.1913824
11	0x3fab07bd	1.3361737
12	0xc08d8bdc	-4.4233227
13	0xbfffb1c4	-1.9976125
14	0xbfa67e7d	-1.3007351
15	0xc022f41e	-2.5461497
16	0x3f496ef3	0.7868492
17	0xbe9e211a	-0.3088463
18	0xc02fa7ca	-2.744616
19	0xbf9a2e03	-1.2045292
20	0xc0784d3d	-3.8797143
21	0xc059cf87	-3.4032915
22	0xc0475a2c	-3.1148787
23	0xc09a0de3	-4.814195
24	0xc095910b	-4.6739554
25	0xbff850e4	-1.9399686
26	0x3fee0ad1	1.8597051
27	0xc0326fa3	-2.7880638
28	0xc0d1a440	-6.5513
29	0xc086bbd1	-4.210427
30	0xc03659b4	-2.849225
31	0xbfc47137	-1.534705
32	0xc00c52da	-2.1925569
33	0x3ed3c585	0.41361633
34	0xc045fe7d	-3.0936577
35	0xc0b31f96	-5.5976057
36	0xbfeefd73	-1.8671097
37	0xbffdcda0	-1.9828377
38	0x3f74c5f6	0.95614564
39	0xc07379c3	-3.8043067
40	0xc06e0b31	-3.719433
41	0xc0108332	-2.2580075
42	0x3f847abd	1.0349957
43	0xc073935d	-3.8058693
44	0xc0604537	-3.5042245
45	0xbf55bcc9	-0.8349119
46	0xc092e7a4	-4.5907764
47	0x41271d6b	10.444682
48	0xbec9e8c9	-0.39435413
49	0x40ca7f5e	6.3280478
50	0xbfdf3316	-1.7437465
51	0xc0da9902	-6.8311777
52	0x3ee333ea	0.44375545
53	0xbe464900	-0.19363785
54	0xc04e739f	-3.225807
55	0xbf73090c	-0.9493568
56	0xc03ff5ce	-2.9993777
57	0xbfeb7702	-1.8395693
58	0xbf2d01ee	-0.6758107
59	0x3f9b0057	1.2109479
60	0xc0b3b4b0	-5.6158066
61	0x41691c1f	14.5693655
62	0xc0401bf2	-3.0017056
63	0xc088267d	-4.2546983
