learned_models/mask/ACS-WFC.pth (torch_old, 416836 bytes, 39 tensors)

module.inc.conv.conv.0.weight f4 [32, 1, 3, 3]
000000 03 9c 30 3c 94 90 33 c0 5d 84 7d 3e 4b 11 e3 3c
       0.010779384 -2.8056993 0.24757524 0.027718207
000010 a5 bd 18 3e 36 48 d9 3f dc 0f 20 3d b8 7e 5e 3e
       0.14916094 1.6975162 0.039077625 0.21728027
000020 22 ee 14 3d 29 85 9f 3d 19 87 21 c0 6a f0 f9 3b
       0.036359914 0.0778907 -2.5238707 0.0076275365
000030 86 15 8b 3e 46 9a c4 3f 45 d6 2f 3c 4b 48 ac 3e
       0.2716486 1.535958 0.010732238 0.33648905
000040 41 c1 b1 3d 9d 11 b4 3d dc f1 58 3d 57 da 71 3f
       0.086794384 0.08792422 0.05296503 0.94473785
000050 be d8 79 bc 91 fc 38 3f 07 7c 90 3e 9c 7f 06 bd
       -0.015249429 0.72260386 0.28219625 -0.03283654
000060 bd 0c 80 3f c4 db d6 be a6 57 1b c0 7b 5b 6f be
       1.0003887 -0.41964543 -2.4272246 -0.23374741
000070 cd 67 9e 3e 3b f3 69 3f 32 80 9f bf 2f db f9 be
       0.3093857 0.91386765 -1.2460997 -0.48800036
000080 d2 a5 43 3f 0b 34 1c c0 07 4b 09 3e ce 43 7d 3f
       0.76424897 -2.4406765 0.13407527 0.98931587
000090 ea c6 91 3d 3c 9d 92 3f 12 43 3b 3e 9d e9 a6 3e
       0.07118018 1.1454234 0.18287304 0.32600108
0000a0 3b c0 e4 3e b4 d3 12 3e ae 57 6e c0 4f b5 50 3d
       0.4467791 0.14338571 -3.7241015 0.05095416
0000b0 62 5c d5 3b 86 2c 9a be c7 99 a3 bf 22 b5 0a bf
       0.006511257 -0.30112094 -1.2781304 -0.54182637
0000c0 70 f4 b8 3b d6 c2 12 40 6c af c7 3c f8 1e dc bc
       0.0056443736 2.2931418 0.02437564 -0.026870236
0000d0 fd 0a 11 3c 7b 56 01 bd 4a 99 94 be 82 e4 8d bf
       0.0088527175 -0.031576615 -0.290232 -1.108536
0000e0 a3 78 96 be d3 d2 d1 bf b7 ae be 3f eb ce 39 3e
       -0.29388914 -1.6392463 1.4897069 0.18145339
0000f0 3c fc a5 be 57 90 9b 3d 3f 1d a5 3f 5f 49 41 bc
       -0.32419002 0.0759589 1.289955 -0.011797278
000100 9f 9c 47 bf c8 67 cd 3d d4 70 c3 be d6 30 19 40
       -0.7797336 0.1002956 -0.3817202 2.3936057
000110 7d 31 3e bf b8 b7 40 bd c2 a1 f4 be c1 42 02 3e
       -0.74294263 -0.047050208 -0.4777966 0.12720777
000120 82 6c 41 3f 41 b4 cb be a1 d8 f0 3c 9a 18 d8 bf
       0.75556195 -0.3978596 0.029400172 -1.6882508
000130 d1 35 24 3f ff 73 ef 3d e3 91 ab bf 27 1f 9b 3f
       0.6414462 0.116920464 -1.3403896 1.2118882
000140 c6 08 40 3f fa b7 19 c0 63 77 bd 3c 14 8a bd 3d
       0.7501339 -2.401854 0.023128217 0.09254852
000150 8e 99 ed 3e 96 16 2c 3e 0d 57 89 3f 23 b7 cc be
       0.46406215 0.16805491 1.0729691 -0.39983472
000160 21 5d bb 3e 41 1e 37 3f 05 49 42 3e 3d c4 b8 bc
       0.3659449 0.7153054 0.18973167 -0.022554511
000170 68 d5 6e bf 2e d4 a7 bd 46 be e9 3f 54 34 25 3e
       -0.9329438 -0.08194767 1.8261192 0.16133243
000180 2f 87 5b bf fd 71 85 bf 24 03 6e 3e f8 b8 40 3d
       -0.8575315 -1.0425411 0.23243386 0.0470514
000190 3f 33 37 3d de a9 7f 3d f8 7c 19 c0 60 ff cd 3f
       0.044726606 0.062417857 -2.3982525 1.6093559
0001a0 e0 67 aa 3e e4 a6 ec 3d 04 d3 b6 3d 97 7e 7a 3d
       0.33282375 0.11555269 0.08926967 0.06115588
0001b0 51 3f 3f c0 e4 4e 76 3e 38 e3 4f 3d 8e d0 50 3f
       -2.9882395 0.24053532 0.050753802 0.8156823
0001c0 dd ab ba 3f d4 38 f1 3c 4e d7 95 bd 57 d6 a8 3d
       1.4583699 0.029446043 -0.07316457 0.08244007
0001d0 25 05 fd 3c a7 a8 a4 3e 68 6e f1 3e 69 e6 dd 3e
       0.030886242 0.32159922 0.47154546 0.43339851
0001e0 a9 62 12 3f 6c 5b 0e 3f 6d 33 41 c0 fc 26 94 3e
       0.57181793 0.5560825 -3.0187638 0.28935993
0001f0 66 d5 03 3e 7f 30 8a 3d 56 ba 84 3c d3 df 71 bb
       0.12874374 0.06747531 0.016202133 -0.0036907091
000200 b4 ee b3 ba 51 db 57 3f b6 03 28 c0 3a 74 ac 3c
       -0.0013727755 0.84319025 -2.6252265 0.021051515
000210 2c 5d a0 3f db ae f5 3e 7e b2 4a 3d 64 33 6a 3d
       1.2528434 0.47984967 0.04948663 0.057177916
000220 dc 3e 67 bd bf 3e aa 3b e5 d6 3e 3e e8 13 e6 3f
       -0.05645643 0.005195468 0.18636663 1.7974825
000230 28 09 a2 3e 99 ea aa 3c b5 8d e2 bf ad 1d 01 bf
       0.3164761 0.020863818 -1.7699496 -0.50435907
000240 ef 5a b5 3c 51 1c 40 3e f2 c0 82 3d 91 79 28 bf
       0.022138087 0.18760802 0.06384458 -0.65810496
000250 3e 4f ec bf ca b8 2b 3e 5c 3e 5e 3c 12 30 c5 3f
       -1.8461683 0.1676971 0.013564672 1.5405295
000260 3a 29 f4 3e e6 08 dc bc 9c de 18 bd 15 c3 36 bc
       0.47687703 -0.026859712 -0.03732167 -0.01115491
000270 45 3f bf 3c 8d 61 2d c1 12 f0 5f 3c 6d 99 49 bc
       0.023345599 -10.836316 0.013668077 -0.012304646
000280 90 b0 f8 bc 37 16 14 3c 13 ad de 3d 42 3d a1 3d
       -0.030357629 0.0090385 0.10872855 0.07873012
000290 e6 7a f3 bf f7 fc 38 3f 70 9e 0a bf b6 e1 20 bf
       -1.9021881 0.72260994 -0.54148006 -0.6284441
0002a0 a7 57 88 3f c6 5d 20 3e b5 06 81 3f 56 cd 1b 3f
       1.0651749 0.15660772 1.0080172 0.6086019
0002b0 2c 13 2f bd 44 ee 86 3e ec 0d 0c 3f a0 91 42 3e
       -0.042742893 0.26353657 0.54708743 0.19000864
0002c0 44 3f 1d 3f c4 1a 1c c0 a7 af 31 3d 13 66 2f 3e
       0.6142466 -2.4391336 0.043380406 0.17128782
0002d0 81 38 91 bd e5 3c 90 3e e8 5e cb bc fd 82 ce 3e
       -0.070908554 0.2817146 -0.024825528 0.4033431
0002e0 b4 7f b2 3f e0 e1 4c bd fb 75 16 c0 a4 7d ec 3e
       1.3945222 -0.0500201 -2.350951 0.46189606
0002f0 98 9d 02 3e f4 a0 96 3f 02 c2 95 bd f1 14 dc 3e
       0.1275543 1.1767869 -0.07312395 0.42984727
000300 2f 51 9a bf 8e ae 02 c0 f2 02 2f bf cd 84 17 3f
       -1.2056025 -2.041904 -0.6836387 0.5918701
000310 d8 30 e4 3e ee d2 a0 3e a9 fb 0f 3c 98 ca 9f 3f
       0.44568515 0.31410927 0.008788028 1.2483702
000320 d3 c4 b2 bf ca 95 7e 3d 76 2f 87 bf 68 6d a5 3f
       -1.3966316 0.06215457 -1.0561359 1.2924013
000330 2b 7d ba be 66 4a 6c 3e 2f 23 38 3c b2 c0 e5 3c
       -0.3642362 0.23075256 0.011238857 0.028045986
000340 2c ce d6 3f b8 ee 25 3e d9 83 58 3b f7 dd d4 3d
       1.6781669 0.16204345 0.0033037572 0.10393899
000350 c6 9b b4 3d 05 95 59 3c 79 fa 0e c0 cc 6e 87 3c
       0.08818774 0.013280158 -2.2340376 0.016532324
000360 65 c1 ff 3e 6d 7c 90 be 3d 0d 15 3e eb ed 9a 3f
       0.49952236 -0.2821993 0.14555831 1.2103857
000370 d3 cb 98 3e ed 2f 42 3d e6 f5 0c c0 f7 ab 93 3e
       0.29843006 0.047408987 -2.2025084 0.28842136
000380 e8 7d c5 3c e5 78 e1 bb d1 91 0e c0 0a 67 51 ba
       0.024107888 -0.006880867 -2.22765 -0.00079880713
000390 d7 e4 51 3a af c8 8b 3f 74 8d 30 bc 6f 12 36 bc
       0.0008006817 1.0920619 -0.010775913 -0.011112793
0003a0 fe 1a 9e 3f 04 e1 9e bc 27 d8 89 3f da 14 ec bf
       1.2351987 -0.019394405 1.076909 -1.8443863
0003b0 2b b3 cf be b6 43 c4 be f6 c5 85 3f 3d fd 14 3f
       -0.40566382 -0.3833291 1.0451038 0.5819891
0003c0 e1 f1 05 bf 2a 5e fc 3d 6e 5c 8c 3c 60 1d 7f bf
       -0.523222 0.12322648 0.017133918 -0.996542
0003d0 01 e4 d3 3f e9 e6 26 c0 97 1e 1c 3f 28 64 c4 bc
       1.6553956 -2.6078436 0.60984176 -0.02397354
0003e0 f5 23 42 c0 ff 83 7d 3e 16 aa 8e 3f c1 f0 01 3f
       -3.0334446 0.24757384 1.1145656 0.50757986
0003f0 c6 e1 c8 3b 65 d3 2a 3d 26 6a 9e 3e 02 81 ff 3d
       0.00613043 0.041705508 0.3094036 0.12475778

module.inc.conv.conv.0.bias f4 [32]
000000 e7 3f 93 be cd 4f 52 3e 70 1b 5e 3d c3 4c ab be
       -0.2875969 0.20538254 0.054225385 -0.33457002
000010 f4 2f f2 bd 79 05 be be 9a 7d 20 3e 71 1c 31 bf
       -0.118255526 -0.3711355 0.15672913 -0.69184023
000020 9e 27 02 be 9b 49 6b be 82 36 40 be 93 13 34 3e
       -0.12710425 -0.22977297 -0.18770793 0.17585592
000030 15 e8 cb 3d f5 d4 41 3d 15 c7 41 3d 47 1e 62 be
       0.099563755 0.047322232 0.047309 -0.22081862
000040 49 f5 80 3d 4d 49 e1 3d 74 bc f8 3d fa 5d 85 bd
       0.062967844 0.11000309 0.121453196 -0.06512065
000050 4d ef 0f bf 8c f6 16 bd f3 74 55 3d f4 7e 28 bd
       -0.5622452 -0.03685622 0.052113485 -0.041136697
000060 a9 52 b1 3d c7 e6 88 3e af e0 62 be 03 17 d7 bd
       0.08658344 0.2673857 -0.22156022 -0.10502436
000070 90 d5 02 bf 53 52 91 bc 59 a4 a4 3c f3 79 14 3d
       -0.5110712 -0.01773945 0.020097898 0.036249112

module.inc.conv.conv.1.weight f4 [32]
000000 58 88 89 40 08 e5 9a 40 19 5b 60 40 6f f5 f1 3e
       4.2978935 4.840458 3.5055602 0.47257563
000010 55 d9 46 40 78 3e 27 40 d4 78 c3 3f 69 5f 68 40
       3.107015 2.6131878 1.5271249 3.6308234
000020 d1 ee af 3f b0 7b 3d 40 cf 9d 93 3f 53 61 d2 40
       1.3744756 2.9606743 1.1532534 6.5743804
000030 91 e8 79 40 e1 b9 97 40 aa d3 80 40 18 5b fb 3f
       3.9048197 4.7414403 4.025838 1.9637175
000040 f7 2f 3a 40 15 c5 53 40 1a 8e 14 40 dd bb 41 40
       2.9091775 3.308904 2.3211732 3.0270913
000050 54 a4 2f 40 34 6d c5 3f d2 b3 d8 3f 2d 99 91 40
       2.7444048 1.5423951 1.6929877 4.549948
000060 71 fd 14 40 39 73 3a 40 97 2a 97 3f 17 f2 11 40
       2.3279688 2.9132826 1.1809872 2.280401
000070 11 07 25 40 8d af 18 40 a9 72 7d 40 dc 4c 14 40
       2.5785563 2.3857148 3.9601233 2.3171911

module.inc.conv.conv.1.bias f4 [32]
000000 e2 05 38 3e 89 19 63 3e 47 cf ac 3d 9c eb ca 3e
       0.17970994 0.2217771 0.084379725 0.3963288
000010 22 dd d7 3b f2 74 39 bf 91 6e 4d 3e 82 7d 5f 3f
       0.0065876404 -0.7244407 0.20061709 0.87300885
000020 34 81 a5 3e 8a 05 0b 3e e4 10 12 3e 2a d5 4a 3e
       0.32325137 0.13576332 0.14264256 0.19807878
000030 1d f6 ac bf 9d 5c e4 3d 0b ae 9e 3e 14 ff 46 3e
       -1.3512608 0.11150477 0.3099216 0.19433242
000040 e9 35 3e 3d 8a 7e 9f bc 6d 09 81 3d 37 54 5d 3e
       0.04643813 -0.019469518 0.06300626 0.21614157
000050 c1 01 99 3e 49 49 5c 3e d4 ae 6f bc 6d c3 68 3e
       0.2988415 0.21512331 -0.014629085 0.22730799
000060 1b f1 7e be 07 04 84 3e 51 ff 7c bd 79 ae 88 bd
       -0.24896662 0.25784323 -0.061766926 -0.06673903
000070 fd e6 95 3f aa d6 29 bb 2a 29 dd 3d 06 6a 4f bd
       1.1711117 -0.0025915303 0.10798867 -0.05063822

module.inc.conv.conv.1.running_mean f4 [32]
000000 31 34 03 c3 3a c1 f8 c1 a4 f5 04 c2 db 65 62 c4
       -131.20387 -31.094349 -33.239883 -905.5915
000010 00 e7 30 c3 cd 4b 0b 42 68 83 48 c3 bb c0 80 42
       -176.90234 34.824024 -200.5133 64.37643
000020 bd ef e0 41 59 3f 15 41 81 ee 10 c3 81 18 56 c1
       28.11706 9.327966 -144.93166 -13.380982
000030 2d f3 a2 c2 4c d2 96 c2 85 c7 6c c0 29 0d 93 41
       -81.47495 -75.410736 -3.6996777 18.381426
000040 26 65 d7 c1 df eb 02 c5 81 3f b8 c0 dd 5f 23 c2
       -26.924389 -2094.742 -5.757752 -40.843616
000050 4e 63 9a 41 c5 16 89 c3 0e ac 50 40 72 f0 ee c1
       19.298489 -274.1779 3.2605014 -29.867405
000060 2b 18 97 41 44 7e a3 3f 4c 3c 83 c2 5c 6f ce c3
       18.8868 1.2772908 -65.61777 -412.87
000070 88 6c 90 c2 37 b7 85 c2 d2 f7 ee c1 bd ed 24 41
       -72.211975 -66.85784 -29.871006 10.308042

module.inc.conv.conv.1.running_var f4 [32]
000000 fd 71 00 4b 0a 07 55 4a ff 61 38 4b f1 53 8f 4c
       8.417789e+06 3.4902425e+06 1.2083711e+07 7.5145096e+07
000010 0d 11 38 4b 8c 47 20 4a cd 9a 3d 4b 78 c8 13 4a
       1.2062989e+07 2.626019e+06 1.2425933e+07 2.421278e+06
000020 17 64 0c 4b 32 6e 38 4b db 61 35 4a 34 39 dc 4a
       9.200663e+06 1.2086834e+07 2.9717668e+06 7.216282e+06
000030 5d 7e e1 4a 14 14 0f 4b c0 c4 d6 4a 8d 16 03 4a
       7.3889745e+06 9.376788e+06 7.037536e+06 2.1477472e+06
000040 78 7a 3f 4a 83 9f 58 4d 7d 5d f8 4a 11 b8 c6 4a
       3.137182e+06 2.2714578e+08 8.1384305e+06 6.5116245e+06
000050 39 49 de 4a 4d b4 c8 4a 05 b0 b5 49 b6 a2 55 4a
       7.2838685e+06 6.5766785e+06 1.4883846e+06 3.5002055e+06
000060 fc 20 31 4a 2b d7 2d 4a 24 26 01 4a 2a 1e 75 4b
       2.902079e+06 2.8482028e+06 2.115977e+06 1.6064042e+07
000070 74 9f df 4a c6 34 93 4a 79 58 f9 4a a0 9a 91 49
       7.327674e+06 4.823651e+06 8.1705565e+06 1.192788e+06

module.inc.conv.conv.3.weight f4 [32, 32, 3, 3]
000000 05 a5 29 bf 9e b3 9e 3e 81 93 a7 be bb 77 ce 3e
       -0.66267425 0.30996412 -0.32729724 0.40325722
000010 1f d6 5d 3f 4a 8b bb 3c 14 da 9b bd 02 87 3e 3f
       0.8665485 0.022893567 -0.076099545 0.74424756
000020 d5 83 44 3e ac 8a fe bd 3b 4d 64 3e 2a ac 58 be
       0.19190915 -0.12428793 0.22295086 -0.21159425
000030 e6 65 0e 3f 90 42 95 3e 3f af ed 3e e5 51 d8 3e
       0.55624235 0.29152346 0.46422765 0.4224998
000040 4e 3c 8c 3e 22 43 b9 be 0c 9f 5c be 3d af c7 3e
       0.2738976 -0.3618403 -0.21545047 0.39000884
000050 1f 95 04 be 02 a0 9b be b2 b3 14 bf 12 5c 1e bf
       -0.1294751 -0.30395514 -0.58086693 -0.6185924
000060 71 05 65 be 61 2e 9b 3c fa c8 f1 bf 68 35 85 bf
       -0.22365357 0.018943014 -1.8889458 -1.0406923
000070 f2 6a c9 be ee 07 ca 3e 39 9d 52 bf 7d 2f 52 bf
       -0.39339405 0.39459175 -0.8227115 -0.8210371
000080 c6 50 da 3e ee 01 8d bd 40 a8 57 bf c0 1f ed 3d
       0.4263975 -0.06885134 -0.84241104 0.115783215
000090 4b ef 54 be 31 f4 3e bf c7 51 dd be d2 6c 11 bf
       -0.20794408 -0.74591357 -0.43226454 -0.5680667
0000a0 7c 5b 0b c0 75 f9 74 3f 53 91 80 bf 96 cc 58 c0
       -2.1774588 0.9569314 -1.004435 -3.387487
0000b0 67 2e bd bd fb 1f 68 3e 62 e8 08 40 e3 f0 17 40
       -0.09237366 0.2266845 2.1391835 2.3740776
0000c0 2a 9d 95 3e 92 80 79 bf 46 a7 88 bf bc f9 19 3d
       0.2922147 -0.9746181 -1.0676048 0.03759168
0000d0 0f b5 15 bf 0f 56 8d bf aa 1a 86 bf c9 4a 33 c0
       -0.584794 -1.1041888 -1.0476887 -2.8014395
0000e0 f1 ca a3 bf 0b 0c 34 3f 71 fb 88 be 90 7f 1c bf
       -1.2796308 0.70330876 -0.26754335 -0.61132145
0000f0 1b 2d 51 3f be e5 b9 3f d4 a7 9c bc 9a 81 b3 3e
       0.8170945 1.4523237 -0.019122995 0.35059816
000100 e3 60 6a c0 ac 67 14 c0 75 2e 98 3e af 6d 9c be
       -3.6621635 -2.3188276 0.29722944 -0.30552432
000110 5e a9 dd bf 9b 6e 45 bf 82 2f 26 3f e8 72 50 3f
       -1.7317312 -0.77121896 0.6491624 0.81425333
000120 70 46 92 3e a5 7e b1 bf be 74 03 be 0e 0d bb 3e
       0.28569365 -1.3866774 -0.12837502 0.36533397
000130 70 fb 4a bf 56 c5 3d bf f5 12 8d 3f 73 9f 2c 3f
       -0.79289913 -0.74129236 1.102141 0.674308
000140 65 a7 31 be e1 3a f2 be 3d 02 9f be a0 ed bb be
       -0.17349012 -0.47310546 -0.31056395 -0.3670473
000150 3d b0 b6 bf 8b 86 04 be 92 f0 3a 3f 1f f7 34 bf
       -1.4272534 -0.12941949 0.7302333 -0.70689577
000160 68 73 b1 3e fc fb 0a 3f 0f 6c b4 bf 07 b3 2b c0
       0.3465836 0.5429075 -1.4095477 -2.682802
000170 97 b7 95 3e 9d 9f ae 3f 29 41 53 be 14 26 19 3e
       0.2924163 1.364246 -0.20630325 0.14955932
000180 4e f1 6e 3f 4a b3 35 3f 5b 49 d3 be e4 79 15 bf
       0.9333695 0.709767 -0.41266903 -0.58389115
000190 90 c7 3f 3f ab 05 24 3e 2a 28 96 bf e3 10 f2 bf
       0.74913883 0.16017787 -1.1731007 -1.8911403
0001a0 a3 b5 91 3d 17 91 1a bf c6 31 96 bf 8c 3c 8c 3e
       0.071147226 -0.6037764 -1.173394 0.27389944
0001b0 6e 25 f6 3e 92 9d 4c bf 82 0d ce bf 9a bd 1e bc
       0.48075432 -0.79927933 -1.6097872 -0.009688759
0001c0 ab b7 35 3f ed 18 98 c0 10 7e 85 3e 33 77 02 3f
       0.7098338 -4.7530427 0.2607274 0.50963134
0001d0 9c 04 b1 bf 59 72 c3 3e a1 f9 3f 3f 67 a8 a2 bd
       -1.3829532 0.38173178 0.7499028 -0.079422764
0001e0 63 11 fb be c5 bc f3 3e 76 75 e3 be be ba 08 be
       -0.49036703 0.47604957 -0.44425553 -0.13352486
0001f0 a9 9c a9 3c 93 5a d8 be 1f 19 75 3d 66 1e 06 3d
       0.020704584 -0.42256603 0.05983841 0.032743834
000200 74 70 5f 3f 9c 84 41 be ea a6 b1 3f 76 59 ad 3e
       0.87280965 -0.18898243 1.3879063 0.33857316
000210 23 43 bd be 95 93 34 bf 85 0e fe be b4 e3 01 3f
       -0.36965284 -0.7053769 -0.49620453 0.5073807
000220 73 5f f3 be 81 81 b5 bd fe 58 1c be a6 7b 93 bf
       -0.4753376 -0.088625915 -0.15268323 -1.152211
000230 e9 10 d6 3d a8 e8 06 3f c5 98 3d bd 94 4e e5 3e
       0.10452444 0.52698755 -0.04628827 0.44786513
000240 34 3a 5e bf 6c 28 53 bf 17 b1 4e 3f 94 24 24 3e
       -0.8680756 -0.82483554 0.8073897 0.16029578
000250 a3 b0 36 bf 30 de cc be cb 6f 15 3e c9 79 5d be
       -0.71363276 -0.40013266 0.14593427 -0.21628489
000260 c5 1f df be b1 d3 26 be f8 56 37 bf f8 27 9d bf
       -0.43578926 -0.16291691 -0.7161708 -1.2277822
000270 8d 42 b7 3e 61 b5 27 3f 1d 3d 18 bf 37 cb 1b 3e
       0.35792962 0.6551114 -0.5946825 0.15214239
000280 c1 31 8b 3f 2b 9b e3 3d a4 16 50 3e 65 da c5 be
       1.0874559 0.1111358 0.20321137 -0.38643184
000290 d7 9b 34 bf 30 e1 62 be 21 e4 77 3f 39 7c bc be
       -0.7055029 -0.22156215 0.9683247 -0.36813524
0002a0 83 1a 2d be 48 93 11 3f 7e 01 94 3e 96 2c 00 bf
       -0.16904645 0.5686536 0.28907388 -0.5006803
0002b0 34 6f c3 be 30 03 05 3f 7a aa 58 bf 15 5a 96 bf
       -0.3817078 0.5195799 -0.84635127 -1.1746241
0002c0 14 f7 23 3f d5 e9 32 bf 58 c1 45 bf f2 37 19 be
       0.64048886 -0.6988805 -0.77248144 -0.14962748
0002d0 94 89 0c 3f 97 4d 78 bf f6 43 26 3e 30 55 d0 3e
       0.5489743 -0.9699339 0.16236863 0.40689993
0002e0 ec 02 fc bf 82 3d 20 bf 44 0d cf bd e5 98 87 be
       -1.9688392 -0.62593853 -0.10109952 -0.26483837
0002f0 69 27 2b 3e dc 34 db 3e ad 14 10 3e 68 08 58 bf
       0.16714253 0.42813766 0.14070387 -0.84387827
000300 00 69 f8 bb b7 94 9c 3f 01 12 e4 3e 2c 16 44 3f
       -0.0075808764 1.2232884 0.44544986 0.7659633
000310 14 05 2c 3f f0 b0 90 3e ea c6 12 be 6a 1c fa bd
       0.6719525 0.28259993 -0.14333692 -0.12212451
000320 04 1d a9 3e f0 ed 2d bf c0 a7 71 3f cb c2 8c 3f
       0.3302995 -0.6794119 0.9439659 1.0996946
000330 66 3e 20 3f 9e a0 29 c0 27 37 90 3e 80 ac 97 3e
       0.6259521 -2.6504283 0.28167078 0.29623795
000340 14 02 30 3f 90 ee b2 3e 07 1e bb 3e cf 03 59 bf
       0.6875317 0.34947634 0.36546347 -0.84771436
000350 67 b8 76 bd 6f 3f 61 3e cc 8a b7 bf a0 1c af bf
       -0.060234454 0.21996854 -1.4339232 -1.3680611
000360 66 72 07 be dd 4f 28 bf c4 be fd be 30 8f b1 3d
       -0.13227233 -0.6574686 -0.49559605 0.08669889
000370 b8 e8 e8 be ae 23 2b c0 6a 7c 68 3e 8d 7a 17 3f
       -0.4549005 -2.6740527 0.2270371 0.5917137
000380 b8 39 94 bf cd f9 90 be b5 d7 22 bf a3 a4 bc bf
       -1.1580114 -0.28315583 -0.6361039 -1.4737743
000390 e4 dc 3a 3c 4f 32 81 3f d1 63 6e 3f 7c 84 6a bf
       0.0114052035 1.0093478 0.9312106 -0.91608405
0003a0 76 e4 c4 3e 62 a8 58 3e bf a2 ee 3e ec 63 e1 3d
       0.38455552 0.21157983 0.4660854 0.11005387
0003b0 76 01 00 be de 7f cc 3e 9b 7b 50 3f 56 70 41 bf
       -0.12500557 0.39941305 0.81438607 -0.75562036
0003c0 ff 06 5d 3e c6 a4 ae bf 8f 76 6b 3e b1 a5 01 3e
       0.215847 -1.3644035 0.22994445 0.12660863
0003d0 98 0a 94 bf e3 b4 a5 bf fa 42 99 be 33 87 ab be
       -1.1565733 -1.2945827 -0.29933912 -0.33501586
0003e0 88 47 5a 3f d5 33 c9 3e 5a 13 80 3e a2 a3 be 3e
       0.852654 0.39297357 0.25014764 0.37234217
0003f0 bd 6d c4 3e b4 7f 02 3f 39 47 44 be 2b 10 08 bf
       0.38364974 0.5097611 -0.19167794 -0.5314967

module.inc.conv.conv.3.bias f4 [32]
000000 96 0b c3 bd c5 8c e5 bd 6e 65 29 3d a5 f1 5c be
       -0.09523694 -0.1120849 0.041356497 -0.21576555
000010 73 f0 1e be dc c9 4b bc 2e 97 88 bd cf 03 d8 3d
       -0.15521412 -0.012438264 -0.0666946 0.105476014
000020 f5 c7 f7 bc b6 47 21 be c7 80 55 bf d3 fd 10 3d
       -0.030246714 -0.15750012 -0.83399624 0.035398316
000030 5f cf 1c be f0 34 fe 3d 85 65 22 be 69 8e 87 bd
       -0.15313481 0.12412441 -0.15859039 -0.066189595
000040 db a7 bc bd 80 5e 86 3d 80 22 1a be 0c 18 db bc
       -0.092117034 0.06560993 -0.15052223 -0.026744865
000050 f4 b8 c8 bd 02 cb 87 3d 82 18 3e 3b 69 9b dd bd
       -0.09800902 0.066305175 0.0029006307 -0.10820658
000060 40 7f 63 3e 04 82 33 be de 9a d6 ba c8 c5 f8 bd
       0.22216511 -0.17530066 -0.0016373058 -0.12147099
000070 f6 14 13 be ce c1 0b 3e 12 9f 2a 3d 24 eb 1b be
       -0.14363465 0.1364815 0.041655608 -0.15226418

module.inc.conv.conv.4.weight f4 [32]
000000 d1 f5 89 40 60 59 66 40 e7 a6 b4 40 81 09 19 40
       4.311257 3.599205 5.645374 2.391205
000010 93 9a 97 40 20 0a 4c 3f 69 3a 24 40 d4 ed 6e 40
       4.737619 0.7970295 2.566065 3.7332659
000020 d4 d5 bd 3f d9 4a e2 3f de f8 78 3f f9 6c 00 40
       1.483088 1.7679092 0.9725474 2.0066512
000030 b2 63 d0 3f b7 11 6d 40 2e ac aa 40 7b 0c a4 40
       1.6280425 3.7042062 5.333518 5.1265235
000040 28 2d 86 40 e4 5b 55 40 9f 7a 4d 40 36 da 91 40
       4.193012 3.3337336 3.2106092 4.557887
000050 64 72 89 40 24 bc 7b 40 d4 05 4b 40 d1 d7 12 40
       4.2952137 3.9333582 3.1722307 2.2944224
000060 16 77 3e 40 13 4c 6f 40 b2 7b c2 40 43 85 fe 3f
       2.9760184 3.7390182 6.0775995 1.9884418
000070 fa e7 39 40 46 8e 8b 40 54 8b 59 40 fb 91 94 3f
       2.9047837 4.3611174 3.399129 1.160705

module.inc.conv.conv.4.bias f4 [32]
000000 83 9c 37 be 0b 9b c1 bd d4 90 21 3e e8 a2 ba be
       -0.17930798 -0.094534 0.15777904 -0.36452413
000010 be f3 0e 3c c7 d6 ae bd 1a 23 8c 3d c9 6a cf 3c
       0.008725105 -0.08537059 0.068426326 0.025319474
000020 54 64 a1 bc 01 06 3e be 93 3d 93 c0 7b 6b 4b 3d
       -0.01970116 -0.18556978 -4.6012664 0.04966305
000030 1f e7 8e be 67 9b b0 3e 7c 62 13 be 40 57 0c be
       -0.27910706 0.34493563 -0.14393038 -0.13705158
000040 98 39 7f be 26 15 0f 3d 98 7b fa bd 23 9b f4 3d
       -0.24924314 0.034932278 -0.12230605 0.119436525
000050 c9 5d 96 bd 49 cb 4e bc 4f 0d 8f be 3e 2f 13 be
       -0.07342107 -0.012621709 -0.2793984 -0.1437349
000060 01 f7 62 3c 82 24 85 be 0b 7a 16 be 23 f9 2d 3f
       0.013852836 -0.26004416 -0.14694993 0.6795828
000070 a3 9a 16 be 8b 7d 01 3e f5 3c 1e 3e b1 bb 65 bd
       -0.14707427 0.12645547 0.15452941 -0.0560872

module.inc.conv.conv.4.running_mean f4 [32]
000000 58 ef 3f c1 d9 11 94 c0 f3 eb 82 bf 22 ee 7c c1
       -11.995934 -4.6271787 -1.0228256 -15.808138
000010 bf 80 49 c1 92 f4 b0 41 bc 43 02 c1 66 78 62 c1
       -12.593932 22.11942 -8.141537 -14.154394
000020 d2 1b 8a c1 22 94 1f c1 e7 b1 1b c0 0c b1 32 40
       -17.263584 -9.973665 -2.4327333 2.792056
000030 de 7e cb c1 c3 0a 3e c0 e8 ed 38 c1 5a ff 6e c1
       -25.436947 -2.9694068 -11.558083 -14.937342
000040 59 a1 ef bf 1a 4d 32 40 e2 75 51 c1 97 5d f0 c0
       -1.8721114 2.785956 -13.09128 -7.5114245
000050 3a 30 52 c1 9b f5 4d c0 a5 da d3 c0 3a a6 15 c1
       -13.136774 -3.2181156 -6.62044 -9.353083
000060 bb 3d 82 c1 bd 3b 58 c1 71 62 fd bf 91 4c 6f c1
       -16.280142 -13.514585 -1.9795667 -14.956193
000070 05 b7 b5 c0 38 85 d2 c0 71 0e 2f c0 96 1f 9d c0
       -5.6785913 -6.578762 -2.7352564 -4.9101057

module.inc.conv.conv.4.running_var f4 [32]
000000 9c 35 4e 44 c3 13 d6 43 65 39 39 44 16 c7 ed 43
       824.83765 428.1544 740.8968 475.55536
000010 86 81 17 44 5f 53 e3 42 12 3d de 43 d7 6e c5 44
       606.0238 113.662834 444.4771 1579.4637
000020 84 8e 1c 44 a5 73 a1 43 58 d1 af 43 1b 2c c3 43
       626.2268 322.90347 351.6355 390.34457
000030 58 8a 01 44 dc 44 3b 44 48 5a b2 44 85 54 87 44
       518.1616 749.0759 1426.8213 1082.6412
000040 34 cd c5 43 33 a5 b7 43 c7 af 12 44 51 35 f5 44
       395.60315 367.29062 586.7465 1961.6661
000050 06 2f 69 44 cb 1e 04 44 ea 74 a4 43 f5 67 e5 43
       932.73474 528.48114 328.9134 458.81216
000060 3e a1 00 45 55 d0 24 44 58 01 2b 44 f7 e4 59 44
       2058.0776 659.2552 684.021 871.5776
000070 0d 5c 8e 43 54 07 3b 44 34 90 a4 43 16 cf d3 43
       284.71915 748.1145 329.1266 423.61786

module.down1.mpconv.1.conv.0.weight f4 [64, 32, 3, 3]
000000 1d 82 33 c0 21 7c cf 3e d3 6c 22 3f ba 59 24 c0
       -2.8048165 0.4052439 0.634473 -2.5679765
000010 62 32 46 bf 2c 01 ef 3d d4 e1 1e c0 f6 c5 52 bf
       -0.7742063 0.116701454 -2.4825335 -0.82333314
000020 fe 3e 60 3f 87 8c 16 c0 20 29 c9 3e b4 13 e3 3d
       0.8759612 -2.352327 0.39289188 0.110877424
000030 d5 44 19 c0 8e a0 a4 3e fa b2 68 bd 0a 7e e1 be
       -2.3948262 0.32153744 -0.05681131 -0.44041473
000040 26 a4 14 c0 18 45 f9 bf 50 72 86 3a 43 03 bd 3e
       -2.3225188 -1.9474211 0.0010257456 0.3691655
000050 e6 1d 97 3e cd cf 1a 3f 19 6d 01 be 44 fb a6 3d
       0.29514998 0.6047333 -0.12639274 0.08153394
000060 ad 7c 98 3e 19 d1 7a be 41 9e 6b 3f ce 78 d9 3e
       0.2978262 -0.24493827 0.9203835 0.4247498
000070 d1 b2 48 bf 00 a6 bf be fc c6 b0 bc 80 42 69 3f
       -0.7839785 -0.37431335 -0.021579258 0.91117096
000080 87 17 ad bf e4 79 46 bf 9b 2b b4 bf d4 35 4d c0
       -1.3522805 -0.7752974 -1.4075807 -3.2064104
000090 30 85 85 bf 82 b4 08 3f d9 1d 2d 3f 41 ef 9e bf
       -1.0431271 0.53400433 0.6762367 -1.2416764
0000a0 26 0c 52 be ea ee e4 be 06 cb 92 3f 77 c2 7e 3d
       -0.20512447 -0.44713527 1.1468208 0.062197175
0000b0 89 c7 4e bd d6 98 61 bf 6c 74 3c bc 95 70 90 3e
       -0.05048326 -0.88123834 -0.0115023665 0.28210893
0000c0 95 e7 8d 3d 64 68 8f 3d c2 1b df be c4 d8 b5 be
       0.069289364 0.07002333 -0.43575865 -0.35516942
0000d0 8e 6b 19 3e b3 68 52 be 19 33 60 bf 5b 22 16 be
       0.14982435 -0.20547752 -0.8757797 -0.14661543
0000e0 68 0e 89 bd 6c 09 a5 bf 6d 9d 16 3d cb cb 51 be
       -0.06692201 -1.28935 0.036771227 -0.20487897
0000f0 ef 03 ac be 3d 1b c1 3f 22 d3 ed 3e dd dd c8 bd
       -0.3359675 1.5086437 0.46450144 -0.09807942
000100 e6 36 62 be d5 9a c5 be 28 bc 5e be 30 0d 3d bf
       -0.22091255 -0.3859469 -0.21751463 -0.7384825
000110 dd 06 88 bf 36 32 56 3f f3 47 92 bf a8 d3 09 3d
       -1.0627095 0.83670366 -1.1428207 0.033649117
000120 a9 78 8a be a6 af 67 3b 37 b2 05 bd 52 a2 66 3e
       -0.2704518 0.0035352497 -0.032640662 0.22522858
000130 8a 56 0d 3a 4f c6 25 3f 67 ee 5e 3f c4 0f 67 3f
       0.00053916185 0.6475572 0.87082523 0.9025843
000140 f7 d9 66 3f 15 82 19 bf 4f fa 08 3f e9 ed fc 3e
       0.9017634 -0.59964114 0.5350694 0.4940026
000150 2a aa ba bc 7a 67 60 3f 99 df 12 bf f5 2f aa bd
       -0.022786219 0.8765789 -0.5737243 -0.08309928
000160 c6 53 4d bf af cd a5 be 1e 77 05 3f 6c 8b 4f 3e
       -0.80205953 -0.32383487 0.52134883 0.20268029
000170 0f d3 73 bf a7 09 4c 3f ac f1 65 3f 62 b7 4e be
       -0.95243925 0.7970223 0.89821887 -0.20187142
000180 14 32 7d bf 10 43 dc 3e 6f 95 0b 3d fb 57 b7 3f
       -0.9890454 0.43019915 0.034078058 1.4323725
000190 91 58 a0 3e 8d 40 98 3e 9f 98 44 3f e9 a1 7e 3f
       0.3131757 0.29736748 0.7679538 0.99465805
0001a0 e2 ed 35 bc 36 a6 cb 3e ed 6e 35 bf c6 59 ca be
       -0.011104079 0.39775246 -0.70872384 -0.39521617
0001b0 af 09 90 bf 1c 6a 37 be 95 8b f7 be 34 4a a1 be
       -1.1252955 -0.17911571 -0.4834868 -0.31501925
0001c0 f2 a1 2d be b5 b1 fb 3d 2c 4f 2b be cd 70 a1 be
       -0.16956308 0.12289754 -0.1672942 -0.31531373
0001d0 30 fd 5f 3f 55 6c 04 bd fb dd a1 bf 00 d7 31 be
       0.8749571 -0.032329876 -1.2645868 -0.17367172
0001e0 44 44 74 3c 0b 8e fc bd b0 f7 aa 3e cb 5f e9 3d
       0.014908854 -0.1233178 0.33392096 0.11395224
0001f0 c8 58 1e 3f d3 cf e1 3e 58 e2 8c be b6 d5 ab 3e
       0.6185422 0.4410387 -0.27516437 0.33561486
000200 cb 8e e2 be 46 b3 66 3f 67 0d f2 3e a7 0b 74 bf
       -0.44249567 0.901173 0.4727585 -0.9533028
000210 e2 87 48 40 65 7d 71 3f 68 39 28 3f bb f4 de bf
       3.1332936 0.9433196 0.65712595 -1.7418436
000220 3f 85 24 bf 89 8b 47 be 47 17 2d c0 ee 90 3e c0
       -0.6426582 -0.19486822 -2.7045457 -2.9775958
000230 53 a5 4d 3f 21 e0 18 c0 94 3c 33 3f 58 1a ab 3f
       0.8033039 -2.3886797 0.7001431 1.3367414
000240 b3 1a bd be 5a 60 0a 3b bb 11 f4 be d2 a6 b3 3c
       -0.36934432 0.002111456 -0.47669777 0.021930132
000250 7b f0 0c bd 9a 94 b1 3e 55 ec a5 bd cc 23 06 bf
       -0.034409028 0.34683686 -0.081017174 -0.5239837
000260 6d 59 d2 3d a4 a6 87 bf c3 e1 80 bf 7a db c6 bb
       0.10270963 -1.059773 -1.0068897 -0.006068644
000270 b6 d0 13 bf 0f 50 4f 3f f0 72 f6 3e 01 e9 09 bf
       -0.5774034 0.80981535 0.48134565 -0.5387116
000280 72 cd 5c bf 17 0d 43 be 70 15 bc bd 88 7f 85 3e
       -0.86250985 -0.19047962 -0.091837764 0.2607386
000290 cf f9 4d 3e f9 12 06 be 27 4c 69 3d b2 69 c9 be
       0.20114826 -0.13093175 0.05695739 -0.39338452
0002a0 8a 3f 7a 3e 44 0e cd 3e e8 b1 5e 3f ad 8e 10 3f
       0.244383 0.40049946 0.86990213 0.56467706
0002b0 cb c9 bb 3e d3 3b ed 3e 0b ee 86 3e 31 eb 6a be
       0.36677393 0.46334705 0.26353487 -0.22941281
0002c0 08 16 8f 3f b5 48 1a be 55 78 be 3e ca a9 69 3f
       1.1178598 -0.15066798 0.3720118 0.912747
0002d0 db 82 4d c0 c4 42 00 c0 04 da 56 bf 2b 62 26 bf
       -3.2111118 -2.004075 -0.83926415 -0.6499354
0002e0 33 28 34 be 8a e8 8b bf d2 5e 2b bf 65 8b 90 3b
       -0.1759346 -1.093034 -0.6694156 0.0044111484
0002f0 cd df ae be 07 bb 7e 3e 38 8c 83 3f e1 9e 85 bd
       -0.3415512 0.24876033 1.0277166 -0.06524444
000300 f0 90 9e 3e 73 63 62 3a 69 bb 0e be 9a dd 31 3f
       0.30969954 0.0008636035 -0.13938679 0.6947876
000310 58 55 1b 3e 70 89 f7 3e 78 f4 9b bf 38 63 fb 3d
       0.15169275 0.48347044 -1.2183981 0.12274784
000320 12 d0 f1 3e cb d5 32 be e6 cd f8 be 64 89 05 3e
       0.47229058 -0.17464368 -0.48594588 0.13040692
000330 26 de 85 3e 9a df 67 bf d7 92 91 be 71 a4 e1 bf
       0.26146048 -0.90575564 -0.28432342 -1.7628309
000340 78 1e 06 c0 8d f7 7e 3d c5 ca 22 be 7c 5a 90 3f
       -2.0956097 0.0622478 -0.15897663 1.1277614
000350 e9 fa ec be a6 b3 f9 bf 86 ac 00 bf 67 45 db bf
       -0.4628518 -1.9507949 -0.5026325 -1.7130555
000360 31 12 c5 bf 26 7b 1d 3e 82 e6 28 be 46 47 d5 be
       -1.5396177 0.15379009 -0.16494182 -0.4165594
000370 fa 77 2a 3f ce 24 b0 3e 11 d4 24 3f 3d 46 0f 40
       0.6658932 0.3440308 0.6438609 2.238662
000380 23 02 bc 3f 2b f0 76 c0 53 8b a1 be 48 5f 5b be
       1.4688152 -3.8584087 -0.31551608 -0.21423066
000390 a3 25 42 c0 d7 f6 f4 bf 8e ff 57 bf 95 33 6b bf
       -3.0335472 -1.913783 -0.8437432 -0.9187558
0003a0 da 61 bc be 31 1c 1f 3f ee 22 c8 3d 3a 9e 1a 3c
       -0.36793405 0.6215239 0.09772287 0.009437138
0003b0 d3 80 a5 3e 66 7e 63 bd 0a 41 0b be 2c 75 c0 3d
       0.32324848 -0.055540465 -0.13599029 0.09397349
0003c0 7f 1f f0 be 30 33 3b bf 34 e6 98 be 6a c0 72 3f
       -0.4689903 -0.7312498 -0.2986313 0.9482485
0003d0 70 25 93 3f 0d bc fd 3d 8a b9 7d be f0 5a 43 3f
       1.14958 0.123893835 -0.24777809 0.76310635
0003e0 45 bf 28 3e 73 1e 9d 3f 30 90 02 40 cd 46 65 bd
       0.16479214 1.2274917 2.0400505 -0.055975724
0003f0 98 75 1a 3f a1 5a a4 3c 59 da c2 3e 78 74 f3 3e
       0.60335684 0.020062746 0.3805721 0.47549796

module.down1.mpconv.1.conv.0.bias f4 [64]
000000 c4 e2 9e 3d 6d 03 97 3e dd 30 5f 3e e6 ca 73 3e
       0.07758096 0.294948 0.21795984 0.23807868
000010 bf 85 11 be 67 fd 3b be f4 a6 99 be 73 b9 82 bd
       -0.14211176 -0.18358384 -0.30010188 -0.06383028
000020 e5 8b bb 3d 74 ac 56 be eb 71 8c bd a5 d3 04 be
       0.09157542 -0.20964223 -0.06857666 -0.12971361
000030 73 d7 8f be 65 eb bd bd ba 59 aa 3c c3 cd 79 be
       -0.28094062 -0.092734136 0.020794738 -0.24394898
000040 e1 fe c5 bd 0a 18 0c 3e 09 18 33 3d 11 19 a7 3b
       -0.09667755 0.13681045 0.043724094 0.0050994237
000050 17 b4 28 be 35 4e e6 bd cf c1 9f 3c 03 c8 60 be
       -0.16474949 -0.112453856 0.019501595 -0.21951298
000060 f7 0d b3 bd 01 68 1c be fd 86 bb 3d 5b 4c c3 bd
       -0.08742898 -0.1527405 0.09156606 -0.09536048
000070 5d 23 41 3d 3b cb 89 3d f4 4d 89 bd b0 e4 8e bd
       0.047152866 0.06728216 -0.067043215 -0.069772124
000080 c2 7a 88 be 3c 12 ec bb 33 60 bc 3b 0d 36 b0 3d
       -0.26656157 -0.007204322 0.0057487725 0.08604059
000090 32 1e 55 3d e6 2f f0 be 59 46 e1 bc 8a 3f 56 be
       0.05203075 -0.46911544 -0.027499365 -0.20922676
0000a0 e1 10 a6 bd 19 51 30 3e 5f a8 62 3e 11 dc a9 3a
       -0.08108688 0.17218436 0.22134541 0.0012959262
0000b0 04 8d 80 be 3a 60 23 be b2 1a 1c 3e e8 27 22 be
       -0.25107586 -0.15954676 0.15244558 -0.15835536
0000c0 30 9c 7d 3e c8 00 0e 3d 6d 1c 01 3d a8 34 26 be
       0.24766612 0.034668714 0.03152125 -0.16231024
0000d0 cf f8 d1 bc 81 75 c5 3d 82 38 11 be 8a 7c ba bd
       -0.025631336 0.09641553 -0.14181712 -0.09105785
0000e0 89 c2 41 bc 1e 79 dd 3d d3 9e 10 be f0 27 81 be
       -0.011826166 0.10814117 -0.14123087 -0.25225782
0000f0 5d 7f 86 bc 1c 2a 2e be a0 c5 82 3e 57 5a 94 3d
       -0.016418153 -0.17008251 0.255414 0.072437935

module.down1.mpconv.1.conv.1.weight f4 [64]
000000 09 34 bd 3f f2 52 09 40 ed 33 c4 3f 9d ae d9 3f
       1.4781505 2.1456876 1.5328346 1.7006413
000010 6a 80 b6 3f 44 aa cc 3f 79 24 f6 3f 96 e7 e5 3f
       1.4257939 1.5989461 1.922988 1.79613
000020 7b 2b 83 3f 3c de 9d 3f dd 90 a4 3f 18 35 bc 3f
       1.0247644 1.2333446 1.2856709 1.4703703
000030 2e 72 75 3f f6 01 ae 3f 55 50 b9 3f 8a f5 c8 3f
       0.9587735 1.3594348 1.447764 1.5699933
000040 cf 55 ec 3f 9a fe 00 40 71 47 80 3f 66 c0 7d 3f
       1.8463687 2.0155396 1.0021802 0.991217
000050 a1 58 f5 3f 71 26 e4 3f 29 1f 2f 3f 4a 14 8b 3f
       1.9167672 1.7824231 0.6840692 1.0865567
000060 77 3e bd 3f 07 f2 56 3f 27 10 22 40 f5 8b c3 3f
       1.4784688 0.83963054 2.5322359 1.5277086
000070 34 ef 44 3f 97 3c 92 3f 45 93 cb 3f 08 0a 0c 40
       0.76927495 1.142474 1.5904318 2.1881123
000080 92 5a ab 3f 38 96 99 3f f4 2d cd 3f 49 e0 c2 3f
       1.3387015 1.1998968 1.6029649 1.5224696
000090 88 7c 31 40 f2 a3 a3 3f a2 14 00 40 5e 95 ba 3f
       2.7732258 1.2784407 2.0012593 1.4576833
0000a0 9a e1 71 3f c1 32 ee 3f 6a 4b f9 3f e5 32 cb 3f
       0.94484866 1.8609239 1.947614 1.5874907
0000b0 f0 7f fe 3f 72 b5 a2 3f 62 0d d0 3f a2 20 05 40
       1.9882793 1.2711623 1.6254084 2.0801167
0000c0 ff f4 d1 3f 2f 87 bd 3f d0 1c a0 3f 8d 29 ea 3f
       1.6402892 1.480688 1.2508793 1.829393
0000d0 62 86 e7 3f f1 4b b8 3f 37 d5 76 3f 50 f6 a4 3f
       1.8087885 1.4398175 0.9641909 1.2887669
0000e0 21 31 10 40 4c 1d 6d 3f ed ca e5 3f d2 b2 8b 3f
       2.2529986 0.9262283 1.7952553 1.0913947
0000f0 8f 3c b2 3f 00 35 c5 3f 68 51 d7 3f 88 24 d5 3f
       1.3924731 1.5406799 1.6821718 1.6651773

module.down1.mpconv.1.conv.1.bias f4 [64]
000000 09 a6 2e 3c 8d 98 86 3d 73 cf a8 3e d0 1b 15 bf
       0.010659703 0.065720655 0.3297077 -0.58245564
000010 25 81 c6 be 9d b1 03 bf 88 77 21 be 55 b8 09 bf
       -0.38770404 -0.5144289 -0.15768254 -0.53796893
000020 5f 2f a7 3e b8 1b 79 be a0 8a 36 bd bd 88 d1 be
       0.3265333 -0.2432698 -0.044565797 -0.40924636
000030 18 e1 96 bc 9d c0 08 3e d8 79 0b bf a4 6e 8b bf
       -0.01841788 0.13354726 -0.54482794 -1.089314
000040 28 e9 83 bf ab ee 59 3e 41 6e e4 3e ac 42 52 be
       -1.0305529 0.21282451 0.44615367 -0.20533246
000050 e0 92 7e be 1a 53 a8 bc a9 28 ab 3d 40 30 87 bf
       -0.24860716 -0.020547438 0.08357365 -1.05616
000060 bd f3 38 bf 35 90 eb bf a6 bf 91 be 11 80 ee 3d
       -0.72246915 -1.8403383 -0.2846653 0.116455205
000070 2c 9a 99 3e c1 f1 24 3f fc 58 01 bf 2b 3b 03 be
       0.30000436 0.6443139 -0.50526404 -0.1281554
000080 99 7f 04 bf b7 ab 36 3e 0d 31 39 be 7c 46 d7 be
       -0.517572 0.17838942 -0.18085118 -0.42045963
000090 eb 26 23 bf 03 f5 80 bf 05 07 32 be f7 49 23 bd
       -0.6373126 -1.0074772 -0.1738549 -0.03986546
0000a0 10 77 3c 3d 24 a7 4e bd e6 34 90 3e ab 39 0c bf
       0.046011984 -0.050452366 0.28165358 -0.54775494
0000b0 27 21 38 bf ee 5d cf be 73 9b 90 be 05 af 65 be
       -0.71925586 -0.4050135 -0.28243598 -0.22430046
0000c0 ad 81 54 3e 79 a2 85 bd b1 2b 5e 3d aa 01 9b be
       0.20752592 -0.0652513 0.054240886 -0.30274707
0000d0 96 aa 66 bd 51 8d 51 3e aa 48 50 bf 0c 06 56 be
       -0.056315027 0.20464064 -0.81360877 -0.20900744
0000e0 67 90 b7 be 1c 3b 28 bf f0 a0 a1 bd f3 42 83 be
       -0.35852358 -0.65715194 -0.078920245 -0.25637016
0000f0 6d 01 27 be 00 ae 1f be e9 40 c6 3c 57 55 83 bd
       -0.16309138 -0.1559372 0.024200873 -0.06412762

module.down1.mpconv.1.conv.1.running_mean f4 [64]
000000 5b 39 95 c0 54 79 a0 c1 ac de d1 c0 20 97 61 c1
       -4.6632514 -20.059242 -6.5584316 -14.099396
000010 49 9a 0c 40 91 59 9d c0 07 f4 13 c1 74 63 f1 3d
       2.1969168 -4.9171834 -9.247077 0.11786547
000020 10 e5 be c0 71 cc 6e c0 92 ce 3d bf 73 b8 bb bf
       -5.9654617 -3.731228 -0.74143326 -1.4665664
000030 72 5e 06 41 1a 3d 13 c1 26 0d bf bf c0 ca 0b c1
       8.398058 -9.202417 -1.4925888 -8.7369995
000040 e6 68 8b c0 e1 d4 d7 c0 73 29 b3 40 aa 78 8a c0
       -4.356555 -6.744736 5.5988097 -4.3272295
000050 63 0a cc 40 cd 2d ee c0 2d a8 1b 41 a9 bf 3a bf
       6.376268 -7.443091 9.728559 -0.729487
000060 db 12 44 bf d1 ab 60 40 12 55 a8 c0 12 54 a9 c0
       -0.7659127 3.5104868 -5.2603846 -5.2915125
000070 87 f3 11 40 6a fe 9f c0 a2 46 86 c0 14 a7 b6 c0
       2.2804887 -4.9998064 -4.196122 -5.7078953
000080 7e 5b 56 c0 f6 41 8b c0 3b 76 9b c0 9e 68 56 c0
       -3.3493342 -4.351802 -4.8581824 -3.3501353
000090 34 b5 61 c1 ab 53 0b 41 1d 3e 0c c1 52 e1 82 c0
       -14.106739 8.707927 -8.765164 -4.090005
0000a0 11 f4 4d 40 a6 08 be c0 ba 7d 70 c1 91 79 20 c1
       3.2180216 -5.9385557 -15.030695 -10.029679
0000b0 4c a9 b1 c0 58 b3 78 c1 6a b8 82 40 30 f7 4b c0
       -5.551916 -15.543785 4.0850115 -3.1869621
0000c0 33 21 38 c0 08 24 14 c1 49 6a cf c0 aa 9a 38 3f
       -2.8770263 -9.258797 -6.4817243 0.72111
0000d0 80 22 54 c1 ed 58 0a c1 94 31 e4 bf a8 e2 1e c0
       -13.258423 -8.64671 -1.782763 -2.482584
0000e0 d8 77 b9 c0 81 93 12 c0 8c 2c a8 c0 6d 29 27 be
       -5.7958794 -2.290253 -5.255438 -0.16324396
0000f0 4e 2a ab c0 c0 51 ab c0 dc 52 cf c0 e3 81 52 bf
       -5.348914 -5.3537292 -6.4788647 -0.8222944

module.down1.mpconv.1.conv.1.running_var f4 [64]
000000 13 53 c2 42 05 7d cc 43 00 51 ab 42 08 e4 f3 42
       97.162254 408.9767 85.6582 121.94537
000010 63 0a b3 42 45 7b 09 43 79 19 e0 42 30 0b 8a 42
       89.52029 137.48152 112.04975 69.02185
000020 77 e4 9c 42 9a 60 3f 42 09 8b 63 42 4f 25 27 43
       78.44622 47.844337 56.885777 167.14574
000030 8d 94 44 42 6b df 97 42 18 e0 00 43 8f 0d 8d 42
       49.14507 75.93636 128.87537 70.52648
000040 5b 20 7b 42 0b d7 f3 42 9f b0 92 42 5e d3 5b 42
       62.781597 121.920006 73.34496 54.956413
000050 67 10 0c 43 d0 9c 9e 42 9d 70 ce 42 f8 23 87 42
       140.06407 79.306274 103.21995 67.57025
000060 c3 45 9a 42 3f 8a 99 42 ad fc f7 43 b5 4b 57 43
       77.13625 76.77001 495.97403 215.29573
000070 a5 f7 55 42 a7 c7 f7 42 91 c2 aa 42 f4 56 57 43
       53.49184 123.889946 85.38001 215.33966
000080 a4 ba 74 42 0d 48 f6 42 2a 14 ad 42 51 21 5f 42
       61.182266 123.140724 86.53938 55.782536
000090 1d 79 b2 43 32 e1 a9 42 a6 49 8f 43 97 35 ce 42
       356.9462 84.939835 286.57538 103.10467
0000a0 f6 1d 14 43 88 c1 82 42 27 61 1c 43 b6 22 ec 42
       148.11703 65.37799 156.3795 118.067795
0000b0 86 fb e8 42 4a 38 d0 42 42 a6 6e 42 e0 e6 bf 42
       116.49126 104.10994 59.66236 95.95093
0000c0 62 d0 0d 43 28 0d 63 42 27 aa a5 42 90 3a 3d 43
       141.814 56.762848 82.83233 189.22876
0000d0 eb 6d 97 43 f6 4b 99 42 7c 87 c9 42 a2 53 b9 42
       302.85873 76.64836 100.76462 92.663345
0000e0 b5 ef 5e 43 97 8f cf 42 33 37 31 43 e8 2e 96 42
       222.93636 103.78045 177.21562 75.09161
0000f0 1f 9f 71 42 cd 9f 8a 42 b3 3d f3 42 80 64 f6 42
       60.40539 69.31211 121.62051 123.19629

module.down1.mpconv.1.conv.3.weight f4 [64, 64, 3, 3]
000000 0a 20 e7 be 52 49 ee 3e 2e a8 13 3a 65 49 0f bf
       -0.4514163 0.46540314 0.00056326657 -0.55971366
000010 e6 b5 02 3f 38 b1 8e 3f 1e 91 b7 be 1e c6 b2 3f
       0.51058805 1.1147833 -0.35852903 1.396671
000020 1e b8 93 3e ad 4c 0a 3e 2b 39 4c bf aa a7 89 3e
       0.28851408 0.13505812 -0.7977473 0.2688573
000030 d8 84 24 bd fe c4 a1 be 6e 70 21 3f c6 da 3d bf
       -0.040165752 -0.31595606 0.6306218 -0.74161947
000040 be 63 a1 bf 76 96 a6 bf e1 05 04 3f 35 a7 74 3e
       -1.2608564 -1.3014667 0.5157147 0.2389191
000050 cd eb 2e be bf b0 35 3f 9b 45 b4 be c4 32 40 3e
       -0.17082138 0.7097282 -0.35209355 0.18769366
000060 bb 83 5c 3f 1f 8d 7f bf a7 2e df 3c 7d 19 96 3f
       0.86138505 -0.9982471 0.027243925 1.1726528
000070 5e 44 63 be df 31 66 3d 22 7e 22 3f f2 90 87 bf
       -0.22194049 0.056199905 0.63473713 -1.0591109
000080 74 cc 54 bf 39 13 22 3f 7f 86 ca bf f4 25 8e 3f
       -0.8312447 0.6331058 -1.5822295 1.1105332
000090 d6 84 9c 3d ba 12 8f 3e b6 87 b7 3d f0 18 19 bd
       0.07642524 0.27943975 0.08961432 -0.037377298
0000a0 4b 9d a6 3e e9 d1 03 3f 1e 38 d4 bf 10 1e 80 c0
       0.3254188 0.5149217 -1.6579626 -4.0036697
0000b0 22 22 0c c0 74 5d b3 3e 15 5c 3e 3f 93 53 3b 3f
       -2.1895833 0.35032237 0.74359256 0.731744
0000c0 ac 02 70 3e 80 d7 fc 3e f1 89 eb 3e c7 b7 b1 bf
       0.23438519 0.49383163 0.46003678 -1.3884209
0000d0 ac 1c 05 3e 84 16 d5 bf dc 55 07 3f ec 3d 0e 3e
       0.12999219 -1.6647496 0.52865386 0.13890809
0000e0 67 8e 88 3e 98 d0 11 bf 9b 40 48 bd d5 e4 1e 3e
       0.26671144 -0.56958914 -0.048889738 0.1551698
0000f0 c2 d1 a5 bf 4b 4b 57 be 50 80 0f 3e f9 19 85 be
       -1.2954638 -0.21024816 0.14013791 -0.25996378
000100 2c e3 de 3d 2e f3 08 be 06 82 0b 3e 83 b1 94 bf
       0.10883173 -0.13374016 0.13623819 -1.1616672
000110 1e cd aa 3c ea a2 ce bf 1f 52 20 c0 93 b3 25 bf
       0.02084976 -1.6143467 -2.5050123 -0.64727134
000120 b4 94 3a 3e 09 a6 03 3e 08 c2 93 3e 8c da 91 bf
       0.18220788 0.12856306 0.28858972 -1.139482
000130 3c d6 29 3f 4e 22 d7 3e 65 67 c5 bf d8 06 85 be
       0.6634252 0.4201836 -1.5422179 -0.25981784
000140 4f aa 04 3f 9b 7d 52 be 6e f3 db 3e 62 a4 35 3e
       0.5182237 -0.20555727 0.4295916 0.17738488
000150 01 4e 13 bf 6d c8 2f be 82 c0 8c be bf 44 b1 3e
       -0.575409 -0.171663 -0.27490622 0.34622762
000160 f5 fa 09 bf fc 07 8f 3f f6 3d 01 3e 3b d4 13 3e
       -0.53898555 1.1174312 0.12621292 0.14436428
000170 bb 2e 02 bf b5 e6 04 3e 3f 3e 49 be 76 57 de be
       -0.50852555 0.12978633 -0.19652651 -0.43426102
000180 f4 e9 1a 3f 96 0d c0 be 83 b3 0f bf 96 4e 86 bf
       0.60513234 -0.37510365 -0.5613329 -1.0492733
000190 b0 5f b4 bf f2 9f c9 3e 9d 9f d7 bf 87 c9 8d bd
       -1.4091702 0.3937984 -1.6845585 -0.06923204
0001a0 b6 b3 dd 3e 00 cd a2 c0 b4 15 b8 c0 fe aa d3 bf
       0.4330117 -5.0875244 -5.7526493 -1.6536558
0001b0 b0 4f 98 3c 9e 39 5a bf fa 42 29 3f 97 ea a6 3f
       0.018592685 -0.85244167 0.66117823 1.3040341
0001c0 a1 7b d4 3d 51 94 61 be a2 e1 6c 3f bb 7c 9e be
       0.10375143 -0.22029234 0.9253179 -0.30954537
0001d0 0c a6 9c 3e 7d 82 6d 3e 40 b2 e6 3e fe 97 75 be
       0.30595434 0.23194309 0.4505787 -0.23983762
0001e0 78 b7 30 bf ea d5 75 be 4d 5d 53 3d 69 84 ff bd
       -0.6902995 -0.24007383 0.05160265 -0.12476427
0001f0 43 04 02 be d4 2b 2d be 0b 5d 01 3f 09 18 18 bf
       -0.12696938 -0.1691125 0.505326 -0.59411675
000200 c3 6f e2 3d e8 cb 0c bf 40 53 a8 be 1c 52 c8 3e
       0.11056473 -0.54998636 -0.32876015 0.39125144
000210 10 6b c6 bf ed 6c ba be 1e 44 04 3f 1a 24 34 3e
       -1.5501423 -0.3641123 0.5166644 0.17591897
000220 16 1e 9b bd 2a b7 e0 3d f2 88 b1 bf 48 4d 30 c0
       -0.07574098 0.10972436 -1.3869917 -2.7547169
000230 7b 5d a5 3e 6b 7c 38 c0 09 9d 41 c0 38 48 03 c0
       0.32297882 -2.8825939 -3.0252097 -2.051283
000240 7c 0f fb 3e fe 85 5f 3e 02 b7 fb 3c e5 32 7a 3f
       0.4903525 0.21828458 0.030726913 0.9773391
000250 11 67 5f bf 39 d8 cf bd 4f eb 3c 3f 5d 08 98 be
       -0.8726664 -0.10148663 0.7379655 -0.2969388
000260 e0 69 cc 3f 77 fe 5f 3f 60 51 0f 3f c4 f5 9a 3e
       1.596981 0.8749766 0.55983543 0.3026563
000270 f2 ab ae 3f 97 6d 10 bf fb de 67 be ed cb a5 3e
       1.3646224 -0.5641722 -0.22643654 0.32382146
000280 fb 37 46 bd 23 fc 3f bf c8 c3 78 3e 66 31 45 bf
       -0.04839323 -0.74994105 0.24293435 -0.770285
000290 34 93 31 bf 94 cf 70 3f 2e 17 b9 bf 86 d7 8b be
       -0.6936524 0.9406674 -1.4460199 -0.2731287
0002a0 10 b3 a1 3f 18 98 7e 3f 6c b3 62 3f a2 2c bc 3d
       1.263277 0.99450827 0.88555026 0.091882005
0002b0 00 f3 b5 bd 33 61 e8 3d 80 6b 0d 3e c0 6c 79 be
       -0.08884239 0.11346664 0.13810539 -0.24357891
0002c0 8d e2 dd 3c bd 2c 0d 3f d8 b3 b9 bf 01 b8 e8 3c
       0.027085567 0.5514639 -1.4508009 0.028408052
0002d0 82 4f a6 3e b0 8f f2 be fa 9a 8d 3e 34 8c c6 be
       0.32482535 -0.4737525 0.276573 -0.38778841
0002e0 01 38 80 bf ac 1a 77 bf 96 a7 37 3d ea aa 15 bf
       -1.0017091 -0.96525073 0.044837557 -0.5846392
0002f0 ae ad b7 bc 26 5e 02 be ab 57 68 3f 5b 00 6d be
       -0.022421684 -0.12731227 0.9075877 -0.23144667
000300 ab e9 37 bf f2 06 71 3f c8 fc 17 3f d5 15 44 3d
       -0.71840924 0.9415122 0.5937009 0.047872383
000310 2f b6 ce 3e 7b ac ef 3e 7a bf 6d bd a4 ed 45 3e
       0.4037337 0.4681128 -0.058043934 0.19328934
000320 99 3b 92 be c1 8b a2 3e 58 36 2c 3e 8d 7b 36 bf
       -0.28561094 0.3174725 0.16817605 -0.71282274
000330 23 18 57 be 52 62 15 3e f9 d2 24 be de 25 9d 3d
       -0.21005301 0.14588287 -0.16096105 0.07673238
000340 d8 b1 8a be 98 5c e8 3c 7c d0 96 bf 45 0a b2 bf
       -0.2708881 0.028364465 -1.1782374 -1.3909384
000350 04 63 e7 3e 04 35 d8 bf 20 f3 b1 bf b0 3f 29 bf
       0.4519273 -1.6891179 -1.3902321 -0.66112804
000360 21 7b ef 3e 61 d4 9b be 6a 91 91 be 05 c8 22 3f
       0.46773627 -0.3043547 -0.28431255 0.63586456
000370 5e 43 80 be d9 0c ad 3e 44 a1 4b c0 db 49 6b c0
       -0.25051397 0.33798864 -3.1817179 -3.6763828
000380 de 2e 5e 3f 17 ee 23 be 35 22 20 3f 5a 75 ad bc
       0.86790264 -0.16008793 0.62552196 -0.021174122
000390 81 68 91 3e f5 66 b7 3f 2b b0 12 3f 7c 1c 2b 3f
       0.28400043 1.4328295 0.5730006 0.6684034
0003a0 c9 99 aa 3f 69 ef a8 3f 4a d6 1c bf c0 c1 fe bf
       1.3328182 1.3198062 -0.6126448 -1.9902878
0003b0 bb 2f 0d bf 1f f0 63 be 2e 50 bb bf 40 da 50 bf
       -0.55150956 -0.22259568 -1.4633844 -0.81583023
0003c0 be 2d 25 bf c7 98 41 bf 0c cd 36 3c 2a ae 9e 3e
       -0.6452292 -0.75623745 0.011157285 0.30992252
0003d0 eb c5 66 3e 2c 29 02 bf 99 f6 ad 3e ce 3d 9d 3e
       0.22536437 -0.50844073 0.33977202 0.30711216
0003e0 8c 20 13 3f 44 cf 61 bf b4 fe 59 be 03 11 64 3e
       0.5747154 -0.8820689 -0.21288568 0.22272114
0003f0 d2 6e e9 3d 4c 30 bb 3d 6b b7 f0 3e d0 9b ed 3e
       0.113980904 0.09140071 0.47014937 0.46407938

module.down1.mpconv.1.conv.3.bias f4 [64]
000000 f2 77 a9 3d 63 a9 77 bd 5a 8b 09 bd 65 fe 90 bd
       0.08274831 -0.060464274 -0.03358016 -0.07079772
000010 a7 1a e2 3d 9a 9b 5f bd 90 66 64 3e 63 70 b9 be
       0.1104024 -0.054591753 0.2230475 -0.36218557
000020 0a 2e 48 be 29 84 46 3d c8 6f 00 be 6e e3 96 be
       -0.19548813 0.04846588 -0.12542641 -0.2947039
000030 65 87 31 3c 96 7b a7 bc 4b 9a 6b bd 9e 81 72 3c
       0.010835503 -0.020444673 -0.057520192 0.014801411
000040 fe 3f e9 3d d7 53 75 bd 78 fa e0 bd 92 44 bf bc
       0.11389159 -0.05989441 -0.10985273 -0.023348127
000050 4d 9a 65 3d f6 e7 8f 3d 0e 2c 0e 3e a3 b3 2c be
       0.056055356 0.07026665 0.13883993 -0.16865401
000060 36 c2 3c 3c c2 6e 3f be 61 df 67 3d 8a 19 70 be
       0.011520913 -0.18694595 0.056609515 -0.23447242
000070 e4 0d 30 be 5a 63 4a 3e 6f 96 2a be bb 97 48 bd
       -0.17192799 0.19764462 -0.16658948 -0.048972826
000080 c8 12 4b be be 8e bb 3b 61 d3 0b bd 79 83 82 3d
       -0.19831383 0.0057238033 -0.034137134 0.06372733
000090 62 be 47 bd 2a b7 17 be 6f 4c 02 be b5 44 90 3d
       -0.048765548 -0.14815965 -0.1272447 0.07044355
0000a0 54 54 d1 3c e9 c2 d7 bc 22 e3 8d be 80 52 f9 bc
       0.025552906 -0.026338058 -0.2771235 -0.030434847
0000b0 20 d1 40 3e d4 61 ec 3c 13 86 bf bb 15 03 22 bc
       0.18829775 0.028855242 -0.0058448403 -0.00988843
0000c0 5b 1f 0a 3e da 29 f3 3d 13 43 73 bd 70 43 93 bc
       0.13488524 0.11873217 -0.05939014 -0.017976493
0000d0 52 6f e2 be 52 fa 8b be 70 e4 2a bc 46 59 39 be
       -0.44225556 -0.27339417 -0.01043044 -0.18100461
0000e0 8a 63 00 3b d4 a2 1b bd eb f1 a2 3d fb b2 4f be
       0.001959058 -0.037997082 0.079562984 -0.2028312
0000f0 68 a6 3a 3d 2b b0 2f bd e7 46 9f bc b7 58 b3 3c
       0.045568854 -0.042892616 -0.019442989 0.021892888

module.down1.mpconv.1.conv.4.weight f4 [64]
000000 49 40 e5 3e 2b ea e2 3e 9b a6 44 3f d4 fd 33 3f
       0.44775608 0.4431928 0.7681672 0.70309186
000010 49 b9 23 3f 38 97 45 3f c9 23 4d 3f 1f 93 9a 3e
       0.639546 0.77183867 0.8013273 0.3019037
000020 e8 41 7d 3f b1 15 03 3f bb 00 94 3e b0 b1 98 3f
       0.9892869 0.51204973 0.28906807 1.1929226
000030 51 45 fa 3e 00 27 8a 3f 1b 79 fd 3e 20 e5 d6 3f
       0.4888101 1.0793152 0.4950646 1.6788673
000040 a5 68 2c 3f 13 3f 47 3f 20 9a 61 3f 51 06 7c 3f
       0.67347175 0.7783062 0.881258 0.9844714
000050 61 6c 85 3f e3 a1 4b 3f d1 94 04 3f 57 fc 1d 3f
       1.04237 0.79543895 0.51789576 0.61713165
000060 95 da 09 3f 72 d2 ca 3e c5 a5 23 3f fd 3d 45 3f
       0.53849155 0.39613682 0.6392482 0.7704771
000070 77 ab 00 3f 21 68 78 3f 2b c7 c6 3e c4 f2 bd 3e
       0.50261635 0.9703389 0.38823828 0.37099278
000080 e7 58 84 3e de f3 06 3f c7 3e c2 3f 54 fe 3a 3f
       0.25849077 0.5271586 1.5175408 0.73044324
000090 88 75 4c 3f f6 a2 2f 3f 34 c5 18 3f 03 ee 55 3f
       0.7986684 0.68608034 0.5967591 0.835663
0000a0 8e 03 9a 3e 99 8e 8f 3f 42 8c f8 3e be 38 ed 3e
       0.30080837 1.1215392 0.48544508 0.46332353
0000b0 dd 3c 73 3f 21 94 bd 3e c7 bf b4 3e 69 ca 2d 3f
       0.95014745 0.37027076 0.35302565 0.6788698
0000c0 f8 f3 3e 3f 6c 38 32 3f 5e 19 7a 3e 14 f6 6f 3f
       0.74591017 0.6961734 0.2442374 0.9373486
0000d0 5c a2 a2 3e a6 6e 94 3f 37 10 48 3f 59 46 c4 3e
       0.31764495 1.1596267 0.7814974 0.3833492
0000e0 ab 82 3e 3f dd c8 90 3f f1 3a 5a 3f 56 73 ae 3e
       0.74418133 1.1311299 0.8524619 0.3407237
0000f0 ec 1c d5 3e 41 37 ca 3e 0d c2 42 3f 81 95 fe 3e
       0.41623628 0.3949528 0.7607735 0.49723437

module.down1.mpconv.1.conv.4.bias f4 [64]
000000 87 a4 22 3e c0 48 57 3d 5f 14 c2 be 47 b1 11 bf
       0.15883075 0.052559614 -0.37906167 -0.5691113
000010 aa 38 05 3d 59 99 36 bd 02 70 96 ba ef 26 68 bf
       0.032524742 -0.044579837 -0.0011477473 -0.9068441
000020 f2 9b 51 bf 12 26 78 3d 10 93 6a 3d d5 02 6e bf
       -0.8187858 0.06058318 0.057269156 -0.9297307
000030 1b fa 8f 3c 92 31 e4 be f6 a4 f6 bd de f4 2b bf
       0.017575314 -0.4456907 -0.120431826 -0.6717051
000040 d1 a0 18 3e 74 26 9a be 33 c8 39 be 22 ef 57 be
       0.14905097 -0.30107462 -0.18142776 -0.21087316
000050 83 65 04 bf 65 f8 fc bd bf ed b4 3d 21 8c 85 be
       -0.51717395 -0.12352065 0.08834409 -0.26083472
000060 7c 97 de bb 5f 5a 55 bd 67 9b 37 bd cb da af be
       -0.0067929607 -0.052088138 -0.044825938 -0.34346613
000070 42 6d 47 bd bc 8f 31 3d fe 09 38 3b a3 a6 b8 3d
       -0.04868818 0.043349966 0.0028082128 0.090161584
000080 fb bb 66 3d b9 02 0b 3e 32 46 00 bf a5 87 0c 3e
       0.056331616 0.13575257 -0.5010711 0.1372362
000090 5f 4f 93 be 2b c6 60 be 18 eb 7f be e2 9e 90 be
       -0.28771493 -0.21950595 -0.24992025 -0.28246218
0000a0 17 61 2d be 67 f6 00 bf a0 f6 de be a6 ff a8 3d
       -0.16931568 -0.5037598 -0.43547535 0.08251886
0000b0 94 38 23 bd 9b 68 24 3d 9c 40 3d 3d 94 6c 49 be
       -0.03984888 0.040138822 0.046204194 -0.19670326
0000c0 c1 6a 99 3c 42 50 7a bd bf 17 0b 3e 9c fb 88 be
       0.018727662 -0.061111696 0.13583277 -0.26754463
0000d0 70 de 79 c0 53 32 54 bf 1c 0e 01 be fb d6 b8 bd
       -3.9042015 -0.8288929 -0.12603039 -0.09025379
0000e0 2f 66 64 bd 7f 69 8d be 7f f9 36 3d 2f cc 8f c0
       -0.055761512 -0.2761955 0.04467153 -4.4936748
0000f0 ba 1b 0a 3e 22 35 13 3e f0 d6 40 be 36 46 84 3d
       0.1348714 0.14375737 -0.18831992 0.06458704
