learned_models/mask/ACS-WFC-F606W-2-4.pth (torch_old, 15979 bytes, 39 tensors)

module.inc.conv.conv.0.weight f4 [4, 1, 3, 3]
-0.038984057 0.041578535 0.003345448 -0.98023146 -0.021750063 0.0380712 0.19358641 0.9780577
0.023243384 0.008353922 -1.4297925 0.017001735 0.017065322 -0.044138357 -0.008166701 0.4450158
0.91999596 0.034147464 -1.1564488 0.013733567 0.03227631 0.037014533 0.9000728 0.07935256
0.0025991895 0.05167506 0.0065509314 -0.098488 -0.28342825 0.018486146 0.15093666 1.4834003
-0.56424046 -0.12249192 -0.20234762 0.049263213
00000000: bfad 1fbd 414e 2a3d 4e3f 5b3b 73f0 7abf
00000010: 302d b2bc 8cf0 1b3d 843b 463e fd61 7a3f
00000020: e968 be3c e3de 083c 7103 b7bf 3947 8b3c
00000030: 93cc 8b3c 6cca 34bd a0cd 05bc 1cd9 e33e
00000040: db84 6b3f 36de 0b3d 8406 94bf c102 613c
00000050: 2a34 043d 8d9c 173d 2c6b 663f 9883 a23d
00000060: 2a57 2a3b 3aa9 533d 32a9 d63b 14b4 c9bd
00000070: 821d 91be 4270 973c 248f 1a3e 10e0 bd3f
00000080: 1072 10bf 0bdd fabd 3734 4fbe 39c8 493d

module.inc.conv.conv.0.bias f4 [4]
-0.08317099 0.36790088 0.13999566 0.20926163
00000000: 8d55 aabd 815d bc3e 065b 0f3e ae48 563e

module.inc.conv.conv.1.weight f4 [4]
0.94016445 1.5229161 0.95319957 0.6306411
00000000: 9eae 703f eaee c23f e304 743f b271 213f

module.inc.conv.conv.1.bias f4 [4]
0.60164016 0.11273788 -0.0027862347 1.2921926
00000000: 1705 1a3f 1ee3 e63d 4399 36bb 9166 a53f

module.inc.conv.conv.1.running_mean f4 [4]
0.0918432 0.054125506 0.13339376 1.039307
00000000: 4a18 bc3d b5b2 5d3d 6098 083e 0308 853f

module.inc.conv.conv.1.running_var f4 [4]
40.67016 65.114655 36.25913 59.112988
00000000: 3eae 2242 b43a 8242 5909 1142 b373 6c42

module.inc.conv.conv.3.weight f4 [4, 4, 3, 3]
0.011817712 0.027045406 -0.0012863185 0.07767657 -0.23562597 0.7284122 -0.0060277446 -0.11592876
-0.094546795 -0.050403938 -0.25499818 -0.061638247 0.094157554 -0.02752472 -0.14930777 3.1785585e-05
0.12484456 0.08340146 -0.025020737 0.053067688 -0.0074937306 -0.12272068 -1.4088671 -0.1670295
-0.094965145 0.13177454 -0.12444112 0.15101314 -0.12574095 0.03078205 0.94574875 -2.3503444
0.03178984 0.09066463 0.26279816 -0.0480577 0.06730343 -0.38597372 -0.36255988 -0.57029426
1.1752026 0.63707465 -0.074969515 0.15072711 0.39806795 0.08690277 0.13706532 0.07613148
0.059789557 -0.29950508 -0.09864064 0.08967306 -0.037987106 -0.32420298 0.023549762 0.072680525
0.022633001 -0.02207839 0.5410988 -0.14771225 -0.09127599 -1.2394401 -0.5794079 0.08292316
-0.061529912 -0.09147899 -0.41936707 -1.1586626 -0.09771914 0.48674724 0.015422824 -0.08055277
0.664674 -0.28925517 -0.11665352 1.5953708 0.039559156 -0.29133162 0.23435374 -0.21177089
-0.31301093 0.3794879 0.3695289 -0.28213972 0.3525994 0.5983813 0.7741171 -0.16096134
0.3256894 0.34849167 -0.10951767 0.4139509 -0.33554235 -0.028612053 1.6756474 0.54936105
-0.65373915 -0.36330262 -0.69365126 0.7185106 -0.48632 0.024465213 -0.058746755 -0.15749305
-0.06452586 -0.54455554 0.077379555 0.11190273 -0.0015155574 -0.0072352 -0.02654221 0.0066397195
-0.1503818 -1.3327616 0.16689472 -0.07337456 -0.0058391965 0.021949476 0.078854606 0.05783603
-0.0354672 0.117799565 -0.13031411 0.05696981 -3.2056985 0.110068046 0.017702898 0.024617236
0.008813001 -0.008442506 0.13935259 0.11935226 -0.10743536 0.31641743 1.1365341 -0.018557347
-0.040233396 0.04400677 -0.081966646 0.2236972 0.018371377 0.21759279 -0.17902233 0.36719954
00000000: 149f 413c 548e dd3c b099 a8ba e514 9f3d
00000010: ef47 71be 3979 3a3f 6384 c5bb 0f6c edbd
00000020: c0a1 c1bd 5c74 4ebd 1f8f 82be 6378 7cbd
00000030: add5 c03d 867b e1bc 23e4 18be 8351 0538
00000040: 81ae ff3d 62ce aa3d 4af8 ccbc 815d 593d
00000050: f88d f5bb fb54 fbbd c255 b4bf c809 2bbe
00000060: 167d c2bd e8ef 063e fcda febd 30a3 1a3e
00000070: 3cc2 00be a32a fc3c 971c 723f 0b6c 16c0
00000080: 1036 023d 61ae b93d 7b8d 863e 27d8 44bd
00000090: 61d6 893d 599e c5be 73a1 b9be cefe 11bf
000000a0: 0a6d 963f 5317 233f 9e89 99bd 3558 1a3e
000000b0: 90cf cb3e 14fa b13d da5a 0c3e d2ea 9b3d
000000c0: e5e5 743d bb58 99be 1b04 cabd 82a6 b73d
000000d0: 5e98 1bbd effd a5be 6eeb c03c 87d9 943d
000000e0: d868 b93c bddd b4bc 7385 0a3f e141 17be
000000f0: e8ee babd f9a5 9ebf 1354 14bf 9ed3 a93d
00000100: ca06 7cbd 5659 bbbd 48b7 d6be 0e4f 94bf
00000110: f920 c8bd ef36 f93e 03b0 7c3c daf8 a4bd
00000120: 1328 2a3f 4119 94be 0ae8 eebd 1c35 cc3f
00000130: c808 223d 6b29 95be 6dfa 6f3e 78da 58be
00000140: f842 a0be 3d4c c23e e432 bd3e 9e74 90be
00000150: e987 b43e 842f 193f 8a2c 463f 0dd3 24be
00000160: c3c0 a63e 806d b23e cd4a e0bd 5ff1 d33e
00000170: 35cc abbe d363 eabc 9d7b d63f eda2 0c3f
00000180: 735b 27bf cd02 babe 2193 31bf 50f0 373f
00000190: effe f8be 456b c83c 70a0 70bd dc45 21be
000001a0: 2226 84bd fe67 0bbf 2c79 9e3d 422d e53d
000001b0: aba5 c6ba 4215 edbb 0c6f d9bc 0192 d93b
000001c0: b0fd 19be ef97 aabf 73e6 2a3e 6745 96bd
000001d0: bb56 bfbb 63cf b33c 867e a13d 79e5 6c3d
000001e0: 0e46 11bd e640 f13d 1071 05be 2d59 693d
000001f0: 2a2a 4dc0 5b6b e13d ab05 913c 16aa c93c
00000200: 6864 103c 7052 0abc 72b2 0e3e f56e f43d
00000210: 1207 dcbd 7701 a23e f379 913f 9405 98bc
00000220: c6cb 24bd 7140 343d 21de a7bd e110 653e
00000230: 927f 963c a5d0 5e3e a151 37be 9401 bc3e

module.inc.conv.conv.3.bias f4 [4]
-0.094757855 0.25222045 -0.21234235 -0.061765533
00000000: 6810 c2bd 0a23 813e 4670 59be dbfd 7cbd

module.inc.conv.conv.4.weight f4 [4]
1.2034229 0.794265 0.22349608 0.57914376
00000000: c309 9a3f f354 4b3f 28dc 643e c442 143f

module.inc.conv.conv.4.bias f4 [4]
-0.05123868 0.007413008 -0.062383596 -0.018007105
00000000: a6df 51bd d1e8 f23b f185 7fbd a383 93bc

module.inc.conv.conv.4.running_mean f4 [4]
-1.3592138 -0.8545151 0.3037041 -0.7272283
00000000: b8fa adbf 80c1 5abf 1b7f 9b3e a22b 3abf

module.inc.conv.conv.4.running_var f4 [4]
1.5230895 0.5304964 0.7666313 0.938306
00000000: 99f4 c23f 9dce 073f f341 443f d234 703f

module.down1.mpconv.1.conv.0.weight f4 [8, 4, 3, 3]
0.091699965 0.22457007 -0.03557054 0.026136838 -0.058370546 0.08447742 -1.0188881 -0.03534255
0.004366367 0.007857594 -0.015901512 0.036045674 0.67042065 0.4804943 -0.0346627 -1.428599
0.1941564 0.051153157 0.016261961 -0.0011879354 -0.100674935 -0.04947001 0.25173435 0.01950076
-0.65695494 -0.103923135 -0.007922652 0.10939654 -0.032261103 0.07191856 -0.29659832 0.07499355
0.02527377 -0.63397855 -0.2344799 0.021107689 -0.059670012 0.15044464 -0.10209232 0.17547482
0.6086854 -0.009528298 -0.06345881 -0.08693642 -0.16012788 -0.1923445 -0.009841661 0.025445353
-0.7080419 0.37634292 0.3558992 -0.088156804 0.29910612 0.1904178 0.050786853 -0.5333224
0.050157588 0.0485839 -0.2630096 0.0485954 -0.058236845 0.007733212 0.018109756 -0.034805737
-0.3296899 -0.121268146 -0.44136074 1.3163321 -0.5190594 -0.16542703 -0.36717892 -0.1083818
-0.16721448 -0.14762378 0.08607188 0.19633329 0.21868783 0.017315062 -0.10927785 -0.24407691
0.05549295 0.077471934 0.06642102 0.055040296 -0.14539889 -0.20781335 -0.34114975 0.13098687
-0.81337905 -0.28592172 0.07899305 -0.6280681 -0.12838243 -1.106421 -1.9173357 -0.40088078
-0.34662482 0.13725264 -0.07192194 -0.70076287 -0.8688439 -0.19534941 -0.43093532 -0.6768084
-0.668315 -0.5013543 0.09245817 -0.17846076 -0.38838473 -0.23219942 -0.017007815 -0.78148097
-0.59542215 0.062727556 -0.2015527 -0.37080717 0.107383564 0.10382872 0.1570719 -0.10551057
-0.015955849 -0.96400666 0.105423644 0.068523936 -0.21937266 -0.26858515 0.06744082 -0.2250097
0.10640885 -0.01579882 1.4067023 -0.092080586 0.10113155 -0.15607843 0.047911063 0.060560547
0.15524186 0.065784514 0.35525712 0.27385753 -0.08065978 -0.0051112175 0.3297279 -0.12379493
-0.6003281 -0.5030647 0.20626837 0.04195945 0.520581 0.39330912 -0.077923015 -0.10772167
0.08984414 -0.1870483 -0.6047237 0.80850136 -0.18070216 -0.80268425 0.5518464 -0.042795178
0.03943852 0.03076946 0.040022526 -0.40177053 -1.1617687 0.030434892 -0.5640275 -0.12997298
0.04572319 0.08808394 -0.03673612 0.13476826 0.6794659 -0.075439095 0.3422701 -0.35863712
0.08669568 0.0645753 -0.03766255 -0.07248476 0.10995575 0.101526 0.04194921 -0.05898645
1.5169473 -0.64778215 0.18086708 -0.084135644 -0.36221102 0.020870421 -0.11319389 0.07566654
-0.2271147 1.0704579 0.38786498 -0.11122413 -0.095908605 -0.117254145 0.0009297401 0.06909325
-0.034428146 -0.11056645 0.08666658 -0.45670533 -0.05071245 -0.022563394 0.011357568 0.0068401718
0.021712145 0.040657345 -0.03157206 0.09072451 -0.24294546 0.12884535 -0.26255345 -0.25084046
0.059604596 -0.17419818 -0.3578453 0.05233738 0.3830481 -0.8492632 0.023679737 0.17461255
-0.006022632 0.08913512 0.3568155 0.0900746 0.010708667 0.8334328 -1.0289559 0.14071187
0.5471033 0.28833094 -0.007368241 -0.09736286 -0.06538164 0.0730901 -0.26911366 -2.5593464
-0.01866609 0.03816245 0.15643652 0.044619184 -0.061993677 -0.3194738 -0.030516086 -0.93277043
-0.25437683 -0.040661886 0.09883264 0.103234224 -0.8414694 -0.49527958 0.11916515 -0.04841985
00000000: 31cd bb3d b2f5 653e 6ab2 11bd ec1c d63c
00000010: f415 6fbd 7f02 ad3d ed6a 82bf 5ac3 10bd
00000020: be13 8f3b 23bd 003c e343 82bc a1a4 133d
00000030: b0a0 2b3f 5903 f63e 7afa 0dbd 55dc b6bf
00000040: efd0 463e f985 513d ce37 853c 7fb4 9bba
00000050: a92e cebd 11a1 4abd 53e3 803e 0fc0 9f3c
00000060: 332e 28bf a7d5 d4bd 03ce 01bc 4b0b e03d
00000070: 3824 04bd 0a4a 933d bcdb 97be 3896 993d
00000080: f00a cf3c 6b4c 22bf 801b 70be 08ea ac3c
00000090: 8b68 74bd 290e 1a3e c715 d1bd acaf 333e
000000a0: ced2 1b3f 941c 1cbc b1f6 81bd b90b b2bd
000000b0: 90f8 23be f5f5 44be eb3e 21bc c672 d03c
000000c0: 3c42 35bf 05b0 c03e 6c38 b63e 8e8b b4bd
000000d0: 7024 993e e2fc 423e e005 503d d187 08bf
000000e0: 0b72 4d3d e9ff 463d 32a9 86be f80b 473d
000000f0: c289 6ebd e266 fd3b e95a 943c 7690 0ebd
00000100: 1dcd a8be 6f5b f8bd 09fa e1be 927d a83f
00000110: 14e1 04bf b465 29be e0fe bbbe 47f7 ddbd
00000120: 463a 2bbe b02a 17be 7446 b03d 980b 493e
00000130: b4ef 5f3e 51d8 8d3c 11cd dfbd 4cef 79be
00000140: 934c 633d 9ba9 9e3d be07 883d ef71 613d
00000150: 72e3 14be 06cd 54be 2eab aebe 6c21 063e
00000160: 9c39 50bf 5564 92be 1cc7 a13d 12c9 20bf
00000170: af76 03be 349f 8dbf 426b f5bf 3f40 cdbe
00000180: cf78 b1be f58b 0c3e cf4b 93bd 3265 33bf
00000190: 8e6c 5ebf ad09 48be 8ea3 dcbe 5143 2dbf
000001a0: b116 2bbf c158 00bf b65a bd3d 6bbe 36be
000001b0: 5dda c6be afc5 6dbe f953 8bbc 230f 48bf
000001c0: 966d 18bf 4e77 803d d563 4ebe 70da bdbe
000001d0: eaeb db3d 27a4 d43d 75d7 203e ed15 d8bd
000001e0: d7b5 82bc 24c9 76bf 5ae8 d73d 4756 8c3d
000001f0: 3aa3 60be fe83 89be 6a1e 8a3d f168 66be
00000200: e2ec d93d 876c 81bc d20e b43f bf94 bcbd
00000210: 0f1e cf3d 06d3 1fbe 643e 443d 560e 783d
00000220: b9f7 1e3e 08ba 863d 43e4 b53e 0e37 8c3e
00000230: f430 a5bd 007c a7bb 18d2 a83e 3288 fdbd
00000240: 1aaf 19bf d9c8 00bf 0438 533e acdd 2b3d
00000250: cc44 053f d05f c93e 1a96 9fbd 2e9d dcbd
00000260: 3400 b83d 9789 3fbe 2ccf 1abf f2f9 4e3f
00000270: fd09 39be b77c 4dbf ce45 0d3f ff49 2fbd
00000280: 498a 213d 3c10 fc3c a9ee 233d deb4 cdbe
00000290: d6b4 94bf 9852 f93c 1b64 10bf a317 05be
000002a0: 3d48 3b3d 5a65 b43d 9d78 16bd b100 0a3e
000002b0: 7af1 2d3f d07f 9abd 073e af3e 499f b7be
000002c0: 818d b13d 0e40 843d 0c44 1abd e472 94bd
000002d0: 7b30 e13d ddec cf3d efd2 2b3d c79b 71bd
000002e0: 542b c23f 0dd5 25bf 3835 393e 4f4f acbd
000002f0: b973 b9be 72f8 aa3c 33d2 e7bd 0ff7 9a3d
00000300: c290 68be c404 893f 3d96 c63e 7ac9 e3bd
00000310: bb6b c4bd f122 f0bd cdb9 733a c380 8d3d
00000320: 8704 0dbd aa70 e2bd 3f7e b13d 48d5 e9be
00000330: dcb7 4fbd ded6 b8bc 1815 3a3c 8523 e03b
00000340: abdd b13c 5188 263d b451 01bd c6cd b93d
00000350: b2c6 78be 09f0 033e 686d 86be 296e 80be
00000360: f323 743d 0261 32be 8037 b7be b85f 563d
00000370: e11e c43e 5069 59bf 02fc c13c a2cd 323e
00000380: 8059 c5bb 798c b63d 85b0 b63e 0879 b83d
00000390: 6873 2f3c da5b 553f d4b4 83bf c616 103e
000003a0: f60e 0c3f 1da0 933e 4971 f1bb 2e66 c7bd
000003b0: cfe6 85bd 43b0 953d 44c9 89be 55cc 23c0
000003c0: a1e9 98bc 3b50 1c3d e530 203e 9bc2 363d
000003d0: 15ed 7dbd 1292 a3be dffc f9bc 0bca 6ebf
000003e0: ae3d 82be 148d 26bd c468 ca3d 776c d33d
000003f0: 8a6a 57bf 4995 fdbe dc0c f43d e553 46bd

module.down1.mpconv.1.conv.0.bias f4 [8]
0.055393662 -0.035747964 0.21328156 0.15615372 0.017059451 -0.27926925 0.0025084151 0.023067987
00000000: 77e4 623d 756c 12bd 7b66 5a3e c3e6 1f3e
00000010: 43c0 8b3c 61fc 8ebe 3964 243b 13f9 bc3c

module.down1.mpconv.1.conv.1.weight f4 [8]
0.64958465 0.62890893 1.3730109 0.40000382 0.5609122 0.40626106 1.4625175 1.1827153
00000000: 2e4b 263f 2d00 213f d2be af3f 4dcd cc3e
00000010: f197 0f3f 7301 d03e c633 bb3f 3763 973f

module.down1.mpconv.1.conv.1.bias f4 [8]
0.0055335984 -0.19003963 0.1067773 0.2467593 0.3142287 -0.21385372 -0.054480713 -0.052430194
00000000: 3053 b53b c099 42be 0fae da3d 78ae 7c3e
00000010: 96e2 a03e 78fc 5abe 2b27 5fbd 0bc1 56bd

module.down1.mpconv.1.conv.1.running_mean f4 [8]
-0.28813165 0.10026659 -0.6707747 -0.2480931 -0.21443787 -0.13868481 -0.39482364 -0.24640064
00000000: fe85 93be 9258 cd3d e4b7 2bbf 1e0c 7ebe
00000010: 9a95 5bbe 6403 0ebe 5326 cabe 7350 7cbe

module.down1.mpconv.1.conv.1.running_var f4 [8]
0.27932984 0.18984456 0.7172096 0.31608385 0.8994724 0.15043388 1.5470047 0.7620493
00000000: 5204 8f3e 9d66 423e 0c9b 373f bed5 a13e
00000010: d343 663f 570b 1a3e 4004 c63f aa15 433f

module.down1.mpconv.1.conv.3.weight f4 [8, 8, 3, 3]
0.3150348 -0.45974222 -0.5724193 0.26150286 -0.38346586 -0.3804927 0.2463131 0.0051128725
0.03928716 0.08000076 -0.097700655 -0.0028358642 -0.13529544 -0.46343362 -0.072446905 -0.13158937
-0.3720567 -0.07432269 0.70564216 0.35526025 0.04998728 -0.16839564 0.30129218 -0.12564857
0.022605004 -0.6302767 0.54701394 -0.3030713 -0.073817976 -0.0020316239 -0.23308712 0.3606606
-0.13276958 -0.23796491 -0.3611396 -0.12393701 -0.42614812 -0.2945646 -0.26857203 -0.784494
-0.27643782 0.2573053 -0.7934186 0.6050141 0.19452979 -0.2736803 0.06385898 0.08295503
-0.22247171 -0.010669881 -0.10452738 -0.1978038 0.276547 0.20309643 -0.21972084 0.4199833
0.44802555 -1.0007024 -0.413229 0.21428464 -0.6065233 0.005819774 0.30916128 0.19113131
0.008210651 0.22858496 0.17122993 -0.46359745 0.01784334 0.33860847 -0.7599989 0.013538296
0.05436725 0.013194368 -0.18001474 -0.085954264 -0.20890409 -0.60153496 0.16983531 0.059011683
-0.060092222 -0.05246327 -1.1064509 -0.7642482 -1.8970935 -2.090263 -1.3490641 -0.09583344
-2.609374 -0.073654525 0.14015052 0.07726601 -0.28014615 0.07386338 0.8866419 0.15234138
0.17482392 0.094944224 -0.21567295 -0.43999684 0.7131383 0.1147623 -0.6991997 -0.33870313
0.09855802 0.008447624 -0.6778996 -0.01954564 0.28939843 0.045201626 0.1846855 0.4342275
-0.18356103 0.14634784 0.7006389 1.7165495 -0.094020255 0.116358794 0.10937114 -0.7193371
-1.0550159 -0.8664973 -1.1289772 0.04030859 -0.6328549 -0.35629648 0.041374393 -0.08048667
-0.21971227 -0.11739477 -0.08683355 -0.46147954 0.28864783 0.008325786 0.16399351 -0.279504
-0.07793399 -0.17229095 0.11827988 -0.14857751 -0.37299863 0.093196906 -0.19019046 -0.14390717
-0.4582298 -0.57092094 0.04449882 -0.5117133 -0.11105367 -0.7466168 0.0037318734 -1.2506305
-0.11658526 -0.2072289 -0.011876419 -0.102605544 -0.24704115 -0.106889375 0.053369522 -0.11261891
-0.30976132 0.42244846 -0.65383655 0.056198996 0.19364958 -0.111571275 -0.68256074 0.39934626
-0.07365718 0.6485553 0.08098765 -0.021808974 0.53946066 -0.056352418 0.2708172 -0.24830908
-0.01692407 -0.3817443 0.21090774 -0.12135429 0.27307025 0.43955123 -0.52247846 0.86883175
-0.43992445 -0.5474414 0.109578185 0.26685438 -0.25940794 0.084628105 0.2567443 0.07973706
0.34222242 -0.40776718 -0.16092788 0.1894519 0.73478603 -0.12165467 -0.25798273 0.6441004
-0.27614468 0.63777286 0.96930134 -0.8947307 -0.7265193 0.32698703 -0.23497574 -0.48449883
0.6255668 0.00071335625 -0.6765876 0.00089412945 0.054978333 -0.6026128 0.18366587 -0.07515387
-0.024153674 0.008052836 -0.01765722 -0.20108877 -0.3470832 -0.025498895 -0.16794918 -0.29444882
-0.52959126 0.04688755 -0.11174108 0.08042917 0.090218544 -1.0671922 0.1937567 -0.080921404
0.3086195 -0.13010453 -0.24557914 -0.02496753 -0.2944424 -0.2697339 1.4502116 0.052687027
-0.4806909 -0.14665516 -0.39424503 0.07590758 -0.040061858 -0.033743236 -0.13344799 -0.61671495
-0.11358195 -0.14504611 -0.1687323 0.0887896 -0.12720416 -0.124755315 -0.00013360174 0.12169553
00000000: 3e4c a13e 5563 ebbe 128a 12bf b4e3 853e
00000010: a355 c4be f0cf c2be 8039 7c3e e289 a73b
00000020: 93eb 203d 70d7 a33d 4817 c8bd e8d9 39bb
00000030: e38a 0abe 2c47 edbe 0b5f 94bd 5dbf 06be
00000040: 377e bebe 7f36 98bd f7a4 343f ace4 b53e
00000050: 76bf 4c3d e86f 2cbe f842 9a3e 05aa 00be
00000060: 212e b93c d059 21bf 1b09 0c3f 292c 9bbe
00000070: e12d 97bd fe24 05bb 64ae 6ebe 82a8 b83e
00000080: c0f4 07be 13ad 73be 4ae7 b8be b0d2 fdbd
00000090: 1630 dabe 2cd1 96be 4682 89be 99d4 48bf
000000a0: 4289 8dbe 85bd 833e 7b1d 4bbf 34e2 1a3f
000000b0: d132 473e d31f 8cbe 7fc8 823d 54e4 a93d
000000c0: a0cf 63be b9d0 2ebc 7312 d6bd 148d 4abe
000000d0: 9297 8d3e 83f8 4f3e 80fe 60be 0d08 d73e
000000e0: 9b63 e53e 0417 80bf c092 d3be 6f6d 5b3e
000000f0: 1c45 1bbf ceb3 be3b 634a 9e3e edb7 433e
00000100: f785 063c 2d12 6a3e e656 2f3e a55c edbe
00000110: 322c 923c 175e ad3e 4a8f 42bf bbcf 5d3c
00000120: 32b0 5e3d 312d 583c c955 38be ca08 b0bd
00000130: f4ea 55be 32fe 19bf 4fe9 2d3e 3cb6 713d
00000140: 4323 76bd bae3 56bd 2fa0 8dbf c5a5 43bf
00000150: f6d3 f2bf dec6 05c0 22ae acbf 5344 c4bd
00000160: fcff 26c0 2fd8 96bd 9e83 0f3e a43d 9e3d
00000170: 516f 8fbe af45 973d f7fa 623f 61ff 1b3e
00000180: 0b05 333e 1e72 c23d 5fd9 5cbe 4447 e1be
00000190: 3b90 363f 7f08 eb3d c0fe 32bf 7f6a adbe
000001a0: cad8 c93d e767 0a3c d48a 2dbf 2e1e a0bc
000001b0: 082c 943e 5725 393d 321e 3d3e 1153 de3e
000001c0: 6cf7 3bbe 35dc 153e 125d 333f e5b7 db3f
000001d0: b18d c0bd 854d ee3d fafd df3d 7a26 38bf
000001e0: c30a 87bf c4d2 5dbf 5382 90bf 9f1a 253d
000001f0: c702 22bf 7e6c b6be 3278 293d 32d6 a4bd
00000200: 41fc 60be ab6c f0bd cad5 b1bd 0c47 ecbe
00000210: a6c9 933e e168 083c eaed 273e 261b 8fbe
00000220: db9b 9fbd 0a6d 30be b93c f23d b424 18be
00000230: adf9 bebe 05de be3d 4ac1 42be 675c 13be
00000240: 199d eabe e027 12bf 6544 363d a5ff 02bf
00000250: 1b70 e3bd 4722 3fbf 7292 743b a914 a0bf
00000260: 41c4 eebd d033 54be 5095 42bc db22 d2bd
00000270: 5bf8 7cbe d1e8 dabd 009a 5a3d bea4 e6bd
00000280: 0999 9ebe 2a4b d83e d561 27bf eb30 663d
00000290: 134c 463e 7b7f e4bd 4dbc 2ebf 1d77 cc3e
000002a0: 93d9 96bd b807 263f dadc a53d bca8 b2bc
000002b0: 181a 0a3f cbd1 66bd 8da8 8a3e bc44 7ebe
000002c0: 59a4 8abc fd73 c3be 33f8 573e 9988 f8bd
000002d0: ddcf 8b3e dc0c e13e 26c1 05bf c26b 5e3f
000002e0: c73d e1be 1f25 0cbf 876a e03d 23a1 883e
000002f0: 1ed1 84be 8051 ad3d fd73 833e 2f4d a33d
00000300: c737 af3e dcc6 d0be 47ca 24be aeff 413e
00000310: f01a 3c3f 1526 f9bd 5016 84be c4e3 243f
00000320: d662 8dbe 1545 233f 2224 783f 120d 65bf
00000330: 2bfd 39bf d86a a73e 7b9d 70be 3b10 f8be
00000340: 2525 203f 8700 3b3a d834 2dbf 0364 6a3a
00000350: f630 613d d544 1abf e812 3c3e 46ea 99bd
00000360: eddd c5bc 0bf0 033c e0a5 90bc 37ea 4dbe
00000370: e4b4 b1be 0fe3 d0bc dffa 2bbe ffc1 96be
00000380: 4b93 07bf 290d 403d 82d8 e4bd 0cb8 a43d
00000390: 80c4 b83d c199 88bf 2868 463e 1fba a5bd
000003a0: 6003 9e3e 1f3a 05be 1979 7bbe b588 ccbc
000003b0: 27c1 96be 901a 8abe 89a0 b93f 5ace 573d
000003c0: 1e1d f6be c52c 16be 7cda c9be 6f75 9b3d
000003d0: e717 24bd 5936 0abd 97a6 08be 08e1 1dbf
000003e0: a79d e8bd f886 14be 29c8 2cbe 52d7 b53d
000003f0: cf41 02be b77f ffbd 7217 0cb9 823b f93d

module.down1.mpconv.1.conv.3.bias f4 [8]
-0.041129235 0.031769857 0.21708739 0.20770514 0.07213216 -1.2054601 0.16444132 -0.0104744425
00000000: 2177 28bd 1c21 023d 284c 5e3e a8b0 543e
00000010: 07ba 933d 844c 9abf 4e63 283e ff9c 2bbc

module.down1.mpconv.1.conv.4.weight f4 [8]
0.41553646 0.8839521 0.25277737 0.32619518 1.1663892 0.32326072 0.5852302 0.35806745
00000000: 32c1 d43e af4a 623f 096c 813e 0e03 a73e
00000010: 3e4c 953f 6e82 a53e a5d1 153f 9e54 b73e

module.down1.mpconv.1.conv.4.bias f4 [8]
0.12709312 0.045812063 0.00015950443 0.28339314 -0.12180233 -1.0383577 0.20523375 0.11899004
00000000: b324 023e 6ea5 3b3d a540 2739 e818 913e
00000010: 8073 f9bd e8e8 84bf cc28 523e 0db1 f33d

module.down1.mpconv.1.conv.4.running_mean f4 [8]
-0.9884947 0.36168116 0.5379266 -0.89771324 -0.03111806 1.8445226 -0.45692238 -0.68047833
00000000: fd0d 7dbf 462e b93e 8fb5 093f 89d0 65bf
00000010: 4deb febc 5119 ec3f bbf1 e9be d433 2ebf

module.down1.mpconv.1.conv.4.running_var f4 [8]
0.53772855 1.353019 0.531033 0.861093 0.7747638 0.7794614 1.1660712 0.55635273
00000000: 94a8 093f ba2f ad3f c7f1 073f 9770 5c3f
00000010: ec56 463f c88a 473f d241 953f 226d 0e3f

module.up8.up.weight f4 [8, 4, 2, 2]
0.052494932 -0.25511423 -0.36147848 -0.37184498 0.3485983 0.5693005 0.22954778 0.33553064
0.10552693 0.1004561 0.43259302 0.1602724 -0.102856815 -0.21358989 -0.05731681 -0.11146962
-0.47661233 -0.12854505 0.07686729 -0.066533 -0.14525685 -0.2042786 -0.07251311 -0.105366945
-0.036945764 -0.8337761 -0.68690753 0.076187976 -0.033739094 -0.0715147 -0.23901965 0.4180763
-0.38124582 -0.0506467 -0.18103091 -0.16619375 -0.32689643 -0.116058506 0.23555934 -0.14874129
-0.07418451 0.011237273 -0.3324291 -0.07905135 -0.6725081 -0.19176927 -0.4933831 -0.56746995
0.16937648 0.19633484 0.4144553 0.16983032 -0.31816795 -0.0778153 -0.062503114 0.15203707
-0.39888242 -0.3685438 -0.22055319 -0.046324637 -0.52026623 -0.6798067 -0.48171693 -0.32217976
0.058110815 0.24643221 -0.49139342 0.5470263 -0.7286834 -0.50882107 -0.84484386 -0.3862264
0.5848265 -0.2733913 -0.78365123 -0.2915153 -0.050302114 0.196262 0.12597442 -0.43289885
-0.9064284 -0.8940291 -0.6790326 -1.0325053 0.19202052 0.028127639 -0.1359413 -0.54023904
0.59309804 -0.4264345 0.4641342 -0.2497767 -0.43334624 -0.46584776 -0.632201 -0.7030013
-0.388892 0.026356835 0.38507465 0.30243042 0.1386956 -0.32284895 0.49634275 0.10796913
0.49810877 -0.30765128 -0.6887686 -0.30699092 0.05712111 -0.04368828 -0.2838613 -0.7477104
-0.17404266 -0.8432611 0.27229735 0.18418063 -0.34505233 -0.33574516 -0.22176144 -0.6735896
0.0012431524 -0.21957393 -0.5608721 -0.091706164 0.071072266 0.17848754 -0.08874777 0.022292668
00000000: ed04 573d 559e 82be b513 b9be 7762 bebe
00000010: 7a7b b23e adbd 113f 930e 6b3e acca ab3e
00000020: 811e d83d eebb cd3d d57c dd3e 731e 243e
00000030: 98a6 d2bd 4fb7 5abe 08c5 6abd 2f4a e4bd
00000040: 8806 f4be 50a1 03be 996c 9d3d 7442 88bd
00000050: 36be 14be 692e 51be c181 94bd a0ca d7bd
00000060: 7154 17bd 5a72 55bf 2cd9 2fbf 7108 9c3d
00000070: 0132 0abd 4d76 92bd 91c1 74be 190e d63e
00000080: a732 c3be ea72 4fbd 2b60 39be b22e 2abe
00000090: f85e a7be 15b0 edbd 7836 713e a34f 18be
000000a0: 0cee 97bd 8a1c 383c 2634 aabe ade5 a1bd
000000b0: 7e29 2cbf 2a5f 44be b69c fcbe b645 11bf
000000c0: 0771 2d3e 000c 493e 7c33 d43e 00e8 2d3e
000000d0: e9e6 a2be a15d 9fbd a201 80bd 9baf 1b3e
000000e0: 513a ccbe c6b1 bcbe b2d8 61be e7be 3dbd
000000f0: 2b30 05bf d007 2ebf 9aa3 f6be bff4 a4be
00000100: 9b05 6e3d ba58 7c3e eb97 fbbe ea09 0c3f
00000110: ff8a 3abf 1942 02bf b047 58bf 77bf c5be
00000120: 31b7 153f f2f9 8bbe 5e9d 48bf 7e41 95be
00000130: 9709 4ebd e8f8 483e 70ff 003e eba4 ddbe
00000140: b10b 68bf 17df 64bf 15d5 2dbf 2229 84bf
00000150: 07a1 443e ef6b e63c 3234 0bbe 1b4d 0abf
00000160: 46d5 173f 9f55 dabe ffa2 ed3e 77c5 7fbe
00000170: 8fdf ddbe 9983 eebe edd7 21bf e5f7 33bf
00000180: da1c c7be 4aea d73c 8128 c53e 29d8 9a3e
00000190: 3806 0e3e 754c a5be a320 fe3e eb1e dd3d
000001a0: 1d08 ff3e 7884 9dbe 2453 30bf ea2d 9dbe
000001b0: d3f7 693d 7bf2 32bd 4556 91be f369 3fbf
000001c0: 3d38 32be f6df 57bf 8f6a 8b3e d999 3c3e
000001d0: b3aa b0be cae6 abbe 6e15 63be 5e70 2cbf
000001e0: 46f1 a23a fdd7 60be 5095 0fbf 71d0 bbbd
000001f0: 568e 913d 70c5 363e 64c1 b5bd 1d9f b63c

module.up8.up.bias f4 [4]
0.047652427 0.18150209 -0.08117305 0.1587832
00000000: 312f 433d afdb 393e 0e3e a6bd 1098 223e

module.up8.conv.conv.0.weight f4 [4, 8, 3, 3]
0.15604183 -0.04631988 -0.07274081 -0.05581081 -0.24014352 -0.29793727 1.2059908 -0.27546972
-0.33468357 -0.1299634 -0.19482622 -0.0339572 0.057850603 0.21271236 0.07967416 0.4494738
0.69888777 0.12726395 0.11648203 -0.11993341 -0.065046445 -0.50893986 -0.5213678 -0.06165997
-0.6140122 -0.64231265 0.13692686 -0.08854105 0.024230558 -0.14449139 -0.52504474 0.54168963
0.25511524 -2.9834611 0.24398611 0.18762451 0.18102486 0.3737265 0.15373917 0.32972023
0.24613628 0.4300609 0.58104974 0.36320153 -0.047470007 -0.045701478 0.026667716 0.12869006
-0.13033606 -0.091692194 0.045533054 -0.34830126 -0.119284764 0.027142558 -0.046790715 0.25834057
-0.16542947 0.11227074 -0.04594488 0.12316908 0.09105063 0.002490143 -0.3051687 0.28974947
0.073817395 0.34611458 -0.04813224 0.1560766 0.24258159 0.09461212 0.021679055 0.6543066
0.055938322 0.027774699 -0.027621333 0.011693118 0.44297102 0.4254527 -0.1393079 0.13389958
-0.29003182 -0.09266934 -0.3453013 -0.35084653 -0.18979758 -0.22581461 0.16443804 -0.21517172
0.10502165 -0.3703468 0.045174297 -0.10238602 -0.13108979 -0.014005255 0.07676987 -0.91839916
-0.12624206 0.14517857 0.07060162 -0.070561774 0.4165536 0.01233631 -0.15425465 -0.6488555
-0.8446005 -0.18736467 0.035327952 -0.10446895 -0.039476246 0.6693304 -0.249209 0.54533994
-0.25446862 0.13568692 0.21651335 0.324431 -0.023544347 0.14415793 -0.061146475 0.20908172
-0.116759874 0.48594117 0.49265292 0.10863825 0.16327147 -0.05589011 -0.0747403 1.0560497
-0.19899407 0.85531944 -0.4121119 0.82392645 -0.04154127 0.5930718 -0.06805182 0.31018105
-0.14500184 0.41009048 -0.14856414 0.29991606 0.24378172 0.33607078 0.025341388 0.3422084
-0.14695345 -0.37213442 0.034237377 -0.21562018 -2.6010084 0.07198808 0.15741602 0.3657063
-0.077446215 -0.029670998 0.32732302 0.015187258 0.08526616 -0.28921944 -0.041125312 0.03381015
-0.46115312 -1.1128078 0.0959281 -0.24487697 0.043828737 0.30854192 -0.6015176 -0.8648153
0.06414948 -0.1899787 0.35747746 -0.009814036 -0.27930695 0.1264375 -0.29336765 -0.0011944284
0.13570285 0.069371864 -0.09863594 0.32428303 0.09987301 0.048959937 0.02266363 0.15266308
0.4584624 0.0072817835 0.27138704 0.35697934 -0.01210199 0.10487442 0.22114299 0.01303567
0.4601149 0.30271506 0.0141335735 0.07284602 -0.046573535 -0.21356094 -0.16223408 -0.26825857
-0.07303664 -0.35834876 -0.33358335 -0.2514631 0.11065403 -0.11838413 -0.10886063 -0.06798771
0.18041271 0.0559578 -0.0715477 0.072364554 0.014472148 -0.2239206 0.05811766 -0.17115861
-0.0012944143 -0.20224659 0.13439782 -0.13242458 0.10348035 -1.3923099 -0.17522806 -0.11823458
0.175543 0.19081123 -0.18785058 -0.20895667 -0.028783917 -0.38225365 -0.23326474 0.080546334
-0.105423346 0.13277331 -0.04605436 0.21282671 0.27684778 0.09311715 -0.11978406 0.14137025
0.018127948 0.05981625 0.32237563 0.0123337945 0.1906681 -0.039227158 0.13195121 0.03801071
1.5871103 0.1255871 0.43681327 -0.011533394 -0.15078086 0.24216683 0.45374915 0.24925464
00000000: 6ec9 1f3e eab9 3dbd 22f9 94bd e099 64bd
00000010: 2fe8 75be 3c8b 98be e85d 9a3f 5e0a 8dbe
00000020: a55b abbe 2015 05be 8680 47be b416 0bbd
00000030: c1f4 6c3d 45d1 593e 352c a33d 6e21 e63e
00000040: 4fea 323f 7b51 023e 218e ee3d a69f f5bd
00000050: 1237 85bd e249 02bf 5c78 05bf 2a8f 7cbd
00000060: e72f 1dbf 9a6e 24bf 8e36 0c3e 0355 b5bd
00000070: 2a7f c63c 8df5 13be 5569 06bf 2cac 0a3f
00000080: 779e 823e 07f1 3ec0 7fd7 793e a420 403e
00000090: 955e 393e 1459 bf3e cd6d 1d3e 17d1 a83e
000000a0: 260b 7c3e f130 dc3e adbf 143f 8df5 b93e
000000b0: e96f 42bd 7931 3bbd 4176 da3c 54c7 033e
000000c0: d176 05be 1ec9 bbbd de80 3a3d 8b54 b2be
000000d0: 924b f4bd 125a de3c 9fa7 3fbd 3745 843e
000000e0: 5866 29be 34ee e53d b330 3cbd 1240 fc3d
000000f0: c178 ba3d ab31 233b 123f 9cbe 0b5a 943e
00000100: 932d 973d ee35 b13e 5026 45bd 8bd2 1f3e
00000110: 4f67 783e 00c4 c13d 4698 b13c a380 273f
00000120: 951f 653d c487 e33c 2246 e2bc 7e94 3f3c
00000130: 19cd e23e f0d4 d93e bba6 0ebe f91c 093e
00000140: 0d7f 94be 6cc9 bdbd 55cb b0be 28a2 b3be
00000150: 4c5a 42be f23b 67be 7262 283e fa55 5cbe
00000160: 9715 d73d 199e bdbe af08 393d c3af d1bd
00000170: 673c 06be 4c76 65bc 8639 9d3d 351c 6bbf
00000180: 9945 01be b1a9 143e 9597 903d b182 90bd
00000190: 8346 d53e 3c1e 4a3c eef4 1dbe 651b 26bf
000001a0: bd37 58bf 86dc 3fbe 0bb4 103d d1f3 d5bd
000001b0: d8b1 21bd 3d59 2b3f a530 7fbe 669b 0b3f
000001c0: b649 82be 83f1 0a3e adb5 5d3e d21b a63e
000001d0: 13e0 c0bc 239e 133e ba74 7abd 8519 563e
000001e0: cd1f efbd 48cd f83e 013d fc3e bb7d de3d
000001f0: a330 273e 07ed 64bd 7111 99bd a32c 873f
00000200: 1ac5 4bbe 37f6 5a3f 5500 d3be d8ec 523f
00000210: 2e27 2abd 8ed3 173f c15e 8bbd 0dd0 9e3e
00000220: 5d7b 14be 61f7 d13e 3321 18be 998e 993e
00000230: eaa1 793e 7811 ac3e be98 cf3c f035 af3e
00000240: f77a 16be 6788 bebe 7e3c 0c3d 89cb 5cbe
00000250: ec76 26c0 7d6e 933d aa31 213e db3d bb3e
00000260: 1f9c 9ebd 9810 f3bc e296 a73e fad3 783c
00000270: 06a0 ae3d 9214 94be 0473 28bd 837c 0a3d
00000280: 431c ecbe 7c70 8ebf f475 c43d 07c1 7abe
00000290: c385 333d 35f9 9d3e 0ffd 19bf 8964 5dbf
000002a0: cd60 833d c789 42be 4907 b73e 0dcb 20bc
000002b0: 5201 8fbe d578 013e 4934 96be 5e8e 9cba
000002c0: b0f5 0a3e d612 8e3d a401 cabd 6d08 a63e
000002d0: 388a cc3d 378a 483d 14a9 b93c b653 1c3e
000002e0: 95bb ea3e 079c ee3b 3ef3 8a3e ffc5 b63e
000002f0: 6d47 46bc 66c8 d63d 4f73 623e 9093 553c
00000300: 2e94 eb3e 78fd 9a3e 8190 673c 4b30 953d
00000310: e4c3 3ebd b8af 5abe b120 26be 3059 89be
00000320: 3c94 95bd 7d79 b7be 70cb aabe c5bf 80be
00000330: 959e e23d 6173 f2bd 52f2 debd 243d 8bbd
00000340: 1cbe 383e 0234 653d 9a87 92bd de33 943d
00000350: 971c 6d3c 714b 65be c90c 6e3d 3444 2fbe
00000360: 56a9 a9ba bb19 4fbe 959f 093e 4f9a 07be
00000370: 81ed d33d 3637 b2bf fc6e 33be f924 f2bd
00000380: 8bc1 333e 0564 433e e75b 40be bdf8 55be
00000390: 40cc ebbc c0b6 c3be f4dc 6ebe 7af5 a43d
000003a0: 32e8 d7bd baf5 073e 7fa3 3cbd 3fef 593e
000003b0: febe 8d3e 34b4 be3d 5851 f5bd 5dc3 103e
000003c0: 1081 943c e201 753d 6b0e a53e af13 4a3c
000003d0: 803e 433e a8ac 20bd 381e 073e 1eb1 1b3d
000003e0: 6e26 cb3f e899 003e fda5 df3e 90f6 3cbc
000003f0: 4c66 1abe 95fa 773e cf51 e83e 9c3c 7f3e

module.up8.conv.conv.0.bias f4 [4]
-0.054685768 -0.115461506 0.055036806 -0.0198385
00000000: 2ffe 5fbd 1577 ecbd 466e 613d 5a84 a2bc

module.up8.conv.conv.1.weight f4 [4]
0.38404363 0.41757303 0.46950236 0.23020776
00000000: 5ea1 c43e 22cc d53e 9d62 f03e 95bb 6b3e

module.up8.conv.conv.1.bias f4 [4]
0.22426873 0.5977377 0.2324844 0.14470752
00000000: b4a6 653e 5705 193f 6410 6e3e 352e 143e

module.up8.conv.conv.1.running_mean f4 [4]
-0.7211737 -0.7046932 0.0042092633 0.14746822
00000000: d79e 38bf c666 34bf dced 893b e901 173e

module.up8.conv.conv.1.running_var f4 [4]
0.88310885 1.1954292 0.8644419 0.5602584
00000000: 6c13 623f d303 993f 104c 5d3f 186d 0f3f

module.up8.conv.conv.3.weight f4 [4, 4, 3, 3]
-0.17255485 0.0060331332 0.53898513 -0.13949327 -0.07917987 0.09521271 -0.0132890055 0.038672842
0.15262763 0.23984587 0.34781146 -0.13849038 0.7001515 0.83079565 0.18621954 0.10962261
0.12203968 0.087470315 -0.08425562 0.21063815 0.06770542 0.15158868 -0.10576365 0.030391587
0.01582791 0.21771702 0.063458815 -0.14812246 -0.52087605 -0.3547561 -1.3873674 0.06265628
-0.08974387 -0.16831867 -0.10279759 -0.071950704 -0.050128985 -0.042949796 -1.0637007 -0.13579454
-0.16546269 -0.050540783 0.08905472 -0.22548214 -0.50547975 -0.00060329516 -0.11968308 -0.14563137
-0.15356436 -0.19500762 -0.37682775 -0.37272394 -0.23308253 -0.12622982 0.006205889 0.11924281
-0.1643585 0.25361 0.9101105 0.10862488 -0.10201383 0.5497727 0.10829702 -0.06492156
-0.019573813 0.023649376 -0.09977064 -0.08945008 0.016443979 -0.39493042 -0.029160758 0.028529022
0.025621854 -0.6022845 1.3270727 -0.2301156 0.23792183 -0.20149021 0.034423355 -0.25541365
0.37357897 0.1708428 -0.35676873 0.13747814 -0.02213613 0.5742549 -0.31499445 0.09790911
-0.15569861 0.11179823 0.35801038 0.36607164 0.22498538 0.18683289 -0.04935501 0.42658073
0.341653 0.23377393 0.19493309 -0.25079685 0.025534473 -0.1331505 -0.483936 0.037496
-0.014736911 -0.04363424 0.020176552 -0.11710382 -0.3716693 0.1797117 0.29671037 0.10213586
-0.84888095 0.12612797 -0.24104215 0.3285874 0.060924005 -0.37408477 0.36362833 -0.35077903
0.62249696 -0.23294722 0.35936835 0.26979047 0.21814045 -0.4832616 0.10451776 0.5869112
0.7430108 0.48613584 -0.19608381 0.55580866 0.18137126 0.2998108 0.32098326 -0.07148386
-0.24498537 -0.03435569 -0.8191246 0.19052757 -0.19088909 0.09907156 -0.32745934 -0.024433557
00000000: 38b2 30be 97b1 c53b eefa 093f 53d7 0ebe
00000010: 0e29 a2bd e2fe c23d 21ba 59bc 6a67 1e3d
00000020: 6b4a 1c3e 289a 753e 5814 b23e 6cd0 0dbe
00000030: 213d 333f 06af 543f 56b0 3e3e d281 e03d
00000040: f1ef f93d a323 b33d 368e acbd 87b1 573e
00000050: 24a9 8a3d 103a 1b3e 9d9a d8bd c7f7 f83c
00000060: 88a9 813c 36f1 5e3e b2f6 813d 6aad 17be
00000070: 2258 05bf 97a2 b5be 4195 b1bf f051 803d
00000080: a2cb b7bd bb5b 2cbe 8b87 d2bd e45a 93bd
00000090: 0d54 4dbd 20ec 2fbd 5827 88bf b90d 0bbe
000000a0: 0d6f 29be da03 4fbd 5262 b63d cae4 66be
000000b0: 1f67 01bf 7426 1eba 671c f5bd 6420 15be
000000c0: fa3f 1dbe 14b0 47be 91ef c0be acd5 bebe
000000d0: 30ad 6ebe 6442 01be c55a cb3b 9335 f43d
000000e0: 984d 28be 2bd9 813e 00fd 683f b976 de3d
000000f0: a0ec d0bd e7bd 0c3f d4ca dd3d 98f5 84bd
00000100: 4359 a0bc 56bc c13c 8d54 ccbd 9b31 b7bd
00000110: 86b5 863c 5234 cabe 8be2 eebc b2b5 e93c
00000120: ece4 d13c 512f 1abf 85dd a93f 6da3 6bbe
00000130: c8a1 733e 7353 4ebe 81ff 0c3d 94c5 82be
00000140: be45 bf3e 6af1 2e3e 64aa b6be 12c7 0c3e
00000150: d456 b5bc 5e02 133f f446 a1be 9284 c83d
00000160: 756f 1fbe 78f6 e43d 234d b73e be6d bb3e
00000170: 9162 663e 1f51 3f3e 7b28 4abd ca68 da3e
00000180: 24ed ae3e 6f62 6f3e 8a9c 473e 7268 80be
00000190: ac2d d13c 9b58 08be 76c6 f7be 6895 193d
000001a0: 1673 71bc d1b9 32bd 4c49 a53c 21d4 efbd
000001b0: 704b bebe 5806 383e 6cea 973e 9b2c d13d
000001c0: 4350 59bf b127 013e c1d3 76be 9c3c a83e
000001d0: 738b 793d 0a88 bfbe 7e2d ba3e 4f99 b3be
000001e0: f65b 1f3f b789 6ebe 21ff b73e fa21 8a3e
000001f0: 3660 5f3e 106e f7be 680d d63d d03f 163f
00000200: f535 3e3f cce6 f83e 32ca 48be 7a49 0e3f
00000210: 63b9 393e cd80 993e eb57 a43e 2166 92bd
00000220: 72dd 7abe 8db8 0cbd 26b2 51bf a919 433e
00000230: 6e78 43be 08e6 ca3d c0a8 a7be e228 c8bc

module.up8.conv.conv.3.bias f4 [4]
-0.11611283 0.4006391 0.075020455 -0.04906904
00000000: 90cc edbd 9120 cd3e 53a4 993d 9efc 48bd

module.up8.conv.conv.4.weight f4 [4]
1.8637077 1.2451166 2.12039 2.371495
00000000: f98d ee3f fb5f 9f3f 78b4 0740 93c6 1740

module.up8.conv.conv.4.bias f4 [4]
1.3133523 2.0375228 1.8004224 1.7358322
00000000: ee1b a83f c666 0240 3e74 e63f c02f de3f

module.up8.conv.conv.4.running_mean f4 [4]
1.092695 -0.52248156 0.548676 0.1952583
00000000: 6edd 8b3f 5ac1 05bf 0876 0c3f cbf1 473e

module.up8.conv.conv.4.running_var f4 [4]
0.211155 0.35667893 1.3350044 2.0566783
00000000: 0439 583e 9f9e b63e 6de1 aa3f 9ea0 0340

module.outc.conv.weight f4 [1, 4, 1, 1]
-1.2863644 -1.3740594 -1.6430985 -1.4533097
00000000: 97a7 a4bf 2ee1 afbf 0d51 d2bf 0d06 babf
