learned_models/mask/ACS-WFC-F606W.pth (torch_old, 416836 bytes, 39 tensors)

module.inc.conv.conv.0.weight f4 [32, 1, 3, 3]
0	0xbc8fd677	-0.01755832
1	0xbffc4963	-1.9709896
2	0x3bff2c89	0.0077872914
3	0x3c9e19af	0.019299356
4	0x3c78d117	0.01518657
5	0x3e72f868	0.23727572
6	0x3ca8326c	0.020531856
7	0x3ea82da7	0.3284733
8	0xbd90205d	-0.07037423
9	0xbd5f2926	-0.0544826
10	0xbfff3a80	-1.9939728
11	0x3d88537e	0.0665655
12	0xbe54bc80	-0.20775032
13	0x3e37c8f8	0.17947757
14	0xbd47139e	-0.048602693
15	0x3ef00d5c	0.46885192
16	0x3e65946d	0.22419901
17	0x3df565b2	0.119822875
18	0x3e76e3e4	0.24110371
19	0x3e9f5da9	0.31126145
20	0x3c993d10	0.018705875
21	0x3f6bf65d	0.92172796
22	0x3e2a3dc1	0.1662512
23	0x3cb3b890	0.021938592
24	0x3e755d28	0.23961318
25	0xbfef7428	-1.8707323
26	0xbeb5775a	-0.3544262
27	0x3eb45115	0.3521811
28	0x3e8ba4aa	0.27274066
29	0x3f3f7e6c	0.7480228
30	0xbc1bbbf8	-0.009505264
31	0xbf9e99cf	-1.2390689
32	0xbeddaef9	-0.43297556
33	0xbdab5c15	-0.08367173
34	0xbf7bb567	-0.98323673
35	0x3ef99bf0	0.48751783
36	0x3d7b36d5	0.06133159
37	0x3e95092c	0.2910856
38	0x3c392005	0.011299138
39	0xbeca6062	-0.3952666
40	0x3f817cf5	1.0116259
41	0xbf49078a	-0.7852713
42	0xbc9d7844	-0.019222386
43	0xbf27b13b	-0.6550481
44	0x3f221845	0.6331828
45	0x3c0c85f2	0.008576857
46	0xbf49a7f6	-0.78771913
47	0x3ca1f35c	0.019769363
48	0xbd01fcf9	-0.031735394
49	0x3f82e227	1.0225266
50	0x3ed6a20d	0.4192051
51	0xbdfe5041	-0.12417651
52	0xba4f589f	-0.0007909629
53	0xbf0a3206	-0.5398258
54	0xbb24a5b6	-0.0025123185
55	0xbf8e2e7f	-1.110794
56	0xbef82fe6	-0.48474044
57	0x3c945811	0.0181084
58	0x3f30b75b	0.6902978
59	0x3d0c5397	0.034259405
60	0xbe00f96b	-0.12595145
61	0x3ee715ac	0.45133722
62	0x3ecfb2f6	0.40566224
63	0xbc851705	-0.016246328
64	0xbb5f2b79	-0.0034053011
65	0x3dd579ca	0.1042362
66	0x3ea98a92	0.33113533
67	0x3eb9056b	0.36136946
68	0xbf65daab	-0.89786786
69	0xbef7bb5e	-0.48385137
70	0xbe5a7fea	-0.21337858
71	0x3f63eb91	0.8903132
72	0x3ee039a7	0.43793985
73	0x3f2305d8	0.6368079
74	0x3e1ed784	0.155119
75	0xbf781a85	-0.96915466
76	0x3d958c39	0.07302136
77	0xbe70cf6b	-0.23516624
78	0xbf8f5842	-1.1198809
79	0x3f2f8a5b	0.6857049
80	0x3ea4f8a0	0.32220936
81	0xbfe30f1c	-1.7738986
82	0x3ece4dfd	0.40293875
83	0x3ebb614a	0.36597663
84	0x3d2f1f7b	0.04275463
85	0xbea7dbfa	-0.32785016
86	0x3eea5770	0.45769835
87	0xbcd61ba2	-0.026136223
88	0x3e43af30	0.19109797
89	0x3e620b61	0.22074653
90	0x3f18b8dc	0.59657073
91	0x3bb90358	0.0056461506
92	0xbf586ed3	-0.84544104
93	0xbd4f49a0	-0.050607324
94	0x3df9f24a	0.12204416
95	0x3d952868	0.072830975
96	0xbecc29c2	-0.3987561
97	0xbe9e5208	-0.3092196
98	0x3f4d3cda	0.8017098
99	0x3f88e34c	1.0694366
100	0x3dbffeab	0.09374746
101	0x3d2ec8e4	0.042672053
102	0xbfaf26ba	-1.3683693
103	0x3d3d9089	0.046280418
104	0x3d21748a	0.03941778
105	0x3c6d1f76	0.014472833
106	0x3c2e6424	0.010643993
107	0x3c28f2fb	0.010311837
108	0xbe7a2f48	-0.24432099
109	0x3cabff16	0.020995658
110	0xbe0c40bd	-0.1369657
111	0x3f250aca	0.6446959
112	0x3f602323	0.87553614
113	0xbfb61dea	-1.4227879
114	0xbdc23462	-0.094826475
115	0xbe3de286	-0.18543443
116	0xbeb30397	-0.34963676
117	0x3eb0de55	0.34544626
118	0x3e888d54	0.26670325
119	0x3e501c20	0.20323229
120	0x3d8d56d5	0.069013275
121	0x3f0e647b	0.5562207
122	0xbfdeafc2	-1.7397387
123	0x3e18ca52	0.14920929
124	0x3d952640	0.07282686
125	0x3d55c99b	0.05219422
126	0x3c0ace0b	0.008471976
127	0xbb84308f	-0.004034109
128	0x3d3628e1	0.04447258
129	0x3e387f29	0.18017258
130	0xbfe5d232	-1.7954772
131	0x3dff5854	0.12468019
132	0x3efb66cd	0.49101868
133	0x3f418f9e	0.7560977
134	0x3e493d35	0.19652255
135	0xbdac5eb1	-0.084164985
136	0xbaad8343	-0.0013237972
137	0x3e88afe0	0.26696682
138	0x3d7d976c	0.061911985
139	0x3e639e01	0.22228242
140	0x3f612ecf	0.8796205
141	0x3ae75e48	0.0017651999
142	0xbf947898	-1.1599302
143	0xbdfb9b2a	-0.122854546
144	0x3e920826	0.28521842
145	0x3d5d6fad	0.05406158
146	0x3e13ab1a	0.14420739
147	0x3d26cb60	0.040721297
148	0xbfad21d9	-1.3525954
149	0xbe808a6b	-0.25105605
150	0x3d7788db	0.06043325
151	0x3f4c9e9e	0.7992953
152	0x3df509fa	0.119647935
153	0x3ca1be49	0.019744055
154	0x3fa8bb4c	1.3182158
155	0x3a3aebaf	0.00071304565
156	0x3c5770d2	0.013149457
157	0xbc418e37	-0.011813692
158	0xbb449a53	-0.002999921
159	0x3c20c4fe	0.009812592
160	0xbfadf5f2	-1.3590682
161	0x3c2372a1	0.00997606
162	0xbcfecef6	-0.031104546
163	0x3dd13d1a	0.10216732
164	0xbf1f5a0b	-0.6224677
165	0x3debf5ee	0.11521517
166	0xbf78926a	-0.9709841
167	0xbe62ce98	-0.22149122
168	0x3f4d2bcb	0.8014495
169	0xbdec60c6	-0.115418956
170	0x3f5ea5df	0.8697185
171	0x3e3633d6	0.17793211
172	0xbe55bdfc	-0.20873255
173	0x3e622ca5	0.22087343
174	0x3b2f2283	0.0026723451
175	0x3e1a2938	0.15054786
176	0x3f8b588f	1.0886401
177	0xbfc0fb1f	-1.5076636
178	0x3c210f56	0.0098303165
179	0x3d92c86b	0.07167133
180	0x3efa46c3	0.48882112
181	0x3d952799	0.07282943
182	0xbd62453a	-0.0552418
183	0x3f2126cb	0.6294982
184	0xbec571a9	-0.38563278
185	0xbf4338d4	-0.7625859
186	0xbf90dd9b	-1.1317629
187	0xbe6b1e9f	-0.229609
188	0x3bdbc3d1	0.0067066927
189	0x3e438fd4	0.19097835
190	0x3de66858	0.11250371
191	0x3e285e06	0.16442117
192	0xbf2819fe	-0.6566466
193	0xbf915529	-1.1354114
194	0x3f1736c3	0.59067935
195	0x3e31391a	0.17306939
196	0x3ce88958	0.028385803
197	0x3efceca4	0.49399292
198	0x3c338c38	0.010958724
199	0x3f32f95e	0.69911754
200	0xbf8d504a	-1.1040127
201	0xbe12d95b	-0.14340727
202	0xbeec3fc9	-0.46142414
203	0x3f170b0d	0.5900124
204	0xba95ff90	-0.0011443961
205	0x3ee79a1d	0.45234767
206	0xbd68a5c3	-0.056798708
207	0x3f5e5df7	0.8686213
208	0x3e279974	0.16367131
209	0x3d682176	0.056672536
210	0x3f0005e6	0.50009
211	0xbf12a16f	-0.5727758
212	0x3d96afba	0.07357736
213	0x3e319a39	0.17343988
214	0xbfad1ad7	-1.3523816
215	0xbc3b62a6	-0.011437094
216	0x3e433173	0.19061832
217	0xbf03a5f7	-0.5142512
218	0xbb955809	-0.0045576137
219	0x3f5397c5	0.82653457
220	0x3e9a151f	0.3009424
221	0xbc116d3f	-0.008876144
222	0xbf690b46	-0.91032827
223	0x3eab4930	0.33454275
224	0xbdf394d6	-0.118936226
225	0xbf9ff6f5	-1.249724
226	0xbe8817de	-0.2658071
227	0x3c9df356	0.01928107
228	0xbcbd96c6	-0.023143183
229	0x3f7db703	0.9910738
230	0x3cd8b559	0.02645366
231	0x3de3180c	0.11088571
232	0x3f07af06	0.5300144
233	0xbdd23a87	-0.102650695
234	0x3f04b3a6	0.5183662
235	0xbfa9ff50	-1.328104
236	0xbe03fa19	-0.12888373
237	0x3cf08593	0.029360568
238	0x3efdfb47	0.49605772
239	0x3eb33881	0.35004047
240	0xbf09c9ed	-0.5382374
241	0x3d809fef	0.06280505
242	0x3e9a4912	0.30133873
243	0xbe39d7eb	-0.18148772
244	0x3f694238	0.91116667
245	0xbe2de4e9	-0.16981854
246	0x3e9bea2f	0.30452105
247	0xbde266b1	-0.11054743
248	0xbfa30a67	-1.273755
249	0x3cb337c7	0.021877183
250	0x3f0ddf7c	0.55419135
251	0xbd928b29	-0.07155449
252	0x3d062688	0.03275159
253	0x3b215f3b	0.0024623412
254	0x3bf0978b	0.007342284
255	0x3fa6dfc7	1.3037041

module.inc.conv.conv.0.bias f4 [32]
0	0xbe15e5e8	-0.14638484
1	0x3dfe998d	0.12431631
2	0x3eaf2a7a	0.34212095
3	0xbd6e7723	-0.058219086
4	0xbe917275	-0.28407636
5	0xbe85a422	-0.26101786
6	0x3e16cfd7	0.14727722
7	0xbe9f5eb0	-0.31126928
8	0x3dc0f94b	0.09422549
9	0xbe99f43b	-0.30069146
10	0xbe2829bc	-0.1642217
11	0x3dee9522	0.116495386
12	0xbe84332a	-0.25820285
13	0xbe0e6bdf	-0.13908337
14	0xbd163979	-0.036675904
15	0xbe8e6f7a	-0.27819425
16	0x3d0ebebb	0.034849863
17	0x3e2a6bf1	0.16642739
18	0x3defd164	0.1170986
19	0xbdd7551d	-0.10514281
20	0xbe8524bf	-0.26004598
21	0xbd2fb29c	-0.042894945
22	0x3e0c019a	0.13672486
23	0xbe2aed89	-0.16692175
24	0x3de19688	0.1101504
25	0x3e2e7a41	0.17038824
26	0xbe556d8e	-0.20842573
27	0xbe8037ec	-0.25042665
28	0x3df24824	0.11830166
29	0xbe4f72bf	-0.20258616
30	0x3c957003	0.018241888
31	0x3de0dbb3	0.10979404

module.inc.conv.conv.1.weight f4 [32]
0	0x3ffb7cc1	1.9647447
1	0x3f706634	0.9390595
2	0x403b16b9	2.923262
3	0x3f836eb5	1.026816
4	0x3fcdb0e2	1.6069605
5	0x3fd1d532	1.6393187
6	0x3fa38617	1.2775296
7	0x3f884d1f	1.0648535
8	0x40007948	2.0074024
9	0x3fbe23a9	1.4854633
10	0x3f8dd4de	1.1080587
11	0x403fd9d8	2.9976711
12	0x3f82922d	1.0200859
13	0x40871e73	4.222467
14	0x403c0b35	2.938184
15	0x3ff6ed11	1.9291097
16	0x3fc5ce32	1.5453551
17	0x40655395	3.5832264
18	0x3fe16d7b	1.7611536
19	0x4020f2ab	2.5148113
20	0x3f8472b1	1.0347501
21	0x402f1524	2.7356653
22	0x400a9daa	2.165873
23	0x402c2094	2.6894884
24	0x3f9d99df	1.2312583
25	0x4014b65a	2.3236299
26	0x3fce8cc5	1.613671
27	0x3fc87cc9	1.5663081
28	0x4054a5f4	3.322629
29	0x3fac72be	1.3472517
30	0x3ff7a6c7	1.9347771
31	0x4001de51	2.029194

module.inc.conv.conv.1.bias f4 [32]
0	0x3d884746	0.06654219
1	0x3dab9417	0.08377855
2	0xbf7d87e3	-0.9903547
3	0xbc2d750f	-0.010586991
4	0x3e92b0fd	0.28650656
5	0xbe2df915	-0.16989549
6	0x3c3fa4e9	0.0116970325
7	0x3d85238d	0.065009214
8	0xbe3763c0	-0.17909145
9	0x3d9ee8d9	0.07759256
10	0xbd0456c1	-0.032309297
11	0x3e077410	0.13227868
12	0xb9c63090	-0.00037801685
13	0x3e15157d	0.14558978
14	0x3e29cbe3	0.16581683
15	0x3dab03c0	0.08350325
16	0x3c69fda2	0.014281662
17	0x3de6e87a	0.1127481
18	0x3c16cbd3	0.009203869
19	0x3d1d92a7	0.038469937
20	0x3cccf018	0.02501683
21	0x3d10430e	0.0352202
22	0x3d9ce5ab	0.07660993
23	0x3d17a9b7	0.037027087
24	0x3dd5d592	0.10441126
25	0x3d809072	0.06277551
26	0xbdf3109f	-0.118684046
27	0x3ec52c68	0.38510442
28	0x3d23ca2e	0.039987735
29	0x3e320549	0.17384829
30	0x3c5944ba	0.013261015
31	0x3d71289e	0.058876626

module.inc.conv.conv.1.running_mean f4 [32]
0	0xc309b2d7	-137.6986
1	0xc41a7540	-617.83203
2	0xc2027c48	-32.62137
3	0xc3aa798a	-340.94952
4	0x423d4811	47.320377
5	0xc20d0da6	-35.26333
6	0xc2af86a7	-87.76299
7	0x401de7a7	2.467264
8	0xc1bb3a4b	-23.403463
9	0xc36e87b7	-238.53014
10	0xc2102f49	-36.046177
11	0xc1b0e53a	-22.111927
12	0xc39e0a14	-316.07874
13	0xc2729f40	-60.655518
14	0xc207bb56	-33.932945
15	0xc134cf06	-11.300543
16	0xc29d4116	-78.62712
17	0xc19729a8	-18.89534
18	0xc25f8662	-55.881233
19	0xc23c1db4	-47.029007
20	0xc3165659	-150.3373
21	0xc201a047	-32.40652
22	0x404e178f	3.220188
23	0xc223e304	-40.971695
24	0x41e2eaad	28.364588
25	0xc1a4712a	-20.555256
26	0xc224b305	-41.174824
27	0x41800f29	16.007402
28	0xc21e3acf	-39.55743
29	0xc110c22d	-9.047406
30	0xc2814a08	-64.64459
31	0xc06e37eb	-3.722163

module.inc.conv.conv.1.running_var f4 [32]
0	0x4a929201	4.8028165e+06
1	0x4bb51a07	2.3737358e+07
2	0x4afe0875	8.3241545e+06
3	0x4b337ef2	1.1763442e+07
4	0x4a0b5cfc	2.283327e+06
5	0x499b346e	1.2714378e+06
6	0x4a365d8d	2.9878752e+06
7	0x498233ea	1.0666212e+06
8	0x4b3385b6	1.1765174e+07
9	0x4b940295	1.9399978e+07
10	0x49f7e4e7	2.0307489e+06
11	0x49e4def9	1.8749111e+06
12	0x4b21d1a8	1.0604968e+07
13	0x4b138f48	9.670472e+06
14	0x4a821cf7	4.2635475e+06
15	0x4a2ca234	2.828429e+06
16	0x4a0d6177	2.3163818e+06
17	0x4a6cb5dc	3.878263e+06
18	0x4a9effbc	5.210078e+06
19	0x4b392cd7	1.2135639e+07
20	0x4a28f552	2.7682125e+06
21	0x4af5597b	8.0396135e+06
22	0x4a080516	2.2285495e+06
23	0x4af84a38	8.135964e+06
24	0x49a95c47	1.3874009e+06
25	0x4a929130	4.802712e+06
26	0x4a08eb90	2.2433e+06
27	0x4b4007c0	1.2584896e+07
28	0x4b7139c7	1.5808967e+07
29	0x4a839a60	4.312368e+06
30	0x4a8b69fd	4.5683185e+06
31	0x498a4a70	1.132878e+06

module.inc.conv.conv.3.weight f4 [32, 32, 3, 3]
0	0xbe87d5d3	-0.26530322
1	0x3da35ee1	0.07977081
2	0xbe48765b	-0.19576399
3	0x3e2e0b7c	0.16996568
4	0xbda5bb23	-0.08092334
5	0xbd41c302	-0.047305115
6	0x3e564951	0.20926405
7	0x3d4a6e1f	0.049421426
8	0x3bb8595d	0.0056258873
9	0x3c86f24a	0.016472954
10	0x3eb5ac0b	0.3548282
11	0x3e4b6d29	0.1986586
12	0x3e972d94	0.2952696
13	0x3eada37e	0.33913797
14	0x3eae9bb0	0.34103155
15	0x3eac6ba7	0.33675882
16	0x3ef24939	0.4732149
17	0x3f153550	0.58284473
18	0xbbb7ef2e	-0.0056132292
19	0xbf6151fd	-0.8801573
20	0xbf25e658	-0.648046
21	0xbe9aa792	-0.3020597
22	0xbf1934e9	-0.5984636
23	0x3f2a7a77	0.66593117
24	0xbee37f18	-0.44432902
25	0xbfa8b435	-1.3179995
26	0x3f9a57a7	1.2057999
27	0x3d5e6290	0.054293215
28	0x3d042b22	0.032267697
29	0x3e219025	0.15777643
30	0x3d4e61dc	0.050386295
31	0x3e521bb8	0.20518386
32	0x3ed47b61	0.4150038
33	0x3ec2dc89	0.3805888
34	0x3e8eb40e	0.27871746
35	0x3ec3372f	0.3812804
36	0xbf2e3650	-0.68051624
37	0xbdd8ae0c	-0.10580072
38	0x3e39d558	0.1814779
39	0xbf0c827d	-0.5488661
40	0xbee25f09	-0.4421313
41	0x3e7d536c	0.24738854
42	0x3e104827	0.14090024
43	0xbd1ef55e	-0.03880822
44	0x3e0aeb67	0.13566361
45	0x3e4aef84	0.1981793
46	0x3db414d4	0.08793035
47	0x3eb9c335	0.36281744
48	0x3ea52484	0.32254422
49	0xc00397f1	-2.0561488
50	0x3f36c5e6	0.7139572
51	0x3f657e1d	0.8964556
52	0xbeb3c1ce	-0.351088
53	0x3eb69fc4	0.35668766
54	0xbe7d7fa9	-0.2475573
55	0xbe12a69e	-0.14321372
56	0x3df460fb	0.1193256
57	0xbeac1ac2	-0.33614165
58	0xbe8896ef	-0.26677653
59	0x3c6d5436	0.0144854095
60	0xbe64dc81	-0.2234974
61	0x3d035c20	0.03207028
62	0x3e225cc0	0.15855694
63	0xbe8cbdc8	-0.27488542
64	0xbe2b3af6	-0.1672171
65	0x3e806970	0.25080442
66	0xbea9a4ef	-0.33133647
67	0xbd01e7f2	-0.03171534
68	0xbc60a4cb	-0.013711165
69	0xbb56b359	-0.0032760708
70	0xbd55a630	-0.052160442
71	0xbdf13e52	-0.11779465
72	0x3f5a1ef6	0.8520349
73	0x3f6537c2	0.89538205
74	0x3fc499a4	1.5359387
75	0x3f3cf50f	0.7381143
76	0xbf5e3671	-0.8680182
77	0x3de687a9	0.11256344
78	0x3f884854	1.0647073
79	0x3d8a580d	0.067550756
80	0x3df752a3	0.120763086
81	0x3c928214	0.017884292
82	0xbdac5ee5	-0.08416537
83	0xbd189aa3	-0.037256848
84	0xbdffbde5	-0.124873914
85	0x3e7da98f	0.24771713
86	0x3e8480fd	0.2587966
87	0x3d00f95b	0.031487804
88	0xbe050133	-0.12988739
89	0x3d8246b7	0.06361144
90	0xbf2518e8	-0.6449113
91	0xbe3146d5	-0.17312177
92	0x3d8312ec	0.064000934
93	0xbf6fcbb2	-0.9367019
94	0x3e866fa5	0.26257053
95	0xbde27e3e	-0.11059235
96	0x3e38acdf	0.18034695
97	0x3eb4da15	0.35322633
98	0xbe0d4fe5	-0.13800009
99	0xbd99e5b3	-0.07514515
100	0xbe7eef7d	-0.24896045
101	0xbd9e7b98	-0.077384174
102	0x3ea1f60c	0.3163303
103	0x3dfe200e	0.12408458
104	0xbfacfea9	-1.3515216
105	0x3c0d56b8	0.008626632
106	0xbe27e988	-0.16397679
107	0xbf63b09d	-0.88941365
108	0x3bfb88d4	0.0076762233
109	0x3dbb9c38	0.09160656
110	0x3b976105	0.00461972
111	0x3e4e0a97	0.20121227
112	0x3ebb1a88	0.3654368
113	0x3b99a60a	0.004688983
114	0x3e0464e3	0.1292911
115	0xbd1b09d6	-0.037851177
116	0xbc571bbe	-0.013129173
117	0xbed7ddb7	-0.42161343
118	0xbe0f6dcc	-0.14006728
119	0xbea69b5e	-0.3254041
120	0xbe543f35	-0.20727237
121	0xbdd29390	-0.102820516
122	0xbe9d62df	-0.30739495
123	0x3ee3e2ac	0.44508874
124	0xbf0a528f	-0.54032224
125	0xbef8c21c	-0.48585594
126	0x3dd55112	0.104158536
127	0xbe377620	-0.17916155
128	0xbea10e68	-0.31456304
129	0xbf0ba183	-0.5454332
130	0xbec4b722	-0.3842097
131	0x3d5a93ea	0.053363718
132	0xbc27d101	-0.0102427015
133	0x3e9ad7d1	0.3024278
134	0xbe74795f	-0.23874424
135	0xbea396af	-0.319509
136	0xbedb55ee	-0.42838997
137	0xbeb693c3	-0.35659608
138	0xbee1f7ac	-0.4413427
139	0xbebc053b	-0.3672274
140	0xbec78922	-0.38971812
141	0xbf0595f0	-0.5218191
142	0xbe931d27	-0.2873318
143	0x3d940754	0.0722796
144	0xbe7195e8	-0.23592341
145	0xbef196bf	-0.47185323
146	0x3d9f2b36	0.07771914
147	0x3d9fc02b	0.07800325
148	0xbf38ca52	-0.72183716
149	0xbd771a0f	-0.060327586
150	0x3e810c6c	0.2520479
151	0xbe01b96a	-0.12668386
152	0x3e5d17ad	0.21591063
153	0x3e384c48	0.17997849
154	0xbe3986cc	-0.18117827
155	0xbe9b03b6	-0.3027627
156	0xbebf907b	-0.37414917
157	0xbfb4d11a	-1.4126313
158	0xbf2e0ed7	-0.67991394
159	0xbdbef7c2	-0.093246
160	0xbefcc11c	-0.4936608
161	0x3c652637	0.013986162
162	0xbeaba950	-0.33527613
163	0xbd34c4a4	-0.044132844
164	0xbeabe1d9	-0.33570746
165	0xbe328b09	-0.1743585
166	0xbb0a180d	-0.0021071464
167	0xbebd4ee8	-0.36974263
168	0x3e38e3cc	0.18055648
169	0xbdd4bd47	-0.10387664
170	0x3e62a037	0.2213143
171	0xbeae5b67	-0.3405411
172	0xbee669d5	-0.45002618
173	0xbd596d0f	-0.053082522
174	0xbf55a08b	-0.83448094
175	0xbed6a229	-0.41920593
176	0x3da1dd55	0.07903544
177	0xbe5d87b4	-0.21633798
178	0x3e88eee3	0.26744756
179	0x3e802ff0	0.25036573
180	0x3ea562e8	0.32302022
181	0x3e053d24	0.13011605
182	0xbc80d0f6	-0.01572464
183	0x3d48b20c	0.048997924
184	0x3d1eabbd	0.038738
185	0xbdc5d4ee	-0.09659754
186	0x3d794e1b	0.060865503
187	0xbe341d00	-0.17589188
188	0xbe1b523d	-0.1516809
189	0x3d77b61e	0.060476415
190	0xbdd3f9a4	-0.103503495
191	0xbe9aad68	-0.30210423
192	0xbd42bac0	-0.04754138
193	0xbf880a24	-1.0628095
194	0xbeed29f9	-0.46321085
195	0x3e1ea3e4	0.15492207
196	0x3ec18640	0.37797737
197	0x3e5386c3	0.20656876
198	0x3ec2b21e	0.38026518
199	0xbdfdf8f3	-0.12400999
200	0x3dc0340e	0.09384929
201	0xbf823ba8	-1.0174456
202	0xbf5b46dd	-0.85655004
203	0x3d0220be	0.031769507
204	0xbec6d4c1	-0.38834193
205	0x3d657db1	0.05602807
206	0xbded176b	-0.11576732
207	0xbe7aa8d6	-0.24478468
208	0xbdbd4126	-0.09240942
209	0x3df5594e	0.11979924
210	0x3d99abb1	0.07503451
211	0xbf6a5283	-0.9153215
212	0xbf1f3cdc	-0.6220224
213	0x3e916438	0.28396773
214	0xbd658a84	-0.056040302
215	0xbd5607c7	-0.05225351
216	0x3b42eeaa	0.0029744306
217	0xbde6cad1	-0.11269153
218	0xbed9365f	-0.42424294
219	0x3d8e6017	0.069519214
220	0xbef5dfa3	-0.48022184
221	0xbf180cad	-0.5939434
222	0x3e769b99	0.24082793
223	0xbdf79343	-0.12088635
224	0xbe9422e9	-0.28932884
225	0xbcca7d95	-0.024718085
226	0xbe946650	-0.28984308
227	0x3e47a3c1	0.19496061
228	0x3eb2780f	0.34857222
229	0xbf260eaf	-0.64866155
230	0xbe22be11	-0.15892817
231	0xbf3137c5	-0.6922572
232	0xbf5da801	-0.8658448
233	0xbe3552a8	-0.17707312
234	0x3e99dc79	0.3005102
235	0x3eb9ad6b	0.3626512
236	0x3ef9ca83	0.48787317
237	0x3e3705a5	0.17873247
238	0xbf35b0ee	-0.709731
239	0x3da37719	0.079817005
240	0xbe86ef12	-0.2635427
241	0x3e102d49	0.14079775
242	0xbc082551	-0.008309678
243	0xbde3a4dd	-0.111154296
244	0xbed2d95e	-0.41181463
245	0xbee2b0c0	-0.44275475
246	0xbf10f04b	-0.5661666
247	0xbe8094b3	-0.25113449
248	0xbd2dd573	-0.04243989
249	0x3eb4e871	0.3533359
250	0xbf2a9eed	-0.6664875
251	0xbe3c2d60	-0.18376684
252	0xbeeaf288	-0.45888162
253	0xbf179521	-0.5921193
254	0xbf273279	-0.6531139
255	0xbd895bbb	-0.06706949

module.inc.conv.conv.3.bias f4 [32]
0	0xbd91ecf3	-0.071252726
1	0xbe144b45	-0.14481838
2	0xbe1f3017	-0.15545689
3	0xbcec59ab	-0.02885135
4	0xbe0ff6c0	-0.14058971
5	0xbaf38d96	-0.0018581625
6	0xbdb383d7	-0.08765381
7	0xbd7434c2	-0.059620626
8	0xbdc2f59f	-0.09519505
9	0xbdd3aac3	-0.103353046
10	0xba30152c	-0.0006717022
11	0xbdf45c52	-0.11931671
12	0xbde9b670	-0.1141175
13	0xbd5f7e18	-0.05456361
14	0x3cadc8da	0.021213938
15	0x3d5fde47	0.05465534
16	0x3d5fa4de	0.05460059
17	0xbca526cd	-0.020160103
18	0xbb656381	-0.0035001936
19	0xbd93a74c	-0.07209644
20	0x3d4c6e4d	0.04990988
21	0x3ca2b8b3	0.019863462
22	0x3dc39b4e	0.095511064
23	0xbd434feb	-0.047683638
24	0x3d8e1dbe	0.069392666
25	0xbdf81fc7	-0.12115436
26	0x3be61ade	0.007022246
27	0x3afffa4d	0.0019529552
28	0xbe57d077	-0.21075617
29	0x3cb602b7	0.022218091
30	0xbc3aa323	-0.011391434
31	0x39cf66c8	0.00039558695

module.inc.conv.conv.4.weight f4 [32]
0	0x4003faba	2.0621781
1	0x3fb41108	1.4067698
2	0x3fe3108f	1.7739428
3	0x3fda406f	1.7050914
4	0x401a93ae	2.4152637
5	0x40187180	2.3819275
6	0x3fff07a0	1.9924202
7	0x3fc5b84b	1.5446867
8	0x4026a857	2.6040246
9	0x3fbdf423	1.484013
10	0x3fd1c424	1.6387982
11	0x3f6e447b	0.9307324
12	0x3fdd4f88	1.7289896
13	0x3fde7158	1.737834
14	0x40169765	2.3529904
15	0x3fcd78a3	1.605244
16	0x3ff9a857	1.9504498
17	0x3ed27116	0.41101903
18	0x400cc6da	2.199637
19	0x404b2ba5	3.1745389
20	0x3fefc9ad	1.8733422
21	0x402fb5bc	2.7454672
22	0x3f9032f4	1.126555
23	0x40463271	3.0968287
24	0x3fd02b56	1.6263225
25	0x402e11d6	2.7198386
26	0x40204eb9	2.5048048
27	0x401b4014	2.425786
28	0x40237041	2.5537264
29	0x400a171b	2.1576602
30	0x4022d54e	2.544269
31	0x4010fef7	2.2655618

module.inc.conv.conv.4.bias f4 [32]
0	0xbc136802	-0.008996965
1	0xbddb1adc	-0.106984824
2	0xbe0c7ff5	-0.13720687
3	0xbdf7f5fc	-0.12107465
4	0xbd81a09c	-0.06329462
5	0xbd280f27	-0.041030075
6	0xbd0a56b8	-0.033774108
7	0xbd2a54d3	-0.0415848
8	0xbe08f2f9	-0.13373937
9	0xbea67136	-0.32508248
10	0xbd95718c	-0.07297048
11	0xbdc6fb75	-0.0971593
12	0xbe332205	-0.17493446
13	0xbe000e9f	-0.12505578
14	0xbd66ef4a	-0.056380548
15	0x3ee663b1	0.44997934
16	0xbd4efac8	-0.050532132
17	0x3d55661c	0.052099332
18	0xbd96ac42	-0.07357074
19	0x3c517a97	0.012785575
20	0xbc320dfd	-0.010867593
21	0xbddc6fa9	-0.10763485
22	0xbe3b12a3	-0.18268828
23	0xbd8241ca	-0.063602045
24	0xbe27c697	-0.1638435
25	0xbd9bd58a	-0.07609089
26	0xbd9721fc	-0.07379529
27	0x3d10280d	0.035194445
28	0xbe3a148f	-0.18171905
29	0xbd2f5859	-0.042808864
30	0xbcbf6c5d	-0.023367101
31	0xbd830baa	-0.06398709

module.inc.conv.conv.4.running_mean f4 [32]
0	0xc0b3d539	-5.619778
1	0xc0448dc4	-3.0711527
2	0xbffc3dd2	-1.9706366
3	0xc060b4e1	-3.51104
4	0xbfc3f5aa	-1.5309346
5	0xc00a85f8	-2.1644268
6	0xc06855d0	-3.6302376
7	0xc019e254	-2.404439
8	0xc0a7b57f	-5.2409053
9	0xc067f44b	-3.6242855
10	0xbfe958aa	-1.8230183
11	0xc03fef26	-2.9989715
12	0xc01eee1f	-2.4832838
13	0xbfc53de8	-1.5409517
14	0xbfbc9713	-1.4733604
15	0xc0204ecf	-2.50481
16	0xc0345921	-2.81794
17	0x3fe3b315	1.7789026
18	0xc009f4ce	-2.1555667
19	0xc0112b20	-2.2682571
20	0xc006ab65	-2.104211
21	0xc0240ccb	-2.5632808
22	0x3ecde06e	0.4021029
23	0xc02301d8	-2.5469875
24	0xc08014ac	-4.0025234
25	0xc01c9da9	-2.4471228
26	0xbfadec58	-1.3587751
27	0xbfe02031	-1.7509824
28	0xc043a95c	-3.0572119
29	0xbf2d9d3c	-0.67818046
30	0xc02be6b0	-2.685955
31	0xbfbf1936	-1.4929569

module.inc.conv.conv.4.running_var f4 [32]
0	0x432491da	164.56973
1	0x42af71a3	87.72195
2	0x4232ad81	44.669437
3	0x42a63775	83.108315
4	0x425d72e6	55.362206
5	0x43175866	151.3453
6	0x434843fd	200.26558
7	0x42bf44bd	95.634254
8	0x4326e4ef	166.89427
9	0x428c93cc	70.288666
10	0x42619c99	56.402927
11	0x4284362c	66.105804
12	0x429a7af0	77.24011
13	0x423adb7d	46.714344
14	0x42c59999	98.799995
15	0x42cee06b	103.43832
16	0x42a81d1e	84.05687
17	0x4298432f	76.13122
18	0x42cec2df	103.38061
19	0x4388c9ce	273.5766
20	0x42a6b81e	83.359604
21	0x431b9924	155.5982
22	0x420c8e99	35.139256
23	0x432a9ad2	170.60477
24	0x42ae6c52	87.21156
25	0x42b9f2c8	92.97418
26	0x42862700	67.07617
27	0x42eefd53	119.494774
28	0x4289b166	68.84648
29	0x4229c149	42.438755
30	0x42c77f63	99.7488
31	0x42df06ae	111.51305

module.down1.mpconv.1.conv.0.weight f4 [64, 32, 3, 3]
0	0xbea969f2	-0.33088642
1	0xbf5a0876	-0.8516916
2	0xbf1532ea	-0.58280814
3	0xbe672fe3	-0.22576861
4	0xbe0b2a93	-0.1359046
5	0xbdd7f411	-0.10544599
6	0x3ef99da3	0.4875308
7	0x3f075454	0.5286305
8	0x3e599a21	0.21250202
9	0x3eb1e793	0.3474699
10	0x3e965b7d	0.29366675
11	0x3e3fb30c	0.18720645
12	0x3ecdb8cf	0.4018006
13	0x3cc4155e	0.02393597
14	0x3e819362	0.25307757
15	0xbea5402a	-0.32275516
16	0x3e9c71eb	0.30555663
17	0xbc6795e8	-0.0141348615
18	0xbf5af222	-0.85525715
19	0xbe8ce70b	-0.27520022
20	0xbf956564	-1.1671567
21	0xbf91dd99	-1.1395751
22	0x3f802611	1.0011617
23	0xbf0d8bc0	-0.55291367
24	0xbdc6dd63	-0.09710195
25	0x3f12effa	0.57397425
26	0xbd22645d	-0.039646495
27	0xbed21133	-0.41028747
28	0xbf1a30f4	-0.60230947
29	0x3e925b2c	0.28585184
30	0xbeaa38ec	-0.33246553
31	0xbf0a0c70	-0.5392523
32	0x3ec421f9	0.3830717
33	0x3d94f960	0.07274127
34	0xbe8f3286	-0.27968234
35	0xbf6d3c37	-0.92670006
36	0x3dfbfa2d	0.123035766
37	0x3f1b3761	0.60631377
38	0xbc734cc6	-0.014849847
39	0xbeab0179	-0.3339956
40	0x3ed07b9a	0.407193
41	0xbf0f15a0	-0.5589237
42	0x3e06ac06	0.13151559
43	0x3e460994	0.19339591
44	0xbe8b29f4	-0.27180445
45	0xbe1e46dd	-0.1545672
46	0xbecf38a4	-0.404729
47	0x3e635dfa	0.22203818
48	0xbe89b2e4	-0.26894295
49	0x3fbdcc76	1.4828022
50	0xbe9ec554	-0.31009924
51	0xbe7439b8	-0.23850143
52	0xbedc8e58	-0.4307735
53	0xbbedf2f9	-0.0072616306
54	0x3e3c8eae	0.18413803
55	0xbec053b5	-0.37563863
56	0x3eb383ee	0.35061592
57	0x3e497f2f	0.19677423
58	0xbea9e045	-0.33178917
59	0x3ea6990d	0.32538643
60	0xbf01b246	-0.5066265
61	0x3ec6d021	0.38830665
62	0x3e460fcf	0.19341968
63	0xbe03aeea	-0.12859693
64	0xbe914c3a	-0.2837847
65	0xbcd17c5b	-0.025571993
66	0xbe2655ce	-0.1624367
67	0x3fd128d5	1.6340586
68	0xbeb3e254	-0.35133612
69	0xbf843b4d	-1.0330597
70	0xbee59be3	-0.44845495
71	0xbf23ff32	-0.6406127
72	0xbdbd35f1	-0.09238804
73	0x3ee10225	0.4394695
74	0x3e555865	0.20834501
75	0x3e24fa72	0.16111162
76	0xbe1ab601	-0.15108491
77	0x3e64c125	0.22339304
78	0x3e7f48dd	0.24930139
79	0x3f7219f8	0.94570875
80	0xbdef6990	-0.11690056
81	0x3e65bf1f	0.22436188
82	0x3e5d93dd	0.21638437
83	0x3da2bcdf	0.079461806
84	0x3e6c762c	0.23091954
85	0xbdd824a4	-0.10553864
86	0xbef12240	-0.47096443
87	0x3e5d72ad	0.21625777
88	0x3d947215	0.07248322
89	0xbf9a5c5a	-1.2059433
90	0x3e70bfe2	0.23510697
91	0x3e74b527	0.23897229
92	0xbe7e6045	-0.24841411
93	0xbe029ef5	-0.1275595
94	0x3f3f98f7	0.7484278
95	0x3e9c744f	0.30557486
96	0xbd4c9d19	-0.049954507
97	0xbf1a64d5	-0.6031011
98	0xbf5d71d0	-0.8650179
99	0x3e889c45	0.26681724
100	0x3ec178b0	0.3778739
101	0xbe9d125a	-0.30678064
102	0x3e5c1fb9	0.21496476
103	0x3ede8c83	0.43466577
104	0xbeba5134	-0.36390078
105	0xbe022941	-0.1271105
106	0x3f061c93	0.5238735
107	0xbd8913e3	-0.06693246
108	0xbdb08f8f	-0.08621132
109	0xbeb7b4e9	-0.3588021
110	0x3e3e9270	0.18610549
111	0x3d2b11ae	0.041764908
112	0xbf1245f2	-0.5713798
113	0xbeb4df58	-0.35326648
114	0xbeef48b1	-0.46735147
115	0x3ecd31f8	0.40077186
116	0xbf891535	-1.0709597
117	0x3ebe1429	0.37124756
118	0xbe0ea153	-0.13928728
119	0xbdd77433	-0.1052021
120	0xbe620f11	-0.2207606
121	0xbfa98f47	-1.324685
122	0xbef6cfae	-0.48205322
123	0x3dfe7186	0.124239966
124	0xbdc64d24	-0.09682682
125	0xbdf7b85b	-0.1209571
126	0x3e839306	0.25698107
127	0x3ebfe09f	0.3747606
128	0xbee34153	-0.44385776
129	0x3e6f1da4	0.23351151
130	0x3f143066	0.5788635
131	0xbe571c0f	-0.21006797
132	0xbe1d3b45	-0.15354641
133	0x3e92f9bb	0.28706154
134	0xbee838c4	-0.4535581
135	0x3e8923cf	0.26785132
136	0xbef24c69	-0.4732392
137	0x3e9df5db	0.30851635
138	0x3f3d5b5d	0.73967534
139	0xbe40e248	-0.1883632
140	0xbe3a14ef	-0.18172048
141	0x3ebf6abe	0.37386125
142	0x3f48871b	0.78331155
143	0xbdd9c050	-0.10632384
144	0xbed0e702	-0.40801245
145	0xbf1e3059	-0.6179252
146	0xbebd56bf	-0.36980245
147	0xbddd78f8	-0.108140886
148	0xbe9b162a	-0.30290347
149	0xbead409f	-0.33838364
150	0xba170910	-0.0005761543
151	0xbe42d720	-0.19027376
152	0x3e8ad3a6	0.271146
153	0xbea671cf	-0.32508704
154	0xbe2e2a9c	-0.17008442
155	0xbf27942a	-0.65460455
156	0xbec5d951	-0.38642362
157	0x3ea4e5a0	0.3220644
158	0xbf5afd94	-0.8554318
159	0xbeda380f	-0.42620894
160	0x3e16eda2	0.14739087
161	0xbf186dd0	-0.5954256
162	0x3da9850f	0.08277332
163	0x3cb73722	0.022365157
164	0x3eae0e1f	0.3399515
165	0x3d9b18ba	0.075730756
166	0xbdf3666c	-0.1188477
167	0x3e9fe6f2	0.31230885
168	0x3cc2670d	0.023730779
169	0xbe2cf61f	-0.16890763
170	0xbe677290	-0.22602296
171	0x3d694efc	0.05696009
172	0x3edce311	0.43141988
173	0x3ede4e36	0.43419045
174	0x3ccab2b1	0.02474341
175	0x3f15d3ac	0.5852611
176	0x3edbfc62	0.4296599
177	0xbd7b240c	-0.061313674
178	0xbe8757e9	-0.26434258
179	0xbbe3f5f0	-0.0069568083
180	0x3e874527	0.26419947
181	0x3ecdc767	0.40191194
182	0x3d843085	0.06454567
183	0x3d6da6bb	0.058020335
184	0x3e8d99f0	0.27656507
185	0x3ea39885	0.319523
186	0x3e9d873f	0.30767247
187	0x3d13d8b5	0.03609534
188	0xbdf1e280	-0.118107796
189	0xbeb09953	-0.34491977
190	0x3f166bd0	0.5875826
191	0x3dd2fac3	0.10301735
192	0xbd5dc70d	-0.054144908
193	0x3f33fad4	0.7030461
194	0x3d8f6681	0.07001973
195	0x3eac42a0	0.3364458
196	0x3dcf3408	0.10117346
197	0xbe280116	-0.16406664
198	0xbec3e50b	-0.38260683
199	0xbe6b1a2a	-0.229592
200	0xbf7b5597	-0.98177475
201	0xbdd73a0b	-0.10509118
202	0x3ebdc003	0.37060556
203	0xbd0d7fda	-0.034545757
204	0x3eb1c91e	0.34723753
205	0x3f016abf	0.50553507
206	0x3ef4f3a6	0.4784214
207	0x3eea41f7	0.45753452
208	0x3da66d9b	0.08126374
209	0x3ee09b08	0.4386828
210	0x3eb430b9	0.35193422
211	0x3d30e7cc	0.04318981
212	0x3e301ed7	0.17199264
213	0xbe1b2ed6	-0.15154585
214	0xbdd731a6	-0.105075166
215	0xbe45b7b8	-0.19308364
216	0x3ee5bd80	0.4487114
217	0x3e97f1e3	0.29676732
218	0xbdf61423	-0.120155595
219	0xbea79565	-0.32731166
220	0x3ec35a25	0.38154712
221	0x3c5b7307	0.013394124
222	0xbebcce07	-0.36875936
223	0x3d06d037	0.032913413
224	0xbedb64e9	-0.42850426
225	0xbe98af8f	-0.2982144
226	0x3d98aa36	0.0745434
227	0xbdc911b3	-0.09817829
228	0x3e44e287	0.19227038
229	0x3deb9d8a	0.115046576
230	0x3cf73920	0.030178607
231	0xbcdfb01d	-0.027305657
232	0x3edee710	0.43535662
233	0x3edefda5	0.4355289
234	0xbdfc0dc1	-0.12307311
235	0xbf305422	-0.68878376
236	0x3d289001	0.041152958
237	0xbe99dfd7	-0.3005359
238	0x3d1c8346	0.03821113
239	0xbeaa8afb	-0.3330916
240	0x3d0d74bd	0.03453516
241	0x3ea76b82	0.3269921
242	0xbe8933f3	-0.26797447
243	0x3d993f62	0.074827924
244	0xbf21668d	-0.63047105
245	0xbe214788	-0.15749943
246	0x3e1de157	0.15417992
247	0x3ec52286	0.38502902
248	0x3e87d735	0.26531377
249	0xbe97a33a	-0.2961672
250	0x3e48f9b3	0.19626503
251	0x3d3369af	0.04380196
252	0xbc57e6d6	-0.013177594
253	0x3dd05a68	0.101734936
254	0x3d9eda58	0.077564895
255	0xbf3f087a	-0.7462231

module.down1.mpconv.1.conv.0.bias f4 [64]
0	0x3bbb0990	0.005707927
1	0x3cd19cf6	0.02558754
2	0x3d6ffde5	0.058591742
3	0xbea99819	-0.33123854
4	0x3d82fe6c	0.06396183
5	0xbd1f48a8	-0.03888765
6	0xbd8cddb4	-0.06878224
7	0xbb011aa8	-0.0019699726
8	0x3d8691b4	0.065707594
9	0xbe15ad35	-0.14616854
10	0xbd4614ff	-0.048359867
11	0x3d6e68c1	0.05820537
12	0xbd97061e	-0.07374214
13	0x3db74953	0.08949532
14	0x3d1d8fc4	0.038467184
15	0xbcc5f1cd	-0.024163151
16	0xbcf8f38d	-0.030389572
17	0xbc099e78	-0.008399598
18	0xb942d677	-0.00018581176
19	0x3ba75af9	0.0051072803
20	0x3d1d3fd7	0.03839096
21	0xbce0c494	-0.027437486
22	0x3cc455f8	0.023966774
23	0xbd47b9d1	-0.048761193
24	0x3e00bbb9	0.1257161
25	0xbd95a886	-0.07307534
26	0xbdff5d1b	-0.1246893
27	0x3d846c71	0.06465996
28	0x3e0c5eb8	0.13708007
29	0xbd79f167	-0.061021235
30	0x3e035e67	0.1282898
31	0x3d2b037a	0.041751362
32	0xbdf93287	-0.121678405
33	0xbe20e74e	-0.15713236
34	0xbe0b14a8	-0.13582098
35	0xbd28918b	-0.041154426
36	0xbdc59afd	-0.09648702
37	0xbc6117c8	-0.01373858
38	0x3e56edc1	0.20989133
39	0xbc750694	-0.014955182
40	0xbd9ffed7	-0.07812279
41	0x3d71d2d4	0.059038952
42	0x3d37ee9a	0.044905283
43	0xbd45d5a3	-0.048299443
44	0xbd142f39	-0.036177848
45	0xbcaba886	-0.020954382
46	0x3d03ee2d	0.032209564
47	0xbce7d461	-0.028299512
48	0x3be117e3	0.0068693026
49	0xbc8adfdd	-0.01695245
50	0xbdfa68f2	-0.12227048
51	0xbdad5a23	-0.08464458
52	0xbde43b2b	-0.11144098
53	0x3d59817a	0.053101994
54	0x3de155a1	0.110026605
55	0xbcf146e4	-0.029452749
56	0x3dbfbe41	0.0936246
57	0xbdd75f0f	-0.10516178
58	0xbd942760	-0.07234073
59	0xbd9ba874	-0.07600489
60	0x3d85a1ba	0.065249875
61	0x3d9a9d3b	0.075495206
62	0x3c604dbf	0.013690411
63	0x3d43e925	0.047829766

module.down1.mpconv.1.conv.1.weight f4 [64]
0	0x3f827b03	1.019379
1	0x3f92dba6	1.1473281
2	0x3f93d2eb	1.1548742
3	0x3f571d2f	0.84028906
4	0x3f893046	1.0717857
5	0x3f89c1e5	1.0762297
6	0x3f9a8f50	1.2074986
7	0x3f6ed315	0.93290836
8	0x3f82ff61	1.0234185
9	0x3faa8b8d	1.3323838
10	0x3fc2a4b5	1.5206515
11	0x3fa60e05	1.2973028
12	0x3f44635b	0.76714104
13	0x3f85047d	1.0391995
14	0x3f7f375f	0.99693865
15	0x3fd88ffb	1.6918939
16	0x3fb723d5	1.430781
17	0x3fcf8b00	1.6214294
18	0x3fb2cc73	1.3968643
19	0x3f2f5e2f	0.6850309
20	0x3f5e128d	0.86747056
21	0x3f86e685	1.0539099
22	0x3fb63ec6	1.4237907
23	0x3f7ff10d	0.9997719
24	0x3fa5bc41	1.2948076
25	0x3fa542d0	1.2911015
26	0x3f88cb61	1.0687066
27	0x3fccc312	1.5997031
28	0x3fac45d9	1.3458816
29	0x3f5cabb3	0.8619949
30	0x3fbb6667	1.4640626
31	0x3f44d020	0.76880074
32	0x3fad7568	1.3551455
33	0x3fb52ba9	1.4153949
34	0x3f8507fe	1.0393064
35	0x3f9b3850	1.212656
36	0x3f8808da	1.0627701
37	0x3f951602	1.1647341
38	0x3f919d7d	1.1376187
39	0x3fb08e93	1.379351
40	0x3f8c9f45	1.0986105
41	0x3fb01fc9	1.37597
42	0x3f3e088b	0.74231786
43	0x3f711f43	0.94188327
44	0x3f78270b	0.96934575
45	0x3f97ebc6	1.1868827
46	0x3fa8203b	1.3134836
47	0x3fa63d72	1.2987502
48	0x3fb356be	1.4010847
49	0x3f994ea6	1.1977127
50	0x3f57c2de	0.8428172
51	0x3f2a8d4d	0.6662186
52	0x3f77acf0	0.96748257
53	0x3f9b709e	1.2143743
54	0x3f8011b9	1.0005409
55	0x3fc7359e	1.5563238
56	0x3f834bac	1.0257468
57	0x3f8cd604	1.1002812
58	0x3f91a06f	1.1377085
59	0x3fb45fa7	1.4091691
60	0x3f6469bd	0.89223844
61	0x3f5f75db	0.8728921
62	0x3fc62a15	1.5481592
63	0x3f95e18f	1.170946

module.down1.mpconv.1.conv.1.bias f4 [64]
0	0xbdbad1dc	-0.09122059
1	0x3e88773f	0.26653478
2	0xbd85f903	-0.06541636
3	0xbfcc0f15	-1.5942103
4	0xbe82a0cc	-0.25513303
5	0xbe66c4d7	-0.22536026
6	0xbe441636	-0.19149098
7	0x3e28c974	0.16483098
8	0xbdba7650	-0.091045976
9	0xbee7c0c3	-0.45264253
10	0xbeab4ff7	-0.33459446
11	0xbe1996b0	-0.14998889
12	0xbe8e52a7	-0.27797434
13	0x3e0eba5c	0.13938278
14	0x3db0fc00	0.08641815
15	0xbd81e5fb	-0.063426934
16	0xbe1cfddb	-0.15331213
17	0xbe494dfc	-0.19658655
18	0x3c5caac4	0.013468448
19	0xbef9f9a0	-0.4882326
20	0xbdf1d45f	-0.11808085
21	0xbea2e7e0	-0.31817532
22	0xbe8bc25e	-0.27296728
23	0xbf0f84b5	-0.5606187
24	0xbf0176c4	-0.50571847
25	0xbeeeb9c2	-0.46626097
26	0xbd022acc	-0.031779096
27	0x3ce03c76	0.02737258
28	0xbc23bc9d	-0.009993699
29	0x3dd4b3df	0.1038587
30	0x3b00c5a3	0.001964905
31	0x3ec73c82	0.3891335
32	0xbed4d461	-0.41568282
33	0xbeed6d9a	-0.46372682
34	0xbed7791f	-0.42084596
35	0xbeff5609	-0.49870327
36	0x3db6c081	0.08923436
37	0xbe9b2f33	-0.30309448
38	0xbf01ce8d	-0.50705796
39	0xbe483509	-0.19551481
40	0x3bf99437	0.0076165455
41	0xbe1b81f6	-0.15186295
42	0xbbf1cd68	-0.0073792227
43	0x3db3847d	0.087655045
44	0xbe83d9b7	-0.2575204
45	0x3c7bf96c	0.015379291
46	0xbe7833b3	-0.24238472
47	0xbd84b9c7	-0.06480747
48	0x3eb52424	0.35379136
49	0xbede06dc	-0.43364608
50	0xbf4ef087	-0.80835766
51	0xbe3387bc	-0.17532247
52	0xbc643fec	-0.013931256
53	0x3c8a5b8b	0.016889354
54	0x3cc3a2a4	0.023881264
55	0xbe040691	-0.1289313
56	0xbe791c70	-0.24327254
57	0xbec003b1	-0.37502816
58	0xbf1b87de	-0.6075419
59	0xbed9d68d	-0.42546502
60	0x3e2378b4	0.15964013
61	0xbe11f9a3	-0.14255385
62	0xbd6fcf84	-0.05854751
63	0xbead0652	-0.33793885

module.down1.mpconv.1.conv.1.running_mean f4 [64]
0	0x3f2d2ba2	0.67644703
1	0xbf885fdb	-1.0654253
2	0xbed00640	-0.40629768
3	0x40f7b443	7.7407546
4	0xbf8a7f84	-1.0820165
5	0xbf6b4dad	-0.919154
6	0x3e586bb0	0.2113483
7	0xbf16be31	-0.5888396
8	0x3ea2e125	0.31812397
9	0x3e636dcd	0.22209854
10	0x3ba3c945	0.0049983584
11	0x404db6ce	3.2142825
12	0xc02bf437	-2.6867807
13	0xbf8c4c54	-1.0960793
14	0xc01b2529	-2.424143
15	0x3f376342	0.7163583
16	0x3eed3c88	0.46335244
17	0xbfae96fc	-1.3639827
18	0xc030fa49	-2.7652762
19	0x3f3b0556	0.73055017
20	0xbf7db7e4	-0.9910872
21	0xbf09906f	-0.53736013
22	0xc0452431	-3.080334
23	0xc049dc1a	-3.154059
24	0x4021639d	2.521705
25	0xbf28dc0f	-0.6596078
26	0xbfab51dd	-1.3384358
27	0xbf895db7	-1.0731725
28	0x3eeaaf77	0.45836994
29	0xc073a35e	-3.8068461
30	0xc019958e	-2.399753
31	0xc046f4ff	-3.1087034
32	0x3d005e45	0.031339902
33	0xbf5d2e30	-0.863986
34	0xbff01d44	-1.8758931
35	0xc04214a4	-3.0325098
36	0xbf9aa31e	-1.208103
37	0xc04383fb	-3.0549304
38	0xbf160c06	-0.58612096
39	0xbf3847f1	-0.71984774
40	0xc012f4fa	-2.2962022
41	0xc0034597	-2.0511224
42	0xbe8e36e8	-0.27776265
43	0xbe1645ee	-0.14675114
44	0xbf0bef7f	-0.5466232
45	0xc063ebad	-3.5612595
46	0xc08bdfad	-4.371054
47	0x3fb912c3	1.4458851
48	0xbedd4088	-0.43213296
49	0xbeff6d71	-0.49888185
50	0x40512144	3.2676554
51	0x3fc57460	1.542614
52	0xbfd8bf03	-1.6933292
53	0xbfa02657	-1.25117
54	0xbefcfdf2	-0.49412495
55	0xbf83480c	-1.0256362
56	0x3fa324d0	1.2745609
57	0xbf08ff36	-0.5351442
58	0xc12d282e	-10.8223095
59	0xbf0231a2	-0.50856984
60	0x3dcc0468	0.09961778
61	0x3fbcd784	1.475327
62	0xbf91292a	-1.1340687
63	0xbe6e8126	-0.23291454

module.down1.mpconv.1.conv.1.running_var f4 [64]
0	0x40964c35	4.6968026
1	0x40dcca62	6.899705
2	0x40d20f99	6.564404
3	0x4145edff	12.3706045
4	0x40c4164a	6.127721
5	0x40f95083	7.791078
6	0x413a2d5b	11.636073
7	0x40be510b	5.947393
8	0x41118483	9.0948515
9	0x4104c498	8.2979965
10	0x411bb34c	9.731274
11	0x41062d2a	8.386026
12	0x40ae54bc	5.4478436
13	0x40f4cd4a	7.6500597
14	0x413da0d4	11.851765
15	0x412f000f	10.937514
16	0x40add4f5	5.4322457
17	0x41878e31	16.94443
18	0x41704735	15.017385
19	0x40d5ba50	6.678993
20	0x40d09574	6.518244
21	0x40d6f793	6.7177215
22	0x41706d67	15.02671
23	0x4082043d	4.0630174
24	0x415fd304	13.9890175
25	0x40a63e42	5.1951
26	0x40870dbc	4.2204266
27	0x41239af7	10.225333
28	0x40d2117e	6.5646353
29	0x41245146	10.269842
30	0x4142976e	12.16197
31	0x41b6e6ac	22.862633
32	0x40989859	4.768597
33	0x40ba9714	5.830942
34	0x40d3b2b4	6.6155643
35	0x4119f4de	9.622282
36	0x41156f41	9.339662
37	0x414971b6	12.590261
38	0x41314068	11.078224
39	0x414e6b85	12.90125
40	0x41047285	8.277959
41	0x418abaf6	17.34129
42	0x40ad7500	5.420532
43	0x40fb824d	7.859656
44	0x40d5bbfc	6.6791973
45	0x41697e67	14.59336
46	0x419b54d1	19.416414
47	0x411cbb69	9.795754
48	0x41575b71	13.459825
49	0x40ea4532	7.3209467
50	0x410e1f93	8.882709
51	0x40f094b6	7.518153
52	0x40a6df62	5.2147684
53	0x412d4ccb	10.831248
54	0x413e1158	11.879234
55	0x410baf82	8.730349
56	0x4070688d	3.7563813
57	0x40973fcb	4.726537
58	0x41926a61	18.301943
59	0x411d0e65	9.816014
60	0x40a0b146	5.02164
61	0x41311c01	11.069337
62	0x4145f45c	12.372158
63	0x40b2ad92	5.583688

module.down1.mpconv.1.conv.3.weight f4 [64, 64, 3, 3]
0	0x3dbd08c5	0.09230188
1	0xbf367fc3	-0.712887
2	0xbf17150b	-0.59016484
3	0x3f304e2f	0.688693
4	0xbeed3fa2	-0.4633761
5	0xbf38544a	-0.72003615
6	0x3eb05ad8	0.34444308
7	0x3b650e6d	0.0034951225
8	0xbed3c376	-0.41360062
9	0x3f06241e	0.5239886
10	0x3b1c5d3a	0.0023859278
11	0xbd2fc8c1	-0.042916063
12	0x3ea9541d	0.33071986
13	0xbfe1c76b	-1.7638983
14	0x3f22d31e	0.6360339
15	0x3ddfd943	0.10930111
16	0xbd8048e5	-0.062639035
17	0x3dc85f2d	0.09783778
18	0x3f264e1e	0.6496295
19	0x3c3c9eb7	0.01151245
20	0xbe47c046	-0.1950694
21	0xbf7afd84	-0.98043084
22	0xbeccdc80	-0.40011978
23	0x3cce9fba	0.025222648
24	0xbf2954ef	-0.66145223
25	0xbeea8f17	-0.45812294
26	0xbe84adba	-0.25913793
27	0xbedda067	-0.4328644
28	0xbe91698e	-0.28400844
29	0xbf2494fc	-0.6428983
30	0x3cae6f59	0.02129333
31	0xbe153282	-0.14570048
32	0xbed48743	-0.41509447
33	0xbe6b7a64	-0.22995907
34	0xbec74dee	-0.38926643
35	0xbf486c8e	-0.7829064
36	0x3f211f7a	0.62938654
37	0x3e9619eb	0.2931665
38	0x3d7a2a0e	0.061075263
39	0xbe57b7da	-0.21066228
40	0x3ec71d5e	0.38889593
41	0x3f11c66b	0.56943387
42	0xbfaf62db	-1.3702043
43	0xbf1535b2	-0.5828506
44	0x3f70a899	0.9400726
45	0x3e214a25	0.1575094
46	0x3dd69293	0.104771756
47	0x3d69d650	0.05708915
48	0xbf0cb5fc	-0.54965186
49	0x3e56e4c8	0.2098571
50	0xbe1bae2e	-0.15203163
51	0xbe6ded3f	-0.23235033
52	0xbf0c0852	-0.54700196
53	0xbf4cf4fd	-0.8006132
54	0x3e2fa7e5	0.1715389
55	0xbf23b959	-0.63954693
56	0xbeef22a6	-0.46706122
57	0xbf027094	-0.5095303
58	0xbf84bc9d	-1.037006
59	0x3e926015	0.2858893
60	0xbf10ee9f	-0.56614107
61	0xbe697c4c	-0.22801322
62	0xbe93fa12	-0.28901726
63	0x3d42ede0	0.047590137
64	0xbed721e8	-0.42018056
65	0xbf086b3b	-0.5328862
66	0x3eda645f	0.42654702
67	0x3e506b85	0.20353515
68	0xbecb4f68	-0.3970902
69	0xbd29eb73	-0.041484307
70	0xbf624dd4	-0.88400006
71	0x3d0a6ba2	0.033794053
72	0xbfac8779	-1.3478843
73	0xbec70882	-0.38873678
74	0xbf550bfd	-0.8322142
75	0x3ea85759	0.3287914
76	0x3e5aa2b4	0.21351129
77	0xbcd72274	-0.026261546
78	0x3e1cbeea	0.15307203
79	0x3e94b136	0.2904145
80	0x3e6ab277	0.22919641
81	0xbf5076bb	-0.8143117
82	0x3ea49fed	0.32153264
83	0x3e8112d8	0.2520969
84	0xbed5396c	-0.41645372
85	0xbedb9df9	-0.4289396
86	0x3d9006b4	0.070325285
87	0xbe9f8159	-0.31153372
88	0xbee11a6e	-0.43965477
89	0x3e5fb7d8	0.21847475
90	0xbf4ec4e3	-0.80769175
91	0xbf26d27d	-0.6516493
92	0x3ea4200c	0.320557
93	0xbf019599	-0.5061889
94	0xbf490e98	-0.78537893
95	0x3eb38dc6	0.35069102
96	0x3d1dc644	0.03851916
97	0xbecf4f1a	-0.40490037
98	0xbe1b467a	-0.15163603
99	0xbf651c3b	-0.894962
100	0x3e277795	0.1635421
101	0xbf2915b3	-0.66048735
102	0xbeeb2597	-0.45927116
103	0x3e1176c0	0.14205456
104	0xbef70368	-0.48244786
105	0x3e719f3a	0.23595896
106	0x3dd05a9a	0.10173531
107	0xbf028319	-0.5098129
108	0xbf6a2c38	-0.9147372
109	0xbe08dcec	-0.13365525
110	0xbfb10ced	-1.383207
111	0xbdea0b8f	-0.11427986
112	0x3e8ef1eb	0.27918944
113	0xbf117c7b	-0.5683057
114	0x3e9ecd79	0.31016138
115	0x3e4e0f1b	0.2012295
116	0xbe93669e	-0.28789228
117	0x3f2552d8	0.64579535
118	0xbed454dc	-0.41470993
119	0x3eb5e1d8	0.35523868
120	0x3ec9fa64	0.39448845
121	0xbe8b45ea	-0.27201778
122	0xbea5bf6c	-0.32372606
123	0xbdc2cf5d	-0.09512208
124	0xbf9185be	-1.136894
125	0xbecb7844	-0.39740193
126	0x3e19b120	0.15008974
127	0xbc141bfa	-0.009039873
128	0x3e52d822	0.2059026
129	0xbe09bd1a	-0.13451043
130	0xbeb78cba	-0.35849553
131	0xbddadba4	-0.106864244
132	0x3e18da57	0.1492704
133	0xbe0a9bc4	-0.13535982
134	0x3e180ecf	0.14849399
135	0xbe88236d	-0.26589528
136	0x3d95b89d	0.07310603
137	0x3f319609	0.6936956
138	0x3e09c7a2	0.1345506
139	0xbe56abcd	-0.20963974
140	0xbf841ea2	-1.0321848
141	0xbe81a92c	-0.2532438
142	0x3dddc50f	0.108286016
143	0xbf1553ac	-0.583308
144	0xbfbb3ca7	-1.4627885
145	0xbdb4e4e1	-0.08832718
146	0x3ea503ae	0.3222937
147	0xbfa6b050	-1.3022556
148	0x3df09b68	0.117483914
149	0x3eb6628d	0.35622063
150	0xbf93a96c	-1.1536078
151	0xbe8fe531	-0.28104547
152	0x3eafaecd	0.3431305
153	0xbf7f2b01	-0.99674994
154	0x3e3e0a15	0.18558533
155	0x3f6874c4	0.9080317
156	0xbe895fc9	-0.2683089
157	0xbf84e00c	-1.0380874
158	0x3f673c3c	0.90326285
159	0xbe9d90a7	-0.30774423
160	0xbf75fe7d	-0.96091443
161	0x3f59a01c	0.8500993
162	0xbe8d3c57	-0.27585098
163	0x3ecc4246	0.39894313
164	0x3ee44111	0.44580892
165	0x3ef0e1fd	0.47047415
166	0x3f1d00cf	0.6132936
167	0x3e79e0d1	0.24402167
168	0x3d4fd522	0.05074037
169	0xbde967f7	-0.11396783
170	0x3d7a22d3	0.061068367
171	0xbf02c8bd	-0.5108755
172	0x3e64dbca	0.22349468
173	0xbdf099cc	-0.117480844
174	0xbe3960ca	-0.18103328
175	0x3e63f351	0.22260787
176	0xbf35c4f3	-0.71003646
177	0xbd5d2d23	-0.053998124
178	0x3f32f8c9	0.69910866
179	0x3ed10f8b	0.4083217
180	0xbf1be01a	-0.60888827
181	0xbe807b75	-0.2509419
182	0x3edbca99	0.42928007
183	0x3d71649f	0.05893385
184	0x3e5acab3	0.21366386
185	0xbf504005	-0.81347686
186	0x3e786632	0.24257734
187	0xbf133f6e	-0.5751866
188	0xc0010814	-2.016118
189	0xbec80788	-0.39068246
190	0x3ee50146	0.44727534
191	0xbeb6ed4d	-0.3572792
192	0xbe06c4ea	-0.13161054
193	0x3f245234	0.6418793
194	0xbe1fdadf	-0.15610836
195	0x3daff3a7	0.08591395
196	0xbdbb96d0	-0.091596246
197	0xc0157eb3	-2.335858
198	0x3dc0601e	0.09393333
199	0xbf0fb0cf	-0.56129164
200	0x3ed66a95	0.4187819
201	0xbe5a4504	-0.2131539
202	0xbe4cbf73	-0.19994907
203	0x3b639bba	0.0034730271
204	0x3f5ccce7	0.86250156
205	0xbdd5248e	-0.10407363
206	0xbe8106be	-0.25200456
207	0x3f09ad2e	0.53779876
208	0xbf5ae2d3	-0.85502356
209	0xbf4cb3ef	-0.79962057
210	0x3efb6483	0.49100122
211	0x3d94e8ec	0.07270989
212	0xbe663ea7	-0.22484837
213	0xbf4a6cdf	-0.79072374
214	0x3e366402	0.17811587
215	0x3f71c21b	0.94436806
216	0xc00e524d	-2.2237732
217	0xbdc6467d	-0.09681413
218	0x3f03dd68	0.51509714
219	0x3ed82cfd	0.42221823
220	0x3fc6cd1b	1.5531343
221	0x3ec104f2	0.37699085
222	0x3f5dc017	0.8662123
223	0x3f88fce5	1.0702177
224	0xbdaa3504	-0.08310893
225	0xbe2b29be	-0.16715142
226	0xbe3f62aa	-0.18689981
227	0xbd244902	-0.04010869
228	0xbf826256	-1.018626
229	0xbf2b06ae	-0.6680707
230	0x3efc4e5f	0.49278542
231	0xbeff81ab	-0.49903616
232	0xbe242179	-0.16028394
233	0xbed9a5a3	-0.42509183
234	0xbee52992	-0.44758278
235	0xbe54bd45	-0.20775326
236	0x3e5a3bff	0.21311949
237	0xbdcf2144	-0.10113767
238	0xbf999e97	-1.2001523
239	0x3e9cb6b4	0.3060814
240	0x3e876b44	0.26449025
241	0xbf040043	-0.515629
242	0x3e7346c8	0.2375747
243	0x3e191a73	0.14951496
244	0xbd41360b	-0.04717068
245	0x3ee310bf	0.44348714
246	0xbeaca194	-0.33717024
247	0xbf0dde46	-0.5541729
248	0x3e9a4d9c	0.30137336
249	0x3dda9c29	0.106743164
250	0xbe985c28	-0.2975781
251	0x3e0462ec	0.1292836
252	0x3f03200a	0.5122076
253	0xbf5adcf5	-0.85493404
254	0x3db3e0aa	0.08783086
255	0x3e850603	0.2598115

module.down1.mpconv.1.conv.3.bias f4 [64]
0	0xbe03c8ee	-0.12869617
1	0xbd2c35ca	-0.042043485
2	0x3d698e46	0.05702045
3	0xbd183362	-0.037158377
4	0xbd3eb096	-0.046555124
5	0xbbec1a82	-0.0072053084
6	0x3dc9641c	0.098335475
7	0xbce8afa6	-0.028404068
8	0xbdb40161	-0.087893255
9	0x3ca7009e	0.020386036
10	0x3cb5f19b	0.022209933
11	0x3dd48ec1	0.10378791
12	0xbd5a94f1	-0.053364698
13	0x3b89ac4a	0.0042014467
14	0x3ca599ce	0.020214941
15	0xbdab8c2f	-0.08376347
16	0xbc668997	-0.01407089
17	0x3d39a383	0.045321953
18	0xbd034741	-0.032050375
19	0xbd29e645	-0.041479368
20	0x3cfe13f6	0.031015377
21	0x3cfc2e72	0.030783866
22	0xbcaf3155	-0.021385828
23	0xbd846b35	-0.064657606
24	0xbba49b27	-0.0050233784
25	0xbd9b4469	-0.075814076
26	0xbd00e225	-0.03146567
27	0xbc507a1d	-0.012724427
28	0xbdb67a3a	-0.089100316
29	0x3e1d7845	0.1537791
30	0xbd61a093	-0.055084776
31	0xbdaf4c70	-0.08559501
32	0xbd8d674e	-0.069044694
33	0x3d79f027	0.061020043
34	0x3bdabcd2	0.006675341
35	0x3cbee5ed	0.023302997
36	0x3bfbb784	0.007681789
37	0x3c896962	0.016773883
38	0x3c2d3c0e	0.0105734
39	0xbda84b46	-0.08217482
40	0x3d7f9b41	0.06240392
41	0xbdd169e2	-0.10225274
42	0x3d75573a	0.05989764
43	0x3d255907	0.040368106
44	0xbda5747a	-0.08078857
45	0x3d1d8cfa	0.038464524
46	0xbd38967d	-0.04506539
47	0x3dac1a25	0.08403424
48	0xbd002c94	-0.031292513
49	0x3dc11950	0.09428656
50	0xbdb4506f	-0.08804404
51	0x3c879020	0.016548216
52	0x3c634d34	0.013873387
53	0xbdceac41	-0.100914486
54	0xbdd0b778	-0.10191244
55	0xbbdb9db2	-0.0067021484
56	0x3d472ff8	0.04862973
57	0x3ba296cb	0.0049618236
58	0xbdc633a3	-0.09677818
59	0x3c620592	0.013795273
60	0x3d87474d	0.066053964
61	0xbbba00e3	-0.0056763752
62	0xbc9c096d	-0.019047463
63	0x3c7f5212	0.015583532

module.down1.mpconv.1.conv.4.weight f4 [64]
0	0x3f8501f7	1.0391225
1	0x3f76dd34	0.9643128
2	0x3efbd5a9	0.49186447
3	0x3f2c0fb7	0.6721148
4	0x3f420c84	0.7580035
5	0x3f7de6bc	0.991802
6	0x3f471c0a	0.7777716
7	0x3e9fda9e	0.3122148
8	0x3eeed171	0.46644166
9	0x3f359898	0.70935965
10	0x3eaddf10	0.33959246
11	0x3f44129f	0.76590914
12	0x3f6d47d9	0.92687756
13	0x3f04e823	0.5191671
14	0x3f3cfbf7	0.7382197
15	0x3f48fc59	0.7851005
16	0x3f2b0a32	0.6681243
17	0x3f3d1f06	0.73875463
18	0x3f5ef846	0.87097585
19	0x3f1eb31f	0.6199207
20	0x3f202b4f	0.62566084
21	0x3f8c78e9	1.0974399
22	0x3f1716d1	0.5901919
23	0x3f84c2b4	1.0371919
24	0x3f608606	0.87704504
25	0x3f36cfa1	0.71410567
26	0x3ed92b4b	0.42415842
27	0x3ea50c14	0.32235777
28	0x3f716c0f	0.9430551
29	0x3f6615ec	0.898772
30	0x3f5e6d3d	0.86885434
31	0x3f324067	0.6962952
32	0x3f72718d	0.94704515
33	0x3f0eaca1	0.5573216
34	0x3e84d1a4	0.25941193
35	0x3f152bd8	0.58270025
36	0x3f0eccaf	0.5578107
37	0x3f69c7e8	0.9132066
38	0x3f3dbb12	0.7411357
39	0x3ea57763	0.32317647
40	0x3f7eb476	0.9949411
41	0x3f2cc38f	0.674859
42	0x3eb13736	0.34612435
43	0x3f2ae523	0.66755885
44	0x3f015a56	0.50528467
45	0x3f414663	0.75498027
46	0x3f226376	0.63433015
47	0x3ef5ed59	0.48032644
48	0x3f3494cb	0.7053954
49	0x3f43a736	0.7642702
50	0x3f096240	0.5366554
51	0x3f216ccf	0.63056654
52	0x3f4100ca	0.7539183
53	0x3f3fc6ea	0.74912894
54	0x3f8c0b41	1.0940934
55	0x3eaa85ce	0.3330521
56	0x3ea5f28c	0.3241161
57	0x3f7b1469	0.9807802
58	0x3f39184d	0.72302705
59	0x3f4ebf50	0.8076067
60	0x3f0234d1	0.5086184
61	0x3f7f3c50	0.99701405
62	0x3eae4d81	0.34043506
63	0x3efea678	0.4973638

module.down1.mpconv.1.conv.4.bias f4 [64]
0	0xbf0a9960	-0.5414028
1	0xbedbf682	-0.42961508
2	0x3d05eeed	0.03269856
3	0xbefec448	-0.49759126
4	0xbea5a3a5	-0.32351413
5	0xbeb7f6d3	-0.359305
6	0xbdfe239a	-0.12409134
7	0x3d397598	0.04527816
8	0xbf458f44	-0.7717173
9	0xbe1da831	-0.15396191
10	0x3d3904bd	0.045170534
11	0xbcd342c7	-0.025788678
12	0xbec1ee50	-0.3787713
13	0xbdc61023	-0.096710466
14	0xbe4748e3	-0.19461398
15	0xbe8c7f2c	-0.27440774
16	0xbe2aa03b	-0.16662686
17	0xbd8ca97c	-0.06868264
18	0xbddec152	-0.10876717
19	0xbdfd9127	-0.12381201
20	0xbd448aa5	-0.047983784
21	0xbeb4fe30	-0.3535018
22	0xbe07f287	-0.1327611
23	0xbecab7b0	-0.39593267
24	0xbe2f41df	-0.17114972
25	0xbe2eb48c	-0.1706106
26	0x3d85398b	0.06505116
27	0x3db245ea	0.08704741
28	0xbed32cdd	-0.41245165
29	0xbd08e5f4	-0.033422425
30	0xbea21728	-0.31658292
31	0xbee4d85b	-0.44696316
32	0xbe93aea4	-0.28844178
33	0x3d10b9ee	0.035333566
34	0x3b0e6358	0.0021726694
35	0x3ca3b83b	0.019985309
36	0xbe8ee6eb	-0.2791055
37	0xbe8a6e15	-0.2703711
38	0xbe3d17c1	-0.18466093
39	0xbcc2f073	-0.023796296
40	0xbeedd3a4	-0.4645053
41	0xbe5c662b	-0.21523349
42	0xbef3c30d	-0.4760975
43	0x3c0f001c	0.008728053
44	0xbdf5dc0e	-0.12004863
45	0xbe7eec60	-0.24894857
46	0xbe2e09d3	-0.16995935
47	0xbed380a9	-0.41309097
48	0xbeac5033	-0.33654937
49	0x3d146fbf	0.036239382
50	0xbe606291	-0.219126
51	0x3bb8e419	0.0056424257
52	0xbdfc9fa0	-0.123351336
53	0xbeccf3fd	-0.40029898
54	0xbe9ebf50	-0.31005335
55	0xbdc90e32	-0.09817161
56	0x3dc1a1bc	0.094546765
57	0xbe65f3fd	-0.22456355
58	0xbe760187	-0.2402402
59	0xbe852c89	-0.2601054
60	0x3c458d82	0.012057664
61	0xbe80af8c	-0.25133932
62	0xbe012fa9	-0.12615837
63	0xbe41030a	-0.18848816

module.down1.mpconv.1.conv.4.running_mean f4 [64]
0	0xc0a917e5	-5.284167
1	0xbff49348	-1.9107447
2	0xbfca50dd	-1.5805928
3	0xc1230024	-10.187534
4	0xc10afd18	-8.68679
5	0xc0f86989	-7.7628827
6	0xc059e05c	-3.4043188
7	0xbf86a029	-1.0517627
8	0x3f35d4b3	0.7102768
9	0xc0e9608a	-7.2930346
10	0xc04dbf6d	-3.2148087
11	0xc0ba5fc5	-5.8241906
12	0xc0a7c215	-5.2424417
13	0xc036ae5a	-2.8543916
14	0xbffb289d	-1.9621769
15	0xbfc777b7	-1.5583409
16	0xc0f433ed	-7.6313386
17	0xc0e6ba53	-7.2102447
18	0xc0702aa7	-3.7526033
19	0xc0bd159d	-5.9088883
20	0xc0e55217	-7.1662707
21	0xc0fd8506	-7.922488
22	0xc053664c	-3.3031187
23	0xc06f0cc9	-3.7351553
24	0xc01e5a5e	-2.4742656
25	0xc0c14b08	-6.040409
26	0xc071f5da	-3.7806306
27	0xc0be8a94	-5.9544163
28	0xc0a56caa	-5.1695147
29	0xc0212cde	-2.5183635
30	0xc060ae0e	-3.5106235
31	0xc0e0ed67	-7.02898
32	0xc09ceadd	-4.90367
33	0xc046ef1f	-3.1083448
34	0xbff75374	-1.9322343
35	0xc0c3be07	-6.1169467
36	0xbf9b0bb8	-1.2112951
37	0xc0c700af	-6.2188334
38	0xbff5997f	-1.9187468
39	0xbfa5fbb2	-1.2967436
40	0xc08f5adf	-4.4798427
41	0xc08e468d	-4.446112
42	0xbee1f7db	-0.4413441
43	0xc097e264	-4.7463856
44	0xc088e1b0	-4.2775497
45	0xc082ee14	-4.0915623
46	0xbf7550df	-0.95826524
47	0xc0cbfc70	-6.374565
48	0xbfab7567	-1.3395203
49	0xc094bbd9	-4.6479306
50	0xc147468a	-12.454721
51	0xc0bb2a17	-5.848888
52	0xc08a8247	-4.328403
53	0xbfdf433b	-1.7442392
54	0xc0062fd3	-2.096669
55	0xc09fbd31	-4.9918447
56	0xc03d77c8	-2.9604359
57	0xc0952f13	-4.6619964
58	0xc0ef82d9	-7.4847226
59	0xc1052094	-8.320454
60	0xc09cb394	-4.896921
61	0xc0ae156f	-5.4401164
62	0xc0c812e5	-6.2523065
63	0xc093b222	-4.6154947
