learned_models/mask/ACS-WFC-F814W.pth (torch_old, 416836 bytes, 39 tensors)

module.inc.conv.conv.0.weight f4 [32, 1, 3, 3]
-0.7875319 -0.47382602 -0.00048070477 0.01578559 0.1676582 0.70175093 -0.08570609 0.5355087
-0.019278733 0.051227186 -1.4007044 0.029042844 0.082874484 0.67629904 0.11023322 0.12866724
0.20294303 0.07995706 0.18542504 0.640101 -0.00088635745 0.4125482 -0.17792456 0.030395532
0.33564743 -0.4943242 -1.10347 0.006712496 -0.008914887 0.6693113 -0.0064916518 -1.1870428
-0.17667496 -0.017686827 0.041670293 0.6893268 0.033631526 0.76189446 0.19165748 0.009546991
0.19669184 -0.038646135 -0.66533804 -0.8769122 0.09965765 0.021956809 -0.40190667 -0.2079457
0.2146361 1.0887748 0.08411241 0.008948889 0.059838545 -0.7223365 0.024523728 -0.83718324
-0.4221374 -0.6087755 0.3893499 0.1404533 -0.09973481 0.35417366 0.6030456 -0.028384501
-0.17131767 0.20345347 0.029624006 1.036923 -0.30427095 -0.8907198 -0.1258649 0.3344873
0.17315452 0.6249008 -0.0034995733 -0.7704429 0.21255489 0.08579396 -1.1120256 0.41623086
0.30449876 -1.4334685 0.42286098 0.2120291 0.06602995 -0.16279781 0.2064185 0.018474089
0.14685652 0.34643477 0.34586146 -0.011988091 -0.6928693 -0.15469217 0.24234569 0.12011219
-0.40690532 -0.25793257 0.78458637 0.38211137 -0.46476758 0.4072957 -0.7642665 0.9351616
-0.51112807 0.042706374 -0.08810934 0.2187561 -0.05639169 -0.3647614 -0.69037753 0.6201062
0.6005706 -0.99328566 0.1406076 0.09314848 -0.12231303 0.22786675 0.3974049 0.12296769
0.1749274 0.3899097 -1.5357192 0.095957 0.030756187 0.03940417 0.06537314 -0.60862255
0.13042499 0.30000567 -0.95409447 0.14479247 0.42355242 0.38846624 0.12753084 -0.006628811
-0.023348277 0.24281196 0.102685794 0.5037528 0.5129603 0.018641908 -1.1017541 -0.25887623
0.25043005 0.24029562 -0.37195557 0.0408328 -0.79591477 -0.5460455 0.259736 0.6479378
0.24870102 0.14208251 0.84099257 0.30957782 0.018761821 -1.8736361 0.09483064 0.0035165658
0.013516992 0.0062168436 0.0029429363 0.23777089 -0.5395185 0.085622095 -0.6017825 -0.17093104
0.4993384 -0.29880765 0.7245498 0.038604513 -0.12168937 0.48153183 -0.020330986 -0.18104826
0.8160351 -1.3656517 -0.0035616602 -0.0409324 -0.049047627 0.050026715 0.07032657 -0.3479262
0.041671652 0.21751508 -1.1634407 0.38610962 0.8621009 0.22531116 -0.006722784 0.44707987
0.0576879 -0.76730496 -0.792213 0.4636804 0.15644328 0.14963953 0.026084524 0.6671544
-0.7717789 -0.037665017 -0.5646717 0.6979463 -0.026144307 0.026945684 -0.0007537448 0.36221018
0.5941893 0.17989773 0.043494042 -0.021954792 0.13868673 0.016030643 -1.3378488 0.012382802
0.39355025 -0.43284532 0.08450728 0.62839824 -0.050299328 0.023918446 -0.84379095 0.463608
-0.3275474 0.027446847 -0.21930613 -0.3441751 -0.013915155 0.64669657 0.039604668 0.29469693
0.5768866 -0.99024576 0.15056516 -0.75800973 0.023301065 0.19042878 0.22897774 0.7411662
-0.42199543 -0.43701535 0.28280118 -0.60484457 0.55461407 -0.4635632 -0.0056191706 -0.13569435
-1.170461 0.14605318 0.55523366 -0.006220129 -0.0034131121 0.011684972 0.035180572 0.45499098
00000000: b19b 49bf 5399 f2be 1a07 fcb9 c850 813c
00000010: 97ae 2b3e f3a5 333f ad86 afbd 1917 093f
00000020: 6fee 9dbc 99d3 513d 484a b3bf 42eb ed3c
00000030: 19ba a93d ef21 2d3f f4c1 e13d 58c1 033e
00000040: 4cd0 4f3e 87c0 a33d 10e0 3d3e a9dd 233f
00000050: 715a 68ba 8539 d33e db31 36be 0d00 f93c
00000060: fbd9 ab3e 1018 fdbe 813e 8dbf 7ff4 db3b
00000070: bf0f 12bc fc57 2b3f ecb7 d4bb 05f1 97bf
00000080: 48ea 34be f7e3 90bc 78ae 2a3d b977 303f
00000090: 36c1 093d 840b 433f dc41 443e fc6a 1c3c
000000a0: 9669 493e 694b 1ebd 9853 2abf 517d 60bf
000000b0: 4f19 cc3d c4de b33c b6c6 cdbe b8ef 54be
000000c0: 91c9 5b3e f95c 8b3f 2143 ac3d 5c9e 123c
000000d0: 4319 753d 0beb 38bf fce5 c83c a451 56bf
000000e0: 6522 d8be b6d8 1bbf df58 c73e fdd2 0f3e
000000f0: c441 ccbd 4056 b53e 3261 1a3f 9d86 e8bc
00000100: e66d 2fbe 1b56 503e 0bae f23c e5b9 843f
00000110: 67c9 9bbe 3606 64bf bae2 00be eb41 ab3e
00000120: 6b4f 313e 80f9 1f3f 1959 65bb bf3b 45bf
00000130: fda7 593e beb4 af3d db56 8ebf 361c d53e
00000140: 43e7 9b3e e57b b7bf 3c81 d83e 281e 593e
00000150: b63a 873d 78b4 26be 5f5f 533e f956 973c
00000160: 8e61 163e e65f b13e c114 b13e b369 44bc
00000170: e25f 31bf a067 1ebe 7829 783e 61fd f53d
00000180: e555 d0be bd0f 84be a7da 483f 1aa4 c33e
00000190: 04f6 edbe 1089 d03e f8a6 43bf c066 6f3f
000001a0: 4ad9 02bf e1ec 2e3d ab72 b4bd 9901 603e
000001b0: f9fa 66bd 02c2 babe 95bc 30bf 48bf 1e3f
000001c0: ffbe 193f f847 7ebf 70fb 0f3e a1c4 be3d
000001d0: 417f fabd e755 693e a878 cb3e 7cd6 fb3d
000001e0: 2b20 333e 3fa2 c73e 7292 c4bf 1b85 c43d
000001f0: 66f4 fb3c 4466 213d 5ae2 853d b0ce 1bbf
00000200: 218e 053e 589a 993e 893f 74bf 7a44 143e
00000210: dddb d83e 0ce5 c63e 7297 023e 7f36 d9bb
00000220: e344 bfbc b3a3 783e ee4c d23d f2f5 003f
00000230: 5e51 033f eab6 983c 4706 8dbf 6d8b 84be
00000240: 5e38 803e 0e10 763e f670 bebe 4b40 273d
00000250: 12c1 4bbf a3c9 0bbf 1efc 843e 40df 253f
00000260: 7bab 7e3e 147e 113e 4a4b 573f fc80 9e3e
00000270: 64b2 993c 4fd3 efbf 9136 c23d 2f76 663b
00000280: 6076 5d3c aab6 cb3b 47de 403b 367a 733e
00000290: e21d 0abf a35a af3d 6b0e 1abf 8c08 2fbe
000002a0: 48a9 ff3e 51fd 98be 187c 393f c41f 1e3d
000002b0: 4738 f9bd 578b f63e 2b8d a6bc b764 39be
000002c0: ade7 503f adcd aebf be6a 69bb bba8 27bd
000002d0: 2ae6 48bd d0e8 4c3d 6007 903d 6223 b2be
000002e0: e5af 2a3d 46bc 5e3e a0eb 94bf 29b0 c53e
000002f0: a5b2 5c3f f8b7 663e cd4a dcbb a7e7 e43e
00000300: 264a 6c3d 196e 44bf 79ce 4abf 8467 ed3e
00000310: ab32 203e 1b3b 193e 36af d53c a1ca 2a3f
00000320: 4d93 45bf a246 1abd 538e 10bf 9cac 323f
00000330: 962c d6bc 32bd dc3c f596 45ba 9d73 b93e
00000340: ca1c 183f 1c37 383e cf26 323d 89da b3bc
00000350: e503 0e3e b252 833c a13e abbf 3ce1 4a3c
00000360: 6b7f c93e e79d ddbe 2712 ad3d b5de 203f
00000370: ab06 4ebd 9ef0 c33c af02 58bf 075e ed3e
00000380: 4bb4 a7be 36d8 e03c c991 60be b837 b0be
00000390: 64fc 63bc e88d 253f 8138 223d 84e2 963e
000003a0: d7ae 133f bf80 7dbf c12d 1a3e ed0c 42bf
000003b0: e0e1 be3c c3ff 423e 2479 6a3e 11bd 3d3f
000003c0: c90f d8be 7ac0 dfbe 51cb 903e 18d7 1abf
000003d0: 30fb 0d3f 2858 edbe 0521 b8bb 76f3 0abe
000003e0: abd1 95bf f78e 153e cb23 0e3f 39d2 cbbb
000003f0: 85ae 5fbb 5372 3f3c 8119 103d 94f4 e83e

module.inc.conv.conv.0.bias f4 [32]
-0.2494276 0.1387258 0.100817375 -0.013877299 -0.120714664 -0.11691732 0.13926217 -0.38931483
0.1058383 -0.12725253 -0.14981581 -0.23512837 -0.3153613 -0.03494122 0.013728643 -0.23081264
0.06329514 0.01840858 0.09772287 -0.18704404 -0.2657238 -0.06605269 0.060580604 -0.13703309
0.08772928 0.12536177 -0.17415516 0.029813949 0.018174555 -0.05763096 -0.044588286 -0.04167523
00000000: f369 7fbe 230e 0e3e 5779 ce3d 9c5d 63bc
00000010: 4039 f7bd 5972 efbd be9a 0e3e 4654 c7be
00000020: c0c1 d83d 7d4e 02be 5169 19be 7ec5 70be
00000030: 0977 a1be 861e 0fbd 1aee 603c 265a 6cbe
00000040: e2a0 813d 97cd 963c ee22 c83d 7988 3fbe
00000050: f30c 88be a246 87bd 5e23 783d 6752 0cbe
00000060: 69ab b33d d65e 003e bb55 32be 623c f43c
00000070: cee2 943c 710e 6cbd 35a2 36bd a5b3 2abd

module.inc.conv.conv.1.weight f4 [32]
1.1299573 3.1169395 1.513381 1.6338847 1.2358423 1.2274193 0.94311965 1.3951436
2.0079765 1.9446174 0.8985039 1.3085011 0.47187203 2.619411 1.3773612 1.4248097
1.1589843 1.5909021 1.1246878 1.2026334 1.5753254 1.4203757 1.0362601 2.7610776
0.9384198 1.5994215 1.5504781 1.0611972 1.3225406 1.159969 1.4943775 1.4274881
00000000: 71a2 903f f07b 4740 78b6 c13f 2223 d13f
00000010: 1530 9e3f 131c 9d3f 4a70 713f 1194 b23f
00000020: b082 0040 39e9 f83f 5a04 663f f77c a73f
00000030: 3699 f13e 6ea4 2740 5f4d b03f 2a60 b63f
00000040: 9959 943f aea2 cb3f c5f5 8f3f e4ef 993f
00000050: 43a4 c93f dfce b53f 2ca4 843f 7fb5 3040
00000060: 483c 703f d8b9 cc3f 1176 c63f 4fd5 873f
00000070: 0349 a93f dd79 943f c347 bf3f eeb7 b63f

module.inc.conv.conv.1.bias f4 [32]
0.20035462 0.14001757 0.03916231 0.024240391 -0.0031961752 -0.7670232 -0.05581303 0.20697473
0.037930302 0.07987937 0.045693453 0.5035556 -0.03719884 0.037442442 0.1492053 0.20341375
0.04818755 -0.00065410306 -0.0030166728 0.042794794 -0.41762036 0.005771368 -0.020983972 0.14757882
0.0026845322 0.12181497 0.045052987 0.041071907 0.057319947 0.07393426 0.0036244302 0.2235023
00000000: c329 4d3e c460 0f3e a968 203d c993 c63c
00000010: ec76 51bb a25b 44bf 349c 64bd 2ff1 533e
00000020: ce5c 1b3d cc97 a33d 0f29 3b3d 05e9 003f
00000030: d05d 18bd 3f5d 193d 46c9 183e b24b 503e
00000040: 4f60 453d 1d78 2bba 5fb3 45bb 9849 2f3d
00000050: 56d2 d5be be1d bd3b 94e6 abbc e71e 173e
00000060: faee 2f3b 217a f93d 7b89 383d 043b 283d
00000070: 52c8 6a3d d86a 973d d987 6d3b c9dd 643e

module.inc.conv.conv.1.running_mean f4 [32]
-1.2956785 -38.08739 -40.311916 -21.209343 -73.54557 291.47266 -246.76505 -9.667537
-33.840504 -44.827385 -8.943107 43.954395 -662.9028 -79.1586 -2.3206625 9.882422
-8.757006 -224.4963 -33.607445 -212.60371 41.3426 -35.186626 2.3034325 -26.095009
-31.41155 -9.944459 -3.8589218 -177.37701 -185.17769 -11.950016 -64.968025 14.334205
00000000: cbd8 a5bf 7d59 18c2 673f 21c2 bcac a9c1
00000010: 5517 93c2 80bc 9143 dac3 76c3 3bae 1ac1
00000020: ad5c 07c2 3e4f 33c2 f716 0fc1 4dd1 2f42
00000030: c7b9 25c4 3451 9ec2 bc85 14c0 671e 1e41
00000040: b21c 0cc1 0e7f 60c3 066e 06c2 8d9a 54c3
00000050: d35e 2542 1bbf 0cc2 706b 1340 94c2 d0c1
00000060: db4a fbc1 811c 1fc1 93f8 76c0 8460 31c3
00000070: 7d2d 39c3 4433 3fc1 a1ef 81c2 e758 6541

module.inc.conv.conv.1.running_var f4 [32]
779891.56 430552.8 1.2001644e+06 978647.8 624086.94 1.1282309e+06 922130.44 578705.9
1.5068601e+06 894135.1 302305.6 301893.25 4.2972855e+06 972799.44 542168.1 408096.5
537802.56 863322.3 450750.84 1.6938144e+06 1.7936705e+06 593122.2 141575.03 568873.94
246620.02 872814.44 636374.1 869178.9 781975.3 659326.8 1.0561142e+06 183655.92
00000000: 3967 3e49 1a3b d248 2381 9249 7ded 6e49
00000010: 6f5d 1849 37b9 8949 2721 6149 1e49 0d49
00000020: 61f1 b749 724b 5a49 339c 9348 a868 9348
00000030: 8b24 834a f77f 6d49 825d 0449 1044 c748
00000040: a94c 0349 a5c5 5249 db17 dc48 b3c3 ce49
00000050: 34f4 da49 23ce 1049 c241 0a48 9fe2 0a49
00000060: 01d7 7048 e716 5549 625d 1b49 ae33 5449
00000070: 75e9 3e49 edf7 2049 92eb 8049 fb59 3348

module.inc.conv.conv.3.weight f4 [32, 32, 3, 3]
-0.627555 0.33597285 0.206455 -0.1717513 0.033462126 -0.20367597 0.13191542 -0.2979058
-0.17862178 -0.23899813 0.21476038 0.21888722 -0.36288357 -0.15808812 0.20020081 -0.002247829
0.035681132 0.10118544 -0.48170006 -1.6703703 -1.3437288 0.15710643 -1.0640299 -0.65819764
-0.31751862 -1.1209664 -1.2328331 -0.83443445 0.45775694 0.22137213 -0.95197296 0.16856518
0.23648353 -0.26929125 0.2061158 0.103155755 -0.19584581 -0.88266665 -0.14626452 0.09355688
-0.53274435 -0.18843155 -0.34594622 -0.6436457 -0.34930685 -1.1320959 0.39354432 -0.16398415
-1.473831 -0.37318894 -0.009884611 -1.0972235 -0.038271107 0.49449542 0.024873435 0.06359047
0.017210783 -0.053701133 -0.12170304 0.18769848 0.28760457 0.18870257 0.37613067 -0.17971772
-0.20808712 0.13170707 -0.07517818 -0.05915802 0.20812017 -0.21139672 -0.13505842 0.05084584
-0.27134386 -0.9063751 0.09625104 -0.38822567 -0.91612726 0.033830985 -0.21122341 -0.35970694
0.19232002 -0.38778824 0.32679832 0.19761753 -0.40429997 -0.10996497 0.045262307 0.050128512
0.14779092 0.08989229 -0.19530669 0.2535789 -0.20073572 -0.45258576 -0.027174324 -0.4213211
-0.18834817 0.23182593 0.04852781 0.24194479 -0.1409058 0.08158938 -0.16440836 -0.0067253597
0.023088377 -0.16432251 0.03517067 0.14023955 0.19646479 -0.047491014 -0.10168755 0.074846715
-0.31069764 -0.47472063 0.14613286 -0.3475877 -0.49170944 0.39068177 -0.25860694 -0.25653252
0.0144511415 -0.87606806 -0.84381264 0.029769111 -0.63448393 -0.32874677 -0.23059154 0.15748473
0.15021524 -0.18053412 -0.10098014 -0.15243438 -0.11156898 0.1758806 -0.14860557 -0.93344855
-0.21401799 0.23898391 -0.119062506 0.4405662 0.48146665 -0.2845879 -0.22404197 -0.18014054
0.04822627 -0.6380627 -0.14888915 0.13766389 -0.99779254 -0.52226657 0.109275155 -0.20367134
-0.38805273 -0.16635728 0.2690773 0.40123862 -0.2948264 -0.08359207 -0.14170338 -0.12873267
0.014380571 -0.030472815 -0.5724341 0.23006034 0.272942 -0.0038597859 -0.027238145 0.077848256
-0.3095219 0.3996626 -0.11644528 -0.23976913 0.31520304 0.06935593 -0.14285558 0.4042677
0.16279618 -0.18764646 -0.17228392 -0.17608559 -0.4124717 -0.18842503 -0.9158483 -1.1896824
-0.32963994 -1.1782763 -0.47450468 -0.047642 -0.3991144 0.07165579 0.09820405 -0.33738932
-0.084425755 -0.10238057 -0.325074 -0.36562395 -0.03275925 -0.31887853 -0.721998 -0.039482605
0.4842899 -1.0050809 0.44581968 0.43638563 -0.12325724 0.41802213 0.33099037 -0.2640409
-0.46537706 0.059179183 0.21456796 0.15731509 0.10737638 -0.0715521 -0.27855906 -0.59688437
0.10754423 -0.322624 -0.49937475 0.077233456 0.34528258 -0.47637317 0.20645733 -0.010762213
-0.7666242 0.24613704 -0.7098994 -0.070530415 0.16305478 -0.75264066 -0.27335027 0.3086888
-0.35746673 -0.30851784 -0.48140866 0.44019127 0.00519831 -0.37540835 0.35057014 0.23653519
0.034959543 0.43617746 0.15703827 0.30381405 -0.25148162 0.22168097 0.17195407 -0.5281063
-0.18408509 0.36472955 -0.47295132 -0.08589484 0.125445 0.1324924 -0.24227548 -0.22200719
00000000: 72a7 20bf a204 ac3e f168 533e 93df 2fbe
00000010: 950f 093d 6f90 50be d614 073e 1c87 98be
00000020: a1e8 36be edbb 74be 25ea 5b3e f923 603e
00000030: e0cb b9be dae1 21be 7101 4d3e 5050 13bb
00000040: 6126 123d 503a cf3d 64a1 f6be b2ce d5bf
00000050: 4eff abbf 82e0 203e 2232 88bf a47f 28bf
00000060: cd91 a2be d47b 8fbf 7acd 9dbf 7f9d 55bf
00000070: 1e5f ea3e 60af 623e 80b4 73bf 5a9c 2c3e
00000080: bd28 723e 8be0 89be 0510 533e 5343 d33d
00000090: ce8b 48be 71f6 61bf 5ec6 15be c09a bf3d
000000a0: ef61 08bf 33f4 40be dd1f b1be f7c5 24bf
000000b0: 59d8 b2be 85e8 90bf a47e c93e 76eb 27be
000000c0: 7fa6 bcbf 9f12 bfbe 10f3 21bc d271 8cbf
000000d0: 2ac2 1cbd 812e fd3e 60c3 cb3c b83b 823d
000000e0: a1fd 8c3c b8f5 5bbd 723f f9bd 0834 403e
000000f0: e840 933e 3f3b 413e 3394 c03e ec07 38be
00000100: ca14 55be 38de 063e 05f7 99bd ae4f 72bd
00000110: 741d 553e 6278 58be c14c 0abe ba43 503d
00000120: 95ed 8abe 3308 68bf 441f c53d 84c5 c6be
00000130: 5187 6abf 5c92 0a3d f34a 58be 822b b8be
00000140: 8aef 443e 2e8c c6be 1c52 a73e 405c 4a3e
00000150: 6800 cfbe 5035 e1bd f864 393d 8e53 4d3d
00000160: 8156 173e 7319 b83d 7afe 47be 18d5 813e
00000170: aa8d 4dbe 52b9 e7be b09c debc 66b7 d7be
00000180: 58de 40be c763 6d3e 19c5 463d 60c0 773e
00000190: 9c49 10be 5518 a73d aa5a 28be 6860 dcbb
000001a0: d623 bd3c 2944 28be 1f0f 103d f59a 0f3e
000001b0: 112e 493e f085 42bd 9041 d0bd 3c49 993d
000001c0: c313 9fbe 950e f3be daa3 153e 04f7 b1be
000001d0: 57c1 fbbe 7107 c83e 2168 84be 3b58 83be
000001e0: 7bc4 6c3c ff45 60bf 1b04 58bf 5ade f33c
000001f0: 8a6d 22bf 7f51 a8be 3020 6cbe ad43 213e
00000200: 06d2 193e f0dd 38be adce cebd c217 1cbe
00000210: 477e e4bd 0b1a 343e 0f2c 18be 7cf6 6ebf
00000220: 8827 5bbe 33b8 743e 0bd7 f3bd e591 e13e
00000230: cc82 f63e 81b5 91be 426b 65be c376 38be
00000240: e988 453d 1458 23bf 6676 18be c3f7 0c3e
00000250: 556f 7fbf 43b3 05bf a7cb df3d 388f 50be
00000260: d9ae c6be 9059 2abe 80c4 893e 266f cd3e
00000270: 7cf3 96be 5232 abbd b11a 11be 7fd2 03be
00000280: 7d9c 6b3c 20a2 f9bc 0b8b 12bf f094 6b3e
00000290: 0ebf 8b3e 76f4 7cbb 8822 dfbc e86e 9f3d
000002a0: a879 9ebe 94a0 cc3e dd7a eebd 0a86 75be
000002b0: 4b62 a13e 7b0a 8e3d bc48 12be 2dfc ce3e
000002c0: 0bb4 263e 6526 40be 326b 30be c84f 34be
000002d0: 7e2f d3be 7ef2 40be 0975 6abf 8347 98bf
000002e0: 91c6 a8be c2d1 96bf 47f2 f2be 4224 43bd
000002f0: b958 ccbe 45c0 923d 341f c93d 4bbe acbe
00000300: 69e7 acbd e7ac d1bd 1970 a6be 1033 bbbe
00000310: 902e 06bd 0c44 a3be dcd4 38bf 83b8 21bd
00000320: d9f4 f73e 7ea6 80bf 7a42 e43e f06d df3e
00000330: 4b6e fcbd ff06 d63e 9277 a93e 5e30 87be
00000340: e745 eebe df65 723d b4b7 5b3e 3517 213e
00000350: 26e8 db3d e889 92bd 4b9f 8ebe 6acd 18bf
00000360: 2640 dc3d f92e a5be 0cae ffbe 932c 9e3d
00000370: e1c8 b03e 2fe7 f3be 8d69 533e fe53 30bc
00000380: 7c41 44bf 590b 7c3e f8bb 35bf 4072 90bd
00000390: d5f7 263e 0fad 40bf 91f4 8bbe 750c 9e3e
000003a0: e105 b7be 0df6 9dbe 327b f6be c060 e13e
000003b0: 9656 aa3b 8635 c0be ee7d b33e 4836 723e
000003c0: bd31 0f3d a752 df3e a4ce 203e 848d 9b3e
000003d0: 33c2 80be 5600 633e ba14 303e f931 07bf
000003e0: cd80 3cbe d5bd ba3e ad26 f2be a2e9 afbd
000003f0: a774 003e 16ac 073e 1017 78be da55 63be

module.inc.conv.conv.3.bias f4 [32]
-0.058426585 -0.19643643 -0.031839218 -0.15634191 -0.06463169 0.065334655 -0.020204948 0.04268127
0.0046383324 -0.03082154 0.025917288 -0.3861684 -0.04383743 -0.006523994 -0.080687515 0.050520167
0.040989198 -0.17499962 -0.0053314115 -0.03012533 0.004327217 -0.0012566358 0.003959677 -0.066063546
0.02067641 -0.13874161 -0.013696277 -0.040499996 -0.050716452 0.04854596 0.0024558506 -0.085583135
00000000: b750 6fbd a226 49be d769 02bd 1818 20be
00000010: 9f5d 84bd 2dce 853d d984 a5bc 8ed2 2e3d
00000020: 27fd 973b 747d fcbc 7e50 d43c ddb7 c5be
00000030: e18e 33bd 3ac7 d5bb 7f3f a5bd 3cee 4e3d
00000040: 4ae4 273d 1a33 33be 1fb3 aebb 65c9 f6bc
00000050: 54cb 8d3b b3b5 a4ba 2ec0 813b 534c 87bd
00000060: 9361 a93c 4812 0ebe 5966 60bc 53e3 25bd
00000070: 0ebc 4fbd 21d8 463d 56f2 203b 3646 afbd

module.inc.conv.conv.4.weight f4 [32]
2.0755196 1.9617342 1.6564301 1.4423794 1.7373039 2.3113644 1.4681414 2.5067222
2.4071999 1.4563903 0.6954087 0.5342572 1.3911749 1.9907682 2.1567633 2.5742383
1.6473434 0.58853894 1.5797622 2.702256 2.930083 2.259523 1.7691603 2.3182063
1.5105437 1.8774765 1.7848896 1.4919423 0.878588 2.7180429 2.8837924 1.0849828
00000000: 50d5 0440 1b1a fb3f e705 d43f e39f b83f
00000010: f95f de3f 65ed 1340 0fec bb3f 236e 2040
00000020: 900f 1a40 ff6a ba3f 4e06 323f 14c5 083f
00000030: 0512 b23f 7ed1 fe3f 6908 0a40 52c0 2440
00000040: 26dc d23f 7daa 163f a635 ca3f c3f1 2c40
00000050: 7b86 3b40 069c 1040 d873 e23f 7e5d 1440
00000060: 7f59 c13f 2651 f03f 4377 e43f f7f7 be3f
00000070: 25eb 603f 6af4 2d40 0e90 3840 b7e0 8a3f

module.inc.conv.conv.4.bias f4 [32]
-0.054035142 -0.13424921 0.03460137 -0.23650782 -0.013229256 0.07705147 -0.01974252 -0.038649917
-0.04786532 -0.042944852 0.026044456 -1.4333457 0.003989382 -0.06641032 -0.050970294 0.0075289668
0.2128768 -0.6067836 0.06318316 -0.048582766 0.019879848 -0.023201577 0.029016437 -0.15619257
0.0071198815 -0.14144506 -0.06382234 0.06977316 -0.07830728 0.35452652 0.08919481 -0.027519552
00000000: f453 5dbd a078 09be 2bba 0d3d 1b2f 72be
00000010: 85bf 58bc 29cd 9d3d 11bb a1bc 604f 1ebd
00000020: 6d0e 44bd f1e6 2fbd 2f5b d53c df77 b7bf
00000030: 5db9 823b 2202 88bd 3ac6 50bd 8db5 f63b
00000040: 60fc 593e 2c56 1bbf 2c66 813d b9fe 46bd
00000050: 10db a23c 3c11 bebc e1b3 ed3c f2f0 1fbe
00000060: e54d e93b f9d6 10be 49b5 82bd 3be5 8e3d
00000070: 915f a0bd 8084 b53e c5ab b63d af70 e1bc

module.inc.conv.conv.4.running_mean f4 [32]
-4.876086 -2.9144113 -2.131088 -0.88661796 -2.382071 -1.8402278 -7.9815097 -2.548767
-3.249155 -1.1306778 0.44413912 4.3577423 -2.2356958 -1.9745432 -2.1619098 -3.219711
-4.3266563 0.7370184 -2.1903207 -0.8043575 -1.4746777 -2.8181696 -3.74015 -2.7203999
-2.187134 -1.812279 -0.851744 -2.3540382 -0.78983516 -1.393424 -1.9234653 -0.8468403
00000000: e608 9cc0 b785 3ac0 bf63 08c0 65f9 62bf
00000010: da73 18c0 968c ebbf 8768 ffc0 001f 23c0
00000020: 28f2 4fc0 0dba 90bf 3466 e33e a072 8b40
00000030: a415 0fc0 d5bd fcbf bb5c 0ac0 bf0f 4ec0
00000040: f873 8ac0 3dad 3c3f 372e 0cc0 60ea 4dbf
00000050: 3dc2 bcbf e45c 34c0 9e5e 6fc0 081b 2ec0
00000060: 01fa 0bc0 c2f8 e7bf e50b 5abf 90a8 16c0
00000070: a332 4abf b85b b2bf 1c34 f6bf 87ca 58bf

module.inc.conv.conv.4.running_var f4 [32]
142.93552 63.747547 42.133728 16.394573 34.686577 92.82333 181.45216 68.378265
91.9694 46.219776 20.080112 31.461227 27.484606 38.927826 66.643074 113.02407
119.07428 13.512655 34.711716 47.823566 52.90579 65.71354 100.08917 81.055786
33.60713 33.7082 31.910137 33.030743 30.26348 68.65134 74.14284 29.251467
00000000: 7eef 0e43 7dfd 7e42 f088 2842 1628 8341
00000010: 0ebf 0a42 8ca5 b942 c173 3543 acc1 8842
00000020: 55f0 b742 0de1 3842 12a4 a041 98b0 fb41
00000030: 79e0 db41 18b6 1b42 4149 8542 530c e242
00000040: 0826 ee42 d633 5841 ccd8 0a42 554b 3f42
00000050: 879f 5342 556d 8342 a82d c842 901c a242
00000060: b36d 0642 32d5 0642 f647 ff41 7b1f 0442
00000070: 9b1b f241 7c4d 8942 2249 9442 0103 ea41

module.down1.mpconv.1.conv.0.weight f4 [64, 32, 3, 3]
0.34198236 0.50723577 0.5745574 -0.036281195 0.057238832 0.14189 0.046270035 0.3960843
0.26505697 -0.08213611 -0.39091805 -0.3850535 -0.19493693 -0.24148336 0.036143433 -0.13192296
-0.03373 -0.015788427 -0.6474568 -0.068828754 -0.020452516 -0.3524545 -0.13570662 0.07642891
0.03055997 0.13784714 0.030495582 0.14824782 0.3039707 0.080025144 -0.4096221 -0.36656475
0.24598204 -0.38830775 -0.30488983 0.27648652 0.11533471 -0.060798973 -0.54233545 -0.01070278
0.0025856115 -0.079544 0.28562078 -0.03635728 -0.27820244 -0.7019127 -0.097086504 0.048094302
-0.30907357 0.0877963 -0.29410312 -0.1408675 -0.01101411 -0.025050823 0.35640547 0.4980193
0.27270937 0.18421078 0.205173 -0.008276212 0.34338453 0.29088786 0.06977417 -0.35331914
0.17105933 0.40932325 -0.1376513 0.08623548 0.08774198 -0.14047211 0.20418897 0.0809543
-0.26004514 -0.6013427 -0.09763114 -0.17325947 -0.30237773 -0.3707328 0.106524035 0.46140972
-0.30003634 -0.9219877 -0.5346454 -0.52155733 -0.23394383 0.07982269 -1.052485 -0.0986728
0.089536116 -0.42114854 0.17954732 0.43930927 0.42283604 -0.07994616 0.1272168 0.30805048
0.025851633 0.21881342 0.223285 0.32810152 0.6112297 0.61635154 0.5237564 0.60797876
0.38797474 0.672957 0.35967395 0.19145885 -0.67405075 -0.6028209 0.10018579 -0.19128643
-0.6018967 -0.23168883 -0.21534535 0.06858907 0.40619552 -0.68265426 -0.6877703 0.36777273
-0.23614694 0.018837761 0.06411385 -0.79347163 -0.3038933 -0.048678733 -0.3100318 0.41018918
0.087568924 0.0814085 0.42471603 -0.34125823 0.14219414 0.5984986 -0.24650982 -0.027984343
-0.27996922 -0.26775774 -0.12030007 0.5233497 0.6876943 0.60121644 0.51564956 0.7837003
0.2743734 0.5491851 0.56200373 -0.3386062 0.37483537 0.7296491 -0.25380367 0.20158787
0.60990846 0.28513652 -0.04527092 0.4129257 0.36666092 0.109106 1.0443319 0.30071178
0.12633042 -0.22797208 -0.7319509 -0.49762455 0.06041319 0.2350808 0.23539503 0.019767096
-0.2738011 -0.09396398 -0.00394306 -0.4037984 -0.057061907 -0.8481482 0.18545285 0.4924925
-0.6826924 0.10752145 0.24147004 -0.25134018 0.003991866 -0.7639974 -0.20452312 -0.12925957
-0.29614505 -0.26831937 0.21383774 -0.015076214 0.15811835 0.21435635 -0.46874765 -0.71186787
0.008891115 0.79595053 0.13763931 -0.14630318 -0.06331327 -0.08019895 -0.5515459 -0.4500595
-0.47510645 -0.063047 0.26570874 -0.15267786 0.19486053 0.5481786 0.009756839 -0.21755017
0.19352657 -0.39426148 0.17318691 0.1397382 -0.13404226 0.12545587 0.22679554 -0.20020442
0.16726306 0.08931812 0.18174472 0.090937726 0.101955585 0.0884397 0.024903543 0.09371684
0.08252116 -0.41657764 0.042042807 -0.23191911 -0.34166536 -0.3826603 -0.39606005 -0.28657633
-0.062641546 -0.14346975 -0.54296464 -0.05509061 -0.5051356 0.0038329314 0.22450624 -0.57606417
-0.40032694 -0.2750075 -0.62214124 -0.31026658 0.15650618 0.18024817 -0.7044547 -0.18699586
-0.15335661 -0.74809694 0.01230425 -0.2772059 -1.3178499 -0.527249 -0.507878 0.26018846
00000000: 5018 af3e 34da 013f 3216 133f 979b 14bd
00000010: 4473 6a3d 9d4b 113e a685 3d3d 90cb ca3e
00000020: 8cb5 873e fa36 a8bd 6926 c8be bb25 c5be
00000030: 8c9d 47be 6a47 77be 230b 143d d016 07be
00000040: 7828 0abd bb56 81bc bbbf 25bf 17f6 8cbd
00000050: 098c a7bc eb74 b4be adf6 0abe c386 9c3d
00000060: e758 fa3c cd27 0d3e dfd1 f93c 47ce 173e
00000070: 0ca2 9b3e 39e4 a33d fdb9 d1be 60ae bbbe
00000080: b7e2 7b3e 46d0 c6be 851a 9cbe a48f 8d3e
00000090: 9b34 ec3d 5808 79bd 7fd6 0abf b75a 2fbc
000000a0: 5d73 293b f7e7 a2bd e33c 923e 5feb 14bd
000000b0: 8d70 8ebe 8db0 33bf 4ad5 c6bd 88fe 443d
000000c0: e43e 9ebe 8cce b33d af94 96be 923f 10be
000000d0: 8774 34bc 6237 cdbc c77a b63e 63fc fe3e
000000e0: 90a0 8b3e c0a1 3c3e df18 523e f398 07bc
000000f0: 19d0 af3e 41ef 943e c3e5 8e3d 3fe6 b4be
00000100: 2d2a 2f3e d192 d13e 76f4 0cbe 3a9c b03d
00000110: 11b2 b33d ecd7 0fbe ea16 513e 5ecb a53d
00000120: a324 85be 98f1 19bf d6f2 c7bd ee6a 31be
00000130: 41d1 9abe b1d0 bdbe 4629 da3d e53d ec3e
00000140: 5d9e 99be 6307 6cbf 85de 08bf c884 05bf
00000150: f98e 6fbe 147a a33d d4b7 86bf f714 cabd
00000160: b65e b73d c8a0 d7be 41db 373e 25ed e03e
00000170: f77d d83e d0ba a3bd 1f45 023e cbb8 9d3e
00000180: cec6 d33c a010 603e d3a4 643e ecfc a73e
00000190: 8d79 1c3f 37c9 1d3f e614 063f 7fa4 1b3f
000001a0: a0a4 c63e e946 2c3f 2f27 b83e ca0d 443e
000001b0: 978e 2cbf 7852 1abf 352e cd3d 97e0 43be
000001c0: e715 1abf d63f 6dbe 7e83 5cbe 6d78 8c3d
000001d0: dcf8 cf3e 6ec2 2ebf b711 30bf b54c bc3e
000001e0: 81d0 71be a651 9a3c 1f4e 833d f520 4bbf
000001f0: e797 9bbe 5a63 47bd 7dbc 9ebe 5104 d23e
00000200: 5657 b33d 80b9 a63d 6174 d93e 66b9 aebe
00000210: 579b 113e 3437 193f 126d 7cbe 6c3f e5bc
00000220: 2058 8fbe 8b17 89be e25f f6bd 3ffa 053f
00000230: bc0c 303f 52e9 193f 9c01 043f 95a0 483f
00000240: ac7a 8c3e 6597 0c3f 7adf 0f3f cb5d adbe
00000250: 6cea bf3e 49ca 3a3f 8ef2 81be 0d6d 4e3e
00000260: f622 1c3f 6afd 913e 006e 39bd ff6a d33e
00000270: fbba bb3e f772 df3d abac 853f e5f6 993e
00000280: c35c 013e 8371 69be 2261 3bbf a5c8 febe
00000290: d273 773d 05b9 703e 650b 713e 9bee a13c
000002a0: a82f 8cbe 3070 c0bd c934 81bb aabe cebe
000002b0: bfb9 69bd 3e20 59bf 5ae7 3d3e fa27 fc3e
000002c0: eec4 2ebf 3534 dc3d ec43 773e a9af 80be
000002d0: 33ce 823b 5595 43bf 826e 51be 9f5c 04be
000002e0: 53a0 97be 2861 89be 48f8 5a3e 3a02 77bc
000002f0: c7e9 213e 3b80 5b3e b1ff efbe f93c 36bf
00000300: 0aac 113c 6ac3 4b3f 52f1 0c3e 80d0 15be
00000310: 63aa 81bd 593f a4bd 1d32 0dbf 336e e6be
00000320: 2741 f3be c91e 81bd fa0a 883e 9657 1cbe
00000330: 8589 473e 6f55 0c3f 26db 1f3c 79c5 5ebe
00000340: d42b 463e a4dc c9be e957 313e 8817 0f3e
00000350: 6042 09be 8177 003e 173d 683e 6302 4dbe
00000360: 0247 2b3e 6bec b63d 4a1b 3a3e 8f3d ba3d
00000370: 17ce d03d e01f b53d 8402 cc3c 9dee bf3d
00000380: db00 a93d aa49 d5be 1435 2c3d 347c 6dbe
00000390: c3ee aebe 0dec c3be 62c8 cabe 22ba 92be
000003a0: 364a 80bd bce9 12be bbff 0abf b1a6 61bd
000003b0: 9150 01bf eb31 7b3b f7e4 653e f178 13bf
000003c0: a7f7 ccbe c8cd 8cbe a644 1fbf 43db 9ebe
000003d0: 2843 203e fa92 383e 2557 34bf d87b 3fbe
000003e0: 8409 1dbe 4883 3fbf c497 493c efed 8dbe
000003f0: 4eaf a8bf caf9 06bf 4b04 02bf 6c37 853e

module.down1.mpconv.1.conv.0.bias f4 [64]
0.095287375 -0.08363566 0.0372819 -0.028148588 -0.28464535 -0.16382952 -0.042070843 -0.010946984
0.034318298 -0.58179635 -0.22216465 0.004494271 -0.14111717 -0.06946632 -0.0065856106 -0.051340897
-0.012970023 -0.20273733 -0.087487236 -0.10436323 0.16728021 -0.12284167 -0.07368639 0.098753564
-0.01960185 -0.19149117 -0.032576196 -0.09395509 0.022825914 -0.042767357 -0.01641311 -0.04752572
-0.023947585 0.06449604 -0.006369692 -0.030968094 -0.06588737 0.025143066 0.13187481 -0.06676447
-0.16772392 0.036250845 -0.03360088 -0.068945765 0.032320667 -0.05281443 0.105809875 -0.09986332
0.13123326 0.057682514 -0.10124995 0.072646506 -0.038538296 0.0477596 -0.0076824776 -0.15116979
-0.047832377 -0.034735557 -0.020096416 0.046321083 0.038076665 -0.016913526 0.04245827 0.020472063
00000000: 0726 c33d 2c49 abbd e8b4 183d de97 e6bc
00000010: 09bd 91be edc2 27be 7a52 2cbd fb5a 33bc
00000020: 5891 0c3d 9bf0 14bf 217f 63be ad44 933b
00000030: 0581 10be 5c44 8ebd 1bcc d7bb d54a 52bd
00000040: 3880 54bc 609a 4fbe 822c b3bd 64bc d5bd
00000050: 814b 2b3e 6a94 fbbd e4e8 96bd 4f3f ca3d
00000060: 0f94 a0bc 4316 44be 9e6e 05bd 876b c0bd
00000070: 69fd ba3c d32c 2fbd c974 86bc 54aa 42bd
00000080: ba2d c4bc 8016 843d d9b8 d0bb cdb0 fdbc
00000090: f5ef 86bd d5f8 cd3c 310a 073e cfbb 88bd
000000a0: d2bf 2bbe c47b 143d 14a1 09bd 7033 8dbd
000000b0: ad62 043d f253 58bd d9b2 d83d 2485 ccbd
000000c0: 0362 063e 8044 6c3d 225c cfbd b1c7 943d
000000d0: 55da 1dbd 929f 433d 4bbd fbbb 41cc 1abe
000000e0: e2eb 43bd df46 0ebd 3da1 a4bc 2dbb 3d3d
000000f0: 47f6 1b3d 3c8e 8abc b9e8 2d3d 07b5 a73c

module.down1.mpconv.1.conv.1.weight f4 [64]
1.2794615 1.5056604 1.1503614 1.3718854 0.59568423 0.3912835 1.2244695 1.1556653
0.9226675 0.5114858 0.54320854 1.3325484 0.9400868 0.71746624 1.4504222 1.759111
1.1357594 0.60457546 1.2418715 1.1476554 1.5578461 1.1735817 0.61887217 1.4162977
0.80325615 0.616892 0.9735493 1.3786793 1.0320337 1.0075377 0.79916775 1.2089356
1.4307387 1.2971582 1.0970491 1.5462571 0.95551413 0.8634457 1.4982699 1.32572
0.64167446 1.2085776 1.560082 1.1142775 1.6575371 0.95478636 0.8598418 0.9191276
1.0541108 0.9868433 1.0757537 1.5751305 0.8562721 1.3137854 1.3489813 0.5018326
1.4540358 0.852092 1.1508924 1.3162773 1.3745227 0.6465269 1.3339573 1.0909474
00000000: 65c5 a33f 7bb9 c03f 0b3f 933f f199 af3f
00000010: c37e 183f 5056 c83e 6bbb 9c3f d7ec 933f
00000020: f033 6c3f bcf0 023f b70f 0b3f f290 aa3f
00000030: 87a9 703f deab 373f 6fa7 b93f 8d2a e13f
00000040: 9060 913f 75c5 1a3f a5f5 9e3f 5fe6 923f
00000050: 8067 c73f ed37 963f 686e 1e3f 3e49 b53f
00000060: 32a2 4d3f a2ec 1d3f 873a 793f 9078 b03f
00000070: ae19 843f fff6 803f 4296 4c3f 67be 9a3f
00000080: 7222 b73f 4809 a63f 1b6c 8c3f c1eb c53f
00000090: 939c 743f c70a 5d3f 4fc7 bf3f 31b1 a93f
000000a0: c744 243f acb2 9a3f c4b0 c73f a5a0 8e3f
000000b0: 2d2a d43f e16c 743f 981e 5c3f f24b 6b3f
000000c0: 1aed 863f c3a1 7c3f 4cb2 893f e09d c93f
000000d0: a634 5b3f 1f2a a83f 6bab ac3f 1a78 003f
000000e0: d81d ba3f b422 5a3f 7150 933f c67b a83f
000000f0: 5cf0 af3f c982 253f 1dbf aa3f 2aa4 8b3f

module.down1.mpconv.1.conv.1.bias f4 [64]
-0.5112119 -0.29042846 0.13660191 -0.06535542 -0.41160548 -0.19308369 0.03602527 -0.0834302
-0.043366656 -2.210693 -0.43398505 0.11314806 -0.33780894 -0.09763988 0.088011116 -0.10228145
-0.5004616 -0.3648179 0.008749708 -0.16063735 -0.117600925 -0.07152634 0.030432003 -0.02943335
-0.25709143 -0.18761672 -0.5233411 -0.020126801 0.012918515 -0.011912161 -0.10955951 0.0019548887
0.028359767 0.12915596 -0.21743706 -0.19554563 0.017403433 -0.82660896 -0.6838977 -0.088223495
-0.46243894 -0.13885817 -0.047649816 -0.013768473 -0.0071039856 -0.08076053 -0.04096647 0.030748444
-0.29451257 -0.156685 -0.5235548 -0.1469078 -0.25711122 -0.8456297 -0.117412396 -0.3105737
-0.11933954 0.2372463 -0.4970908 -0.07450884 -0.08239302 -0.026092608 0.00085233175 -0.067359194
00000000: c8de 02bf 0ab3 94be 5fe1 0b3e 10d9 85bd
00000010: f4bd d2be bbb7 45be 3c8f 133d 74dd aabd
00000020: 3ca1 31bd fe7b 0dc0 4a33 debe 2cba e73d
00000030: 4bf5 acbe 6bf7 c7bd 2c3f b43d f078 d1bd
00000040: 401e 00bf 69c9 babe ef5a 0f3c 1e7e 24be
00000050: c1d8 f0bd 677c 92bd 894c f93c 351e f1bc
00000060: 7da1 83be 991e 40be aff9 05bf f6e0 a4bc
00000070: 2ea8 533c 392b 43bc bd60 e0bd 971d 003b
00000080: be52 e83c 7641 043e d2a7 5ebe 1d3d 48be
00000090: a591 8e3c a59c 53bf eb13 2fbf 85ae b4bd
000000a0: ccc4 ecbe d630 0ebe 742c 43bd 2995 61bc
000000b0: 8dc8 e8bb c765 a5bd 75cc 27bd 29e4 fb3c
000000c0: 5aca 96be 0872 20be b007 06bf 006f 16be
000000d0: 15a4 83be 307b 58bf e975 f0bd 8403 9fbe
000000e0: 4a68 f4bd b2f0 723e af82 febe 1798 98bd
000000f0: acbd a8bd 2ac0 d5bc 046f 5f3a 9ef3 89bd

module.down1.mpconv.1.conv.1.running_mean f4 [64]
-6.941117 -3.39401 -1.2303014 -1.6690391 2.0105023 0.67425877 -0.36618847 -6.5211654
-1.6890523 1.2963802 0.8961059 -0.7699772 0.49089655 -1.3735607 -1.9372112 -6.9251003
-2.224983 1.8477608 -4.411512 -3.012686 -6.927328 -2.3617127 0.5855008 -4.5912766
-7.620588 -0.906234 -0.46462703 -5.12221 -3.029581 -5.955098 -1.4486352 -1.6738857
-0.24798362 -2.4774563 -1.5260398 -5.326105 -1.7050956 -5.740377 -6.760285 -1.2932104
1.064281 -3.52609 -5.868915 -3.074683 -2.805933 -0.34458295 -0.008155691 -2.0969062
-1.1498109 0.2790587 -2.7702253 -5.5248055 -1.5717188 -6.092778 -4.807372 1.7985528
-2.9345715 -0.62955 -0.5143834 -7.8593793 -7.4753184 -1.5385559 -3.3869395 -4.8291564
00000000: a11d dec0 7637 59c0 847a 9dbf 13a3 d5bf
00000010: 12ac 0040 399c 2c3f 0e7d bbbe 63ad d0c0
00000020: de32 d8bf c9ef a53f 3267 653f 3a1d 45bf
00000030: cb56 fb3e d6d0 afbf 89f6 f7bf 6c9a ddc0
00000040: 1f66 0ec0 6d83 ec3f 1b2b 8dc0 d9cf 40c0
00000050: acac ddc0 4d26 17c0 61e3 153f bdeb 92c0
00000060: dbdb f3c0 f4fe 67bf 98e3 edbe 25e9 a3c0
00000070: a8e4 41c0 2a90 bec0 e16c b9bf e341 d6bf
00000080: 6bef 7dbe a58e 1ec0 4655 c3bf 746f aac0
00000090: 9340 dabf 2bb1 b7c0 4154 d8c0 eb87 a5bf
000000a0: 5c3a 883f 75ab 61c0 27ce bbc0 9bc7 44c0
000000b0: 6894 33c0 2d6d b0be 739f 05bc b633 06c0
000000c0: 012d 93bf c8e0 8e3e 5f4b 31c0 35cb b0c0
000000d0: 152e c9bf 0af8 c2c0 fed5 99c0 fa36 e63f
000000e0: 05d0 3bc0 302a 21bf a1ae 03bf 0980 fbc0
000000f0: cf35 efc0 66ef c4bf 9ec3 58c0 7388 9ac0

module.down1.mpconv.1.conv.1.running_var f4 [64]
32.372887 59.877453 16.935406 25.289944 16.851824 15.268912 24.965149 40.474033
12.882345 23.257605 18.099293 21.395842 27.539135 22.757942 20.291933 70.64746
23.17851 17.028025 32.302204 26.05432 58.56582 32.14482 9.516234 31.231411
27.813236 19.085455 13.580331 37.054375 21.994421 25.381433 16.592794 16.769575
21.853992 22.762733 30.090515 30.321838 22.677841 20.586098 55.476772 36.314053
14.574349 69.63939 47.51302 20.15293 20.097025 11.663022 21.290464 27.838842
18.208609 23.332338 22.13914 23.110056 19.788334 94.64074 30.158304 14.848097
44.561134 21.695185 30.85051 30.000957 27.594103 13.902917 25.803291 38.0595
00000000: d67d 0142 8382 6f42 b67b 8741 ce51 ca41
00000010: 89d0 8641 774d 7441 a0b8 c741 69e5 2142
00000020: 161e 4e41 930f ba41 5acb 9041 af2a ab41
00000030: 2650 dc41 4410 b641 e155 a241 804b 8d42
00000040: 976d b941 6539 8841 7535 0142 3f6f d041
00000050: 6643 6a42 4c94 0042 7f42 1841 eed9 f941
00000060: 8281 de41 03af 9841 0949 5941 ae37 1442
00000070: 93f4 af41 2d0d cb41 0bbe 8441 1728 8641
00000080: fad4 ae41 141a b641 60b9 f041 2093 f241
00000090: 386c b541 54b0 a441 37e8 5d42 9741 1142
000000a0: 8930 6941 5e47 8b42 550d 3e42 3339 a141
000000b0: b5c6 a041 bd9b 3a41 df52 aa41 f3b5 de41
000000c0: 3bab 9141 a1a8 ba41 f51c b141 65e1 b841
000000d0: 824e 9e41 0f48 bd42 3544 f141 ce91 6d41
000000e0: 9a3e 3242 bd8f ad41 d8cd f641 f601 f041
000000f0: b9c0 dc41 5972 5e41 246d ce41 ee3c 1842

module.down1.mpconv.1.conv.3.weight f4 [64, 64, 3, 3]
-0.6388307 -1.3138503 -0.81026894 -0.99125767 -0.11529045 0.30278927 -0.22013895 -0.26007378
-0.061251566 -0.4278889 -0.24180758 -0.34535614 -0.03147783 0.14361402 0.22281428 -0.13179092
0.96063626 0.46168345 -0.39212367 -0.24650417 -0.1366113 0.124492645 -0.0067759813 0.15809685
-0.23527935 0.16041192 0.15651974 -1.15695 -0.7907353 -0.5101223 0.08336749 0.17884244
-0.020254187 -0.06082303 0.04093631 -0.051598243 0.0016040024 0.5724039 0.45607358 -0.31954327
-0.7843216 0.23760754 0.064871736 0.047649 0.38571736 0.76623845 0.73056877 0.38985476
0.45080826 -0.41592738 -0.22614136 0.8569435 -0.4966713 -0.52712226 -0.11116556 -0.089449994
0.085224174 -0.7099838 -0.11088132 -0.19461088 0.24388562 0.30118307 -0.26772928 -1.2203275
-0.8010613 -0.7871553 -0.5734879 -0.17767112 -0.2019746 -1.1178622 -0.70104384 -0.4805226
-0.15214296 -0.18958826 -0.24026534 -0.097718656 -0.7192856 -0.62228525 0.4675456 0.28519997
0.35200042 -0.049806852 -0.25773183 -0.24615765 0.094774865 -0.20691608 0.058698535 -0.3530974
-0.4161245 -0.089691885 0.9022802 0.036070563 0.56506675 0.26536942 -0.40212315 -0.31778347
0.83059394 -0.39264774 0.16919729 -0.03898275 0.08381032 -0.25263625 0.39555722 -0.10370337
0.14669442 0.38201228 0.1277279 -0.3586827 0.4977212 0.25008887 0.29972664 0.2575317
0.3466131 0.11159321 0.37719604 0.53069144 0.21942852 0.120448805 -0.06402035 -0.17596877
-0.04850799 -0.11128751 -0.3427805 -0.53044116 0.04995775 -0.10654328 0.2947379 0.23934546
-0.20652309 0.3595914 0.078903615 0.10502085 0.37845734 0.6016916 0.18649232 -0.42796654
0.0167236 -0.32521573 -0.30815375 -0.12975524 -0.16021414 -0.20134275 0.18001683 -0.3593406
-0.27959877 -0.44084162 -0.3255627 -1.8065944 -1.0823537 -0.092953406 -0.6892661 -0.42658257
0.18826006 0.4140023 0.11458945 0.080979496 0.19268036 -0.10482871 -0.1822381 0.5098443
0.25176454 0.19159447 -0.07697024 0.11899044 -0.43740743 0.30416426 0.24085586 0.15143798
-0.6049501 -0.034952044 0.19028212 -0.27792916 0.003957514 0.4116859 0.0776294 0.2953847
0.053720538 -0.17018598 0.3416304 -0.22415309 -0.32020202 -0.8901387 -0.7725283 -0.35200298
-1.4229177 -1.1875693 -0.88209414 -0.5491725 -1.0695676 -0.6130153 -0.19133636 -0.014308304
-0.32802352 0.08674277 0.3827678 -0.49898973 -0.11836542 -0.013847427 -0.04949758 -0.44380996
0.07059708 -0.070517935 -0.22972864 -0.0013884619 0.06774376 0.0147788655 -0.22225328 -1.0795362
-0.2748201 -0.18976538 -0.8846794 -0.24136807 -0.22905259 -0.950121 -0.107558675 0.2608266
0.034278665 0.19839604 -0.19050921 -0.04227675 0.31288144 -0.21093817 -0.12487085 -0.35996297
-0.0905704 -0.729848 -0.12370561 0.36320564 -0.6947446 -0.67707133 0.4466992 -0.0727819
0.26216942 -0.07597713 0.1396917 0.2700227 -0.054692842 -0.00013076808 -0.32531616 -0.20541866
0.10738534 -0.7208977 0.24304125 -0.41170847 -0.071921274 -0.46307313 -0.56740826 -0.36991385
0.10245128 -0.09814088 -0.40192592 -0.30758244 -0.5615888 -0.40411478 -0.33674777 0.119119726
00000000: 698a 23bf 3f2c a8bf c96d 4fbf 10c3 7dbf
00000010: 661d ecbd 3207 9b3e 1b6c 61be 6428 85be
00000020: ece2 7abd 4114 dbbe 689c 77be 85d2 b0be
00000030: e6ee 00bd 8e0f 133e 6d29 643e 33f4 06be
00000040: 42ec 753f c661 ec3e 6fc4 c8be 976b 7cbe
00000050: d5e3 0bbe 00f6 fe3d 0d09 debb 24e4 213e
00000060: 12ed 70be 0643 243e b646 203e f016 94bf
00000070: a16d 4abf 6097 02bf 93bc aa3d 7922 373e
00000080: 1cec a5bc 9221 79bd d5ac 273d ae58 53bd
00000090: 643d d23a 1089 123f 7a82 e93e 2d9b a3be
000000a0: 4dc9 48bf 644f 733e 79db 843d 992b 433d
000000b0: bf7c c53e 3428 443f 8e06 3b3f 0b9b c73e
000000c0: 57d0 e63e 6ff4 d4be 9a91 67be a660 5b3f
000000d0: b34b febe 7cf1 06bf c5aa e3bd 8f31 b7bd
000000e0: 038a ae3d 80c1 35bf bf15 e3bd 1348 47be
000000f0: 27bd 793e ab34 9a3e d013 89be b133 9cbf
00000100: 5a12 4dbf 0283 49bf 1ad0 12bf 6bef 35be
00000110: 6ed2 4ebe 1c16 8fbf 9c77 33bf 0f07 f6be
00000120: 5dcb 1bbe 6d23 42be 1e08 76be b820 c8bd
00000130: 1a23 38bf 164e 1fbf 2362 ef3e bb05 923e
00000140: 6639 b43e 4502 4cbd 6df5 83be c010 7cbe
00000150: 5319 c23d cfe1 53be e06d 703d 2fc9 b4be
00000160: 450e d5be 61b0 b7bd d6fb 663f babe 133d
00000170: 37a8 103f 80de 873e 16e3 cdbe 84b4 a2be
00000180: cea1 543f 2009 c9be 0e42 2d3e 60ac 1fbd
00000190: bfa4 ab3d 8a59 81be 7a86 ca3e 6f62 d4bd
000001a0: 1037 163e 1d97 c33e 1acb 023e 42a5 b7be
000001b0: 50d5 fe3e a60b 803e c575 993e 32db 833e
000001c0: 4677 b13e fb8a e43d d71f c13e 65db 073f
000001d0: dfb1 603e ddad f63d 1a1d 83bd 2831 34be
000001e0: 50b0 46bd b5ea e3bd ed80 afbe feca 07bf
000001f0: 7fa0 4c3d 5d33 dabd e3e7 963e fa16 753e
00000200: ca7a 53be 5d1c b83e 3898 a13d 2c15 d73d
00000210: 29c5 c13e 7608 1a3f d8f7 3e3e 6e1e dbbe
00000220: eeff 883c ad82 a6be 54c6 9dbe 8fde 04be
00000230: 2d0f 24be cb2c 4ebe 5556 383e 7efb b7be
00000240: 9227 8fbe feb5 e1be 27b0 a6be 7c3e e7bf
00000250: 918a 8abf 5b5e bebd be73 30bf 0869 dabe
00000260: 3fc7 403e 1cf8 d33e e0ad ea3d 94d8 a53d
00000270: 004e 453e 6fb0 d6bd a09c 3abe 2885 023f
00000280: 48e7 803e 5731 443e 93a2 9dbd 43b1 f33d
00000290: def3 dfbe 6bbb 9b3e eba2 763e 8f12 1b3e
000002a0: 02de 1abf e029 0fbd 51d9 423e bb4c 8ebe
000002b0: 09ae 813b 7fc8 d23e 2afc 9e3d aa3c 973e
000002c0: 110a 5c3d 3c45 2ebe 2eea ae3e 6388 65be
000002d0: 85f1 a3be 21e0 63bf 6ac4 45bf bc39 b4be
000002e0: 2b22 b6bf 4502 98bf ecd0 61bf 9296 0cbf
000002f0: 97e7 88bf 92ee 1cbf aeed 43be 606d 6abc
00000300: b3f2 a7be 32a6 b13d 24fa c33e 957b ffbe
00000310: 9269 f2bd 52e0 62bc f9bd 4abd 0f3b e3be
00000320: 3495 903d b56b 90bd fc3d 6bbe 0dfd b5ba
00000330: 3ebd 8a3d 0e23 723c 5d96 63be 3e2e 8abf
00000340: 38b5 8cbe db51 42be 597a 62bf 3129 77be
00000350: c38c 6abe 213b 73bf b947 dcbd 108b 853e
00000360: c967 0c3d 5528 4b3e d914 43be 632a 2dbd
00000370: ff31 a03e 2d00 58be 4abc ffbd 114d b8be
00000380: f97c b9bd 52d7 3abf 5e59 fdbd 17f6 b93e
00000390: c8da 31bf 8c54 2dbf c2b5 e43e ad0e 95bd
000003a0: 123b 863e e699 9bbd 570b 0f3e 6a40 8a3e
000003b0: 9a05 60bd ca1e 09b9 d78f a6be 4559 52be
000003c0: d8ec db3d c08c 38bf cedf 783e 74cb d2be
000003d0: 764b 93bd ec17 edbe ab41 11bf 5965 bdbe
000003e0: fad1 d13d 16fe c8bd 3cc9 cdbe 727b 9dbe
000003f0: 49c4 0fbf 22e8 cebe 346a acbe 0bf5 f33d

module.down1.mpconv.1.conv.3.bias f4 [64]
-0.009527631 -0.005762082 0.13230266 0.064097345 0.05107207 -0.010047941 0.105005525 0.026829788
0.047037948 0.027249595 -0.04159255 0.033170234 -0.048858743 -0.11306615 -0.046580654 -0.025675219
0.002272812 -0.15939662 -0.1559723 0.0667699 0.07623983 0.07810502 0.09259976 0.024767421
-0.06247503 -0.06015556 0.0048790337 -0.019332428 0.0057198694 0.07890478 -0.0211332 0.013330632
-0.10535419 -0.09814483 -0.06642039 -0.1585844 0.007111435 0.005189168 -0.019298248 -0.012643467
-0.023549628 -0.00952905 -0.086205706 -0.07185808 -0.005680198 0.036887385 -0.7826228 -0.014764303
-0.025358552 0.08352575 0.03097571 -0.028963573 0.058048014 -0.033669665 0.00033106984 -0.02043007
-0.06941324 -0.003780479 -0.012678666 -0.12881859 -0.04502651 -0.03912909 -0.118457325 0.06571678
00000000: c819 1cbc d9cf bcbb 597a 073e 7845 833d
00000010: f230 513d 1ea0 24bc 230d d73d 25ca db3c
00000020: ddaa 403d 8b3a df3c f35c 2abd 83dd 073d
00000030: 1b20 48bd 3a8f e7bd 5bcb 3ebd d654 d2bc
00000040: 75f3 143b de38 23be 34b7 1fbe a8be 883d
00000050: a123 9c3d 86f5 9f3d f1a4 bd3d 0ce5 ca3c
00000060: d1e5 7fbd ad65 76bd 4de0 9f3b 0a5f 9ebc
00000070: be6d bb3b d498 a13d 881f adbc b968 5a3c
00000080: f0c3 d7bd 2800 c9bd 6a07 88bd f363 22be
00000090: 0a07 e93b e509 aa3b 5c17 9ebc 8b26 4fbc
000000a0: 26eb c0bc bc1f 1cbc 9e8c b0bd 542a 93bd
000000b0: f420 babb 3a17 173d f859 48bf fae5 71bc
000000c0: bdbc cfbc 8c0f ab3d c6c0 fd3c 0445 edbc
000000d0: c1c3 6d3d 34e9 09bd 7193 ad39 f65c a7bc
000000e0: 8728 8ebd eac1 77bb 2eba 4fbc 05e9 03be
000000f0: b86d 38bd d345 20bd c199 f2bd 8596 863d

module.down1.mpconv.1.conv.4.weight f4 [64]
0.65189326 0.29358295 0.7081245 0.6583506 0.41440067 0.30846128 0.85775864 0.49657264
0.91858226 1.3239741 0.9598757 0.8387307 0.62039924 0.79619974 0.5830407 0.58440274
0.5363288 1.0139757 0.6424754 0.954851 0.40960965 0.8998925 0.7456843 0.68123966
0.46910065 0.9524946 0.71581024 0.6036845 0.55082625 0.6337215 0.7932718 0.29848182
0.4695812 0.74663365 0.5107922 0.68492526 0.26842618 0.30437273 0.7507433 0.90170014
0.4207418 1.0463228 0.2729024 0.93801695 0.21077523 0.7489651 0.51886266 0.52119595
0.4209277 0.58250487 0.39941862 0.73820174 0.8171868 0.40235892 0.8661342 0.29965714
0.406066 0.54960704 0.5929448 0.47431892 0.4081313 0.8824333 0.6556511 0.51357114
00000000: 7ae2 263f 8150 963e a647 353f aa89 283f
00000010: 532c d43e a3ee 9d3e 1296 5b3f c53e fe3e
00000020: 3528 6b3f fc77 a93f 6aba 753f 0eb7 563f
00000030: 7cd2 1e3f bfd3 4b3f 2842 153f 6b9b 153f
00000040: d84c 093f f5c9 813f 4579 243f 1d71 743f
00000050: 5bb8 d13e 5b5f 663f 2be5 3e3f b965 2e3f
00000060: f62d f03e b0d6 733f 573f 373f 118b 1a3f
00000070: f302 0d3f 923b 223f dc13 4b3f 9cd2 983e
00000080: f26c f03e 6223 3f3f 47c3 023f 4357 2f3f
00000090: 286f 893e bed6 9b3e b730 403f d2d5 663f
000000a0: 786b d73e e8ed 853f ddb9 8b3e e121 703f
000000b0: 76d5 573e 2dbc 3f3f 2fd4 043f 196d 053f
000000c0: d683 d73e 0a1f 153f 9980 cc3e cafa 3c3f
000000d0: 2733 513f fd01 ce3e f9ba 5d3f a96c 993e
000000e0: e2e7 cf3e 0cb3 0c3f 3bcb 173f eed9 f23e
000000f0: 96f6 d03e 26e7 613f c0d8 273f 6679 033f

module.down1.mpconv.1.conv.4.bias f4 [64]
-0.056611486 0.04881371 0.13655037 0.023275368 0.0015959666 0.11768176 -0.02732689 -0.86827356
-0.02650226 -0.30145815 -0.33309665 0.01924583 -0.15108751 -0.3138794 -0.0912318 0.0117806895
-0.111421406 -0.33465666 -0.8485357 -0.065159105 0.064823344 0.086622514 -0.026123833 -0.06999765
0.002228306 -0.24256855 0.017648509 0.00091093004 0.05071748 -0.08439923 -0.048722032 -0.3864522
-0.33380824 -0.13762954 -0.46747294 -0.5283434 0.10529477 0.071166076 -0.26620916 -0.3870896
-0.24458691 -0.28855234 -0.03777471 -0.21985917 0.09106984 0.021781728 -3.5782866 -0.088215
-0.040601924 0.05693909 0.047379095 -0.06725726 0.041494858 -0.33195803 -0.038663696 0.02297925
-0.190817 0.018138938 0.026100961 -0.1816611 -0.72841394 -0.26446724 -0.2760632 0.08982893
00000000: 72e1 67bd e3f0 473d dcd3 0b3e fcab be3c
00000010: c12f d13a 2203 f13d a4dc dfbc 2d47 5ebf
00000020: 441b d9bc b958 9abe a58b aabe 6ea9 9d3c
00000030: afb6 1abe cdb4 a0be bdd7 babd cb03 413c
00000040: e830 e4bd 1e58 abbe a339 59bf 2372 85bd
00000050: 1ac2 843d 2567 b13d a601 d6bc ee5a 8fbd
00000060: c508 123b e463 78be 9b93 903c 7bcb 6e3a
00000070: 22bd 4f3d 81d9 acbd c190 47bd 10dd c5be
00000080: eae8 aabe c2ee 0cbe 9d58 efbe 8341 07bf
00000090: c9a4 d73d 85bf 913d 914c 88be 9c30 c6be
000000a0: fe74 7abe 22bd 93be a8b9 1abd c322 61be
000000b0: d382 ba3d 986f b23c a602 65c0 11aa b4bd
000000c0: 344e 26bd f738 693d 9510 423d 2dbe 89bd
000000d0: 83f6 293d 67f6 a9be d35d 1ebd fb3e bc3c
000000e0: 8865 43be 1c98 943c afd1 d53c 5e05 3abe
000000f0: 5679 3abf 4068 87be 2858 8dbe 3bf8 b73d

module.down1.mpconv.1.conv.4.running_mean f4 [64]
-6.9534025 -9.29746 -1.0824908 -2.1922083 -2.2765975 -2.963784 -3.6716647 -0.6124516
-1.650966 0.7735273 -3.0182571 -2.00939 -2.6597288 -4.36225 -2.7037845 -2.7709048
-1.7502935 -4.698422 5.872431 -1.5779232 -3.0845478 -3.04374 -3.410091 -3.5265982
-7.0535393 -1.6663891 -1.9847887 -3.0363574 -4.933827 -1.7252027 -3.9244995 1.7894288
4.417878 -3.261108 1.0211252 -0.40369272 -1.1972998 -2.3888557 -0.87964934 -4.7890186
-0.13670196 -4.6559844 0.6785469 -2.7499228 -4.179467 -3.6667385 9.648217 -1.4993317
-2.5839808 -2.6096053 -2.6644273 -5.010027 1.0194348 -5.1663365 -3.0649135 -0.47248223
1.4871839 -0.6803448 -6.465497 -0.30258211 1.4876577 -6.578523 0.112829335 -2.8061175
00000000: 4682 dec0 65c2 14c1 0f8f 8abf 244d 0cc0
00000010: c6b3 11c0 a3ae 3dc0 8efc 6ac0 a1c9 1cbf
00000020: db52 d3bf e305 463f 202b 41c0 d999 00c0
00000030: ff38 2ac0 8d97 8bc0 ce0a 2dc0 8156 31c0
00000040: 9e09 e0bf 7959 96c0 f4ea bb40 63f9 c9bf
00000050: 3b69 45c0 a3cc 42c0 ee3e 5ac0 c9b3 61c0
00000060: 98b6 e1c0 3d4c d5bf 8e0d febf ae53 42c0
00000070: e9e1 9dc0 71d3 dcbf 002b 7bc0 010c e53f
00000080: 425f 8d40 feb5 50c0 3bb4 823f d0b0 cebe
00000090: 1f41 99bf 03e3 18c0 b330 61bf a43f 99c0
000000a0: 99fb 0bbe d3fd 94c0 40b5 2d3f bcfe 2fc0
000000b0: 32be 85c0 d8ab 6ac0 195f 1a41 1aea bfbf
000000c0: f15f 25c0 c603 27c0 fa85 2ac0 2452 a0c0
000000d0: d77c 823f a152 a5c0 8b27 44c0 31e9 f1be
000000e0: 0b5c be3f 142b 2ebf 5ae5 cec0 0bec 9abe
000000f0: 916b be3f 4383 d2c0 1113 e73d 6e97 33c0

module.down1.mpconv.1.conv.4.running_var f4 [64]
87.48173 36.10377 60.158184 39.714485 35.439384 39.731316 57.706306 32.23654
74.241905 72.48662 57.915302 48.163216 25.667383 40.509342 33.113525 48.61685
25.77118 73.87843 51.59495 45.606083 33.071476 131.29057 44.118996 48.558002
54.48258 24.897434 34.066414 54.854202 61.9232 36.60837 48.442467 22.845844
38.675888 41.509274 25.602219 26.441322 23.71758 20.168749 14.8779335 36.779682
14.307806 71.43564 26.151358 51.403713 23.119183 72.31853 38.625973 21.31569
23.279724 28.21673 48.83366 81.939804 39.602295 20.007406 60.787945 28.042677
27.35563 39.932407 68.06857 35.47097 30.621681 66.66032 14.726723 39.886387
00000000: a5f6 ae42 436a 1042 fba1 7042 a2db 1e42
00000010: eec1 0d42 deec 1e42 42d3 6642 38f2 0042
00000020: db7b 9442 26f9 9042 45a9 6742 22a7 4042
00000030: cd56 cd41 9109 2242 4074 0442 a877 4242
00000040: 602b ce41 c2c1 9342 3b61 4e42 a16c 3642
00000050: 3149 0442 634a 0343 da79 3042 653b 4242
00000060: 29ee 5942 f22d c741 0244 0842 b46a 5b42
00000070: 5bb1 7742 f96e 1242 16c5 4142 4ac4 b641
00000080: 1cb4 1a42 7f09 2642 58d1 cc41 d487 d341
00000090: 9bbd bd41 9959 a141 040c 6e41 651e 1342
000000a0: c6ec 6441 0cdf 8e42 fb35 d141 679d 4d42
000000b0: 16f4 b841 16a3 9042 ff80 1a42 8886 aa41
000000c0: e03c ba41 ddbb e141 ab55 4342 2ee1 a342
000000d0: c068 1e42 2b0f a041 db26 7342 6757 e041
000000e0: 55d8 da41 c9ba 1f42 1c23 8842 46e2 0d42
000000f0: 34f9 f441 1552 8542 a8a0 6b41 a98b 1f42
