learned_models/mask/ACS-WFC-F435W.pth (torch_old, 416836 bytes, 39 tensors)

module.inc.conv.conv.0.weight f4 [32, 1, 3, 3]
-0.033442214 -0.6890924 0.58388996 0.3131299 0.7330209 -0.9818565 0.008024612 -0.0073820427
-0.019237828 0.03548754 -0.2337875 0.09543117 0.07569882 -1.617107 0.3341127 0.14441264
0.1787108 0.43903327 -1.57389 -0.12253844 -0.020371202 -0.040817462 0.5237167 0.093237855
0.19253355 0.121303245 -0.01567512 0.13720101 0.04232095 -3.2887025 0.017026365 -0.012396679
0.009308558 -0.003894033 -0.009578473 0.003369464 -0.011972106 -0.02682008 -0.0489726 0.0003871429
0.16061947 0.032536495 -2.06395 0.12209567 0.07372117 0.17511159 -0.0083462 6.231526e-05
-0.004116282 0.0030815986 0.11923134 -1.1398627 0.2321577 0.8427569 0.17189895 0.017887121
0.018237691 0.0040993686 0.066196576 -2.30197 0.12993716 0.05426414 -0.42645404 0.12548846
0.426335 0.10644558 -0.024716552 0.022422161 0.25593033 0.089879066 -1.7133759 0.19057038
-1.1181144 -0.40269014 0.019973632 -0.2811576 1.0018713 0.0210298 0.004303804 0.04577856
0.2998854 0.08543695 0.02338925 0.006825751 0.058627035 -0.018083822 -0.0028029317 -1.9124786
-0.008640276 0.010994692 0.06775524 -0.027578982 0.0100812325 0.2552427 -1.1204419 -1.1552571
0.37754175 0.9860595 0.002649135 -0.01375761 0.40004826 0.1848184 0.010644451 -0.15007004
0.27315575 -1.7156048 0.37554458 0.0041260966 -0.010915484 0.014321153 0.08688707 0.024124274
0.0792562 0.15530762 -2.3783717 0.053636797 0.026911717 0.24044944 0.3020985 0.36997032
0.073146 0.026963916 0.08980244 0.022198692 -2.2489557 0.018190324 0.099523164 0.44118968
0.0367512 -0.0053099953 -2.806162 0.04521301 0.009195527 0.0029726487 0.024809297 0.005389711
-0.052971758 0.20609966 0.69223714 -0.015571088 0.2601324 -0.81931454 -0.7817039 -0.023431364
-0.64424646 -0.42657325 0.001448829 0.30763236 -0.1111044 0.960778 -0.011559989 -0.18141955
0.0032980593 0.1257411 -0.025246792 0.35174856 -0.038846686 -0.913467 -0.75689316 0.105253346
0.085444316 0.5057148 0.08530172 0.4399318 -0.045565464 0.49391413 0.47407958 -0.020691765
-0.8024724 -0.7981681 0.021307357 0.0006017772 0.034051213 0.06429723 -1.6522982 -0.374273
0.6334906 0.085510574 0.040679257 0.26375154 0.27570555 0.29728934 0.54536754 0.16476704
0.03261385 -1.4654133 0.019067599 0.009093296 0.016302956 0.018213032 0.018582266 0.090061925
0.0060493257 1.0082511 0.092565455 -1.5447572 0.017259134 0.020604396 0.12937331 0.035209555
-2.2164462 0.14442694 0.555515 0.005842268 0.1596208 0.17594573 0.16749752 0.5931524
-0.92906773 -0.007323973 -0.44705048 0.67163205 0.022377905 -0.014176897 0.022319686 0.04276998
0.08781983 -1.6532519 0.04504811 0.091204375 0.08893055 0.06584915 0.035641473 -0.33721128
0.02547606 0.0707795 0.2606315 0.06983157 0.23557676 -1.690909 0.20058542 0.09073141
0.17263411 0.09947191 0.22413242 0.09721623 0.2598232 0.065395094 0.24732365 0.009600936
0.07579138 -0.0018344894 -1.9434834 -0.0108199315 0.0056098863 -0.44699436 -0.006022566 1.0251498
0.32692418 -0.4803339 0.0064525534 -0.98126847 0.023057297 -3.4871287 0.022448923 0.016045365
00000000: b4fa 08bd 5c68 30bf d079 153f 9052 a03e
00000010: 42a7 3b3f f35a 7bbf aa79 033c 10e5 f1bb
00000020: a698 9dbc 625b 113d fe65 6fbe 6b71 c33d
00000030: fc07 9b3d 5dfd cebf d210 ab3e e8e0 133e
00000040: f7ff 363e f8c8 e03e 3a75 c9bf 6ff5 fabd
00000050: 82e1 a6bc 3630 27bd 4c12 063f 7df3 be3d
00000060: 8427 453e d66d f83d 1c69 80bc 6c7e 0c3e
00000070: bc58 2d3d 1a7a 52c0 e07a 8b3c 711b 4bbc
00000080: ec82 183c 0833 7fbb 07ef 1cbc 3ad2 5c3b
00000090: a726 44bc c9b5 dbbc 7e97 48bd 71f9 ca39
000000a0: 6e79 243e fd44 053d c217 04c0 4b0d fa3d
000000b0: 20fb 963d 7450 333e 80be 08bc 40af 8238
000000c0: e0e1 86bb a5f4 493b 902f f43d 05e7 91bf
000000d0: c0ba 6d3e ebbe 573f 4706 303e 0388 923c
000000e0: 3667 953c ff53 863b 1292 873d 7a53 13c0
000000f0: 3f0e 053e 1344 5e3d 2f58 dabe 0c80 003e
00000100: 9548 da3e 2400 da3d 5e7a cabc aeae b73c
00000110: 4d09 833e 8412 b83d e74f dbbf e224 433e
00000120: 5f1e 8fbf 672d cebe be9f a33c e4f3 8fbe
00000130: 523d 803f b046 ac3c ed06 8d3b 4d82 3b3d
00000140: 948a 993e 91f9 ae3d d09a bf3c 8daa df3b
00000150: e722 703d 8624 94bc 64b1 37bb 19cc f4bf
00000160: f28f 0dbc 1523 343c 42c3 8a3d 51ed e1bc
00000170: c12b 253c 2caf 823e a46a 8fbf 77df 93bf
00000180: 274d c13e 656e 7c3f 1c9d 2d3b 9967 61bc
00000190: 20d3 cc3e 0941 3d3e 1066 2e3c f6ab 19be
000001a0: 12db 8b3e f098 dbbf 6147 c03e 3534 873b
000001b0: dcd6 32bc 45a3 6a3c d9f1 b13d 45a0 c53c
000001c0: 1351 a23d f608 1f3e 3e37 18c0 42b2 5b3d
000001d0: f675 dc3c 6138 763e a8ac 9a3e c06c bd3e
000001e0: 92cd 953d 6ee3 dc3c 57ea b73d 08da b53c
000001f0: e4ee 0fc0 e003 953c cdd2 cb3d 9de3 e13e
00000200: 6d88 163d 78ff adbb 2998 33c0 4731 393d
00000210: d6a8 163c c5d0 423b de3c cb3c 2c9c b03b
00000220: eaf8 58bd ca0b 533e 7436 313f e01d 7fbc
00000230: 1330 853e 99be 51bf bf1d 48bf 22f3 bfbc
00000240: 56ed 24bf cf67 dabe a2e6 bd3a fd81 9d3e
00000250: b48a e3bd 8cf5 753f 1c66 3dbc 0cc6 39be
00000260: 4124 583b 46c2 003e 5cd2 cebc 6318 b43e
00000270: b41d 1fbd f9d8 69bf c0c3 41bf 118f d73d
00000280: 6efd ae3d 8676 013f abb2 ae3d be3e e13e
00000290: daa2 3abd 50e2 fc3e 8fba f23e c781 a9bc
000002a0: d56e 4dbf bf54 4cbf c48c ae3c 96c0 1d3a
000002b0: 4979 0b3d 44ae 833d 827e d3bf b6a0 bfbe
000002c0: 712c 223f 2b20 af3d 4b9f 263d 710a 873e
000002d0: 4729 8d3e 4f36 983e 359d 0b3f b1b8 283e
000002e0: 1a96 053d aa92 bbbf a733 9c3c 0cfc 143c
000002f0: c78d 853c 7f33 953c d639 983c 6372 b83d
00000300: 6c39 c63b 5f0e 813f f592 bd3d 9bba c5bf
00000310: 0763 8d3c 8dca a83c 707a 043e e537 103d
00000320: 41da 0dc0 a8e4 133e 3b36 0e3f 7f70 bf3b
00000330: a373 233e 1e2b 343e 7884 2b3e d6d8 173f
00000340: 62d7 6dbf f0fd efbb cde3 e4be 14f0 2b3f
00000350: de51 b73c 3746 68bc c6d7 b63c 932f 2f3d
00000360: e2da b33d c29d d3bf 5e84 383d 5cc9 ba3d
00000370: 3821 b63d ebdb 863d cbfc 113d f5a6 acbe
00000380: 2cb3 d03c d8f4 903d 7e71 853e db03 8f3d
00000390: 093b 713e b56f d8bf 4466 4d3e 64d1 b93d
000003a0: ffc6 303e eeb7 cb3d f882 653e 4e19 c73d
000003b0: 8c07 853e dded 853d 6942 7d3e 3f4d 1d3c
000003c0: 8338 9b3d 4073 f0ba 10c4 f8bf 1546 31bc
000003d0: 23d3 b73b 72dc e4be f258 c5bb 1c38 833f
000003e0: 9b62 a73e 53ee f5be f16f d33b 6934 7bbf
000003f0: a8e2 bc3c 1e2d 5fc0 cee6 b73c 9271 833c

module.inc.conv.conv.0.bias f4 [32]
0.14389417 0.077037625 -0.49228853 0.027494423 -0.020909142 0.14004621 0.16902225 -0.54360807
-0.21594915 -0.20890118 -0.40754429 0.107919075 0.014841667 -0.3075965 0.28135762 -0.48327115
-0.16596663 -0.35886756 -0.32056376 -0.23577432 -0.295867 -0.45190468 -0.22951637 -0.3570142
-0.28733823 0.087725334 -0.0891455 0.13533717 -0.070885465 0.036126446 -0.11296842 -0.008036153
00000000: fe58 133e e7c5 9d3d 3e0d fcbe fc3b e13c
00000010: a649 abbc 4668 0f3e 2b14 2d3e e629 0bbf
00000020: c621 5dbe 31ea 55be a5a9 d0be ad04 dd3d
00000030: 772a 733c 4a7d 9dbe 1b0e 903e 516f f7be
00000040: 28f3 29be 7dbd b7be ef20 a4be d36e 71be
00000050: e17b 97be 0d60 e7be 5706 6bbe 91ca b6be
00000060: ff1d 93be 57a9 b33d ea91 b6bd d495 0a3e
00000070: 662c 91bd 53f9 133d fd5b e7bd 12aa 03bc

module.inc.conv.conv.1.weight f4 [32]
1.0646386 1.343042 1.3276757 1.9820056 1.4945968 0.94245034 1.5875543 1.5955
1.2257982 1.9440016 1.2106359 1.6964401 2.0463095 2.1920166 2.3228087 0.52530223
1.2387586 1.0698388 0.9862728 1.9192109 1.779848 2.6970804 2.5019586 1.2427025
1.4612913 2.6454067 1.9717143 1.1566873 3.19765 1.2240124 2.747704 1.0850796
00000000: 1446 883f cde8 ab3f 47f1 a93f 5cb2 fd3f
00000010: f34e bf3f 6d44 713f fb34 cb3f 5839 cc3f
00000020: f5e6 9c3f 0bd5 f83f 1ef6 9a3f f324 d93f
00000030: bcf6 0240 004a 0c40 e6a8 1440 357a 063f
00000040: a48f 9e3f 7af0 883f 607c 7c3f b4a8 f53f
00000050: 0fd2 e33f f79c 2c40 1720 2040 e010 9f3f
00000060: 980b bb3f 584e 2940 2261 fc3f 540e 943f
00000070: 4ca6 4c40 70ac 9c3f 62da 2f40 e3e3 8a3f

module.inc.conv.conv.1.bias f4 [32]
-0.015694464 0.46988082 0.51769245 0.06671804 0.05023152 0.05422714 0.049970638 0.83224684
0.08233415 0.08353354 0.25590345 0.32294777 0.1999484 0.06251327 0.033242643 0.14324859
-0.08033871 0.0063248645 0.018787313 0.07022055 0.16373433 0.26857227 0.22633038 -0.07930736
0.11104512 0.33161384 0.15901043 -0.115142666 0.14091922 0.123523794 0.76367944 -0.043600462
00000000: ad91 80bc 3894 f03e 7e87 043f 78a3 883d
00000010: 91bf 4d3d 471d 5e3d 03ae 4c3d 210e 553f
00000020: cf9e a83d a213 ab3d c705 833e 6959 a53e
00000030: 46bf 4c3e f506 803d 7029 083d c2af 123e
00000040: 9f88 a4bd cf40 cf3b dae7 993c cbcf 8f3d
00000050: f9a9 273e 4e82 893e 27c3 673e e66b a2bd
00000060: a06b e33d 4ac9 a93e a1d3 223e ebcf ebbd
00000070: 214d 103e 0bfa fc3d 7f80 433f 6696 32bd

module.inc.conv.conv.1.running_mean f4 [32]
-4.516458 -64.35249 -66.82294 -221.47173 -123.596016 11.37803 -166.06131 -59.02354
-74.086334 -114.67336 -59.998745 -50.17017 -188.14223 -122.16298 -116.53884 -64.97138
-13.310431 -67.97008 -24.58693 -111.40441 -15.254855 -36.845844 -99.365585 -10.777136
-130.79187 -51.814316 -84.392715 -50.788517 -207.56982 6.0479627 -88.44296 -9.408351
00000000: d386 90c0 7ab4 80c2 58a5 85c2 c378 5dc3
00000010: 2931 f7c2 690c 3641 b20f 26c3 1b18 6cc2
00000020: 342c 94c2 c358 e5c2 b7fe 6fc2 41ae 48c2
00000030: 6924 3cc3 7253 f4c2 e313 e9c2 59f1 81c2
00000040: 86f7 54c1 aef0 87c2 08b2 c4c1 0fcf dec2
00000050: e313 74c1 2562 13c2 2ebb c6c2 266f 2cc1
00000060: b8ca 02c3 dc41 4fc2 12c9 a8c2 7127 4bc2
00000070: e091 4fc3 e988 c140 cce2 b0c2 9b88 16c1

module.inc.conv.conv.1.running_var f4 [32]
345339.5 1.0748111e+06 872627.8 4.7207005e+06 1.4121446e+06 809480.4 3.1827598e+06 890273.9
1.1160704e+06 1.2209898e+06 1.1415958e+06 1.139042e+06 3.9503572e+06 2.0443434e+06 1.5000994e+06 837762.56
344667.9 546238.75 312308.5 1.8235449e+06 550488.4 990657.06 1.9470216e+06 164177.8
1.6388982e+06 518120.3 1.3916182e+06 434616.1 4.459341e+06 321066.84 1.9805696e+06 226496.28
00000000: 709f a848 d933 8349 3d0b 5549 7910 904a
00000010: 8561 ac49 86a0 4549 9f42 424a 1e5a 5949
00000020: 333d 8849 ee0b 9549 de5a 8b49 100b 8b49
00000030: 551c 714a bb8d f949 1b1e b749 2988 4c49
00000040: 7d4b a848 ec5b 0549 907e 9848 c799 de49
00000050: 8665 0649 11dc 7149 6dac ed49 7354 2048
00000060: 920f c849 0afd fc48 12e0 a949 0337 d448
00000070: 9a16 884a 5bc5 9c48 cdc4 f149 1230 5d48

module.inc.conv.conv.3.weight f4 [32, 32, 3, 3]
-0.1101047 -0.2958504 -0.51903546 -0.39002055 0.124727674 -0.35570562 -0.07918174 -0.68748415
-0.6203085 0.25159544 0.10414105 -0.23110072 -0.25287363 -0.29688847 -0.18862173 -0.14536949
-0.18413447 0.13722973 -0.022688737 0.06274241 0.17589484 0.3081234 0.24255958 -0.07462585
0.120353624 -0.39630446 -0.1919725 -0.09237169 0.092649445 -0.05258451 -0.2622221 0.13104759
0.12070774 -0.5225114 -0.14429887 0.036656458 -0.02468261 -0.59803814 -0.20301332 0.053988937
-0.68978107 -0.33642328 0.26634398 -0.08630976 0.33552325 0.10015552 -0.5968001 -0.8503405
-0.1118447 -1.003807 -0.74265975 -0.23995356 -0.28614897 0.030960625 -0.08595253 0.17284763
0.23183547 -0.30902267 0.15451804 0.06934814 0.090038195 0.20338194 0.13384284 -0.13360852
-0.016716756 0.16989376 -0.11221009 -0.12722355 0.23689102 0.13771571 -0.14237463 0.110053785
-0.002904776 0.073561646 0.07824843 0.095908545 0.058527052 -0.16811666 0.087311625 -0.37328345
-0.37183267 0.0071692094 -0.70288366 -0.25966555 0.057344306 -0.83568394 -0.2979413 0.181847
-0.34159604 0.25539392 -0.042984154 0.007478634 -0.17355765 -0.09773686 0.19749834 0.07310075
-0.1558683 0.2896883 0.24696723 -0.009865 -0.18122058 -0.009027744 -0.043312445 -0.17261188
-0.08247189 -0.11628761 -0.040470455 -0.058709204 0.14440592 -0.210905 -0.070879765 0.16678327
-0.2270054 0.058296733 0.11421181 0.01699073 0.34968793 -0.37942836 -0.34136033 0.27694502
-0.43870994 -0.23135294 0.40034944 0.0029361905 0.34255496 0.7262508 -0.98045206 -0.4948816
0.0241741 -1.3506676 -0.5177301 -0.25574666 -0.68762213 -0.5188237 -0.4137344 0.04460099
0.020632695 0.11037596 0.012396296 -0.037576444 0.16620234 -0.04737791 -0.03482156 0.0980772
-0.31367368 -0.122262344 0.041010533 -0.0028825388 -0.34992796 0.13748813 0.17539714 -0.29161653
0.077481166 -0.6262502 -0.10976171 0.070966616 -0.7340776 -0.44010943 0.3375793 -0.48222116
-0.22270525 0.28797102 0.3122026 -0.58130544 -0.0026204123 0.7205584 0.024512578 0.41066277
0.100915015 -0.23513992 0.17563674 0.12957303 -0.4249667 -0.036776703 -0.16588579 -0.8806002
-0.59121805 -0.14217481 -0.71795285 -0.5284787 -0.055249065 0.06065601 0.02992994 -0.4399194
0.10569615 0.18073496 -0.10555186 0.1685094 0.19563115 0.06564925 -0.25582185 -0.1692557
-0.08312449 -0.40833098 -0.090441436 0.071689196 -0.15161349 -0.023989715 0.23299238 -0.07648698
-0.23052248 0.2130181 0.29976192 -0.112913236 -0.12341977 0.3901201 0.1908002 0.25877136
0.17311534 -0.0006220601 0.052421372 -0.83857495 -0.8447445 0.0478082 -0.5319841 -1.4961318
-0.042805206 -0.002165543 0.02682683 0.030267103 -0.020650517 0.19889678 -0.14391826 -0.14387217
0.35053992 -0.24432306 -0.19861493 0.21655779 -0.58058214 -0.6869587 0.2380323 -0.26995835
-0.3042301 0.4606085 -0.0029951253 0.33200976 0.12581034 0.09384184 0.2857349 0.21621272
0.21897393 0.35055408 0.16444227 -0.031142734 -0.5852265 0.011383549 -0.30043295 -1.1333475
-0.037112065 -0.5523984 -1.3997937 -0.5732004 -0.26657173 -0.20746541 0.061774112 -0.6039178
00000000: 937e e1bd b479 97be 82df 04bf c6b0 c7be
00000010: 3971 ff3d 0c1f b6be 092a a2bd f6fe 2fbf
00000020: 8acc 1ebf 1ed1 803e e747 d53d aba5 6cbe
00000030: a778 81be c401 98be 0e26 41be bddb 14be
00000040: bf8d 3cbe f385 0c3e bbdd b9bc 187f 803d
00000050: c71d 343e 5ac2 9d3e 8a61 783e 70d5 98bd
00000060: f67b f63d 6be8 cabe 7094 44be 5e2d bdbd
00000070: febe bd3d db62 57bd fa41 86be 5731 063e
00000080: 9f35 f73d 4fc3 05bf 15c3 13be 1525 163d
00000090: 2f33 cabc 0719 19bf b9e2 4fbe 8123 5d3d
000000a0: 7e95 30bf ac3f acbe 3d5e 883e 2cc3 b0bd
000000b0: b4c9 ab3e 561e cd3d e4c7 18bf eaaf 59bf
000000c0: d60e e5bd bf7c 80bf f31e 3ebf 63b6 75be
000000d0: 1e82 92be 23a1 fd3c e107 b0bd f8fe 303e
000000e0: 4766 6d3e 3838 9ebe fa39 1e3e 6606 8e3d
000000f0: f265 b83d 5b43 503e 190e 093e acd0 08be
00000100: 94f1 88bc a1f8 2d3e 67ce e5bd e446 02be
00000110: 8f93 723e 5905 0d3e a8ca 11be e163 e13d
00000120: 0e5e 3ebb 7da7 963d b640 a03d b36b c43d
00000130: 10ba 6f3d c626 2cbe 70d0 b23d 021f bfbe
00000140: da60 bebe b0eb ea3b 2ff0 33bf e2f2 84be
00000150: dde1 6a3d 62ef 55bf c38b 98be 1a36 3a3e
00000160: ade5 aebe fec2 823e 2710 30bd 540f f53b
00000170: 19b9 31be 432a c8bd 013d 4a3e d9b5 953d
00000180: f19b 1fbe 0652 943e fae4 7c3e cfa0 21bc
00000190: e391 39be 1ae9 13bc 6468 31bd 2bc1 30be
000001a0: 06e7 a8bd 3328 eebd 59c4 25bd 1079 70bd
000001b0: 25df 133e 7bf7 57be 6929 91bd 3cc9 2a3e
000001c0: 1b74 68be 8ec8 6e3d e2e7 e93d 2530 8b3c
000001d0: 4c0a b33e 6f44 c2be c8c6 aebe bdcb 8d3e
000001e0: 979e e0be c9e7 6cbe 9afa cc3e 1a6d 403b
000001f0: 5d63 af3e 93eb 393f e8fe 7abf 1f61 fdbe
00000200: c308 c63c ade2 acbf f689 04bf 3af1 82be
00000210: 0108 30bf a1d1 04bf ffd4 d3be 87af 363d
00000220: e605 a93c cb0c e23d d519 4b3c c2e9 19bd
00000230: f230 2a3e 570f 42bd 0da1 0ebd b3dc c83d
00000240: d699 a0be ae64 fabd a9fa 273d fae8 3cbb
00000250: c229 b3be b0c9 0c3e 4f9b 333e c34e 95be
00000260: 72ae 9e3d ef51 20bf bfca e0bd f256 913d
00000270: 82ec 3bbf 0656 e1be 32d7 ac3e b1e5 f6be
00000280: d80c 64be f070 933e 05d9 9f3e 6fd0 14bf
00000290: 39bb 2bbb 8476 383f 9ace c83c 6442 d23e
000002a0: 88ac ce3d 85c8 70be 1eda 333e cbae 043e
000002b0: 3c95 d9be 2ba3 16bd f7dd 29be 046f 61bf
000002c0: 115a 17bf 4696 11be c2cb 37bf 614a 07bf
000002d0: d84c 62bd 7072 783d a22f f53c 1e3d e1be
000002e0: 3977 d83d 9612 393e 932b d8bd ba8d 2c3e
000002f0: 8853 483e 1d73 863d 15fb 82be 5e51 2dbe
00000300: 2c3d aabd c210 d1be 5c39 b9bd c9d1 923d
00000310: 9140 1bbe 1486 c4bc 8e95 6e3e 35a5 9cbd
00000320: 160e 6cbe 6b21 5a3e 657a 993e 0e3f e7bd
00000330: 81c3 fcbd d2bd c73e 2161 433e ae7d 843e
00000340: 2645 313e bf11 23ba cbb7 563d d9ac 56bf
00000350: 2d41 58bf 88d2 433d 1c30 08bf 3f81 bfbf
00000360: 8354 2fbd c8eb 0dbb f1c3 db3c b7f2 f73c
00000370: 462b a9bc 99ab 4b3e 4f5f 13be 3a53 13be
00000380: f879 b33e d32f 7abe b661 4bbe 53c1 5d3e
00000390: 08a1 14bf 86dc 2fbf bdbe 733e fb37 8abe
000003a0: 0cc4 9bbe e1d4 eb3e dd49 44bb 2ffd a93e
000003b0: 6dd4 003e 2730 c03d d84b 923e de66 5d3e
000003c0: b43a 603e d37b b33e 8e63 283e 0c1f ffbc
000003d0: 67d1 15bf 1182 3a3c 59d2 99be 8811 91bf
000003e0: d202 18bd fb69 0dbf 712c b3bf 43bd 12bf
000003f0: 177c 88be d071 54be da06 7d3d 5b9a 1abf

module.inc.conv.conv.3.bias f4 [32]
-0.008129039 0.046177343 0.060472965 -0.037197515 0.05883334 0.15643151 0.044952814 0.049345482
-0.00018978951 0.119462155 0.02375108 -0.030566487 0.05792555 0.034504574 0.050308276 0.039735917
0.104438834 0.005731592 0.06782045 0.040825427 0.026545042 0.077647194 0.05320677 0.023640724
-0.03602502 -0.020543663 0.08405863 -0.022172127 -0.042526517 0.07324088 0.08924922 0.036064733
00000000: a92f 05bc 7424 3d3d 80b2 773d 6c5c 18bd
00000010: 3afb 703d 952f 203e 7120 383d 7d1e 4a3d
00000020: 3c02 47b9 93a8 f43d a091 c23c 9266 fabc
00000030: 5743 6d3d ab54 0d3d 0d10 4e3d 21c2 223d
00000040: 07e4 d53d 14d0 bb3b 73e5 8a3d 9038 273d
00000050: fd74 d93c 7e05 9f3d 58ef 593d 31aa c13c
00000060: f98e 13bd 2f4b a8bc ee26 ac3d 52a2 b5bc
00000070: 4930 2ebd 51ff 953d 4cc8 b63d 9db8 133d

module.inc.conv.conv.4.weight f4 [32]
1.195685 2.2199407 2.1364977 0.77396 1.0213654 1.0652008 1.9552013 2.4325597
2.1251774 2.069322 1.7162651 1.8417518 2.0163515 1.5825149 1.2187696 1.1518888
2.1840026 1.900635 2.373734 2.7631617 2.5318313 2.374847 1.9992805 1.710468
1.8821855 2.539784 1.3271303 0.8957784 0.8473781 1.6914492 1.8306949 1.1232476
00000000: 350c 993f 8213 0e40 61bc 0840 3e22 463f
00000010: 1abc 823f 8058 883f 0944 fa3f 0faf 1b40
00000020: e802 0840 c66f 0440 93ae db3f 86be eb3f
00000030: e70b 0140 d98f ca3f a400 9c3f 1871 933f
00000040: b3c6 0b40 0248 f33f 42eb 1740 a4d7 3040
00000050: 8609 2240 7efd 1740 6ce8 ff3f 9ef0 da3f
00000060: 74eb f03f d28b 2240 68df a93f bc51 653f
00000070: c5ed 583f 6881 d83f 3654 ea3f 94c6 8f3f

module.inc.conv.conv.4.bias f4 [32]
-0.009640096 -0.7210917 0.043408714 -0.17743413 0.079504855 0.116017714 0.030150661 0.1372698
-0.063773826 -0.2553845 -0.043700643 -0.07076648 -0.07901106 0.032521926 0.033271123 -0.35991222
0.036118962 -0.029531995 0.04740848 0.3935192 -0.034164544 -0.025427574 0.063081734 0.0669281
0.030808851 0.15177347 0.039694637 0.015492089 0.24898082 0.15806755 -0.023218198 0.058837615
00000000: 7ef1 1dbc 7799 38bf 56cd 313d 4bb1 35be
00000010: 71d3 a23d b29a ed3d 85fe f63c 7490 0c3e
00000020: da9b 82bd c2c1 82be 72ff 32bd 04ee 90bd
00000030: 8dd0 a1bd b635 053d 4d47 083d 6a46 b8be
00000040: 7af1 133d 15ed f1bc 652f 423d 597b c93e
00000050: 1ff0 0bbd 7d4d d0bc ff30 813d 9a11 893d
00000060: d862 fc3c 816a 1b3e d896 223d 88d2 7d3c
00000070: d4f4 7e3e 76dc 213e 1734 bebc b6ff 703d

module.inc.conv.conv.4.running_mean f4 [32]
-1.5601636 -1.1548845 -0.91836756 -2.8513443 -2.9705188 -2.0154314 -1.259869 0.12747544
2.3598735 -0.6791192 -1.6396521 -0.32676446 -1.7992252 -1.007133 0.75579566 -8.587697
-0.3112003 -1.4304751 -0.34818193 -1.1376184 -1.8364569 0.6213661 -1.5947115 -3.4319685
-0.36514395 -0.7322486 -0.18019633 -1.1532675 1.1378896 -0.4126237 -2.4319766 -0.86717266
00000000: 71b3 c7bf 41d3 93bf 231a 6bbf 6d7c 36c0
00000010: fb1c 3ec0 d4fc 00c0 6343 a1bf ec88 023e
00000020: 2b08 1740 c2da 2dbf 1fe0 d1bf ac4d a7be
00000030: 034d e6bf bce9 80bf d37b 413f 3567 09c1
00000040: a555 9fbe cf19 b7bf e744 b2be 7b9d 91bf
00000050: 0511 ebbf d911 1f3f 821f ccbf 5fa5 5bc0
00000060: 26f4 babe a574 3bbf 6385 38be 459e 93bf
00000070: 5ea6 913f 6a43 d3be 81a5 1bc0 07ff 5dbf

module.inc.conv.conv.4.running_var f4 [32]
18.553484 17.600647 44.52375 26.414593 24.61142 18.683746 36.46301 50.152584
27.712242 19.067734 46.83046 35.225433 48.53611 26.172289 30.623425 28.779438
52.811413 27.421654 20.81306 48.52111 56.321007 52.52741 43.85469 44.802082
28.23694 54.92812 16.039951 44.182293 20.380173 30.288523 33.032562 26.049774
00000000: 896d 9441 20ce 8c41 5218 3242 1651 d341
00000010: 30e4 c441 5078 9541 1fda 1142 3f9c 4842
00000020: acb2 dd41 b88a 9841 6452 3b42 d8e6 0c42
00000030: fa24 4242 d960 d141 c6fc f441 4a3c e641
00000040: e33e 5342 8c5f db41 2681 a641 9e15 4242
00000050: b648 6142 111c 5242 346b 2f42 5535 3342
00000060: 41e5 e141 65b6 5b42 d251 8041 abba 3042
00000070: 980a a341 e54e f241 5821 0442 f065 d041

module.down1.mpconv.1.conv.0.weight f4 [64, 32, 3, 3]
-1.141555 -0.936056 0.07117384 -1.1176807 -1.1993306 -0.5244854 -0.6195981 -0.7026828
-0.032260243 -0.12987097 0.10424847 -0.17692438 0.6095785 -0.20989265 0.15752387 0.24975134
0.41836566 0.33867502 0.04039717 -0.27627409 -0.0064335344 0.15468279 -0.12111799 0.051783625
-0.013277171 -0.28665954 -0.04778638 0.13385639 -0.081503496 -0.26215228 -0.87279993 -0.7401361
-0.3562349 -0.4199022 -0.3000914 -0.41872922 -0.0036955986 -0.074870735 -0.3285916 -0.40669864
-0.12208492 -0.39698616 0.006559128 0.076339886 -0.091799 0.07063557 0.28315723 0.24859089
0.238552 0.21762215 0.003188543 -0.16045494 -0.037913565 -0.1810373 0.43857312 0.5604535
0.46406832 -0.103875406 0.16334029 -0.15355943 0.088696435 0.3374637 -0.15181765 -0.49805307
-0.20549591 -0.17170127 -0.3355412 -0.47921208 -0.47745907 -0.11266374 -0.5919082 0.06878357
-0.20794563 0.61052895 0.35548002 0.081280954 0.35394397 0.47688696 -0.15223424 0.4757593
0.21125014 -0.026251929 -0.3300874 -0.36455122 0.10259982 0.4447898 0.03836838 0.20618841
0.12558345 -0.18402214 0.29155913 -0.24048679 0.1173515 -0.076104045 -0.23784596 -0.15927766
-0.38249263 -0.37761125 -0.050312676 -0.053402912 -0.3564435 -0.27768862 0.26143962 -0.07108928
-0.0670736 -0.05588639 0.15177871 0.17528112 0.03985338 0.04847131 -0.061264187 -0.005666881
0.009709682 0.03015044 -0.008057573 0.2560536 -0.1323242 -0.69230235 -0.14997216 0.43299365
-0.38151345 -0.398509 -0.26844993 -0.388195 -0.31378722 -0.2656878 0.18618715 -0.3335979
0.10878222 -0.45983097 -1.3885525 -0.46789357 0.13670404 -0.38311833 0.092730746 0.13537717
0.22052297 -1.4841083 -0.46052638 -0.44256085 -1.8674322 -0.5582322 -0.20694418 -1.4750609
-0.4714475 0.054237388 -0.60354394 0.05048951 0.8631121 -0.12929782 0.6522365 0.630935
0.31549132 0.11970171 0.5047308 0.10295278 0.08086329 0.2966867 -0.15311323 0.58023345
-0.21085125 0.06287319 -0.840783 0.6370291 0.19475572 -0.32477638 0.24153155 -0.049571134
-0.31155932 0.32240316 0.07728628 0.3998473 0.15654658 0.3206742 0.25284576 -0.19620442
0.094010405 -0.19446717 -0.08867456 0.20730802 0.48252985 1.2182811 0.77004445 0.03474819
-0.0722915 0.1579266 -0.11378842 -0.24314354 -0.096353665 -0.48258224 -1.4728433 -0.6520951
0.29031223 0.43973348 -0.57678133 0.69657516 0.5502383 -0.35787246 -0.45047757 -0.43540442
0.5879668 -0.806135 -0.2672094 0.11236074 -0.5268736 -0.10060228 -0.01733169 0.2407059
0.77820903 0.17516954 -0.018239915 0.021876855 0.20140396 -0.2551797 0.26888824 0.2197921
-0.59125185 -1.255419 -0.9017289 -0.5247008 -0.945672 -0.8436971 -0.109702945 -0.70529103
-0.25201324 -0.04004248 -0.1704388 -0.59931326 0.6391215 0.6141904 0.3141307 0.26781815
-0.121188365 0.007447292 0.31329522 0.18773948 0.48492864 -0.4164312 -0.53468966 0.08203101
0.063422725 -0.3133231 0.1577585 0.099690184 -0.37385508 0.14792314 -0.3042047 -1.0227406
0.24015272 -0.4180844 -0.14748378 0.14543474 -0.025629219 0.115708195 -0.17811333 -0.057218958
00000000: 791e 92bf 5ea1 6fbf 97c3 913d 2910 8fbf
00000010: aa83 99bf ad44 06bf fb9d 1ebf 05e3 33bf
00000020: 5123 04bd e5fc 04be 3980 d53d aa2b 35be
00000030: 560d 1c3f 19ee 56be f04d 213e d1be 7f3e
00000040: 0634 d63e d066 ad3e 8177 253d cc73 8dbe
00000050: 66d0 d2bb 2a65 1e3e b50c f8bd 111b 543d
00000060: 7e88 59bc 0ac5 92be a7bb 43bd a611 093e
00000070: 4eeb a6bd d338 86be d16f 5fbf 8f79 3dbf
00000080: 6c64 b6be 6cfd d6be 94a5 99be ad63 d6be
00000090: db31 72bb d455 99bd 283d a8be ce3a d0be
000000a0: a907 fabd c541 cbbe f4ed d63b 1658 9c3d
000000b0: 1d01 bcbd 62a9 903d fcf9 903e 9c8e 7e3e
000000c0: fa46 743e 57d8 5e3e e0f6 503b 4d4e 24be
000000d0: 414b 1bbd d861 39be a88c e03e e179 0f3f
000000e0: 5d9a ed3e a1bc d4bd ad42 273e af3e 1dbe
000000f0: 7aa6 b53d 0bc8 ac3e 1676 1bbe d000 ffbe
00000100: 856d 52be 75d2 2fbe 0ecc abbe 495b f5be
00000110: 8475 f4be 3fbc e6bd 4c87 17bf 66de 8c3d
00000120: b3ef 54be a04b 1c3f 7a01 b63e a176 a63d
00000130: 2538 b53e 872a f43e 4be3 1bbe b996 f33e
00000140: f551 583e 490e d7bc 3701 a9be 75a6 babe
00000150: db1f d23d 7dbb e33e 2a28 1d3d 0e23 533e
00000160: f398 003e 4d70 3cbe 3d47 953e 2b42 76be
00000170: fc55 f03d 70dc 9bbd e48d 73be af19 23be
00000180: 13d6 c3be 4356 c1be aa14 4ebd 03bd 5abd
00000190: c37f b6be 342d 8ebe 6adb 853e 4297 91bd
000001a0: e25d 89bd 21e9 64bd e16b 1b3e e57c 333e
000001b0: 4c3d 233d da89 463d 28f0 7abd 3eb1 b9bb
000001c0: 5c15 1f3c 0efe f63c e903 04bc 7519 833e
000001d0: ff7f 07be ba3a 31bf 4d92 19be 58b1 dd3e
000001e0: bb55 c3be 5f09 ccbe 4572 89be 7fc1 c6be
000001f0: b8a8 a0be 3b08 88be d8a7 3e3e 58cd aabe
00000200: 36c9 de3d f76e ebbe 17bc b1bf bf8f efbe
00000210: 25fc 0b3e 1628 c4be 9ee9 bd3d 50a0 0a3e
00000220: c6d0 613e 43f7 bdbf 1dca ebbe 5697 e2be
00000230: 0508 efbf 4ee8 0ebf 2de9 53be ccce bcbf
00000240: 9161 f1be 0628 5e3d db81 1abf 17ce 4e3d
00000250: eaf4 5c3f a666 04be f9f8 263f f584 213f
00000260: 1488 a13e 2c26 f53d 0a36 013f e8d8 d23d
00000270: a79b a53d 52e7 973e b7c9 1cbe 2e8a 143f
00000280: 64e9 57be a9c3 803d 8e3d 57bf 5714 233f
00000290: 0b6e 473e 1749 a6be 0c54 773e 1a0b 4bbd
000002a0: b484 9fbe 0712 a53e 4548 9e3d c9b8 cc3e
000002b0: bf4d 203e 692f a43e 0075 813e d0e9 48be
000002c0: 8788 c03d 6722 47be 029b b5bd 8e48 543e
000002d0: 270e f73e a3f0 9b3f a221 453f 1e54 0e3d
000002e0: 910d 94bd 83b7 213e e709 e9bd 9ffa 78be
000002f0: 1255 c5bd 0515 f7be 2186 bcbf b4ef 26bf
00000300: cea3 943e bf24 e13e f1a7 13bf c052 323f
00000310: 6bdc 0c3f 0f3b b7be ffa4 e6be 54ed debe
00000320: fe84 163f dd5e 4ebf accf 88be 631d e63d
00000330: 30e1 06bf 9108 cebd 30fb 8dbc 9c7b 763e
00000340: b538 473f a55f 333e e06b 95bc 1737 b33c
00000350: d73c 4e3e eaa6 82be b8ab 893e 2e11 613e
00000360: 485c 17bf 92b1 a0bf b5d7 66bf cb52 06bf
00000370: 8f17 72bf 88fc 57bf f0ab e0bd f48d 34bf
00000380: e107 81be 9503 24bd 8287 2ebe 986c 19bf
00000390: 779d 233f 953b 1d3f bdd5 a03e 761f 893e
000003a0: 9b31 f8bd 6a08 f43b 3b68 a03e c73e 403e
000003b0: 9148 f83e 7836 d5be 6ce1 08bf e0ff a73d
000003c0: c6e3 813d e36b a0be 728b 213e 5e2a cc3d
000003d0: ef69 bfbe 2a79 173e b8c0 9bbe 2ae9 82bf
000003e0: 98ea 753e 290f d6be fd05 17be d8ec 143e
000003f0: 5ef4 d1bc 6bf8 ec3d 5763 36be 6d5e 6abd

module.down1.mpconv.1.conv.0.bias f4 [64]
0.0077124084 -0.009935631 -0.06272178 -0.042107172 0.019820655 0.15215914 0.09431882 0.039373342
-0.010467013 -0.051699713 -0.4233362 0.161152 0.042523026 0.027606802 0.030016389 0.05763868
0.056610815 -0.053603426 -0.05666779 -0.11935083 -0.04147723 0.06359087 0.029287113 -0.0879813
0.013379153 -0.0767925 -0.06622359 -0.1400528 0.011640912 -0.13910988 0.018036079 -0.11507785
0.06357118 -0.06378895 0.004066018 -0.13033922 -0.058784448 0.043158516 -0.046945766 -0.09367
-0.07046701 -0.11414862 -0.029901063 -0.1120895 0.0024713308 -0.09844161 -0.13926534 -0.034375295
-0.12576614 0.08938728 -0.14970475 -0.10365808 -0.027131831 -0.035337377 0.0206271 -0.03854062
-0.05771726 -0.057157367 -0.015099545 0.10621871 -0.09874122 0.052696917 0.04206795 -0.011760664
00000000: 5fb8 fc3b 0fc9 22bc 4774 80bd 9278 2cbd
00000010: ed5e a23c 9bcf 1b3e 3a2a c13d f145 213d
00000020: d67d 2bbc 14c3 53bd 86bf d8be 0805 253e
00000030: a02c 2e3d a927 e23c eee4 f53c 8916 6c3d
00000040: bee0 673d 448f 5bbd 7c1c 68bd 356e f4bd
00000050: 07e4 29bd ee3b 823d 87eb ef3c 8a2f b4bd
00000060: 3c34 5b3c 6345 9dbd 3ca0 87bd 006a 0fbe
00000070: 86b9 3e3c d272 0ebe 66c0 933c f0ad ebbd
00000080: 9b31 823d c8a3 82bd 3b3c 853b a577 05be
00000090: f6c7 70bd fcc6 303d 344a 40bd 0fd6 bfbd
000000a0: 0251 90bd c0c6 e9bd 13f3 f4bc 2e8f e5bd
000000b0: 0df6 213b c19b c9bd 939b 0ebe 1ccd 0cbd
000000c0: d7c8 00be ae10 b73d 344c 19be b04a d4bd
000000d0: 9343 debc edbd 10bd 2afa a83c c5dc 1dbd
000000e0: ef68 6cbd d81d 6abd 1564 77bc 3289 d93d
000000f0: d638 cabd b9d8 573d 714f 2c3d cdaf 40bc

module.down1.mpconv.1.conv.1.weight f4 [64]
0.6876116 1.4047785 1.3851153 1.8343241 1.2776146 1.607123 0.9707505 1.2431475
0.56773156 1.3760061 0.6996581 1.4490123 0.9115817 0.88800514 0.99622226 1.2248106
1.5896053 1.5775483 1.4579974 1.0122328 1.2511055 1.3399901 1.1243354 1.5853875
1.5578543 0.51728725 1.218421 1.2089314 1.1525226 1.5101082 1.6519703 1.4550887
1.8641752 1.2635216 1.3728586 1.5804418 1.5958922 1.3061365 1.7251917 1.5385108
1.9815377 1.0601383 1.4193639 1.6412344 1.2397891 0.63015515 1.4568937 1.2847759
1.0421716 1.410741 1.360036 1.8451577 1.8331863 1.5128077 1.3754568 1.3119224
1.3642423 0.5606614 2.1119568 1.0273472 1.5566727 2.072334 1.658052 1.5681903
00000000: 5007 303f c8cf b33f 754b b13f 22cb ea3f
00000010: e088 a33f 35b6 cd3f 1b83 783f 751f 9f3f
00000020: db56 113f f820 b03f cb1c 333f 3c79 b93f
00000030: 6b5d 693f 4e54 633f 6c08 7f3f 98c6 9c3f
00000040: 3078 cb3f 1aed c93f a99f ba3f d890 813f
00000050: 3a24 a03f cc84 ab3f 39ea 8f3f faed ca3f
00000060: c567 c73f f06c 043f 38f5 9b3f 44be 9a3f
00000070: dc85 933f 3a4b c13f c373 d33f 5940 ba3f
00000080: 4b9d ee3f 13bb a13f d5b9 af3f eb4b ca3f
00000090: 3246 cc3f 7b2f a73f 15d3 dc3f eced c43f
000000a0: 07a3 fd3f 9db2 873f b7ad b53f f813 d23f
000000b0: 69b1 9e3f d951 213f 7e7b ba3f 8973 a43f
000000c0: e165 853f 2993 b43f a915 ae3f 212e ec3f
000000d0: d9a5 ea3f afa3 c13f f80e b03f 13ed a73f
000000e0: 7e9f ae3f 8187 0f3f 4d2a 0740 1d80 833f
000000f0: 0d41 c73f 1fa1 0440 0c3b d43f 76ba c83f

module.down1.mpconv.1.conv.1.bias f4 [64]
-0.033917703 -0.1737105 0.022808507 0.11643801 -0.15444812 0.011836038 0.07231067 0.02939639
-0.09244548 -0.1900401 -1.1089618 -0.17492992 -0.10077003 0.15153764 0.07023141 0.34380576
-0.22420272 -0.18034473 -0.35104394 0.002000774 0.006488752 0.0043234373 0.019390283 -0.2577957
-0.25424725 -0.14142853 -0.07982778 -0.16549672 -0.03857379 -0.20928884 -0.2040782 -0.24263923
0.02716673 -0.4758931 -0.09618925 -0.2321421 -0.2738743 0.08794453 -0.22314817 -0.36075795
-0.19740653 -0.2535107 0.20701309 -0.41825333 -0.0012699981 -0.16747826 -0.25107318 -0.32006538
-0.2460623 0.15123978 -0.34741673 -0.108316295 -0.024387678 -0.04628695 -0.2524843 -0.14934792
-0.28532922 -0.055663142 -0.08477807 0.108307295 -0.3997519 -0.0761776 -0.09251281 -0.25860545
00000000: 4aed 0abd 2ae1 31be e8d8 ba3c 0d77 ee3d
00000010: a627 1ebe f1eb 413c 9e17 943d b3d0 f03c
00000020: 0e54 bdbd df99 42be 76f2 8dbf d420 33be
00000030: 8460 cebd af2c 1b3e 7cd5 8f3d 4f07 b03e
00000040: 6695 65be 4aac 38be 08bc b3be 6b1f 033b
00000050: 999f d43b 9fab 8d3b 5fd8 9e3c ccfd 83be
00000060: b22c 82be a4d2 10be bf7c a3bd f977 29be
00000070: 8dff 1dbd d04f 56be e0f9 50be 6b76 78be
00000080: c38c de3c 43a8 f3be dffe c4bd a9b6 6dbe
00000090: 4139 8cbe 431c b43d f480 64be 44b5 b8be
000000a0: f024 4abe 28cc 81be 3dfb 533e 4d25 d6be
000000b0: 1176 a6ba 6c7f 2bbe aa8c 80be 9cdf a3be
000000c0: c1f7 7bbe 9ade 1a3e 9be0 b1be efd4 ddbd
000000d0: abc8 c7bc 6397 3dbd 9f45 81be a9ee 18be
000000e0: ac16 92be 09ff 63bd 20a0 adbd 37d0 dd3d
000000f0: 48ac ccbe 0003 9cbd 5b77 bdbd ef67 84be

module.down1.mpconv.1.conv.1.running_mean f4 [64]
-3.9492774 -3.2218425 -2.6799035 -3.3242126 -2.9591649 -7.580632 -6.595741 -3.8889875
4.5980535 -6.9387474 5.5129423 -5.480329 -5.1651597 -6.6042957 -3.9972036 -5.5999174
-5.6601486 -3.0933633 -1.8478446 0.58470255 -4.3996606 -9.864995 -4.4006424 -5.2347975
-6.213992 1.7324154 -1.52044 -0.49960276 -5.0555196 -1.3357584 -2.411009 -3.8288314
-3.5401354 -4.593691 -5.621837 -1.9793475 -4.0742493 -5.4552646 -6.730853 -4.1304626
-4.3108444 -8.922408 -8.32219 -3.1010041 -3.9275239 -6.1808643 -2.272557 -5.0683503
-1.3184676 -4.3196893 -3.0699284 -4.197074 -1.9861242 -3.5532753 -4.7132998 -4.550266
-0.60022956 2.4724765 -3.535201 -5.122646 -2.2658796 -4.788716 -1.3284078 -2.9951277
00000000: f6c0 7cc0 ab32 4ec0 8a83 2bc0 e6bf 54c0
00000010: f562 3dc0 8a94 f2c0 4f10 d3c0 2ce5 78c0
00000020: 4123 9340 380a dec0 066a b040 db5e afc0
00000030: fd48 a5c0 6456 d3c0 2fd2 7fc0 8632 b3c0
00000040: f01f b5c0 aaf9 45c0 2c86 ecbf 11af 153f
00000050: 05ca 8cc0 05d7 1dc1 10d2 8cc0 7683 a7c0
00000060: 06d9 c6c0 cabf dd3f c79d c2bf efcb ffbe
00000070: d1c6 a1c0 22fa aabf f94d 1ac0 930b 75c0
00000080: 9491 62c0 84ff 92c0 17e6 b3c0 425b fdbf
00000090: 4060 82c0 8791 aec0 2663 d7c0 c02c 84c0
000000a0: 70f2 89c0 2fc2 0ec1 b127 05c1 da76 46c0
000000b0: 8d5c 7bc0 a4c9 c5c0 9371 11c0 ed2f a2c0
000000c0: 8cc3 a8bf e53a 8ac0 b579 44c0 6e4e 86c0
000000d0: 5139 febf dd68 63c0 5ad3 96c0 c79b 91c0
000000e0: a5a8 19bf 0e3d 1e40 bc40 62c0 b7ec a3c0
000000f0: 2c04 11c0 293d 99c0 4409 aabf 2cb0 3fc0

module.down1.mpconv.1.conv.1.running_var f4 [64]
34.118637 52.443356 52.58423 90.10412 52.357353 75.38419 44.340996 63.133617
29.359213 39.552677 56.163372 82.80272 17.466656 36.12576 23.934145 82.0523
116.58078 82.51116 34.560013 60.068184 55.057575 92.63854 55.247875 92.97616
78.421524 38.297295 43.186516 39.4384 40.774555 36.15457 69.75248 78.39241
117.55535 63.85791 55.231003 79.727585 90.59525 131.12965 48.697285 40.55321
35.458584 50.52065 249.26666 56.875034 45.89361 19.522718 59.759987 60.07278
54.987648 69.52349 44.42587 105.41046 136.2661 163.28076 96.67608 53.305603
53.048416 57.078354 109.37975 31.81161 31.505806 152.8497 126.927574 114.00237
00000000: 7c79 0842 ffc5 5142 4056 5242 4f35 b442
00000010: ee6d 5142 b5c4 9642 2e5d 3142 d388 7c42
00000020: abdf ea41 f135 1e42 4ba7 6042 fe9a a542
00000030: b6bb 8b41 c780 1042 2179 bf41 c71a a442
00000040: 5c29 e942 b705 a542 743d 0a42 d245 7042
00000050: f53a 5c42 ef46 b942 d3fd 5c42 cbf3 b942
00000060: d2d7 9c42 6e30 1942 febe 2c42 ecc0 1d42
00000070: 2519 2342 489e 1042 4581 8b42 eac8 9c42
00000080: 571c eb42 806e 7f42 8cec 5c42 8674 9f42
00000090: c530 b542 3121 0343 05ca 4242 7d36 2242
000000a0: 97d5 0d42 2515 4a42 4444 7943 0980 6342
000000b0: 0e93 3742 872e 9c41 3a0a 6f42 874a 7042
000000c0: 5af3 5b42 070c 8b42 17b4 3142 28d2 d242
000000d0: 1f44 0843 e047 2343 275a c142 f038 5542
000000e0: 9431 5442 3c50 6442 6fc2 da42 2d7e fe41
000000f0: e40b fc41 86d9 1843 ebda fd42 3701 e442

module.down1.mpconv.1.conv.3.weight f4 [64, 64, 3, 3]
0.055863146 -0.4903152 -0.9240826 0.11191855 -0.6953782 -0.83557695 0.0074803894 -0.79824275
-0.005889524 -0.49525517 -0.31802732 -0.6857721 -0.1485451 -0.47973397 -0.43092096 -0.5168254
-0.08691609 -0.39841956 0.15837584 0.11981176 0.49232736 0.6383399 -0.5433135 -0.5706708
0.1908772 -0.14395744 0.45532513 0.19881278 0.1364544 -0.30848107 0.04918236 -0.24496001
-0.77409816 0.42718932 -0.56174225 -0.5213835 -0.13447568 -0.87499833 -0.590747 0.2657628
-0.012868449 -0.80896175 -0.62604034 0.22488056 0.093536966 -0.41701385 -0.15321302 -1.0039697
-0.4440648 0.4271376 -0.08177763 -0.013368431 -0.24924375 0.23370612 -0.79077417 0.16376473
-0.4935138 -1.1205664 -0.49674714 0.09791991 -0.40079007 -0.6439673 -0.08570668 0.49674472
-0.1702254 -0.41408125 0.2928954 0.26987234 0.10295743 -0.085406154 -0.19004261 -0.05214188
-1.0448382 -0.63964033 -0.5142074 -0.73315215 -0.21628973 -0.37354723 -0.44148436 -0.6175524
-0.5294341 0.68933684 0.245149 0.18527994 0.52436036 0.18949267 -0.43193886 0.3826593
-0.41262746 -0.43935615 -0.3126004 -0.6764931 -0.24656951 -0.32012776 -0.62983143 -0.24764414
-0.7719985 0.7206567 -0.89386284 0.061489675 -0.65926784 -0.21776497 0.25093237 -0.5732955
-0.13570239 0.100590885 -0.11161698 -0.34615636 -0.50864154 -0.35688144 0.24419345 -0.42497948
-0.13782789 0.019093918 -0.27382174 0.26552114 -0.2269169 -0.051715158 -0.40711382 -0.08717797
-0.24005038 -0.23061533 -0.7148507 -0.08498587 -0.22693878 -0.5068459 0.15201308 -0.10000272
-0.15407786 -0.19261195 -0.16749346 0.22680488 -0.28691012 -0.5423291 -0.044161677 -0.29156935
-0.42190853 -0.19715095 -0.11642465 0.17464456 -0.63171315 0.08594404 0.34668425 0.04192031
0.5758363 0.62942404 -0.18938492 0.19971006 -0.10713143 0.1001018 0.66180944 0.18337962
1.1125504 -0.057322342 0.024262188 -0.31011802 0.12887594 -0.54971725 -0.5192867 0.33249453
0.14201969 0.27912128 -0.88219833 0.1450672 -0.057383783 -0.20868108 -0.1283217 -0.45088276
-1.1204476 -0.46293694 0.5756308 0.08373412 -0.16551276 0.32826886 -0.39281186 0.0119437035
0.12315752 -0.40688857 -0.16821854 -0.07480749 0.15765604 0.11172764 0.1803865 0.033773057
0.27292037 0.3368595 0.5042363 0.32595986 0.11969172 0.1259981 0.5156164 0.56177396
-0.056745578 0.319437 -0.4344397 -0.15474038 0.67979705 0.5958697 0.6267977 -0.14414765
0.50426954 -0.058785286 -0.025465924 -0.09627327 -0.0900259 0.09337103 -0.19936173 0.2866722
0.63471806 -0.6238593 0.08273883 -0.36430472 -0.55040836 -0.5622333 -0.1740764 -0.32746443
-0.7226561 -0.31484413 0.34323677 0.5785769 0.7830535 0.20415813 0.04429242 0.05028312
0.024190713 -0.3555255 -0.39196038 0.4726619 -0.4443496 -0.6139243 0.20671722 -0.4327084
-0.5241258 0.049696077 -1.0188185 -0.7035149 0.39716795 -1.3612057 -0.24830383 -0.17472464
-0.63869673 -0.34744984 -0.33144805 0.6754475 -0.0066301604 -0.25105205 0.22203723 0.03792822
-0.95040846 0.28669173 0.51894045 -0.80840415 0.11709743 0.30844945 0.10226117 0.1799597
00000000: c1d0 643d 980a fbbe ad90 6cbf 8e35 e53d
00000010: 4e04 32bf 5fe8 55bf 0e1e f53b a359 4cbf
00000020: e8fc c0bb 1692 fdbe 7ad4 a2be c38e 2fbf
00000030: 351c 18be b19f f5be aca1 dcbe ab4e 04bf
00000040: 1001 b2bd a6fd cbbe 472d 223e de5f f53d
00000050: 5512 fc3e 3e6a 233f 9816 0bbf 7b17 12bf
00000060: 5075 433e 9469 13be 6020 e93e 9495 4b3e
00000070: b4ba 0b3e 3bf1 9dbe 7173 493d ccd6 7abe
00000080: 4c2b 46bf 8fb8 da3e 57ce 0fbf 6479 05bf
00000090: feb3 09be e4ff 5fbf 323b 17bf 1012 883e
000000a0: 30d6 52bc 1e18 4fbf 2e44 20bf 1747 663e
000000b0: 4f90 bf3d d782 d5be e0e3 1cbe 1482 80bf
000000c0: 765c e3be c8b1 da3e 087b a7bd 4307 5bbc
000000d0: c139 7fbe a850 6f3e 2d70 4abf f1b1 273e
000000e0: d7ad fcbe b86e 8fbf a455 febe 3c8a c83d
000000f0: 5b34 cdbe 0adb 24bf fc86 afbd 5355 fe3e
00000100: 914f 2ebe 7502 d4be 63f6 953e b52c 8a3e
00000110: 58db d23d 6ce9 aebd 889a 42be b992 55bd
00000120: 42bd 85bf 78bf 23bf 19a3 03bf dcaf 3bbf
00000130: 0e7b 5dbe 9541 bfbe 3d0a e2be ea17 1ebf
00000140: fe88 07bf 6178 303f 5708 7b3e 06ba 3d3e
00000150: 7b3c 063f 5e0a 423e 1727 ddbe ebeb c33e
00000160: e843 d3be 4af3 e0be 290d a0be a72e 2dbf
00000170: b87c 7cbe c9e7 a3be a23c 21bf 6d96 7dbe
00000180: b2a1 45bf f57c 383f 32d4 64bf 99dc 7b3d
00000190: c7c5 28bf c8fd 5ebe 357a 803e 7ec3 12bf
000001a0: 91f5 0abe 9802 ce3d 7197 e4bd 683b b1be
000001b0: 5536 02bf 2ab9 b6be d90d 7a3e e996 d9be
000001c0: c122 0dbe d96a 9c3c 5d32 8cbe 63f2 873e
000001d0: e75c 68be 46d3 53bd 3971 d0be 5d8a b2bd
000001e0: c4cf 75be 6d26 6cbe 7500 37bf 120d aebd
000001f0: a462 68be a7c0 01bf 51a9 1b3e 3ace ccbd
00000200: 96c6 1dbe 113c 45be 6883 2bbe 8a3f 683e
00000210: e2e5 92be 14d6 0abf e0e2 34bd 9448 95be
00000220: 6504 d8be f0e1 49be 0c70 eebd 06d6 323e
00000230: f4b7 21bf 6e03 b03d 9980 b13e a2b4 2b3d
00000240: 026a 133f ef21 213f 1fee 41be cb80 4c3e
00000250: b967 dbbd 2c02 cd3d 586c 293f dec7 3b3e
00000260: 0d68 8e3f d5ca 6abd 7fc1 c63c cac7 9ebe
00000270: 0ef8 033e 45ba 0cbf f9ef 04bf b93c aa3e
00000280: 9c6d 113e fce8 8e3e c0d7 61bf 7f8c 143e
00000290: 420b 6bbd 7eb0 55be c466 03be 1bda e6be
000002a0: d46a 8fbf 1206 edbe 8a5c 133f cb7c ab3d
000002b0: 2d7c 29be db12 a83e a31e c9be 86af 433c
000002c0: 033a fc3d b353 d0be 7b41 2cbe ab34 99bd
000002d0: 9670 213e 76d1 e43d 3db7 383e 9e55 0a3d
000002e0: 38bc 8b3e d978 ac3e a115 013f 36e4 a63e
000002f0: ef20 f53d a505 013e 70ff 033f 6bd0 0f3f
00000300: 0d6e 68bd 3f8d a33e e16e debe 4374 1ebe
00000310: 2e07 2e3f eb8a 183f d075 203f 719b 13be
00000320: cf17 013f d7c8 70bd ea9d d0bc ec2a c5bd
00000330: 805f b8bd 5039 bf3d 7b25 4cbe b3c6 923e
00000340: e27c 223f 3eb5 1fbf fa72 a93d 2686 babe
00000350: 90e7 0cbf 86ee 0fbf 1541 32be 6ba9 a7be
00000360: fdff 38bf 4033 a1be bbbc af3e 9e1d 143f
00000370: 3276 483f d40e 513e f86b 353d acf5 4d3d
00000380: 9a2b c63c 7007 b6be 08af c8be be00 f23e
00000390: ca81 e3be 252a 1dbf aead 533e f58b ddbe
000003a0: 1c2d 06bf 1d8e 4b3d a568 82bf 8d19 34bf
000003b0: 9959 cb3e fd3b aebf 5c43 7ebe 04eb 32be
000003c0: a181 23bf f2e4 b1be 8fb3 a9be 21ea 2c3f
000003d0: d141 d9bb e589 80be ba5d 633e 9f5a 1b3d
000003e0: f84d 73bf 42c9 923e 48d9 043f 93f3 4ebf
000003f0: c7d0 ef3d 16ed 9d3e 4e6e d13d 5b47 383e

module.down1.mpconv.1.conv.3.bias f4 [64]
0.008609809 0.018281173 -0.019266605 -0.005497472 0.18910578 0.08962478 -0.012654473 -0.044605933
-0.015831966 0.009205675 -0.02058661 -0.010340396 0.018597558 -0.02452135 -0.013455307 0.053152423
-0.011687024 -0.034816276 -0.027237535 0.019569403 -0.07952785 -0.05132465 0.026861826 0.08740453
-0.1503383 0.007747655 -0.12474697 -0.0010541849 -0.057112902 -0.06717044 -0.60605395 0.14961173
-0.07435818 0.059441183 0.037341256 -0.029492397 0.00027447275 -0.015471836 -0.052764192 -0.007896727
0.10494857 0.028747408 0.033908516 0.035527535 -0.11157992 0.043306425 -0.026843993 -0.0037031637
0.051488113 -0.50340766 -0.031052569 0.08936684 0.063027404 0.118778154 0.053356964 0.03904442
-0.07118706 -0.04522064 0.11384984 -0.039063632 -0.015259384 -0.07777118 -0.02657076 0.0132474555
00000000: 2810 0d3c 66c2 953c 00d5 9dbc 2324 b4bb
00000010: f2a4 413e 328d b73d b554 4fbc b6b4 36bd
00000020: 0ab2 81bc 66d3 163c 40a5 a8bc c46a 29bc
00000030: e859 983c 00e1 c8bc a673 5cbc 5bb6 593d
00000040: ee7a 3fbc 839b 0ebd 4021 dfbc 0350 a03c
00000050: 7fdf a2bd cc39 52bd 550d dc3c 2501 b33d
00000060: 49f2 19be 0ae0 fd3b 577b ffbd 932c 8aba
00000070: 38ef 69bd a890 89bd 5a26 1bbf d133 193e
00000080: 1a49 98bd 9978 733d 25f3 183d 0a9a f1bc
00000090: 1ce7 8f39 957d 7dbc 441f 58bd 4661 01bc
000000a0: 47ef d63d af7f eb3c a8e3 0a3d 5285 113d
000000b0: 0384 e4bd 1462 313d efe7 dbbc c7b0 72bb
000000c0: 33e5 523d 53df 00bf f561 febc f605 b73d
000000d0: 8314 813d f641 f33d d58c 5a3d 0bed 1f3d
000000e0: 85ca 91bd 4739 39bd 1b2a e93d 3001 20bd
000000f0: 7f02 7abc 7f46 9fbd ecaa d9bc db0b 593c

module.down1.mpconv.1.conv.4.weight f4 [64]
0.6487595 0.3180436 0.2548787 0.284114 0.65972567 0.46327403 0.33057797 0.46092635
0.9716139 0.92875504 0.6870909 0.5775557 0.3709327 0.8962563 0.8646967 0.64185894
0.57831496 1.1654147 0.67483115 0.5653931 0.5577343 0.57726276 0.8480744 0.93113345
0.967799 0.5058862 1.0472165 0.9990115 0.3888429 0.2963377 0.2565804 0.75163066
0.3320153 0.3854861 0.45083013 0.6913018 0.917652 0.63696957 0.79873836 0.5470466
0.66965955 0.9437299 0.39436337 0.734105 1.007898 0.613117 0.33570608 0.63224524
0.72458863 0.98286116 0.57655656 0.8422329 0.35806775 0.89778286 0.6012494 0.38220555
0.30063394 0.526524 0.7829481 0.5082778 0.33617625 0.6487673 0.2509377 1.4047
00000000: 1a15 263f 9cd6 a23e 767f 823e 6477 913e
00000010: c8e3 283f 4132 ed3e 8441 a93e 8afe eb3e
00000020: b0bb 783f e4c2 6d3f 30e5 2f3f b1da 133f
00000030: e4ea bd3e 0e71 653f c35c 5d3f de50 243f
00000040: 730c 143f 4f2c 953f bcc1 2c3f 9abd 103f
00000050: adc7 0e3f 7ec7 133f 671b 593f c35e 6e3f
00000060: adc1 773f c281 013f 310b 863f 38bf 7f3f
00000070: 6b16 c73e 93b9 973e 825e 833e de6a 403f
00000080: e9fd a93e 6f5e c53e 35d3 e63e 28f9 303f
00000090: 3eeb 6a3f 7010 233f 1e7a 4c3f 3f0b 0c3f
000000a0: cf6e 2b3f 4898 713f ffe9 c93e 4eee 3b3f
000000b0: cd02 813f 3cf5 1c3f abe1 ab3e d3da 213f
000000c0: a47e 393f ca9c 7b3f 3699 133f 939c 573f
000000d0: a854 b73e 19d5 653f 7beb 193f 72b0 c33e
000000e0: b1ec 993e 47ca 063f 496f 483f 7e1e 023f
000000f0: 4b1f ac3e 9d15 263f e87a 803e 36cd b33f

module.down1.mpconv.1.conv.4.bias f4 [64]
-0.13244335 0.01405663 0.04640751 0.03219646 -0.113728896 -0.0163881 0.0023508372 -0.20001647
-0.6427575 -0.23555593 -0.37336686 -0.04667471 0.0006866719 -0.5124876 -0.60889065 -0.19909349
-0.33651075 -0.21095657 -0.49032435 -0.14694524 -0.17229497 -0.62732714 -0.2733598 -0.106927566
-0.4153804 -0.015828615 -0.68665504 -0.23484766 -0.22547191 -0.32753626 -1.319593 0.015515491
-0.5772342 -0.04029468 -0.004112343 -0.18986867 -0.69534636 -0.22099169 -0.3014213 -0.13330749
-0.5377435 -0.23485011 -0.5028475 -0.43350908 -0.48794603 -0.20015524 -0.008342627 -0.067136765
-0.08406213 -1.2898711 -0.59424007 -0.062498286 -0.057515472 -0.07325017 -1.1471316 -0.09631803
-0.021224547 -0.057917938 -0.27180153 -0.48274568 -0.047298875 -0.11964371 -0.031351935 -0.3005964
00000000: 3b9f 07be c84d 663c cd15 3e3d 6fe0 033d
00000010: b2ea e8bd 5640 86bc 8110 1a3b 1ed1 4cbe
00000020: c18b 24bf 9335 71be f129 bfbe fb2d 3fbd
00000030: c501 343a 6332 03bf 42e0 1bbf 2adf 4bbe
00000040: 234b acbe 0005 58be cb0b fbbe d078 16be
00000050: 186e 30be 8398 20bf d1f5 8bbe d7fc dabd
00000060: bdac d4be 03ab 81bc a0c8 2fbf e87b 70be
00000070: 1ce2 66be d5b2 a7be 6ce8 a8bf b034 7e3c
00000080: 9fc5 13bf 090c 25bd d5c0 86bb ef6c 42be
00000090: 3802 32bf a54b 62be e553 9abe c281 08be
000000a0: 8fa9 09bf 8c7c 70be 9dba 00bf e7f4 ddbe
000000b0: 10d4 f9be 7ff5 4cbe 84af 08bc 007f 89bd
000000c0: c428 acbd 7f1a a5bf 1e20 18bf 34fe 7fbd
000000d0: 5895 6bbd 2f04 96bd 35d5 92bf 6342 c5bd
000000e0: 1adf adbc 5c3b 6dbd 9229 8bbe 712a f7be
000000f0: 77bc 41bd c307 f5bd e36a 00bd c5e7 99be

module.down1.mpconv.1.conv.4.running_mean f4 [64]
-1.5764835 2.4863846 0.14113893 -1.9729847 1.3971972 -2.0337799 -3.161657 4.974253
4.6279745 -1.692943 -0.9961528 -3.87079 -0.18407625 0.5204852 -2.6164773 -2.6789603
-1.7513738 0.7684784 -0.82836497 0.3478267 -2.0880876 0.18246245 -1.0266868 -0.20237349
-0.68814427 -1.5358545 2.897626 -3.63227 -2.3314097 -3.6770027 0.084380105 -3.970168
0.46981642 0.5891957 -4.196145 -2.5747173 9.124029 -2.8257227 -3.4737692 -0.5389518
2.356366 -1.7377564 -1.4893339 -3.5810378 1.2928199 -5.1936307 -2.712613 -2.2686944
-1.0910339 3.2621515 -1.4724647 -3.933926 -1.9457443 -1.0087287 5.282551 -2.3827028
-2.4625585 -3.2157717 -4.2188797 -4.230936 -2.7120438 -1.1176766 1.7424825 -0.27062652
00000000: 36ca c9bf ed20 1f40 b986 103e c38a fcbf
00000010: 5cd7 b23f 7329 02c0 9758 4ac0 152d 9f40
00000020: 5e18 9440 5bb2 d8bf df03 7fbf 06bb 77c0
00000030: 7c7e 3cbe 853e 053f 5d74 27c0 1674 2bc0
00000040: 042d e0bf 00bb 443f ba0f 54bf 5716 b23e
00000050: 3aa3 05c0 70d7 3a3e 796a 83bf ff3a 4fbe
00000060: 392a 30bf e196 c4bf b472 3940 1d77 68c0
00000070: d135 15c0 0354 6bc0 7acf ac3d 3c17 7ec0
00000080: c78b f03e 88d5 163f d246 86c0 2bc8 24c0
00000090: 06fc 1141 a4d8 34c0 3c52 5ec0 bff8 09bf
000000a0: b3ce 1640 cd6e debf 7ea2 bebf b92f 65c0
000000b0: 1f7b a53f 3932 a6c0 749b 2dc0 4a32 11c0
000000c0: 00a7 8bbf 17c7 5040 b979 bcbf 72c5 7bc0
000000d0: 260e f9bf 061e 81bf a80a a940 347e 18c0
000000e0: 8f9a 1dc0 34cf 4dc0 1001 87c0 d463 87c0
000000f0: 2092 2dc0 0710 8fbf ab09 df3f 8f8f 8abe

module.down1.mpconv.1.conv.4.running_var f4 [64]
24.657434 20.25259 11.5056095 12.769512 13.75679 20.057928 12.924279 22.500349
18.370564 22.735336 15.059461 32.98686 10.876601 16.936768 17.76541 23.027584
8.890026 50.11131 17.920229 14.012694 16.86545 22.268938 23.939466 69.22094
27.51347 19.165506 15.475375 24.610285 28.538105 18.289787 13.8176365 50.771717
17.149942 15.628015 20.341421 28.246664 33.577583 15.267842 17.782982 11.154683
14.726476 26.926361 13.313382 31.89845 31.727789 35.496857 18.01038 29.148113
21.757713 25.77942 10.267432 65.882454 15.164308 48.503704 12.666202 16.597515
17.966213 24.162973 22.967276 11.895212 11.386287 19.979248 8.510525 28.93933
00000000: 6d42 c541 4e05 a241 fa16 3841 ec4f 4c41
00000010: d01b 5c41 a376 a041 d9c9 4e41 b700 b441
00000020: eaf6 9241 f8e1 b541 8df3 7041 8bf2 0342
00000030: 8f06 2e41 807e 8741 8f1f 8e41 7e38 b841
00000040: 8c3d 0e41 fb71 4842 a15c 8f41 ff33 6041
00000050: 71ec 8641 c926 b241 0784 bf41 1f71 8a42
00000060: 961b dc41 f552 9941 239b 7741 dde1 c441
00000070: 0a4e e441 7c51 9241 0a15 5d41 3d16 4b42
00000080: 1533 8941 590c 7a41 3bbb a241 2bf9 e141
00000090: 724f 0642 1549 7441 8c43 8e41 9579 3241
000000a0: a59f 6b41 3069 d741 9d03 5541 0730 ff41
000000b0: 83d2 fd41 c8fc 0d42 4215 9041 562f e941
000000c0: cc0f ae41 413c ce41 6747 2441 d1c3 8342
000000d0: 01a1 7241 cb03 4242 c3a8 4a41 b6c7 8441
000000e0: ceba 8f41 c54d c141 fbbc b741 ca52 3e41
000000f0: 3b2e 3641 80d5 9f41 1c2b 0841 bf83 e741
