learned_models/mask/ACS-WFC-F606W-2-32.pth (torch_old, 416836 bytes, 39 tensors)

module.inc.conv.conv.0.weight f4 [32, 1, 3, 3]
00000000: 4010 023d a468 9b3e 2804 b9be 98fc e9be
00000010: 8d61 5bbe 88ec 8c3e ce35 233b 919e ab3e
00000020: 9533 bd3d e450 c83d 7ae7 f53d a9af 103e
00000030: c413 aabe 7661 4abf b0e7 de3d 3ec0 2e3e
00000040: 165e 1d3e 90d9 8f3e 7e66 97bd 0628 8cbf
00000050: b70c 463e 3894 b23e bb0f 443e c3dd 973e
00000060: 9b73 fdbc 2570 063d c7c5 1f3e dba2 a4bb
00000070: 66e6 37be 26dc babd ff75 95bc 0708 7b3f
00000080: e7ac 10bf 5b2d 35bc ee64 3ebe c204 863c
00000090: 7ac3 e9be 72a0 523f e448 903d 0c81 4e3d
000000a0: 9eb0 d839 2297 393c 50ad 4e3c c9fb 0bbf
000000b0: 49c8 f33c 6985 54bf 7c46 d23d be3f 603d
000000c0: 68fc 1dbe 8b88 783d a5f4 083e 9fa2 ae3e
000000d0: dccd 063e 2d3c 023e 157c a43e c042 4cbd
000000e0: 064c 163d 7f5e aa3c 2915 75bf 3b84 f73d
000000f0: 3802 063e ed01 813e 9712 8d3d 0b88 643e
00000100: e3db d33e 6c4e 13bb 5704 833d fcd1 ab3e
00000110: 485e 92bc 3c4c b13d 3aca 57bf 1618 a1be
00000120: 5a23 8ebb 9f7d 013f beb7 e23e ede6 dfbb
00000130: 5ed2 073e 41d6 7bbe 0e13 1d3c 0257 26be
00000140: 8085 2ebf 8d37 753e 93f7 2c3f 7ded a5bf
00000150: 700f 033e 3c2d bc3d 0a6a 413d 4260 123d
00000160: 69b1 db3c bf7f 1a3d e79e 563e 24ab a93e
00000170: 624a 3b3e b62e c93e a348 0abf 3a4c 71be
00000180: 56af 3f3e 5845 b23d e482 22bf 2586 edbc
00000190: 00a6 783f c958 8d3c a4cc 1d3c c6be 4bbe
000001a0: bd3f e7be c993 ad3c f910 2fbf 25d1 863c
000001b0: 5040 103c c679 963d a3f0 d5bb 7c80 173d
000001c0: 6575 69bc 37d6 293f 0fff 003c b00b 48bf
000001d0: 853c e93c 25e6 853e 4b69 313e 8f75 4a3e
000001e0: ce5e aa3d 4ec6 943d f38f 2e3d 5d2f 973d
000001f0: a4bc 87bf b9c0 f43c 5619 743c 07cb 08c0
00000200: 5202 803e 3d74 d3be 154f bb3e fad9 c73d
00000210: f783 953c f924 403c 07a6 153e 9a5e 1cbd
00000220: 334b 42bf facf c5be 98d2 8bbb 4f0e e83e
00000230: 012d da3d 8897 7f3e 49df a33e f486 da3b
00000240: 15c3 403c 3c87 ab3e 6bb9 6f3e 1fe5 ab3e
00000250: 7990 83bf 5fb5 c0be 8c78 623d 908d 073e
00000260: ccb7 463e 0fd5 723e 37b9 723e c695 12bf
00000270: 69f9 fa3e b86b e2be 07a6 a73d 170f 2abe
00000280: 9c66 d8bb daf5 df3d 33ba fcbd 0e60 6d3d
00000290: c14b 563e 1ba0 aa3c a8b5 d63c 7ecb 1a3e
000002a0: cc80 9fbf 2c71 7f3e caed 613e e51b ca3d
000002b0: 70ef cf3e 3a5d 4a3e 8263 76bf ca59 143d
000002c0: a305 773d 415b b33c 519b 063e 4cce 9bbd
000002d0: 9a19 0c3d 2459 febb 3faf 933d bac5 163e
000002e0: 25ee e53e a2cb d53d 076a 9c3d f2a0 903d
000002f0: b783 74bf 348a 383e 1a5e 9f3e fcb9 933e
00000300: 49e1 15bf 228f 243e 4daf 0abf f3f1 4a3c
00000310: a0c7 93bd b54b 8d3e 1079 d0be 4b01 c33e
00000320: 37f6 1a3c 6f23 a03e 18b9 aebe fe76 c6bc
00000330: 2c5b a8be edaa c93e 6681 7b3a e465 3b3d
00000340: f3fe 533e ba6d f93d 71c7 9bbe 800d d0be
00000350: 7e21 023f aeb1 92be e081 283d 3c37 133d
00000360: a74c cbbc ad7d 3dbe 0f7c 263e ec89 6fbe
00000370: 9cea 90be 2afa 2a3f b422 8c3e 15d1 443e
00000380: 39dd 15bf ec93 d73b 1843 6ebf 5700 24bb
00000390: adf2 5f3d 2868 f33c c8da 043d 64ac 5f3e
000003a0: c8b0 c93e 8685 053e 8104 183f f8e8 42be
000003b0: caeb 573d b02c b0be 52c7 ac3d ead5 f93c
000003c0: 37de f53b 384d 113e a0d5 c2be 860e 7a3d
000003d0: b1fd 083e 3a01 42bf e545 863e efb2 15bf
000003e0: c638 ad3d 63f2 883e f83f 5d3e 469d 223e
000003f0: 399c 2b3e e17c be3e c223 823d 8b6a db3d
0.03175378 0.30353272 -0.36135983 -0.45700526 -0.21423931 0.2752421 0.0024903896 0.33519414
0.09238354 0.09781054 0.12007041 0.14129509 -0.33218205 -0.79054964 0.10884035 0.17065522
0.15367922 0.28095675 -0.07392596 -1.0949714 0.19340788 0.34878707 0.19146626 0.29661378
-0.030938914 0.032821793 0.1560279 -0.0050242967 -0.17958984 -0.09124021 -0.018244741 0.98059124
-0.5651383 -0.011058177 -0.18593189 0.01635969 -0.4565695 0.8227607 0.07045153 0.050416037
0.0004133032 0.011327537 0.012614563 -0.5468107 0.02975859 -0.8301607 0.1026735 0.05474829
-0.15428317 0.060677093 0.13374574 0.34108445 0.13164467 0.12718268 0.32125917 -0.049868345
0.036693595 0.020797012 -0.9573541 0.12085768 0.13086784 0.25196782 0.06888311 0.22317521
0.41378698 -0.0022477163 0.06397312 0.33558643 -0.017867222 0.08657119 -0.8429295 -0.3146369
-0.0043377103 0.5058231 0.4428081 -0.0068329484 0.13263842 -0.2459345 0.0095870625 -0.16244128
-0.68172455 0.23946972 0.6756527 -1.2963101 0.12798858 0.09188315 0.047220267 0.03573633
0.026817994 0.037719484 0.20959054 0.33138382 0.18290094 0.3929345 -0.54017085 -0.23564234
0.18719229 0.087046325 -0.63480973 -0.02899463 0.97128296 0.01725425 0.00963131 -0.19896993
-0.45165816 0.021188634 -0.68385273 0.01645715 0.008804396 0.07347445 -0.0065289303 0.036987767
-0.01424918 0.6634249 0.007873311 -0.78142834 0.02847124 0.2615215 0.17325322 0.19771408
0.08318864 0.07264386 0.04261775 0.07382081 -1.0604444 0.029877054 0.014898619 -2.1373918
0.2500177 -0.4129962 0.36583772 0.097583726 0.018251402 0.011727565 0.14614116 -0.038176157
-0.75895995 -0.38635236 -0.004267048 0.45323417 0.10653115 0.24960148 0.3200629 0.0066689197
0.011765261 0.33501613 0.23410575 0.33573243 -1.0278465 -0.37638375 0.055290744 0.13237596
0.1940605 0.23714088 0.23703466 -0.57259786 0.4901841 -0.44222808 0.08185964 -0.16607319
-0.006604029 0.10935564 -0.12340202 0.057952933 0.20927335 0.020828297 0.026209667 0.15116689
-1.2461181 0.24945515 0.22063366 0.09868602 0.40612364 0.19762126 -0.96245587 0.036218442
0.06030811 0.0218941 0.13145186 -0.076077074 0.034204103 -0.0077620912 0.0721116 0.14723864
0.44908252 0.104392305 0.076374106 0.07061948 -0.9551348 0.1802147 0.3112648 0.28852832
-0.5854688 0.16070226 -0.5417374 0.012386787 -0.0721581 0.27596822 -0.40717363 0.38086924
0.009458116 0.31277034 -0.3412559 -0.024226662 -0.3288206 0.3938822 0.0009594172 0.045751467
0.20702724 0.12179132 -0.304256 -0.406353 0.50832355 -0.28651184 0.041139483 0.035941347
-0.024816824 -0.18504973 0.16258262 -0.23392457 -0.28303993 0.6678797 0.27370226 0.19220383
-0.58540684 0.006578913 -0.93071127 -0.0025024617 0.054674793 0.029712752 0.03243521 0.21843106
0.39392686 0.13039216 0.5938187 -0.19034183 0.0527151 -0.34409094 0.08436455 0.03049751
0.0075032967 0.14189613 -0.38053608 0.061049007 0.13378026 -0.7578312 0.262252 -0.58476156
0.08458094 0.26747426 0.21606433 0.15880308 0.16758813 0.3720465 0.063544765 0.10713681

module.inc.conv.conv.0.bias f4 [32]
00000000: 426f 98bd 10a8 85bc 850a 6abe 2a01 083e
00000010: 5612 e43d 6e4e a2bc ff40 06be 7168 3dbe
00000020: 2f66 623e f32a 8abe 1e49 093e c871 abbe
00000030: ff9e 1abe 6632 ba3d b7e7 c33d f043 8f3d
00000040: 4cfc d93c 2a82 83be ea4d 623d a479 1b3e
00000050: ac50 293e 1dbc 5fbd 3e7d 8ebe a4bb 87bd
00000060: 121a fb3d c2ad b1bd 051f c53d 26a8 6a3e
00000070: 5fd9 aabd ca38 043c ee0b 133e 1e64 9b3c
-0.07443096 -0.01631549 -0.22855575 0.13281694 0.1113631 -0.019812789 -0.13110732 -0.18496872
0.22109292 -0.26985893 0.13406798 -0.33485246 -0.15099715 0.09091644 0.095656805 0.0699538
0.026609562 -0.25685245 0.055250086 0.15183121 0.1653468 -0.05462276 -0.27829927 -0.066275865
0.12260832 -0.0867572 0.09625057 0.22915706 -0.083422415 0.00807018 0.1436002 0.018968638

module.inc.conv.conv.1.weight f4 [32]
00000000: c8e6 2e3f f30d 683f 4314 263f 8c1c 243f
00000010: 2f15 7d3f 4bac 8d3f 72cf 873f b0b9 203f
00000020: 2c19 6b3f a0c9 c03f f21b 763f 7e7c 2a3f
00000030: 63bd aa3f 6ad2 b73f f345 833f 9a38 f73e
00000040: 8828 553f d3b2 073f 3bce 223f d369 823f
00000050: 2462 bb3f d0c2 103f e5bd 753f 719f 5f3f
00000060: 529d ac3e f7b8 953f a832 2e3f dc3b 3e3f
00000070: 2f63 363f c1e2 fc3e 989f b83f 76cb 303f
0.68320894 0.90646285 0.64874667 0.6410606 0.9886045 1.1068205 1.0610182 0.62783337
0.91835284 1.5061531 0.9613639 0.6659621 1.3339046 1.4361088 1.0255722 0.4828537
0.8326497 0.5300724 0.6359593 1.0188545 1.4639325 0.5654726 0.9599288 0.87352663
0.33713776 1.1697072 0.68046045 0.7431009 0.7124509 0.4939175 1.4423704 0.69060457

module.inc.conv.conv.1.bias f4 [32]
00000000: 48d3 563c 6521 cf3c 2989 af3e bcfa 9abd
00000010: f029 943d e9ac a33d dcf8 393d e41c 55bd
00000020: c277 0b3e 2fb5 a33e 4cb5 6a3d 7dbf 57bf
00000030: e1bf 223e 8e33 f53d da77 3dbf ee4e 83bd
00000040: 1f1e 373d 7a83 f03c 0b22 373e 2e6e 993d
00000050: 2773 463e dadc a63d 8972 833c ff17 0c3d
00000060: c7c2 8cb8 08d9 193e 25f3 b6bb e2f5 813d
00000070: fd9b 1dbf 25ae 49bf cde4 b53d b22c 13bc
0.013111897 0.025284478 0.34284332 -0.07567355 0.072345614 0.07991964 0.045403346 -0.052029505
0.13619903 0.3197417 0.057301804 -0.8427656 0.15893508 0.11972724 -0.74011004 -0.06411539
0.04470646 0.029359568 0.1788408 0.07491718 0.19379865 0.08147593 0.016045826 0.034202572
-6.712e-05 0.15024197 -0.0055831843 0.063457265 -0.61566144 -0.7878135 0.08881531 -0.008982824

module.inc.conv.conv.1.running_mean f4 [32]
00000000: 2c72 4abd eb41 57be 8338 babe cf06 663d
00000010: 0424 a63c deb0 3ebe a50b b7be 4cbb 30be
00000020: 09a5 0c3e ac41 b2be 05a5 6e3d edee a4bf
00000030: 85ff 3cbe 6e3b 90be f541 7ac0 c9c5 d43c
00000040: 135d ecbe 315f 9dbe 09ef 88bf 4c59 ebbd
00000050: bf77 293d 354e 94bd 03b8 91be b3c9 66be
00000060: 1a37 fe3d e778 b5be 4b91 1a3d 58c1 d0bd
00000070: a80a 11be 4e10 323f 0ddd 453d 63ff bebc
-0.04942529 -0.2102124 -0.3637124 0.056158837 0.020280845 -0.18622157 -0.35751072 -0.17258948
0.13734831 -0.3481573 0.058262844 -1.2885414 -0.18456848 -0.2817034 -3.9102757 0.025973218
-0.4616476 -0.30736688 -1.0697948 -0.114916414 0.041373964 -0.07241479 -0.28460702 -0.2253788
0.124128535 -0.35443804 0.03773622 -0.101931274 -0.14164221 0.6955613 0.048306514 -0.023315137

module.inc.conv.conv.1.running_var f4 [32]
00000000: 1665 d440 0ec1 3241 9804 4241 3747 ee40
00000010: 2953 0d41 d272 4641 99b2 2c41 43a1 1641
00000020: 5b3d 5d41 af49 aa41 9e6f 8d41 c613 8341
00000030: f133 2241 4ff5 5c41 b647 b942 1acc e340
00000040: 9146 4641 1393 dd40 54b3 3142 ad4a 6e41
00000050: c807 5341 ba3c e340 015a ad40 1e42 4641
00000060: bbd9 db40 b5ce 3341 5269 9d40 9416 4241
00000070: a36d 5541 8910 1a41 d141 b441 6d56 8f40
6.6373396 11.1721325 12.1261215 7.446193 8.832803 12.403032 10.793603 9.414371
13.827479 21.285978 17.6795 16.384655 10.137681 13.80989 92.64006 7.1186647
12.392228 6.9242034 44.425125 14.893231 13.1894 7.101163 5.417237 12.391142
6.8703284 11.237966 4.9191065 12.130512 13.339267 9.629037 22.532137 4.4793

module.inc.conv.conv.3.weight f4 [32, 32, 3, 3]
00000000: 9f48 02bf c8bf da3d 3388 9bbd 6ab0 90bf
00000010: 3536 c2bf 93ce d9be 4e8c 67be e189 b4be
00000020: c81a ec3c 9b08 64be 6c80 89be 628f 4dbd
00000030: c646 61be 255b e7bf 1cee a4bd 630a 12be
00000040: 3755 d6bd 1d32 0b3e 3503 ad3e 849c 183e
00000050: 4da1 7b3d 2e93 1d3f bbb0 7dbf eac0 8bbd
00000060: 7f41 c53e d0e1 b2be 5505 debd 711a 6e3e
00000070: 1071 8cbf 4a0e dcbe ed30 dcbe cd67 dabf
00000080: adf6 80be a304 efbe 5156 a8be eee8 69bf
00000090: 4c50 23ba 7414 22be a27b c53d 1889 6ebe
000000a0: c3fc 24bf fd25 aa3c 20bd d83d 0e32 79be
000000b0: 6462 7e3e e7f4 c4be 5c5a 2fbf a815 78be
000000c0: 497b 26be fbd7 bebe 57d8 e6be e74c f4bd
000000d0: 36b8 8cbe 9d6f b7bd a309 b73c cf6f 893d
000000e0: 692d 653e 6a1f 823e a153 b23d 3fb6 75bd
000000f0: 0ab6 58be 6aeb 393e 19e0 823e 6476 80be
00000100: 4dd8 27be 4b6c ab3d 04b5 38bd 401f edbe
00000110: 5d85 1bbf 0ca0 dbbe 1ed9 0bbf 33ba af3e
00000120: 5019 653c ac79 49bd 9056 8fbe 634a 8d3e
00000130: 78f9 233f 020b abbd 4347 c3be fd6b 0dbe
00000140: 7fa9 d03c c48c 1c3e 30be 07be cc04 cd3b
00000150: f312 d93c b38e 083d 3759 0bbc 1e00 91be
00000160: 7f6e 4bbf 972a 353c 2ece 8ebe 3175 a23e
00000170: 6686 e23b 02f9 933e d3af 6a3f 1d2c 903e
00000180: 565e cebe acd2 01bf 59a4 2bbe d9aa 6e3e
00000190: 7d29 703e 25ee 633e 6b22 1d3f 5e5f b2be
000001a0: ebac 51c0 8e9c a7bd afc0 72c0 84f1 6dbe
000001b0: ae26 bc3d ac36 7cbe 2ec0 9c3d f468 3abf
000001c0: cd51 86bd e195 443e 0e14 3c3e 2a24 cabf
000001d0: f540 1b3d 1eb1 9fbd 7a23 6f3e 8d71 b83e
000001e0: 7d0d babd 53bc 103d 6d9d d63e 2c84 543e
000001f0: ba89 05be 6865 823e 668b 993f a886 64bf
00000200: f8b0 fc3c 20e9 2bbd 9393 b23d 6a0b 35bd
00000210: c390 87be fe2e 16bf 3f38 adbd 854c cbbd
00000220: cccd e8be b00f d33d 525b 5e3e 90e5 10bf
00000230: ac10 03bf ee15 53bd a96f b0be abd5 96be
00000240: 53c9 0b3e 0925 243e cd8c b53e 852f 043e
00000250: e456 1fbe 523e 883e d99d 8d3e 8f50 ee3e
00000260: 10ec f4bc b767 44be 0e00 8fbc d103 9b3d
00000270: a362 74bd 0f5c 2dbe b2d7 313e d728 82be
00000280: 4482 8b3e a121 b2bd 60b9 603e 8c8b 5b3d
00000290: 0534 d03d 79d8 b33d 0651 47be 99f4 bfbc
000002a0: f738 7cbd 3ff3 8c3e eada 403d 3f33 203d
000002b0: a970 a9bd 216b 6fbe 94fb b1be c9fc 66bd
000002c0: deb3 1ebf a59f 42bd 5c41 12be b5a6 c1bd
000002d0: 50df 70be e84b 8dbe a725 b93d 1a8a b53d
000002e0: ac45 323f bf2f 943e 79df 14be ea80 2d3e
000002f0: 8359 583d cbd2 873e 3d63 b43d ec2e 59bd
00000300: 534f 9fbd b5f1 91bf ce7c b0bd 6157 ca3d
00000310: 75e2 3d3d abeb 54be e092 db3b eb66 2abe
00000320: 4a6e 59bb 2cde cabe 9c16 86bf 1e52 74bf
00000330: 3978 82bd c0fd 7bbd 92fc 9b3d cd84 97be
00000340: e0a1 01bf 1c89 01be 4573 77bf 2667 4fbf
00000350: ef57 c2bb f36d 5cbf 8560 92bf 33c5 93bd
00000360: c002 d4be c3b4 64be bcfe 4f3c d778 19bf
00000370: 6275 4dbe aeee fb3c 0b32 efba 34d8 e5bd
00000380: c5c7 4f3e 50e0 d8be 62ad 08be b60e f13d
00000390: 5086 783e 7a10 b3be 2dc4 5fbe 7a00 4a3e
000003a0: 9236 1c3d 1968 0c3e cd63 383e 76aa 623d
000003b0: c145 c73a 203a 0bbe 6a5c 84be 08a3 5a3e
000003c0: df32 fa3d 240a cd3d 4adf 003e 5a82 06bd
000003d0: 36a4 f73b a144 8bbd 8ebf 873d 4783 24be
000003e0: b58d a43d 2d0e b53d 8ab8 ca3d 7be2 673d
000003f0: 9ae7 983e c1f5 92bf 6c6e 82be 71b3 793e
-0.5089206 0.106811106 -0.07594337 -1.1303837 -1.5172793 -0.42540416 -0.22612116 -0.35261443
0.028821364 -0.22268908 -0.2685579 -0.05018557 -0.21999654 -1.807469 -0.08053228 -0.14261775
-0.10465472 0.13593335 0.3379151 0.14903456 0.061433125 0.61552703 -0.99097794 -0.06823905
0.38526532 -0.34937906 -0.10840861 0.23252274 -1.0972004 -0.42979652 -0.43006077 -1.7062927
-0.251882 -0.46683225 -0.32878354 -0.9137105 -0.0006229922 -0.15828115 0.09642722 -0.23294485
-0.64448184 0.020770067 0.10582948 -0.243355 0.2484222 -0.38468096 -0.6849725 -0.24227011
-0.16257967 -0.37274155 -0.4508693 -0.119287305 -0.27484292 -0.089568354 0.022343462 0.06710779
0.22380604 0.25414592 0.08707357 -0.059988257 -0.21163192 0.1815621 0.25561598 -0.25090325
-0.16391106 0.083702646 -0.045094505 -0.46312904 -0.6075037 -0.42895544 -0.5462817 0.34321746
0.013983086 -0.0491883 -0.2799573 0.27595815 0.64052534 -0.08351709 -0.38140306 -0.13810726
0.025471447 0.15288073 -0.13256145 0.0062566753 0.026498294 0.033339214 -0.008505157 -0.28320402
-0.7946548 0.0110575175 -0.27891678 0.31730035 0.006912994 0.28900915 0.91674536 0.28158656
-0.40306348 -0.50712085 -0.16761912 0.2330736 0.23453327 0.22258814 0.6138064 -0.34838384
-3.276179 -0.08184157 -3.7930105 -0.23236662 0.09187065 -0.2463023 0.07653843 -0.72816396
-0.06558571 0.191978 0.18367025 -1.5792286 0.037903745 -0.07797454 0.23353377 0.36024132
-0.09084604 0.03533585 0.4191698 0.20753545 -0.1304082 0.25467992 1.1995666 -0.8926797
0.030846104 -0.041970372 0.08719554 -0.04420034 -0.26477632 -0.58665454 -0.08457994 -0.09926704
-0.4546951 0.103057265 0.21714523 -0.56600285 -0.51197314 -0.051534586 -0.3446019 -0.2945989
0.13651018 0.16029753 0.35458985 0.12908752 -0.1556049 0.26610047 0.2765949 0.46545836
-0.02989772 -0.19180189 -0.01745608 0.07569087 -0.05966438 -0.16929649 0.17367437 -0.25421783
0.27247822 -0.086978205 0.21945715 0.05359988 0.10166172 0.08781523 -0.19464502 -0.023432063
-0.061577763 0.27529332 0.047083773 0.039111372 -0.08273441 -0.2338071 -0.3476225 -0.05639342
-0.61993206 -0.04751553 -0.14282745 -0.09455625 -0.23522687 -0.27596974 0.09040385 0.088642314
0.6963756 0.28942677 -0.14538373 0.16943708 0.05281974 0.2652801 0.08807991 -0.053023264
-0.07778802 -1.1401888 -0.086175546 0.098799475 0.046358544 -0.20793025 0.0067008585 -0.16640823
-0.003317731 -0.3962263 -1.047565 -0.954378 -0.06370587 -0.06152129 0.07616533 -0.29593506
-0.50637627 -0.1264996 -0.9666026 -0.8101677 -0.0059308927 -0.8610527 -1.1435705 -0.07215347
-0.41408348 -0.2233458 0.012695011 -0.5995001 -0.20064309 0.03075346 -0.0018249167 -0.11222878
0.2029105 -0.42358637 -0.1334739 0.11770384 0.24269986 -0.34973508 -0.21852179 0.19726744
0.03813798 0.13711585 0.18006821 0.055338345 0.0015203283 -0.13596392 -0.25851756 0.21351254
0.12216734 0.100117 0.12585178 -0.032839157 0.0075574173 -0.06800199 0.06628333 -0.16065703
0.08034841 0.088405944 0.09898479 0.056612473 0.29864198 -1.1481248 -0.2547487 0.24384858

module.inc.conv.conv.3.bias f4 [32]
00000000: dec5 2a3d 6dd5 8fbd 7eaa ce3b 9603 223d
00000010: 1d8e 0abc c2bf 983d 70da b93d 237d 11bc
00000020: ffd9 85bc 2c3a 46bd 2c52 843d 235e 08bd
00000030: fc38 f0bc 87e1 a73c 4cd7 1a3d 990b a23d
00000040: f2f5 a43d 719d bfbc 36ba 54bd 3368 63bd
00000050: 0caf 44bd 565b 813d 3173 6ebc 3d9b 60be
00000060: 19b8 053e 905d 143c 4482 97be 42f6 06bd
00000070: a606 23be 1412 d2bc d55d e93d a3d4 323d
0.041692607 -0.070231296 0.0063069453 0.0395542 -0.008456734 0.0745845 0.09074867 -0.008879933
-0.0163393 -0.04839532 0.064609855 -0.0332929 -0.029324047 0.020493282 0.03780298 0.07912368
0.08054723 -0.023390504 -0.051935397 -0.055519294 -0.0480185 0.06316249 -0.014553831 -0.21934219
0.13058509 0.00905551 -0.29591572 -0.032949694 -0.15920505 -0.025643386 0.1139485 0.043659817

module.inc.conv.conv.4.weight f4 [32]
00000000: 4a2f e03f 270c 583f 3ea9 df3f 0513 a63f
00000010: a9ec c63f 3c5d b03f fd67 223d 7c6f d63e
00000020: 532b 8f3f d374 753f 6506 653f e6da e439
00000030: 6010 3e3f f126 363f 6524 a53f 93e2 fc3f
00000040: d21a 683f a134 473f 6651 7b3e e4be 993e
00000050: 8d8c 11bf c894 c53f c5ee 7a3f e61d 203e
00000060: dffc 9ebe 43d9 a2bb 4d56 b63d 8b23 023f
00000070: 46c2 af3f cd44 7c3f 8495 8b3f a700 8f3f
1.7514431 0.84393543 1.7473524 1.2974554 1.5540973 1.3778453 0.039649952 0.4188193
1.1185097 0.95881385 0.8946288 0.0004365064 0.74243736 0.7115317 1.2901732 1.9756645
0.90665925 0.7781468 0.2454277 0.3002845 -0.5685509 1.543603 0.98020583 0.15636405
-0.310523 -0.0049697473 0.08903179 0.50835484 1.3731163 0.9854248 1.0905004 1.1172074

module.inc.conv.conv.4.bias f4 [32]
00000000: 0759 17bc d8fc 6fbd e5c8 983c 5ae6 07bd
00000010: b3f5 dbbc 1cfb 753e 6136 d63d a2e5 933e
00000020: ecad b33c 6fe6 0cbc 6d8c e43c b76f acbd
00000030: 1521 413d 2791 a6bd a8f5 82bd e17b b73d
00000040: af67 86bd 49ed 4bbd c561 eebd 271c 29bc
00000050: 7530 11bd 544d 083e 7729 ea3d 7066 cdbe
00000060: e36f edbd 0bc9 47bd 4040 c4be 67eb e4bc
00000070: 0a50 1bbe 2622 4cbd 5e3f 1b3e 0b2c 08bc
-0.009237534 -0.05859074 0.018650481 -0.033178665 -0.026850557 0.24021572 0.10459591 0.28886133
0.021933518 -0.0085998615 0.027898991 -0.084197454 0.04715069 -0.08133154 -0.063945115 0.08959175
-0.06562745 -0.04978684 -0.11639742 -0.010321653 -0.035446603 0.13310748 0.1143369 -0.40117216
-0.11593606 -0.048775714 -0.3833027 -0.02794428 -0.15167251 -0.049837254 0.15160891 -0.008311282

module.inc.conv.conv.4.running_mean f4 [32]
00000000: d735 ddbf 2f4f a6be 455a 83bf 0723 7fbf
00000010: ce24 88bf 60b6 83bf 13cf 963e 6016 79bf
00000020: c4ae 0cbf ce1d f3be 2690 30bf b0a7 c3be
00000030: e6a2 b6bf f960 e8be 9088 7bbe 3fcd 9fbf
00000040: 60a1 a7bf 9dec bbbf 43cc 103f a926 653e
00000050: cc0c 943f 743d 86bf 06e3 06c0 7e5e 863f
00000060: c5b2 f640 9781 503f 8ce1 af3f de21 ac3e
00000070: a2f9 f0bd fb63 49bf 4a3b 23bf dc69 21bf
-1.7282056 -0.32482287 -1.0261923 -0.9966282 -1.0636232 -1.0290031 0.2945486 -0.97299767
-0.5495417 -0.47483677 -0.68969953 -0.38213873 -1.4268463 -0.45386484 -0.24563813 -1.2484511
-1.3096123 -1.4681584 0.5656168 0.22378029 1.1566405 -1.0487504 -2.1076064 1.0497587
7.7093225 0.8144774 1.3740706 0.3361959 -0.11766364 -0.78668183 -0.6376234 -0.63052154

module.inc.conv.conv.4.running_var f4 [32]
00000000: 3aa4 da41 9d68 8641 94e6 a241 78d4 ef40
00000010: 1483 6641 4eff ea41 73a7 3b40 21f4 1941
00000020: 9477 3d41 975b e241 688c 1b41 829f 6d3e
00000030: 1639 4b41 d450 1840 dedb 0941 f266 ce41
00000040: 94bb 2941 f1d1 2441 b4f1 8440 af5f 6b40
00000050: 17cd 4f41 c877 d641 7456 0542 6c11 d140
00000060: 87a8 4343 89a7 fc3f 55f5 7140 9fb1 6341
00000070: f099 cd40 78f2 7a41 870d b441 db4a 2a41
27.330189 16.80108 20.362587 7.494686 14.4070015 29.37466 2.9320953 9.622102
11.841694 28.294722 9.721779 0.23205379 12.701437 2.3799334 8.6161785 25.800266
10.608295 10.301255 4.154505 3.677715 12.987571 26.808487 33.334427 6.5333767
195.65831 1.9738628 3.7805989 14.230865 6.425041 15.684196 22.506605 10.643275

module.down1.mpconv.1.conv.0.weight f4 [64, 32, 3, 3]
00000000: 6c0d 04be 856c c1bd 8434 bbbd 4c11 9cbd
00000010: c15a 02bc bacd ecbd dbae 1abe ffd1 84be
00000020: 198a c7bd e885 babd 9413 8e3c 2ba0 3c3e
00000030: bd43 e03d cfe7 0a3e cc25 72bd 72c3 103d
00000040: 3bf3 9b3c 0a1d 08be 742f d1be 09e9 d2bd
00000050: a08d 993e b769 ed3d efbd 5f3e 4da8 863e
00000060: 088f 8dbd e678 a7bd 6028 e93e 16da 893a
00000070: 7c9f 9a3b e8ad ecbe b662 fe3c 3b94 e9bc
00000080: 5604 9fbe 4994 0bba 4678 c3bd 34af aabe
00000090: c73f 75be b847 f33d 155c e2be e12c a1be
000000a0: 4ead 4d3e ce9f debd 1ded 29be f332 0f3e
000000b0: df02 58bd 0c3d 7bbe d86e e23d d758 71be
000000c0: 695d bd3e 05f3 ecbb 5c47 02bd bb3b c53d
000000d0: de85 3b3e b0e5 92be de36 b73e 6c54 163e
000000e0: 2e89 423e 8504 613e c5a3 ce3e 9375 e03e
000000f0: 8648 993b 2cb7 263e 2eef 243f e2fe b3be
00000100: 31e8 b0be 4d0f ef3d 2efc a6be 6716 bcbe
00000110: b55d dbbd 972f 1cbe 796d 8fbe 6fe2 05bd
00000120: d79b 7f3e 012b 93be 7fc3 cdbe 60fb 483c
00000130: 45cb 80bc 967e 1cbe c86d eebd 25e2 1abe
00000140: 7e70 f2be f43f 13be f2fe abbe 083b 45bd
00000150: 6bfc e7be e610 92be 06a7 aabe 736a f6be
00000160: 1ce2 9dbe 8b7f 57bf ee07 adbe 5dbd 723e
00000170: e04c 09be 2185 b9be 8162 033c 79f8 a3be
00000180: 352a e5be 36cb 2a3e 6a1a af3d 7142 c63c
00000190: 4a6f 513d 4e6c b43d 3b73 663d 0db0 9c3d
000001a0: a724 c83d a538 a33d d667 a43d f2fe 813b
000001b0: d4c6 933d dd9b bc3c acd3 76be 4364 2dbe
000001c0: 22ab 38be f946 d2be 64a6 24be 5f47 86be
000001d0: 4431 d7be 3664 613e 781f 0c3c 39d5 6a3c
000001e0: 4477 ff3c 3b4c 9b3d edcf c73d 8454 a33c
000001f0: 7d93 61bb f200 0b3e 3326 983e 9132 c13e
00000200: ff93 013e 0aff 653e c00a 583e 7c99 0dbe
00000210: a5a5 f13b 8a89 7f3e b607 093e aedb 03bf
00000220: 8c3b d73d 9512 193d 4751 f9bd fdf6 773e
00000230: 8a8f 99be a456 093f 53e1 823e d414 0d3f
00000240: 0c69 493d eaab 18bd ad15 1f3e a387 ccbd
00000250: ad42 333e feef f53e 6552 123c 4b1d 8b3d
00000260: e72f bb3e 6ed5 ab3e 57c0 8a3d 03f6 37be
00000270: 280c d5bb 6882 693e aab9 8b3d bd2e 33be
00000280: 39ab a2be 272b 08bf 0a93 433d 0c97 a83c
00000290: 0cb1 1dbc d225 f33d 9f42 2b3d f9ec 40be
000002a0: 0201 583e e578 8e3d 68e8 a03e 9a34 073e
000002b0: 94a4 583d d01f 2cbe e1c8 073c 6e32 a93d
000002c0: 611e b9bd f55e 88bc 173e 9e3b 96de 1abe
000002d0: 52bc 35bd 6058 28be f9bf 99be 4939 d93e
000002e0: 8205 99be bd2e 703d 7191 493e 8b7d 853e
000002f0: 2f96 8cbd 1207 c6be 2e78 e33d 75f0 1bbf
00000300: b6b1 ce3c 4ba1 c6be 4311 6ebe 0626 81be
00000310: da0a 12bf 689d 28bf 90da d83d 76a0 583e
00000320: e169 aa3c 7688 913d 9e18 b93e d14b bfbd
00000330: b9eb 353e 9b4c 6a3e 9ef2 92be 7904 87be
00000340: 8e7e 56be f9b5 fbbe d9c6 8fbe 72a0 383c
00000350: 008a 46bc 31de 473d 8712 a7bd 0071 8ebe
00000360: 35fe 883e 1573 a53e 275a f73e fcee 143f
00000370: b970 3f3f 9f7c e33e 2204 f13e a358 48be
00000380: 6161 9fbe 161c 9e3a d978 99bc 2445 853d
00000390: 8105 46bb 3458 98bc aab1 883d 9a17 483b
000003a0: 3c11 033d e405 863d 7e4e 13be 821e 54bd
000003b0: 5c68 94be 7bb3 013e ea60 06ba 8fb9 ca3d
000003c0: 3f0c 373e b5de 2f3e 9fa2 b23e 748d 203e
000003d0: 95d1 de3d cf9c 043d eebc 16bd c431 f53d
000003e0: 8f73 2a3d 86eb a53d 6060 38bd f6b3 cebd
000003f0: f61d 193e 8649 233c c46b a2bd facc debd
-0.12895745 -0.094445266 -0.09140876 -0.076204866 -0.007956208 -0.11562677 -0.15105765 -0.25941464
-0.09743137 -0.09107572 0.01734332 0.18420474 0.1095042 0.1356499 -0.059118077 0.03534264
0.01903688 -0.13292328 -0.40856516 -0.10298354 0.29990864 0.11592429 0.21849798 0.26300278
-0.06912047 -0.081773564 0.45538616 0.0010517265 0.004718719 -0.4622643 0.031052928 -0.028513065
-0.31057996 -0.00053245254 -0.09544425 -0.33336794 -0.2395011 0.11878914 -0.44210878 -0.31479552
0.20085642 -0.10870324 -0.16594358 0.1398428 -0.052737113 -0.24535006 0.11056298 -0.23569046
0.3698533 -0.0072311186 -0.031806335 0.09630533 0.18312785 -0.28690863 0.35784048 0.14680642
0.18997642 0.2197438 0.4035932 0.43839702 0.004677835 0.16280812 0.6442746 -0.35155398
-0.34552148 0.1167284 -0.32614273 -0.36735842 -0.107112326 -0.15252529 -0.28013209 -0.032686647
0.24961792 -0.28743747 -0.40188214 0.012266964 -0.015721926 -0.15282664 -0.11642033 -0.1512533
-0.4735145 -0.14379865 -0.33592945 -0.048152 -0.45309767 -0.28528517 -0.33330554 -0.4812809
-0.3083657 -0.8417899 -0.33795112 0.23705049 -0.13408232 -0.36234382 0.008019091 -0.32025507
-0.44758764 0.16679081 0.0854996 0.024201604 0.051131524 0.0880972 0.056262236 0.076507665
0.09772616 0.079697885 0.08027618 0.0039671594 0.07215658 0.02302354 -0.24104184 -0.16932778
-0.18034032 -0.41069773 -0.16079098 -0.26226327 -0.42029774 0.22010884 0.008552425 0.014333063
0.0311848 0.07582899 0.097564556 0.019937761 -0.0034420185 0.1357458 0.29716644 0.37733892
0.12654112 0.22460571 0.21097851 -0.13828081 0.0073744827 0.2495481 0.13381848 -0.5150708
0.105094045 0.037371237 -0.121737055 0.24215312 -0.29992324 0.5364783 0.25562534 0.55109906
0.049172446 -0.037273325 0.15535612 -0.09986808 0.17505904 0.48034662 0.008930777 0.067926966
0.36559984 0.3356127 0.06774967 -0.1796494 -0.0065016933 0.22803652 0.06822522 -0.17498298
-0.31771258 -0.53190845 0.04774765 0.020579837 -0.009624731 0.11872448 0.04181158 -0.18840398
0.21094134 0.069566526 0.31427312 0.1320366 0.05289133 -0.1680901 0.008287639 0.08261572
-0.090389974 -0.016646842 0.004829179 -0.15123972 -0.04436905 -0.16439962 -0.30029276 0.42426518
-0.29887015 0.058638323 0.19684388 0.26072344 -0.06864583 -0.3867727 0.11106907 -0.60913783
0.025231224 -0.38794932 -0.23248772 -0.25224322 -0.5704781 -0.6586518 0.105885625 0.21154961
0.02080244 0.07106106 0.36151594 -0.09340633 0.17765702 0.22880785 -0.28700727 -0.263706
-0.20946714 -0.49162272 -0.28081396 0.011268722 -0.012117863 0.048795883 -0.08157831 -0.27820587
0.26756445 0.32314363 0.48310968 0.5817716 0.74781376 0.44431016 0.47073466 -0.19565062
-0.31128982 0.0012062814 -0.018734382 0.06507328 -0.0030215683 -0.018596746 0.06674512 0.0030531646
0.031998858 0.06544092 -0.14385411 -0.051786907 -0.2898587 0.12666123 -0.00051261357 0.09898674
0.17875765 0.171748 0.34889695 0.1567896 0.10879818 0.032376107 -0.03680127 0.11972383
0.04161411 0.08101563 -0.045013785 -0.100929186 0.14952835 0.00996626 -0.07930711 -0.1087894

module.down1.mpconv.1.conv.0.bias f4 [64]
00000000: d2b7 e3ba 23ce ad3c eff1 15bd af5a dbbb
00000010: c6d9 0bbc 34e4 1d3d 01d7 2a3b 8ff5 9b3c
00000020: 9870 19bd 3001 d2bc 1a83 8a3c a616 1b3c
00000030: 8c80 2a3d b255 cbbe e0c9 41bd 31e0 453d
00000040: 573d 353d 44c0 823c b33b 31bc 9b13 b7bd
00000050: d55e 30bd 60f5 20bf 4167 c3bc 62ad ed3b
00000060: 63b8 52bc fda6 363d bf76 eabc 791f 7cbd
00000070: 830d ccbc c49b d5bd ffe7 c4bc c78a a83c
00000080: a6f1 abbc c5f7 d1bb 7146 7bbd 89c0 323c
00000090: 10f5 e53c e206 483c 329d 87bb 076b 453d
000000a0: 7926 64bb c953 893c 5ecb af3c 4668 873c
000000b0: b4b9 3d3b 550a 9b3c c24c 203d 5e60 133d
000000c0: 4d7e 5a3d 0d8e 3cbc bc87 95bc 4e0d 9fbc
000000d0: b775 53bd 47f8 f0bc c5f8 24bd 5ad1 1abd
000000e0: 20f6 dcbd 32a7 3d3d ef1e e4bc 1218 833b
000000f0: bddf 1ebd dad4 a4bd 1303 cd3c fe93 2f39
-0.0017373508 0.021216458 -0.03660768 -0.00669416 -0.008535808 0.03854771 0.0026068094 0.01903799
-0.037460893 -0.025635332 0.016908217 0.009465849 0.041626498 -0.39713818 -0.047311664 0.04830951
0.04424795 0.01596082 -0.010817456 -0.08939286 -0.04305919 -0.6287441 -0.023852946 0.007253335
-0.012861344 0.044592846 -0.028621076 -0.061553452 -0.024908787 -0.104301006 -0.024036406 0.020573987
-0.02098925 -0.0064077103 -0.061346475 0.010910162 0.028070956 0.012208672 -0.004138612 0.048197772
-0.003481297 0.016763585 0.021459278 0.016529214 0.00289498 0.018925825 0.039135702 0.035980575
0.053343106 -0.011508477 -0.0182532 -0.019415524 -0.051625933 -0.029415263 -0.040276308 -0.03779731
-0.10789132 0.046302028 -0.027846782 0.004000672 -0.038787592 -0.08048411 0.02502588 0.00016744432

module.down1.mpconv.1.conv.1.weight f4 [64]
00000000: ad13 c13e 4264 3b3f 6960 163f 8fd8 2f3f
00000010: b402 253f 2584 333f c0c1 3f3f 7333 1b3f
00000020: e0cb 443f 1cbc 483f b3a4 8b3f 5363 713f
00000030: 73f6 253f a3e3 973e 6f83 6f3f 0f04 853f
00000040: b806 673f 668e 2f3f 5b8d 093f 3549 1f3f
00000050: 00f9 4c3f 6bf9 b23e 1118 2e3f da6e 1f3f
00000060: 9d10 053f 0b85 a13f 5fe5 4a3f 25d0 423f
00000070: 98c1 083f 6398 013f ec4c 223f b281 443f
00000080: ad70 753f 0401 a93f 9144 be3e a7bc a33e
00000090: c168 273f f505 553b a4ca 06bd 2b22 ff3e
000000a0: 62dd 6e3f 90b9 253f 709e 223f 69ca 873e
000000b0: 9c97 043f 3489 1c3f 78d6 213f 6915 813f
000000c0: fb6f 5e3f 1eed 1a3f 2bf8 303f 541c 233f
000000d0: 4081 413f 6d51 0f3f 8a27 463f b8c9 133f
000000e0: 9a5d ff3e 96eb 4c3f 9f5f 543f 5439 3c3f
000000f0: 84f2 343f d177 cb3e c101 433f bfdb 253f
0.37710324 0.73199856 0.5874086 0.6868982 0.6445725 0.7012351 0.74905014 0.6062538
0.7687359 0.7841203 1.0909637 0.9429218 0.64829177 0.2966586 0.93559927 1.0391864
0.90244627 0.6857666 0.53731316 0.6222108 0.80067444 0.34955916 0.6800547 0.6227852
0.51978475 1.2618726 0.7925624 0.76098853 0.534204 0.5062315 0.63398623 0.767604
0.95875055 1.3203435 0.37161687 0.31979868 0.65394217 0.0032504771 -0.032908097 0.49830756
0.93306553 0.6473627 0.63523006 0.26521614 0.5179384 0.61146855 0.6321788 1.0084659
0.8688962 0.6051806 0.69128674 0.637151 0.75587845 0.5598362 0.7740408 0.57729673
0.498761 0.80046976 0.82958406 0.73524976 0.7068255 0.3973985 0.7617455 0.6478843

module.down1.mpconv.1.conv.1.bias f4 [64]
00000000: 0b7a dfbd 09a8 8dbd 18b6 8ebe fd0c b4bd
00000010: 8138 7cbc 53b2 0abe 6b08 80be 6e4a 8e3d
00000020: 5faf 4fbe dcab 26bd 2aa8 6fbd e57e 41bd
00000030: 8a1a a73d 9d6b 03bf 5ec3 88bd 15df 99be
00000040: 10fa 06be 948d 573d 6d87 a0be d244 fcbd
00000050: 1607 32bd c75f d9bf 1ba5 d4bd 542d 99bd
00000060: d286 6dbe 9d77 b1bd 2a20 63bd 0ff0 2ebe
00000070: 4322 2dbe 5624 76be 8d4b eebe 5c24 3c3d
00000080: 7368 84bc df70 f1bd 02f1 0ebf cb96 5f3d
00000090: eda4 23be b8b3 9bbd a9f0 763f 9567 17be
000000a0: 5eae b2bc 66eb 9e3c fb58 b53d 2751 43be
000000b0: cd6c 783e 532c 71bb 3f90 b73c f806 56bd
000000c0: cd23 88be 1605 8a3b 5bb3 30bd beab 9a3d
000000d0: 4ad5 9fbd f634 94be 7264 de3b cb0d c5bd
000000e0: 063c 55be af2d 26be 1392 d2bc 1eab 87bd
000000f0: b4ae 60be 01e3 8fbe c3a1 aebd c2de 933d
-0.1091195 -0.06916816 -0.27873302 -0.0879154 -0.015394331 -0.13544588 -0.25006422 0.0694779
-0.20281743 -0.04069124 -0.058509983 -0.047240157 0.08159359 -0.5133608 -0.06677888 -0.3005301
-0.13181329 0.052625254 -0.31353322 -0.12317814 -0.04346379 -1.6982354 -0.10383054 -0.07479349
-0.23195961 -0.086653925 -0.055450596 -0.17083763 -0.16907601 -0.24037299 -0.46542016 0.045933113
-0.016163087 -0.117891066 -0.558365 0.054587167 -0.15980883 -0.07602638 0.9646097 -0.14785607
-0.02181166 0.019399356 0.08854862 -0.19073926 0.24260254 -0.00368001 0.02240765 -0.05225274
-0.26589814 0.004212032 -0.043139797 0.075522885 -0.078043535 -0.28946656 0.0067868764 -0.096217714
-0.20823678 -0.16228364 -0.02570442 -0.06624435 -0.21941644 -0.28102878 -0.08526947 0.07220222

module.down1.mpconv.1.conv.1.running_mean f4 [64]
00000000: bbd8 fcbf acd5 9ebf 911a 3cbe f3b8 33bf
00000010: d738 523d 3b5c d13d 00cd 0e3f 6a6a 9fbf
00000020: 3e94 7bbf 2f52 b7be 782f 27bf ee09 8fbf
00000030: a354 7fbf cbb6 0ac0 d87e 15c0 3250 5abf
00000040: a262 b7be c3d3 64bf 1ee1 89c0 80b5 aabf
00000050: 52df 5bbe 3f14 80c0 083b 883e 4be4 b6c0
00000060: edc7 e43e ff29 d1bf 87aa 053f c345 8cbe
00000070: 1f70 b93e 56ec 73bf 2fe2 20bf f68c 6dbf
00000080: 534b 00c0 040e 06bf 5316 5040 03da 87bf
00000090: 19b0 673e e2cb 85bf b34e f13e a936 d83e
000000a0: 0f88 d3be 1713 1ac0 ba87 efbf bf4b 0040
000000b0: 3035 96be b654 c8bf 8814 27c0 8751 9cbf
000000c0: 0c19 06c0 4978 ffbf 5ea6 23bf d42e 06be
000000d0: b95d d93e 4e75 84be 143e b6bf 5c95 4d3e
000000e0: 894a bc3e 183c 323e acf1 84bf 9e85 23bf
000000f0: e18d c0bc 2423 2e40 4149 7abf bb26 d2bf
-1.9753641 -1.2408957 -0.1836951 -0.70204085 0.051323738 0.1022267 0.55781555 -1.245435
-0.98273075 -0.3580489 -0.65306807 -1.1174905 -0.9973852 -2.1674068 -2.335867 -0.8527862
-0.35817438 -0.8938562 -4.30873 -1.333664 -0.21471909 -4.0024714 0.26607537 -5.715368
0.4468378 -1.6340941 0.5221333 -0.27396974 0.36218354 -0.95282495 -0.6284513 -0.92793214
-2.0045974 -0.52365136 3.2513626 -1.0613407 0.2262577 -1.0452845 0.47130355 0.42229202
-0.41314742 -2.4074152 -1.8713295 2.0046232 -0.29337454 -1.5650852 -2.6106281 -1.221238
-2.0952787 -1.9958583 -0.6392573 -0.13103801 0.42454317 -0.25870746 -1.4237695 0.20076507
0.36775616 0.17405736 -1.0386252 -0.6387576 -0.023505153 2.7208948 -0.97768027 -1.641807

module.down1.mpconv.1.conv.1.running_var f4 [64]
00000000: 7341 743f cd69 0040 0a67 ed3f 46fb b53f
00000010: 2574 1040 7962 e93f 5275 fc3f af18 2940
00000020: f926 b23f 54f2 d03f 94ae 7740 e9f3 0840
00000030: c6e5 d63f 55f5 683f f532 8340 df19 ed3f
00000040: d7d6 1d40 5f8c e43f 2671 9140 18ef db3f
00000050: e294 0040 d049 9640 2f3d fa3f 3610 da3f
00000060: 38af 603f 07d1 9a40 d8b5 4f40 3f81 2740
00000070: 0101 d13f 46cb 963f 0a66 b93f 088d 8f40
00000080: 37f6 6240 d6e6 0740 ec70 b340 d012 1040
00000090: 2bd6 0f40 c11f 8a3e 1759 b640 07df d13f
000000a0: 8bd6 f83f 0437 4c40 f029 6940 b3a0 0c40
000000b0: 1a21 4340 4552 0740 0e91 ca3f be10 3f40
000000c0: 71f8 0240 8c9f 0f40 da8e 2740 3a40 4a40
000000d0: 8ae7 8d40 fd39 dd3f 4570 fd3f fb00 6640
000000e0: d9e5 dc3f e85b bb3f 4c00 8040 06fe ea3f
000000f0: 112f 933f 1ab6 2240 3dab 4f40 ac4a 0940
0.9541237 2.0064576 1.854707 1.4217308 2.257089 1.8233176 1.9723303 2.6421316
1.3918144 1.6323953 3.8700304 2.139887 1.6788871 0.90999347 4.0999703 1.852352
2.4662378 1.7855338 4.545062 1.7182341 2.009087 4.6965103 1.9549922 1.7036197
0.8776736 4.838016 3.2454739 2.6172636 1.6328431 1.1780784 1.4484265 4.4859657
3.5462778 2.123464 5.6075344 2.2511482 2.2474468 0.2697735 5.698375 1.6396188
1.9440473 3.190858 3.6431847 2.1973083 3.0488954 2.1143963 1.5825517 2.9853969
2.0464137 2.244113 2.618094 3.16017 4.434514 1.7283322 1.9799887 3.5938098
1.7257644 1.4637423 4.0000362 1.8358772 1.1498739 2.5423646 3.2448266 2.1451826

module.down1.mpconv.1.conv.3.weight f4 [64, 64, 3, 3]
00000000: 76db 553e b820 923e f73e ac3d b060 a73e
00000010: 7e46 863e e0e9 38bd 3241 173e c09f 04bd
00000020: fbcf c5be 293d fabe 6e05 fabc 8a83 4a3e
00000030: 4e27 1abe 923b 343e 2448 98be 756a 8abc
00000040: 6ab7 ae3d 86d3 b03d 8505 963d 1078 683c
00000050: 1839 783e 0ed6 563e 7bb5 193e 7f20 bcbd
00000060: eeae 993d 14ac 3ebe 104e 173e e279 a73b
00000070: 9f65 463e 42ba 843d 5d3f 8938 e807 1d3e
00000080: 3f21 7d3e 55b5 103c 5f87 1d3e 3962 eebe
00000090: 16e2 79b9 1473 bb3e 8a93 e13d e79e ea3d
000000a0: 0ec0 8b3e 6f90 ab3e e2cf 303d 956e 60be
000000b0: a790 b8bd e92d 9dbd 2535 663b 5f26 7c3e
000000c0: 4212 cd3d a6ed 3b3e b7aa 723d 5eb2 24be
000000d0: 22a2 253d cecd 1e3e 0b12 813d b81b 533e
000000e0: 0892 983d b639 d73c e804 a3bd 9c55 83ba
000000f0: a35b a43e 4f63 67bd 7ece 4cbd 8d9b 91bd
00000100: ada9 95be 6904 05bf a0f5 57be e0bd 69be
00000110: 89c8 a93e f833 363e e710 30be 9bff 253e
00000120: bdba 9dbe 3357 59be 5ebf 363d a4bd 55be
00000130: f4da a9bd 3f03 09be 2648 3cbf 6ed3 473e
00000140: 577a e6bd 11ce a3be 5c63 a7bc 291e d43e
00000150: a62b 353d e2c9 d9bd d97f a6be 0ff3 52bc
00000160: 1361 733e 8295 8e3d c057 87bd 69c5 30bd
00000170: 7e41 cc3b 8001 a33c 18d7 23bd 0e4f d93d
00000180: 4c6f 983e 204d be3c 9c84 b83d 06db 653e
00000190: 6c78 353f d7b7 4d3d 1f21 2abe 5327 e33d
000001a0: e028 f4be 257e ad3e fa32 de3d b71b 913d
000001b0: a1aa e4bd c749 a93d bf2a eebd 07dc d7bd
000001c0: 8f55 513f 5656 b13d e739 c53e bcf7 6e3e
000001d0: 8345 493c acee f6be cd4f 603e 5d90 bcbe
000001e0: 7196 1cbe 2fa3 4c3e b696 1b3e 874f 84be
000001f0: eae2 a0bd bca7 14be 0859 ac3e 9d13 153e
00000200: f035 ce3e 6f63 163e 9ad7 9abd 7d5c 90bd
00000210: ce89 e33e 412f 133e 7741 d23e 593b 4fbe
00000220: 6820 983d f720 babe 12c1 863e 7d37 343e
00000230: 91d7 9bbe 5d0c 96be dbd6 453e d7ad 2cbe
00000240: 93cd 6dbe e794 b8bd ed3d 23bf f4a4 62be
00000250: 0d2a 9e3d dec4 5cbe 4cd0 8dbe aa5b 8fbe
00000260: 7708 4cbe 8c73 e13e 24a7 093f 42eb a43e
00000270: a1c9 4fbe 127d 25be dbb1 0e3d 19e6 db3c
00000280: d2b2 9e3d 126f 9b3e f355 2fbe 8561 e0be
00000290: 083c 233d e3f2 4ebf 038e b4be 31e4 09be
000002a0: 0b68 0d3c d0e3 b23e be4c a73e 4e1d cabe
000002b0: b2c3 11bd 3914 753e 4893 f6bd 7609 413e
000002c0: 7233 d13c 9787 713e 09f1 053f 81e9 86be
000002d0: e051 3a3d d837 863d f966 163e 03ee 55bc
000002e0: f80a 48be c2e1 23bd ba78 33be c266 d23e
000002f0: 6e25 30bc a74b d63e 5dcb 15ba 2c9a a2bd
00000300: b039 153e ef02 793e d697 12bf 21ed 27be
00000310: 9907 4dbe c66e 5dbf d1da 9dbe 1a1a f6bd
00000320: 5abe 81be 904a 4a3d 487e 863d 403d 5bbe
00000330: a8b8 393c 4b80 423e 128c 96be efdc 7dbd
00000340: 2afa 743d d61b 233e 6109 c93e 28b6 553e
00000350: 890f 0e3e 4f97 cc3e c13a 203f 8720 0e3e
00000360: ab26 d8bd fccd cbbe 0344 87be a81d 1fbf
00000370: 8b7f d23d 2e31 22be 8ee2 85be 4a3d a73e
00000380: 56b2 b1be 0f0f 703e 8501 493e ddcf f53d
00000390: 2b04 d23e ae56 80bd 7714 f7bd d6cf 7f3f
000003a0: f037 3b3f 1ff7 823f 3f00 adbc 4baf 253e
000003b0: 02ca 09be 94dc 3d3e 4231 57bd 2f31 2bbe
000003c0: 6402 de3e eec8 433d f394 b6bd 94ab c3bc
000003d0: ecf1 ce3e 9510 b2bd 7150 bb3e ce85 06be
000003e0: 0dd7 1a3c fca3 21be 0aca 883e 0a3b 393e
000003f0: dbef 353e b261 0b3e 19aa 49bc 07da dfbd
0.20884499 0.28540587 0.08410447 0.32690954 0.26225656 -0.045144916 0.14770964 -0.032378912
-0.3863524 -0.48874786 -0.030520167 0.1977674 -0.15054056 0.1760085 -0.2974254 -0.016896466
0.08531077 0.08634095 0.073252715 0.014188781 0.2424053 0.20980093 0.15010636 -0.09185886
0.07504068 -0.1862033 0.14775872 0.005110965 0.19374703 0.06480838 6.5444714e-05 0.15335047
0.24719714 0.008832295 0.15383671 -0.46559313 -0.00023830714 0.36611235 0.11014469 0.114560895
0.27294964 0.33508632 0.043167002 -0.21917184 -0.09011965 -0.07674772 0.0035126891 0.24624012
0.10013248 0.18352374 0.059244838 -0.16083667 0.040437825 0.15508196 0.063022695 0.20616043
0.07449728 0.026272636 -0.0795992 -0.001002002 0.32101163 -0.056491192 -0.050001614 -0.07109747
-0.29231015 -0.51959854 -0.21089792 -0.22826338 0.3316081 0.17793262 -0.17193948 0.16210787
-0.30806533 -0.2122467 0.044616096 -0.20873123 -0.08293715 -0.13380145 -0.7354759 0.19514248
-0.11253803 -0.31993154 -0.02043312 0.4142926 0.04423108 -0.10634209 -0.32519415 -0.0128753325
0.237675 0.0696211 -0.06608534 -0.043157015 0.006233393 0.019898176 -0.04000005 0.106107816
0.29772413 0.023230135 0.09009668 0.22446832 0.70886874 0.05022415 -0.16614197 0.11091485
-0.47687435 0.33885303 0.10849567 0.07085364 -0.111653574 0.08266025 -0.11629247 -0.10540014
0.8177118 0.086590454 0.38520738 0.2333669 0.012284639 -0.48228967 0.21905442 -0.3682889
-0.15291764 0.19984125 0.1519421 -0.25841925 -0.078557804 -0.1451711 0.33661675 0.14558263
0.40275526 0.14686368 -0.07560654 -0.07048891 0.44441074 0.14373495 0.4106557 -0.20237483
0.07428056 -0.36353275 0.26319176 0.17599292 -0.30437902 -0.29306307 0.19320242 -0.1686319
-0.23222952 -0.09012776 -0.63766366 -0.22133237 0.07722864 -0.21559474 -0.2769798 -0.27999622
-0.19925104 0.44033468 0.5377066 0.32210737 -0.20291759 -0.16160992 0.034837585 0.026843118
0.07748951 0.30358177 -0.17122631 -0.43824401 0.039852172 -0.80839366 -0.35264596 -0.13465954
0.008630763 0.34939432 0.32675737 -0.39475483 -0.03558702 0.23933496 -0.120398104 0.18851265
0.025537226 0.2358688 0.52320915 -0.26350024 0.04548824 0.0655362 0.14687718 -0.013057235
-0.19535434 -0.04001022 -0.17526522 0.41094023 -0.010751111 0.41854593 -0.00057142024 -0.07939562
0.14572787 0.24317525 -0.57262933 -0.16399051 -0.2002243 -0.8649715 -0.30831006 -0.12016697
-0.2534054 0.049387515 0.06567055 -0.21410084 0.011335529 0.18994252 -0.2940374 -0.061978277
0.059808888 0.15928587 0.39264968 0.20870268 0.13873114 0.3995919 0.6258965 0.13879596
-0.1055425 -0.3980559 -0.26419076 -0.62154627 0.10278233 -0.15839073 -0.2614941 0.32663947
-0.34706372 0.23443244 0.19629486 0.120025374 0.41018805 -0.06266533 -0.1206445 0.9992651
0.7313223 1.0231665 -0.021118281 0.1618015 -0.13455966 0.18541175 -0.05253721 -0.16717981
0.433612 0.047799043 -0.089151286 -0.023885526 0.40418947 -0.08694569 0.3658481 -0.1313698
0.009450686 -0.15785211 0.26716644 0.18088928 0.17767279 0.13611487 -0.012308621 -0.10930257

module.down1.mpconv.1.conv.3.bias f4 [64]
00000000: 1ec2 053d 5b50 e13c 644f 06bd d865 dcbd
00000010: 3029 f3bd cfd7 b73c 78dd e4bb 7c84 913c
00000020: bbb7 2e3c c3d7 83bf 2b83 0ebd 3225 bfbd
00000030: 961b 59bc 0a43 2bbd 9147 bcbd 300d 453d
00000040: 5cfb 3ebd d841 943c 8bcc f43c 6b51 3fbf
00000050: 9ab5 333d 3100 7ebd c63f 1ebb ad52 d9bd
00000060: e799 75bd 1c21 4e3c 54e4 1f3b c681 c9bc
00000070: d896 e3bc aa29 2a3c c97f da3c 7763 23bd
00000080: 8e50 703d 9a0a 033d 4ffe 7c3c c862 8bbc
00000090: 8b55 913c 287a 9dbc de50 11be c35b 313c
000000a0: 0245 983c a963 3d3d 900f 3c3e adce b9bc
000000b0: 47d4 c43a 3825 043e ff3d d03c ee44 a63a
000000c0: e9cc a0bc 0b03 10bb 9ea4 7f3d 675d 14bd
000000d0: 0db0 07bb 8161 533d ad38 77bd 8073 c1bc
000000e0: cac3 6c3d 4534 0bbd 5e42 ec3c 0ff0 2b3d
000000f0: 0913 f1bc 40fa 4abf 4c39 ad3c 5bc3 143a
0.032655828 0.027504137 -0.032790557 -0.10761613 -0.1187309 0.022441773 -0.006984409 0.017763369
0.010663922 -1.030022 -0.03479306 -0.09333266 -0.013251206 -0.04181198 -0.09193338 0.04810828
-0.046626434 0.018097803 0.02988269 -0.7473361 0.04387436 -0.0620119 -0.0024146899 -0.10611472
-0.059961226 0.012581136 0.0024397569 -0.024598014 -0.027781889 0.01038591 0.02667226 -0.03988978
0.058670573 0.031992532 0.015441491 -0.017014876 0.017740985 -0.019223288 -0.14191005 0.0108251
0.018587593 0.04623762 0.18365312 -0.022681559 0.0015016877 0.12904823 0.025420187 0.0012685338
-0.019628959 -0.002197447 0.06241285 -0.036221888 -0.00207043 0.05160666 -0.060356785 -0.023614645
0.057803907 -0.033985395 0.02884024 0.041976985 -0.029428022 -0.792881 0.021145485 0.0005674862

module.down1.mpconv.1.conv.4.weight f4 [64]
00000000: 65c3 923e 2df3 d43e 823b 8a3e b8ae 663c
00000010: 0895 9d3c 2c3f 3c3f 212b 5c3f 348c 683e
00000020: 76c0 48bb 2d4d 703e 3f68 393f fafc 8c3e
00000030: db16 e43e 10db 073f f075 2b3d e0fe ea3e
00000040: 1228 363e b57b 803f 9fbb 4e3f e925 213e
00000050: 3816 2d3e cc9b d63e 285c 853e 2948 203e
00000060: bcdc 063f 49b7 8c3e de0e 5a3e 9608 293f
00000070: f674 9f3d 8608 443e c010 fe3e 3511 eb3e
00000080: 51e5 c03e 60dd 873e 3bc2 3d3f 2ed8 353e
00000090: ecbe 093e 1ae7 073f 9e9b 4b3e 848c a03e
000000a0: 6ee2 403f b6b7 0a3f 71a3 263f f8ab e53e
000000b0: 7e9b 9a3e 71fa 2bbd 9463 173d 8bd6 c43e
000000c0: 975d 4d3e 975a cb3e 0d1a ee3e 98f3 713e
000000d0: 8531 6d3f 9ab9 e23d dd10 6d3e e923 e23e
000000e0: f508 0f3f e4b1 de3e 30c5 e43e d950 123e
000000f0: 1b69 033b 23b5 303e 6c80 2d3f a639 183e
0.286647 0.41591778 0.26998526 0.014079742 0.019236103 0.7353389 0.8600331 0.22709733
-0.0030632294 0.2346694 0.7242469 0.27536756 0.44548687 0.5306864 0.04186052 0.4589758
0.17788723 1.0037752 0.8075504 0.15737118 0.16903007 0.4191574 0.26046872 0.15652527
0.52680564 0.27483585 0.21294734 0.66028726 0.077859804 0.19143876 0.49622154 0.45911565
0.37674955 0.26536083 0.741245 0.17758247 0.13451737 0.5308701 0.19883582 0.31357205
0.75345504 0.5418657 0.6509314 0.44857764 0.30196756 -0.041986886 0.0369602 0.38444933
0.20055233 0.39717552 0.4650425 0.2362808 0.92653686 0.11070557 0.23150964 0.44168022
0.5587304 0.43495095 0.44681692 0.14288653 0.0020051661 0.17256598 0.6777408 0.14865741

module.down1.mpconv.1.conv.4.bias f4 [64]
00000000: 7078 5fbd f939 83bd 34db c0bd 05ee 11be
00000010: cf61 12be 63e4 ddbd 6c67 38be ec80 7b3d
00000020: 0b6e abbd 8f06 e9bf 3546 8ebe 35ff 1abe
00000030: a665 34bd ca31 debd a950 8dbe f41f 493b
00000040: 2a26 ddbc 0fab 6bbd 7ba5 75bd 7c8f cdbf
00000050: bcc6 7cbd 659f 67bd 6df6 0abe eae2 abbe
00000060: d800 29be ff27 3b3c 837a cd3c 2ad4 29bd
00000070: 50b7 923d dd02 773d 7879 7239 eba3 8bbd
00000080: ec01 4fbd 4525 67bd 6f31 72be cc34 0abe
00000090: 2721 e53b 7c28 c3bd bff2 5ebe af38 42be
000000a0: 665c 25be 8b76 93bd d993 3bbe b754 873c
000000b0: 3329 b7be 54a9 3cbe abc2 bdbd 644e 29be
000000c0: e731 95bc 8fd9 31be ed01 2c3c 3b50 88bd
000000d0: 3d4d 22be 6d76 133e 621a ae3c e57e 4abe
000000e0: 8fc6 66bd 24a0 53bd 1cd6 d4bd 4aa2 0d3d
000000f0: 1a3d 4fbf 7595 92bf ec81 01bd 9364 a53d
-0.054558218 -0.06407542 -0.0941681 -0.14250953 -0.14295124 -0.10834577 -0.18008202 0.061402246
-0.083705984 -1.8205127 -0.2778794 -0.15136416 -0.044042252 -0.1084934 -0.276006 0.0030689212
-0.026995737 -0.05753618 -0.059972268 -1.6059413 -0.061712965 -0.056548495 -0.13570566 -0.3357156
-0.16504228 0.01142311 0.025082832 -0.0414621 0.0716387 0.060305465 0.00023124169 -0.06818374
-0.050538942 -0.056432027 -0.2365167 -0.13496703 0.0069924775 -0.09529206 -0.21772288 -0.18966936
-0.16148528 -0.07200345 -0.18318118 0.016519887 -0.3577362 -0.18423969 -0.092656456 -0.1653381
-0.018212272 -0.17368148 0.010498506 -0.06655928 -0.15849777 0.14400645 0.021252815 -0.19774969
-0.056341704 -0.051666394 -0.103924006 0.0345786 -0.8095261 -1.1451861 -0.031618044 0.08075824

module.down1.mpconv.1.conv.4.running_mean f4 [64]
00000000: 38e6 c53f d7bc c6c0 5e47 c7bf aa24 693f
00000010: dea7 cfbd 0035 c9bf 68ad 90bf ddea 58c0
00000020: 17a3 7e3f 648e 1f41 31e7 eebf 4794 783f
00000030: cbe6 3bbf 1f60 3f3f 959d 36c0 9306 49c0
00000040: e5d3 39c0 3de5 debf 951d 64c0 5eb9 ef40
00000050: b05b 11c0 d52b 4dc0 9539 31c0 6257 953e
00000060: e273 783f af9a 57c0 150c 44c0 3934 bbc0
00000070: 0fa3 90c0 c0d8 e5bf 1586 9ec0 7c65 f4bf
00000080: af6a 2dc0 bc2d 73c0 2f14 9fc0 c6a2 3240
00000090: 6618 6ec0 c325 78c0 7127 37c0 0c2a 85c0
000000a0: f565 aebf 2f23 46c0 9c19 0fc0 3643 51c0
000000b0: 32a5 2e40 ea31 173f e478 67bf dad1 8bbf
000000c0: 2d7f febd e3ef 01c1 0b61 c4be 595e 5bc0
000000d0: 8ff2 d53e b981 51c0 239b 79c0 74bc 9fc0
000000e0: 8763 53c0 ce13 e5bf b54d 9e3f 0a92 1341
000000f0: 0225 dfbf 8e22 0cc0 cc09 05c0 ccf7 46c0
1.5460882 -6.2105517 -1.5568655 0.9107157 -0.1013944 -1.5719299 -1.1302919 -3.389335
0.99467605 9.972263 -1.8664304 0.97101253 -0.7339904 0.74756044 -2.853368 -3.1410263
-2.903558 -1.7413708 -3.5643055 7.491378 -2.2712212 -3.2058003 -2.7691395 0.2916823
0.97051823 -3.3688161 -3.0632374 -5.850125 -4.5199046 -1.7956772 -4.9538674 -1.909347
-2.7096364 -3.7996664 -4.971214 2.791185 -3.7202392 -3.8773048 -2.8617823 -4.1613827
-1.3624865 -3.0958974 -2.235938 -3.2697272 2.7288327 0.5906054 -0.9041884 -1.0923417
-0.124266006 -8.121066 -0.38355288 -3.4276335 0.4178662 -3.2735426 -3.9000938 -4.9917545
-3.3029497 -1.7896669 1.2367464 9.223154 -1.7433169 -2.189609 -2.078723 -3.1088743

module.down1.mpconv.1.conv.4.running_var f4 [64]
00000000: bd05 1e41 b788 1842 5098 a541 6912 263f
00000010: 10b2 1f3e a2b0 8141 3c53 6e41 f218 8941
00000020: 0a4c 493f d393 a141 89ad 2642 191b 4841
00000030: b73e cd41 5b35 ad41 3567 5d40 e2c4 7c41
00000040: aa65 b140 ca71 7442 200d 2742 8721 8b41
00000050: cfda 4c41 ad32 9b41 e694 2341 f455 2841
00000060: 608e 0041 7553 f440 37b7 3b41 cc62 b941
00000070: ff10 f440 8377 ce41 2e62 f341 d9c3 9941
00000080: e340 9a41 2a36 3641 f84c b241 4b73 c040
00000090: c5f3 1e41 6475 f341 a125 cc40 60b0 cd40
000000a0: 1a4d b841 0635 6941 5bd6 7242 6a6c 8e41
000000b0: 0e5a 0441 be63 153f c165 9b3f 9803 7541
000000c0: 6778 a941 627f 7541 b616 c941 24ff 1c42
000000d0: 5797 4041 8bb6 b941 65af 2941 ab44 4241
000000e0: 0cde df41 b178 2441 b4d4 6f41 558c b840
000000f0: b62c f440 a3d5 3f41 e436 e541 2d04 f940
9.876401 38.13351 20.699371 0.6487184 0.15595269 16.211246 14.895321 17.13718
0.7863165 20.19718 41.669468 12.506616 25.655622 21.651052 3.4594243 15.798067
5.54366 61.111122 41.762817 17.39137 12.80342 19.399744 10.223852 10.520985
8.0347595 7.6351876 11.73223 23.17324 7.6270747 25.808355 30.42294 19.220629
19.281683 11.388224 22.287582 6.014074 9.934514 30.43232 6.3795934 6.42778
23.037647 14.575445 60.70933 17.802937 8.271986 0.5835532 1.2140428 15.313377
21.18379 15.343599 25.13609 39.24916 12.036948 23.214132 10.605321 12.141765
27.983421 10.279466 14.989429 5.7671304 7.630458 11.989657 28.651802 7.7817597
