learned_models/mask/decam.pth (torch_old, 416836 bytes, 39 tensors)

module.inc.conv.conv.0.weight f4 [32, 1, 3, 3]
00000000: a010 7d3e 5734 bcbe a3b3 a0bf 58f4 b03e
00000010: 15c2 89be bd87 71be cc41 913e 23b7 083f
00000020: 7c7f b73e d917 21bf 4733 523d 79e5 c8bf
00000030: dce5 92be c956 e13f 5695 cfbd 86da 723d
00000040: a077 93bf f431 be3f 397b a23f 4478 a9bd
00000050: 28cc de3f dd86 a4bd 0e86 823d 68fa 1ebf
00000060: 3c13 6abf 9393 0dbf 720f 2fbf 508e ba3e
00000070: 84cf 463f 7276 1540 f111 25bf c727 49bf
00000080: b9d9 47bf f504 233d 1347 fbbe 23c3 a03d
00000090: 499e 643e a98b 893e f7b4 f93d 3048 30bd
000000a0: 77f6 143f 2930 1d3e 5699 0fbe 6b4e df3d
000000b0: 1dc1 de3e a8a3 bcbe 5cc0 3c3f 40b2 0940
000000c0: e73b 96be 2f05 cb3e 065e 603f d918 e7bf
000000d0: 2811 8abf ac31 4ebf 031c a93e 583e e9be
000000e0: 3d73 58bf dcd4 5a3f a8cb a7be 4dbe 79bf
000000f0: ee07 7a3f 34b4 40bd 122f 71bf 945f 96bf
00000100: 0182 c2bf b2ae 0c3e 3b89 9f3c 5a77 a2bf
00000110: 7fb7 003f 3a65 113f 435c 37be db06 3740
00000120: 2e28 9f3f 72ca 86bf cab7 c43e 3d61 73bf
00000130: bc70 1f3f 645a b4bf 103a 6a3f b2d0 673e
00000140: 24f5 db3d 8d18 24bf 3eb5 02bf a3e2 c0be
00000150: d9bb 80bf a9a7 d73f 5944 333f 94b5 87bf
00000160: 75ba a43b fd23 973f 55ee 153f d678 57c0
00000170: 3c7b 133f 8ba5 83bc 658d c4be d92f 7b3f
00000180: bd57 6a3e 2d91 18bc 9a49 16be 6134 213f
00000190: f42a 583f 93d9 703f 4069 153f e465 04bf
000001a0: f670 49bf a1a8 48bf fbf6 2ebf 9436 d23c
000001b0: 5256 843e 4ac2 4b3e cbdd cc3c 8f12 ef3e
000001c0: 700f abbe b99c 013e 98fc debe 96e7 cebe
000001d0: 07b0 90be d2b7 1e3f 3191 033f b65b 7c3f
000001e0: a8ec 34bf a9d8 d9be dc4e 233f a27a 86bf
000001f0: 6bbc 21bf 9b46 0b3e 645f ba3f c994 433f
00000200: 6433 1dbf 1ada 1c3e e5f1 473f 7bca 97be
00000210: f3f9 6bbf 4271 d7be 2e1a 91bf ee1e b7bf
00000220: 1aa0 71bf 5bb5 ce3e 8ec4 9e3c 4cf3 15bf
00000230: 9e24 033f d4a8 313f 349b b63e 2cd7 923f
00000240: 6cd6 aabe f767 6dbf 297d d5be 111d 893f
00000250: 63ab 1d3f 6eda 38bf bab7 f93e 2046 b93f
00000260: d718 13be 9f2d 19be 921c 32bd 5ffd 383d
00000270: bf49 873d 85e0 cfbe a6b4 e93e fdd2 dfbe
00000280: 6d6e 8ebe 7e69 3b3e f25f 453e 6d2c 00bf
00000290: 30b3 9f3f 711f 70bf 8d86 a5bf baeb 6d3e
000002a0: e6b4 1f3f 68ed 303f a6d3 a4be 2c20 133e
000002b0: 3e20 02be 6d81 9c3e ee15 ad3e 21b0 cdbe
000002c0: bb43 bdbe 4862 c03c d740 d23e 4269 6abc
000002d0: c3ed 6c3d 017b e73d 4fb0 1a3f af4c 5dbe
000002e0: 213e 183e 65ad 423f e92f 1d3e b18d c13e
000002f0: da85 9f3f 0184 2e3f 611c 9d3f c0ce ba3e
00000300: 5f77 a9bf 222b 953e a35b a83e 2147 7bbf
00000310: 8602 023e e1d8 41bf 7613 353f fbcc d0bd
00000320: 22a6 d2bf 0090 843f 62bd fc3e 0768 fcbe
00000330: c8c8 2e3f c4e6 673e 8c0c 24bf f930 1fbf
00000340: f973 3b3f ba9b 7d3f eb8c 41c0 ba93 9c3f
00000350: 9bcc 05bc 8a45 3dbf b67a c83e 59bf 3d3f
00000360: bf54 c2bf ff7d cdbe bc86 af3f 9d21 ad3e
00000370: 4728 793f 7f7f 0d3d 174a 87bf 6aa8 3b3e
00000380: 67bf d03d 5931 a8bd 0e66 d93e c7c3 173e
00000390: 6078 40be bd50 12be 89c2 153c 367a 9e3e
000003a0: 8dfd 0cbe db57 103e 4462 4f3f 04f3 b2bf
000003b0: bb50 87bf c9fb 073f f386 8dbf a86c 86be
000003c0: 851b 293f 0839 593f 8af3 723f 6234 883e
000003d0: e5ac 093e f2c1 bf3e daee 413e bcfa cdbd
000003e0: b758 65bd de1e b5bc ec77 603e 3a7c 35be
000003f0: 9f3d dbbe 4c23 bc38 339e 233f f89f b43c
0.24713373 -0.36758682 -1.2554821 0.3456142 -0.26905885 -0.23586936 0.28370512 0.53404444
0.3583945 -0.62927014 0.051318433 -1.569503 -0.28690994 1.760461 -0.101359054 0.05929043
-1.1520882 1.4858994 1.2693855 -0.08274892 1.7406054 -0.08033536 0.06373225 -0.6210084
-0.914356 -0.55303305 -0.6838294 0.364367 0.77660394 2.3353543 -0.644805 -0.7857632
-0.78066593 0.03979965 -0.49077663 0.078497194 0.22326006 0.26864365 0.121927194 -0.043037593
0.58188576 0.15350403 -0.14023337 0.10903629 0.4350671 -0.3684361 0.7373102 2.1515045
-0.29342577 0.39652392 0.8764347 -1.8054458 -1.0786486 -0.80544543 0.33029184 -0.45555377
-0.8455084 0.8548105 -0.32772565 -0.97556 0.9766835 -0.047046855 -0.9421245 -1.1747918
-1.5195924 0.13738516 0.019474616 -1.2692673 0.5027999 0.56795084 -0.17906289 2.8597934
1.2434137 -1.0530531 0.3842147 -0.9507025 0.62281394 -1.4090085 0.91494846 0.22638205
0.10740116 -0.6409996 -0.51057804 -0.3767291 -1.0057327 1.6848041 0.70026165 -1.0602288
0.00502711 1.1807858 0.5856679 -3.3667502 0.57609916 -0.016070148 -0.38389125 0.98119885
0.22885032 -0.009311956 -0.14676514 0.6297055 0.8444054 0.9408199 0.58363724 -0.5171797
-0.7868799 -0.7838231 -0.6834561 0.02566079 0.25847107 0.19898334 0.025008103 0.46693847
-0.33410215 0.12657441 -0.4355209 -0.4041106 -0.28259298 0.6199924 0.5139342 0.9857744
-0.7067361 -0.4254811 0.63792205 -1.0506175 -0.6317813 0.13601153 1.4560361 0.76398903
-0.6140654 0.15317574 0.78103477 -0.29646668 -0.9217827 -0.42078596 -1.1336114 -1.4306314
-0.9438492 0.40372738 0.019380834 -0.58574367 0.5122775 0.69398236 0.35665286 1.1471915
-0.33366716 -0.9273676 -0.41697052 1.0711995 0.6158964 -0.722083 0.48772985 1.4474525
-0.14364944 -0.1495881 -0.043484278 0.04516351 0.06605863 -0.40600982 0.45645636 -0.4371566
-0.27818623 0.18301961 0.19274881 -0.5006779 1.2476559 -0.93797976 -1.2931687 0.23234454
0.62385404 0.69112253 -0.32192725 0.14367741 -0.12707612 0.30567494 0.33805794 -0.40173438
-0.36965737 0.023484364 0.41065094 -0.014307322 0.057843935 0.11302758 0.60425276 -0.21611284
0.1486745 0.7604583 0.15350308 0.37803414 1.2462723 0.6817017 1.2274286 0.36485863
-1.3239554 0.2913447 0.32882413 -0.9815541 0.12696275 -0.75721556 0.7073282 -0.10195347
-1.645695 1.0356445 0.49363238 -0.49298117 0.6827512 0.22646624 -0.64081645 -0.621841
0.73223835 0.99065745 -3.024226 1.2232583 -0.0081664575 -0.73934233 0.3915612 0.741201
-1.5182112 -0.4013519 1.3712993 0.33814707 0.97327083 0.034545418 -1.0569485 0.18325964
0.10192757 -0.08212537 0.42460674 0.14820777 -0.1879592 -0.14288612 0.009140619 0.30952615
-0.13768597 0.14096014 0.81009316 -1.3980412 -1.0571512 0.5311857 -1.1056808 -0.26254773
0.66057616 0.8485265 0.9490286 0.26602465 0.1344486 0.37452656 0.18938771 -0.100575894
-0.05599281 -0.022109445 0.21920747 -0.1772317 -0.4282045 8.971113e-05 0.6391327 0.022048935

module.inc.conv.conv.0.bias f4 [32]
00000000: 2b49 6ebb f60e 17bf 71b5 59be 18f7 1ebf
00000010: 9409 51be 45d0 a7be 073a d3be a44d 013f
00000020: 6f3c 84bf 0243 8abe ee82 33be 9525 8fbd
00000030: b3a5 96bc a2e1 7a3e bd8e 81be 72aa 16be
00000040: a81d 153e a096 1c3e 86bd 8bbe bf29 45be
00000050: bbe4 eabe 137b 16be 958b 07be 6906 06bd
00000060: 64f4 c5be b2df 5c3e 0191 593e 89f8 563e
00000070: a483 a1bd f913 c13d abe8 86be c3d8 8abe
-0.003635953 -0.59007204 -0.2126062 -0.62095785 -0.2041381 -0.32776085 -0.4125521 0.50509095
-1.0330943 -0.27004248 -0.17530414 -0.0698959 -0.018389558 0.24500135 -0.25304213 -0.14713457
0.14562094 0.15291834 -0.27293032 -0.19254206 -0.45877632 -0.14695387 -0.1323684 -0.032720957
-0.38663018 0.21569708 0.21246721 0.20993246 -0.078864366 0.094276376 -0.26349387 -0.271185

module.inc.conv.conv.1.weight f4 [32]
00000000: 3f4b b4b9 ebc0 3b3f dc14 8e3f 3d48 c43f
00000010: 25d5 653b 2ab8 fa3f 3905 d73e a275 f53f
00000020: 04b5 933f 004a af3f 6977 533f 5649 0040
00000030: faa5 d338 7469 1540 8326 b53f 9d35 4840
00000040: a89f 4abf 811e 5439 6cdd ed3f 1c7f 88b9
00000050: 6216 503f 2f60 6c3f 94b1 cb3f ee5f f5bf
00000060: 0e4b b13f 6eb5 d8ba 9efd af3f 53ee 8aba
00000070: 6c2c e539 8f27 58bc db71 953f a707 bdb9
-0.00034388338 0.73341244 1.1100116 1.5334545 0.003506967 1.9587452 0.41996172 1.9176524
1.1539617 1.3694458 0.8260408 2.004476 0.000100921796 2.3345613 1.4152378 3.1282723
-0.79149866 0.00020229259 1.8583198 -0.00026034645 0.81284153 0.92334265 1.5913568 -1.91699
1.385103 -0.0016533562 1.3749273 -0.0010599591 0.0004371138 -0.013193025 1.1675371 -0.0003605459

module.inc.conv.conv.1.bias f4 [32]
00000000: 11a1 2bbe b29e 79bf 75c5 dcbf 508f 26c0
00000010: 2b1f 4dbf f321 c4bf 7881 913f d5ab 03c0
00000020: 747c c13f 0cda 05be bdac 3cbd 9f0e cf3f
00000030: ee91 08be d0cb 933f 62ea 703c e462 e63f
00000040: 9c3e 8dbf f2f5 8cbd 716c a0bd 1e4d b4bd
00000050: 4ac9 49c0 0864 9d3e 791e ca3f 5dfb 47c0
00000060: 65e1 a63f 32b6 58be 4374 df3e 2657 72bd
00000070: 7d90 15be 8dd4 9fbe ebd4 d13e b1c4 b7bd
-0.1676066 -0.97507775 -1.7247759 -2.602497 -0.80125684 -1.532286 1.1367636 -2.0573628
1.5116105 -0.1307146 -0.046063174 1.6176337 -0.13336918 1.1546574 0.014704319 1.7998929
-1.1034732 -0.06882848 -0.078331836 -0.088037714 -3.1529107 0.3074038 1.579055 -3.124717
1.3037535 -0.21163252 0.43643388 -0.059165142 -0.14605899 -0.3121685 0.40982756 -0.08973063

module.inc.conv.conv.1.running_mean f4 [32]
00000000: 743e 3fc3 3d27 4fc4 b3cf c5c1 b603 5644
00000010: 053f 8b44 4e70 bcc2 1dd0 0b45 cdc2 4643
00000020: c703 8fc2 5069 c241 69fd 49c4 f009 1543
00000030: da9c 77c3 1dbb 7841 49c2 28c3 edaa 9142
00000040: d80c 0b44 e8a7 b7c3 8d92 14c2 87d0 4643
00000050: 853d dd44 62f4 07c2 3bd2 3f43 9a3a 48c4
00000060: e3ee fcc1 1a3d 9c43 cf80 25c2 e38a 0644
00000070: f1c7 e6c3 eb3a 1745 d7db 60c2 cba0 1f44
-191.24396 -828.6131 -24.726416 856.058 1113.9694 -94.219345 2237.007 198.76094
-71.50738 24.301422 -807.95953 149.03882 -247.6127 15.545682 -168.75893 72.83384
556.2007 -367.31177 -37.143116 198.81456 1769.9225 -33.988655 191.82121 -800.91565
-31.616644 312.47736 -41.37579 538.1701 -461.56204 2419.6824 -56.214687 638.5124

module.inc.conv.conv.1.running_var f4 [32]
00000000: 6702 b647 f65f 9048 3caa 1848 d6b5 ba48
00000010: eb07 e848 e741 9148 cd86 fa49 f914 7648
00000020: 206f 1a47 d9ea cd47 6d41 9f48 338b c047
00000030: 1f14 3947 0623 d747 7861 0c48 d48d fd47
00000040: 402c ef47 d690 6947 dbfb fc46 e683 9346
00000050: e53a 9649 0f30 f347 2956 e947 a8a3 bc48
00000060: f42c 5047 b7c4 1647 be1c 1848 ed62 df47
00000070: 9321 b147 dba4 0c4a c94a 1547 5dc1 1a48
93188.805 295679.7 156328.94 382382.7 475199.34 297487.22 2.0523136e+06 251987.89
39535.125 105429.695 326155.4 98582.4 47380.12 110150.05 143749.88 129819.66
122456.5 59792.836 32381.928 18881.95 1.2306846e+06 124512.12 119468.32 386333.25
53292.953 38596.715 155762.97 114373.85 90691.15 2.3043108e+06 38218.785 158469.45

module.inc.conv.conv.3.weight f4 [32, 32, 3, 3]
00000000: 0981 883b c31e ae3b fe99 db3c 664c a63c
00000010: 65c5 46be b7c3 9cbd a285 6b3d 5ed7 ac3d
00000020: 1fb1 d13d ed0d c4bf 3ce8 15bf 14fb c1be
00000030: 024b ac3f c857 02bf d019 babe 0590 f9be
00000040: 9896 f73e bd20 543f 042a 35bf c007 bdbe
00000050: b59f b0be 5ebc 6cbd 6d03 32be 1ea8 89bf
00000060: 9dd3 5a3f b348 ef3e ed3e 6c3f 1f8e 9abd
00000070: 0694 dd3d e16b c43d 140a b33f a280 b2bf
00000080: a0a1 65bf 00ef 4e3e 91c8 c6bf 865a a13e
00000090: d8f7 7ebe cf16 71be 4e63 ebbe f476 babd
000000a0: f22e d7bd 114e c2be 47b6 a8be 3f1d debd
000000b0: ffcd 5dbe b9d4 263f 8f9c a5bd f348 7e3f
000000c0: e728 5d3e 3776 0ebf b260 06bf 805c 09c0
000000d0: 85fc 2ac0 1660 91be 0975 b83e 5180 fb3e
000000e0: c183 1b3f 6a1b 6dbe 8ecd 80bf 9d03 1c3d
000000f0: 676b c63d 2983 8abe 81a3 2e3e 92ac edbf
00000100: 9fef aabe 1d1d 32be b936 333f 997d d8bf
00000110: 46ba 80be d6d1 1abf 46d1 f63d 9211 2a3e
00000120: e834 3a3f 2196 83be c306 bd3e 47ce 88bf
00000130: 045b 4f3f b380 09c0 a72b b23e eaf1 b6be
00000140: ca21 973f 6ace 9bbe 9be0 7ebe 0bb0 323f
00000150: 057c b7bf 8a0f 23bf 6e5b 15bc 5aff 9bbf
00000160: 7a26 c33e d61e 823f 2f33 31bf 12d5 273f
00000170: 070f b53f 5f9c 0c3e c353 8d3b 196d df3c
00000180: c151 df3e 262c 1a3d 9d6f 2d40 e815 693f
00000190: e125 0fbf 33e6 85bf 1c36 2bbf 1701 ef3f
000001a0: ebf8 1640 19a5 973f d33e f5bf 9fe7 b9bf
000001b0: a6a4 3abe 366b c43a 9b17 6abd 22b3 ad3c
000001c0: b3a7 edbd 6884 523e b82a 56bd 9e7a 1ebe
000001d0: 7393 b3bd ec2d b7bd 4df6 673e e018 9abe
000001e0: 3107 8dbc c3d6 acbe 843a 833b af80 573d
000001f0: d552 66be ba4e dfbe b042 c9be a686 543e
00000200: 9d06 d5be ec06 073f eaca e3bc 447b 38bf
00000210: d6bc a1bf 55d9 af3f 27da 753e 96bc 8dbd
00000220: ed95 eabf 6e43 4e3d 6c46 4b3f c5be 073e
00000230: 2eb6 8e3f 0777 0cbf 8a60 98be 476f 8cbf
00000240: 51d1 6abf 26cc 7bbf 89ad 613e c382 0ebd
00000250: 7e2e a23d 9425 b7bf 315b f3be 60f3 4abf
00000260: 2fe5 eebe 2128 863b 17a6 6bbd a6e3 80bd
00000270: 0ca7 953d 3835 f3bd c401 9e3d 34e3 923b
00000280: c24b 4e3c 6206 2a3c 4929 103f 93d0 d23f
00000290: e4c1 9bbe ec36 00be 054d 44bd 3395 e1bd
000002a0: cefb 923e 39dd b83e b408 67be 155b 8dbc
000002b0: 0674 c63d a6b2 0abd 7a9e e8bd 7e2a 2bbd
000002c0: f9cf 933d b563 a03c 19ae 31bc 5a29 253c
000002d0: d9a8 efbf e3b8 6ebf 6844 d9bf b8b8 60bf
000002e0: f220 9dbe 1a50 f0bf 9505 85bf 048f 76bf
000002f0: 5664 2bc0 f130 0dbf 8da4 c03f 0c3f d6be
00000300: 1a9d 00bf f9e2 a13c 8097 2bbf d218 c6be
00000310: 6d40 973f 984f 92be 0f58 36bf 8865 743f
00000320: d548 fe3d 98ea 03bf d6b8 45bf edfb 85bf
00000330: 3d37 e3bf 9625 6d3f af60 6b3f 93e7 033f
00000340: 1c28 0fbf f437 ee3d 5a98 59bf 1bca 04bf
00000350: e8d9 eebf c9c9 bb3e 942d 03bf 1f44 9e3f
00000360: c1f9 7abf 7440 9dbf 0130 3bbd 9a2f 1cbf
00000370: 240c f93f 13e9 023f e726 753e 8975 1bc0
00000380: 44e5 193f a5c2 7e3d 423f c8bd 44fa 403d
00000390: 6e95 04be b0bd 0cbd c2fc 0cbe 28fb 8fbd
000003a0: 7a26 813d fee8 1fbe a194 6d3f de50 383c
000003b0: db4c bebe c1c6 4bbf 02c0 35bf c5bf 533f
000003c0: a2de fc3d 2acb 63bf fb58 0140 d606 94bd
000003d0: e250 8abb 76f1 9ebc a90c 6fbd 8072 80bd
000003e0: 29db 463c 9356 3c3b c093 a3bd 206c 84bd
000003f0: 95a6 20be 18a6 1c3f 1b75 123e 5a10 cb3e
0.004165773 0.0053137257 0.026806828 0.020300101 -0.19411238 -0.07654517 0.05750049 0.084395155
0.10238861 -1.531675 -0.58557487 -0.3788687 1.346039 -0.50915194 -0.36347818 -0.4874269
0.4835708 0.82862455 -0.70767236 -0.36919975 -0.34496847 -0.05779683 -0.1738412 -1.075443
0.85479146 0.46735153 0.9228352 -0.07546639 0.10819249 0.09590889 1.3987451 -1.3945506
-0.89699745 0.20208359 -1.5529958 0.31514376 -0.24899232 -0.23543857 -0.459742 -0.0910472
-0.10507001 -0.37950185 -0.32951567 -0.10845422 -0.21660613 0.6516834 -0.08086502 0.9933006
0.21597634 -0.5564913 -0.52491295 -2.1462708 -2.6716626 -0.2839362 0.3602679 0.49121335
0.60747916 -0.23154989 -1.006273 0.038089383 0.09688454 -0.27053192 0.1705456 -1.8568289
-0.3338594 -0.17393918 0.70005375 -1.6913329 -0.25142115 -0.60476434 0.120516345 0.16608265
0.7273698 -0.25700477 0.3691922 -1.0687951 0.80998254 -2.1484802 0.3479893 -0.3573144
1.1807187 -0.3043092 -0.24890368 0.6979987 -1.4334723 -0.63695586 -0.009116037 -1.2187302
0.38115293 1.016566 -0.69218725 0.65559494 1.4145211 0.13731526 0.0043129637 0.027273702
0.4361706 0.03763976 2.7099373 0.9104905 -0.55917174 -1.0460876 -0.6687944 1.8672208
2.3589427 1.1847259 -1.9159797 -1.452381 -0.18226871 0.0014985565 -0.05715142 0.021203581
-0.11604252 0.20558321 -0.052286834 -0.15476462 -0.08768358 -0.08944306 0.2265255 -0.30097103
-0.017215343 -0.337576 0.0040047783 0.052612957 -0.22492535 -0.4361475 -0.3930869 0.2075449
-0.41606608 0.52744937 -0.027806718 -0.7206309 -1.2635753 1.37382 0.24009 -0.069207355
-1.8327004 0.050357275 0.7940433 0.13256367 1.1149347 -0.5486912 -0.29761153 -1.0971459
-0.9172564 -0.9835838 0.22038855 -0.034792673 0.07919024 -1.4308343 -0.4753051 -0.7927761
-0.46659228 0.004094139 -0.057531442 -0.062934205 0.07307252 -0.11875385 0.077151805 0.004482651
0.012591304 0.010377498 0.56312996 1.6469902 -0.30421364 -0.12520951 -0.047925014 -0.110147856
0.28707737 0.3610628 -0.22561914 -0.017255345 0.096900985 -0.03386178 -0.11358352 -0.04178857
0.07217402 0.019578794 -0.010844731 0.01008066 -1.8723403 -0.93250865 -1.6974001 -0.8778186
-0.30689198 -1.8774445 -1.0392329 -0.96311975 -2.677999 -0.55152804 1.5050217 -0.41844976
-0.5023972 0.01976155 -0.67028046 -0.3869081 1.1816536 -0.2857635 -0.71228117 0.95467424
0.12416235 -0.51529837 -0.7723516 -1.0467507 -1.7751232 0.92635477 0.919444 0.5152523
-0.5592058 0.11631766 -0.84998095 -0.5187089 -1.866025 0.36677387 -0.5124142 1.2364539
-0.98037344 -1.2285295 -0.045700077 -0.61010134 1.945683 0.51136893 0.23940621 -2.4290488
0.60115457 0.062197346 -0.097776905 0.047113672 -0.12947628 -0.034360588 -0.13768294 -0.07030326
0.06306167 -0.15616223 0.92804915 0.011249749 -0.3716801 -0.7960015 -0.70996106 0.8271449
0.12347151 -0.8898188 2.021056 -0.07227866 -0.0042210678 -0.019402247 -0.058361683 -0.06271839
0.012137213 0.0028738126 -0.079871655 -0.06465936 -0.15688546 0.6119094 0.14302485 0.39660913

module.inc.conv.conv.3.bias f4 [32]
00000000: 898e f4bd 4d05 13bd dee2 143d 9b73 233d
00000010: 1645 1d3e 5fe2 37be 948a 2f3e 9ba5 ce3d
00000020: 2581 84bd 961b 49be c7f8 45be 505b e8bd
00000030: e784 a23d 24f5 b83c 44fd 323e b707 0a3c
00000040: 38ac 19bd 1ae6 be3c cf04 d33d 71f9 82bd
00000050: e5cc 8fbd 307f 093d 5424 45bd 9999 50bc
00000060: e9d4 6cbe 1364 60be 554e 9bbd b197 a8bd
00000070: 8c45 3dbe d0d5 0fbd 9f7d df3d 4efe 843e
-0.11941249 -0.035893727 0.03634917 0.03990517 0.15358385 -0.17957447 0.17142707 0.100901805
-0.06469945 -0.1963943 -0.19333182 -0.113455415 0.07935505 0.02257783 0.17479426 0.008424691
-0.037517756 0.02330308 0.103036515 -0.063952334 -0.070215024 0.03356856 -0.04813035 -0.012731933
-0.23128094 -0.21913175 -0.075833 -0.08232058 -0.18483561 -0.035116017 0.10912632 0.2597527

module.inc.conv.conv.4.weight f4 [32]
00000000: a77e 3a40 bb9e 1440 344e 1340 8fad 0d40
00000010: 62cf 0240 ae5b 883f 2bd5 1740 3c70 ef3f
00000020: 12c2 fe3f 0556 e13f 8152 0340 3bc1 1840
00000030: e715 0640 5791 0340 0ca7 1140 0548 1340
00000040: 3898 723f f622 2f40 70a5 1040 e911 4640
00000050: 1915 1440 f108 3340 ff9b f83f 6b8e 1740
00000060: 8eba dd3f 155a 1b40 70e3 1f40 016d 743f
00000070: c36d 3a40 05c2 f23f bfd7 2040 cb13 2140
2.9139802 2.3221881 2.3016481 2.2137182 2.0439076 1.0652978 2.3723857 1.8706126
1.9902976 1.7604376 2.0519106 2.3867939 2.0950868 2.0557458 2.2758207 2.3012707
0.9476352 2.7365088 2.2600975 3.0948431 2.3137877 2.7974207 1.9422606 2.3680675
1.7322557 2.4273732 2.4982567 0.95478827 2.9129493 1.896546 2.513168 2.516833

module.inc.conv.conv.4.bias f4 [32]
00000000: 33d7 bfbd 4737 363f 2053 e33c 72c7 633a
00000010: 6ee1 8a3d 661c b6bf 1966 043f 8d23 213e
00000020: 5408 e03d 4654 2d3e ed28 e9bd 4609 56be
00000030: 3e4e 933e 7ecd 983d a1aa e63e acd6 e03c
00000040: ffab 62be 3303 8b3d f86b b93d cd57 87bd
00000050: 57fd 31bc c872 363e 47ba 593f 2c9c a23e
00000060: f430 12be 67e0 acbc b403 1f3e 6153 3fbe
00000070: 1e5c 24be 9fe3 d5bd 3d80 0e3e 5103 ad3e
-0.09367218 0.71178097 0.027749598 0.00086890825 0.067812786 -1.4227417 0.5171829 0.15736218
0.109390885 0.16926679 -0.11384759 -0.20901975 0.28770632 0.074610695 0.45052055 0.027446114
-0.22135924 0.067877196 0.090537965 -0.066085435 -0.010863624 0.17817223 0.8504986 0.31759775
-0.14276487 -0.021103097 0.15528756 -0.1868415 -0.16050765 -0.10443806 0.13916107 0.33791593

module.inc.conv.conv.4.running_mean f4 [32]
00000000: 404e 54bf bdb8 bac0 29bc 0dc1 fe00 e4c0
00000010: 8208 b6c0 1e8c df41 32f4 00c1 d750 11c2
00000020: b34c adbf bf9e 69c0 a74e 56c1 b562 2ec1
00000030: 336c 9ec0 b7e2 67c1 8e3e cec1 f904 f7c1
00000040: cc4e 4ec1 70b6 1bc1 48a6 87c0 d49c 8fc1
00000050: d27c 853f 4e0b 6640 abe7 25c1 0aaa 17c1
00000060: c87b e0c1 aedb abc0 25b7 50c1 4359 333f
00000070: 3164 14c1 27a3 9040 7556 cec0 bd19 d7c0
-0.829319 -5.835051 -8.858438 -7.125121 -5.6885386 27.943417 -8.059618 -36.328945
-1.3539032 -3.650314 -13.394202 -10.899098 -4.950708 -14.49285 -25.780544 -30.877428
-12.8942375 -9.73204 -4.239048 -17.951576 1.0428717 3.59444 -10.36906 -9.479013
-28.06044 -5.3705664 -13.044713 0.7005808 -9.274461 4.519916 -6.448054 -6.721892

module.inc.conv.conv.4.running_var f4 [32]
00000000: a8fd 8842 e60f 9d42 7116 ad42 8d5f 9d42
00000010: ba57 dd42 0aea 0342 c63c 9342 a154 f442
00000020: 3d14 b142 5f49 7742 022f 9b42 ce5b 8a42
00000030: 6140 8c42 2a2d e142 f958 3143 b0ab 3743
00000040: ac35 a242 0eaa eb42 6823 de42 3a7a f042
00000050: 1439 c142 c6be a842 e430 e542 95d6 ad42
00000060: 3ebc c042 8007 7b42 d30e dc42 2091 4242
00000070: a1dc cf42 7fb5 3f42 1d88 d142 dc0f 6e42
68.49542 78.53105 86.54383 78.68662 110.67134 32.978554 73.6187 122.16529
88.53953 61.82165 77.59181 69.179306 70.12574 112.58821 177.34755 183.67065
81.10483 117.83214 111.06915 120.23872 96.61148 84.372604 114.59549 86.919106
96.36766 62.757324 110.02895 48.641724 103.930916 47.927242 104.76585 59.515488

module.down1.mpconv.1.conv.0.weight f4 [64, 32, 3, 3]
00000000: 2b5c ae3e 7d0f 30bf 686c 863f 81b7 fbbe
00000010: 7bee 94bd a817 8abf ad71 d83d efb5 98bf
00000020: c225 493f a3a2 1d3f c081 c9bf ea75 a43e
00000030: fd95 4b3f 76f7 873e 14d4 af3c ef84 7b3f
00000040: 98e8 0140 8a1f ecbf 66bc 2a3f 2cc1 3cbe
00000050: 6ad6 a13f 712e bdbd a4fb 72bd 8406 9d3f
00000060: b1b0 153e 0086 e0bd 3a64 d3bf 462f b33f
00000070: 57e8 103f fafc 94bf 683b ccbe ca68 583d
00000080: 82bf 2ebe e703 843e e4ab 04bf 4299 173f
00000090: ff52 96bd b960 f3bf 2c73 89bf 67e8 073f
000000a0: 34d4 acbf d295 cb3e f0e8 8fbf c2e4 aebf
000000b0: c3b8 19c0 2fcf debe 34a9 1abf 9041 6ebf
000000c0: becd 63bf 7b97 3d3f 08e7 cebf ec2f 05c0
000000d0: c926 b3bf 1899 17c0 44a1 80bf dbd7 c83e
000000e0: e592 98bf aeac 743d 9642 3f3d 86d3 85be
000000f0: 67d9 ae3e 065c 42bf 1c38 603f b8b1 73be
00000100: 15e9 a6bf 62c3 173f 6e04 c2bf ae31 21bf
00000110: c231 1c3e 60c7 00bf 0949 00bf 4c05 80bf
00000120: 0c16 5a3f f6b8 c43f a1b2 613f de16 dabe
00000130: 608b f73e 7831 bd3e c11d 3ebf 7e1a 0bbd
00000140: 39e1 dabe dd2d c03e 63c8 28bf d10b cdbf
00000150: 4eb4 6abf 0d6b 693f 56e0 2e3f 2808 133f
00000160: 9a7d a4be bc4e 96be 6dfc f8bf 8f69 bbbf
00000170: c359 9e3d 880d 61be e58f bcbf 0839 9abe
00000180: 71a5 693d ea1c 83bf 8ff7 acbe b352 9d3f
00000190: 862a 783e 66f4 933c ba14 573e 1ca9 0cbf
000001a0: db0d 99be b8f7 a3bf b53d 893f e6a8 953f
000001b0: 338b 933f a90b c1bf ddf3 44be 6046 31bf
000001c0: ab3c 1d3f c1e4 203e 2000 a6be d069 13be
000001d0: 5a46 9a3c 536d 89bf 84f0 dcbe 0cfc 05bf
000001e0: 8471 cfbf d782 98be 1793 cb3f ad4e 39bf
000001f0: 4f7b 3e3e 093a 013f 0d59 bd3f 150a 6e3f
00000200: 0c38 383f c966 06be 9e09 793f 9019 a53e
00000210: 9fd5 243f 1ba5 5abe 2554 38bf 618b f7be
00000220: 1691 e33f 6646 863f 8f8d a1bf af8c a2bd
00000230: 04cb e53e 560c 11c0 9eb8 a8bf fc88 01bf
00000240: 638b 9fbf c851 12c0 7498 13c0 27e4 b0bd
00000250: ab69 05bf bb0c 8cbe a5ce 343f 79df 29be
00000260: cafc 683e 0c76 003e faa7 363f 3016 96bf
00000270: 1848 793e b590 d03f 2022 d5be 54dd 3ebf
00000280: 9958 7a3f 0691 233e 6a93 73bf a11e 14bf
00000290: 9ff2 adbf 46be 99bc 8958 a3bf 8d03 8dbf
000002a0: 5387 a2bf 4514 933e 7688 0e3f 966c e1bd
000002b0: 0375 ffbd 48d6 98bf b7fd e33e 214e ab3d
000002c0: 53f4 a83e b149 383f c1f9 0840 1ec9 17c0
000002d0: 9451 8f3f c845 973f e87f 8c3f 1992 dbbe
000002e0: a8c7 6cbc 9ac3 2a3f 1436 1cbf 61bc 963f
000002f0: af5a 703f 205b 243f 53db 99bf 958b e8be
00000300: 45fb c6bf c5dc 313f 0098 f83f 1028 29c0
00000310: 0ba9 56be d197 0f40 7659 523f a906 7bbf
00000320: 736e a13f b346 0e3f 5407 f3bd 397c 0140
00000330: bbcd e8bf 0545 89be 0dca 5fbf 0c47 593f
00000340: 4f23 98bf c267 b6bf 9750 a3be 023d 00c0
00000350: 8f5b 243f d438 883f 0800 a4be df10 6cbf
00000360: 557f 41bf be7f d33d 8724 6d3e 0765 c6bd
00000370: c56a 483f 596b 323d fb4d 373f 2c59 13bf
00000380: 26a6 853f 167a 1040 bc81 843f 698a 0abf
00000390: 5b1b 0bbf 0a95 863e 838a 77be afe8 423e
000003a0: 31fb 0640 a0d8 2ebf 5f2c 6c3f 7732 613e
000003b0: 0eba 213f c691 bb3f 7fa1 96be de3e 5dbf
000003c0: 22ef 7a3e 446a 743f 598f c63f 9584 0f3e
000003d0: 123f d3be b3da 48be 09f8 82bf 00b4 74bf
000003e0: 3863 133e 4bce 86be 2619 8cbf 3556 923f
000003f0: fb0d b03f f19f 36c0 d52e c73e 42a2 24bf
0.34054694 -0.68773633 1.0501833 -0.4916344 -0.07272049 -1.0788469 0.10568557 -1.1930522
0.7857324 0.6157629 -1.5742722 0.3212121 0.7952574 0.26555985 0.021463431 0.98249716
2.0298214 -1.8447125 0.66693723 -0.18433064 1.2643559 -0.092373736 -0.059322014 1.2267613
0.14618184 -0.109630585 -1.6514962 1.3998802 0.5660452 -1.1639702 -0.39889073 0.05283431
-0.17065242 0.25784227 -0.51824784 0.5921823 -0.07340049 -1.9013892 -1.0738273 0.5308899
-1.3502259 0.3976274 -1.1242962 -1.3663561 -2.401902 -0.43517444 -0.60414433 -0.9306879
-0.8898581 0.74059266 -1.6164255 -2.08105 -1.3996211 -2.368719 -1.0049214 0.39227185
-1.1919829 0.059734993 0.04669436 -0.26137942 0.3415024 -0.75921667 0.87585616 -0.23798263
-1.3039881 0.59282506 -1.5157602 -0.6296643 0.15253356 -0.5030422 -0.5011144 -1.0001616
0.8518989 1.5368946 0.8816319 -0.4259557 0.48348522 0.36951804 -0.7426415 -0.03396081
-0.42749956 0.3753499 -0.65930766 -1.6019231 -0.91681373 0.9117897 0.6831106 0.5743432
-0.32127076 -0.29356945 -1.9452034 -1.4641589 0.077319644 -0.21977818 -1.4731413 -0.30121636
0.057042543 -1.0243199 -0.33782622 1.2290863 0.24234971 0.018060874 0.21004 -0.5494554
-0.29893383 -1.2809973 1.0721956 1.1692169 1.1526855 -1.5081683 -0.19233651 -0.6924801
0.61420697 0.15712263 -0.3242197 -0.14395833 0.018832374 -1.0736488 -0.4315225 -0.5233772
-1.6206517 -0.29787323 1.5904263 -0.72385675 0.18601726 0.5047918 1.4792801 0.92984134
0.7196052 -0.13125147 0.972803 0.32246065 0.6438846 -0.21352045 -0.72003394 -0.48348525
1.7778652 1.0490234 -1.2621325 -0.079369895 0.4488145 -2.266378 -1.3181341 -0.50599647
-1.2464412 -2.2862415 -2.30618 -0.086372666 -0.5211436 -0.27353463 0.70627815 -0.16589154
0.22752681 0.12545031 0.7135006 -1.1725521 0.24343908 1.6294161 -0.41627598 -0.7455647
0.9779144 0.15973291 -0.9514681 -0.57859236 -1.3589667 -0.018767487 -1.2761394 -1.1016709
-1.2697548 0.28726402 0.5567697 -0.11007039 -0.1247349 -1.1940393 0.44529507 0.08364511
0.32998905 0.71987444 2.1402438 -2.3716502 1.1196771 1.181817 1.0976534 -0.428849
-0.014451899 0.66704714 -0.61020017 1.1776239 0.9388837 0.64201546 -1.2020057 -0.45418993
-1.5545431 0.6947749 1.9421387 -2.6430702 -0.20962922 2.2436411 0.82167757 -0.9805704
1.2611831 0.5557663 -0.11866632 2.023207 -1.8187784 -0.2681047 -0.8741768 0.84874034
-1.1885775 -1.4250414 -0.31897423 -2.0037236 0.6420221 1.0642343 -0.32031274 -0.92213243
-0.7558492 0.10327099 0.23158465 -0.09687238 0.7828792 0.043559406 0.71603364 -0.5755794
1.044133 2.2574515 1.0352092 -0.5411745 -0.54338616 0.26285583 -0.24173932 0.19034074
2.1090815 -0.68299294 0.92255205 0.21991907 0.6317452 1.4653862 -0.29420087 -0.8642405
0.24505284 0.9547465 1.5512496 0.1401542 -0.41259056 -0.19614677 -1.0231944 -0.9558716
0.14393318 -0.26329264 -1.0945175 1.1432558 1.3754267 -2.853512 0.38902918 -0.64310086

module.down1.mpconv.1.conv.0.bias f4 [64]
00000000: 0730 53be a6bf 35bd ad7b fabd b3b0 f1bd
00000010: 6b9f 11bf 2ee2 9dbe 8449 043e 606b 50be
00000020: 1c0e 1c3e 193c 1cbd 7d47 9dbd ea4b b6bb
00000030: 99f4 70be d491 6b3c 336b bfbd 50ea 14be
00000040: b7c2 b4bd d48b 25be 72e2 7fbd 433c 76be
00000050: 7078 3bbd 347e e2bd 154e a4bd cf2c 68be
00000060: cb11 a0be c7c9 43be bfb2 bbbe 3625 20be
00000070: 9595 943d ff45 f23d 9422 a93d 1c94 b43c
00000080: b7eb a9be fe99 84be 72f7 52be 778d 01bc
00000090: 647a 30be ba07 35bc 8d78 ad3c 1026 13bd
000000a0: b606 853d 9005 11be 7f65 d0bd 54cd adbe
000000b0: 3529 7b3e 18b3 dabc 76a4 833d 0152 ecbe
000000c0: 256a bcbd 99b1 18be 1c39 b73e 01ac 01bd
000000d0: 6027 18be fe12 99be d1c5 c13e 44bb 3ebe
000000e0: bf68 c2be cb3c 103e ca38 e0be b5ca efbd
000000f0: a3fb bcbd a393 04bb b667 5c3e 5b4b 14be
-0.2062379 -0.044372223 -0.122306205 -0.11801281 -0.5688388 -0.30836624 0.12918669 -0.2035346
0.15239757 -0.03814325 -0.07679651 -0.005563249 -0.23530807 0.01437803 -0.093466185 -0.14542508
-0.088262014 -0.16166621 -0.062471814 -0.24046426 -0.045769155 -0.110592276 -0.080227055 -0.22673343
-0.31263575 -0.1911994 -0.3665981 -0.15639195 0.07255093 0.11829757 0.082585484 0.02204328
-0.3318765 -0.25898737 -0.20602205 -0.007907263 -0.17234188 -0.011049205 0.021175647 -0.03592497
0.06495421 -0.14162278 -0.10175609 -0.33945715 0.24527438 -0.026696727 0.06427853 -0.46156314
-0.09199933 -0.14911498 0.35785758 -0.031658176 -0.1485877 -0.29897302 0.37846234 -0.18626124
-0.3797054 0.1408569 -0.43793327 -0.11708585 -0.092276834 -0.00202296 0.21523938 -0.14481871

module.down1.mpconv.1.conv.1.weight f4 [64]
00000000: d018 a93f 1d2f ab3f 3d1e 853f 61f7 b33f
00000010: 9301 c43f 4e78 e33f e4f1 913f 1ba9 993f
00000020: b59a e93f aef3 7f3f 9d57 983f 5745 e13f
00000030: fccd 873f 1b0e 0bb9 98c9 693f adb8 8a3f
00000040: 57b3 b93f d3bf cb3f 411a 883f d056 9b3f
00000050: 02c0 b63f d5f8 a53f 67f3 ba3f 80ff cf3f
00000060: f75a df3f 8bc4 803f 3247 843f d247 1440
00000070: 7ec8 bf3f dd31 873f 0482 a33f efa1 c439
00000080: 47c1 c93f 9929 cd3f 8b81 ae3f 332e 983f
00000090: 548b 9e3f 38db c13f a89d c13f d801 b03f
000000a0: 546d cf3f 4805 ba3f ef58 2c3f cb59 dc3f
000000b0: 70e1 b03f 9dcd 0440 67ed af3f b0c5 8b3f
000000c0: 8cc3 403f 9889 dd3f 079a 833f d164 bc3f
000000d0: 9f45 cf3f 43f1 693f 3691 7e3f 82e5 b53f
000000e0: 958f f23f bb6b 813f 24ff e83f c53f f53f
000000f0: e2bd 833f 9f70 853f 8d16 903f def5 c63f
1.3210697 1.3373753 1.0399853 1.4059869 1.531298 1.7771089 1.1401944 1.2004732
1.8250338 0.999812 1.1901737 1.7599286 1.0609736 -0.00013261328 0.9132323 1.0837609
1.4507855 1.5917915 1.0633012 1.2135868 1.4277346 1.2966563 1.460553 1.6249847
1.7449635 1.005998 1.0334227 2.3168836 1.498306 1.0562092 1.2774053 0.00037504683
1.5762109 1.602832 1.3633283 1.1889099 1.238627 1.5145025 1.5126238 1.3750563
1.6205239 1.4532862 0.673232 1.7214903 1.3818798 2.0750496 1.3744324 1.0919704
0.7529838 1.7307615 1.028138 1.4718267 1.6193122 0.9138376 0.99440324 1.4210665
1.8950068 1.0111002 1.8202863 1.9160086 1.0292323 1.0424994 1.1256882 1.5543783

module.down1.mpconv.1.conv.1.bias f4 [64]
00000000: 43d4 2dbf 2c8f 28bf c3b6 5fbf e48e 89bf
00000010: a50e 5dbf 08fe 90bf 2352 f13b 9419 13bf
00000020: cc00 f0be 4898 0b3e 8396 b7bf 42e1 30bf
00000030: 7690 1bc0 3090 89bd 9af3 933e d669 d0bf
00000040: 593e 24bf 4861 88bf 70f0 0dbe b235 0ac0
00000050: cc6b 35bf ef52 53bf a368 03bf 5bf7 07be
00000060: c819 80bf d2f7 e2bf a108 c0bf 77c4 61bf
00000070: 4b26 aebe f43c 30bf 91fa 2abe 8110 02be
00000080: 09eb abbf 7dd7 02bf 4633 6ebf a4d7 443e
00000090: f8a7 aebe a7bf 25bf 0e74 d8be 04f8 b4be
000000a0: 03c3 2d3e 489d 63bf 5486 003c c582 5ebf
000000b0: 2c4d 80bd d4f1 81bf 0d91 49bc 14ed d3bf
000000c0: 6717 8fbf 015f 8bbf fb49 c83e 9f9f 4cbf
000000d0: 58c9 a1bf ad5d febe af4a 023f 7a18 03bf
000000e0: e0f5 24bf 7c48 1a3f 5a9b 8dbf b2aa 2bbf
000000f0: a080 f6bd dba5 343e a45a 583e 764e e6be
-0.6790201 -0.6584346 -0.8738825 -1.0746732 -0.8635047 -1.1327524 0.007364528 -0.57460904
-0.46875608 0.1363231 -1.4342808 -0.69093716 -2.4306922 -0.06716955 0.2889679 -1.6282299
-0.64157635 -1.0654688 -0.13861251 -2.1595273 -0.7086761 -0.8254842 -0.5133154 -0.13277952
-1.0007868 -1.7731879 -1.5002633 -0.88190407 -0.3401359 -0.6884301 -0.16697146 -0.12701608
-1.3431102 -0.5111006 -0.9304699 0.19222885 -0.34112525 -0.64745563 -0.42276043 -0.3534547
0.16968922 -0.8891187 0.007844526 -0.8691829 -0.06264719 -1.0151925 -0.012302649 -1.6556726
-1.1179017 -1.0888368 0.39118943 -0.7993106 -1.263957 -0.49680844 0.5089521 -0.51209223
-0.64437675 0.6026685 -1.1063035 -0.67057335 -0.12036252 0.17641394 0.21128327 -0.44981736

module.down1.mpconv.1.conv.1.running_mean f4 [64]
00000000: e28b 2fc1 c68d 78c2 845a cac1 b4c5 cb41
00000010: 124e f1c1 846b 19c2 12f0 32c2 d292 00c2
00000020: 33cc bec1 4a77 39c2 e1de c9c1 95a4 45c2
00000030: 4d10 30c1 2bb7 c5bf 7649 d9c1 a0d5 2842
00000040: a46a 50c2 92db 12c2 cecf ddc1 53ae e4c1
00000050: 04aa 03c2 b066 28c2 a483 4ec2 64e6 2cc2
00000060: ae54 46c2 a239 4241 419e 1142 d2b5 74c2
00000070: 4cfd 04c2 bedd 17c2 fd19 b340 0518 9dc1
00000080: af8d e0c1 17a2 89c0 2cfa 1ac2 b864 dcc1
00000090: 8714 3141 8d75 b9c1 704e b0c1 c583 82c1
000000a0: 3ec9 14c2 d0e4 86c2 92a7 2842 514a 90c1
000000b0: 55c3 b8c1 4936 1ec2 8de3 6cc2 f002 00c2
000000c0: d5c2 7241 b00c 82c1 217e d6c1 be96 9ac1
000000d0: 72bf bac1 6b21 eac1 fe16 a9c1 7519 3ac2
000000e0: cf55 52c2 dbc7 0ac2 b9b8 2ac2 7b64 dfc1
000000f0: de0c bcc0 5c48 02c2 10d7 3bc1 6cb9 46c2
-10.971651 -62.13845 -25.294197 25.471535 -30.16312 -38.354996 -44.734444 -32.14338
-23.849707 -46.366493 -25.233828 -49.410725 -11.00398 -1.5446523 -27.16087 42.20862
-52.10414 -36.714424 -27.726467 -28.58512 -32.91603 -42.10028 -51.628555 -43.22499
-49.582695 12.1390705 36.404545 -61.17756 -33.24736 -37.966545 5.5969224 -19.636728
-28.069181 -4.3010364 -38.74431 -27.54918 11.067512 -23.182398 -22.0383 -16.31434
-37.196526 -67.4469 42.163643 -18.036287 -23.095377 -39.553013 -59.222218 -32.00287
15.172566 -16.256195 -26.811586 -19.323605 -23.34348 -29.266317 -21.136227 -46.52486
-52.583797 -34.69517 -42.680393 -27.924063 -5.8765707 -32.570663 -11.7400055 -49.681076

module.down1.mpconv.1.conv.1.running_var f4 [64]
00000000: 7031 ae43 0cc9 3344 c04e de43 3ff1 9a43
00000010: 8a1f d843 0946 b843 6fef dc43 05f8 a543
00000020: d2a9 f043 db3e a843 e494 fe43 d526 a943
00000030: 04ca a043 7fd3 f640 4ad6 9a43 1dc1 b143
00000040: 361a df43 9af7 a543 7406 8a43 15d2 8743
00000050: 09a9 bd43 351e 9d43 7bee bf43 907f aa43
00000060: 0f74 cb43 753c c343 ed64 8e43 136f b743
00000070: 18b9 fa43 f40f 0d44 bd3f a343 171b 5641
00000080: 093e d243 bf5e a743 909d 9243 dbef 8e43
00000090: a1c0 9043 5a01 9344 9e7d e543 9871 8d43
000000a0: c133 cd43 1110 1244 a42c 6143 0eae 9743
000000b0: 56ec f543 618a 8543 4f5f cd43 8ea1 9f43
000000c0: 59e9 8c43 25b1 c043 75c2 1044 4de5 9843
000000d0: 4580 9e43 3dfc ad43 dcaf ae43 baae c643
000000e0: f864 f743 e03f a643 f692 b343 6ee4 6d44
000000f0: eee0 f443 3306 c143 22e4 b843 eb8d e243
348.38623 719.14136 444.61523 309.88474 432.2464 368.54715 441.87057 331.93765
481.32672 336.49106 509.1632 338.30338 321.57825 7.7133174 309.67413 355.5087
446.20477 331.9344 276.0504 271.64127 379.3206 314.236 383.86313 340.99658
406.9067 390.47232 284.78848 366.86777 501.44604 564.24927 326.49796 13.381614
420.48465 334.7402 293.23096 285.87387 289.5049 1176.0422 458.98138 282.88745
410.40433 584.25104 225.17438 303.3598 491.84637 267.0811 410.7446 319.26215
281.82303 385.38394 579.0384 305.7914 317.0021 347.9706 349.3739 397.36505
494.78882 332.49902 359.14813 951.5692 489.75726 386.04843 369.7823 453.10873

module.down1.mpconv.1.conv.3.weight f4 [64, 64, 3, 3]
00000000: 5bfa 653f c56f 88bf 0e89 d03f 9651 0040
00000010: c12c 68bf 48aa 39bf 8133 b6bd c1e4 263f
00000020: c356 cc3e 740b d0bf 7a04 73bf 6737 d2be
00000030: 9b6d bd3f 267f 56bf 4aba a13f 956b 623d
00000040: 0ab4 c6be ed3a 903e 7769 c0bf fb6a 35bd
00000050: 5f73 bb3f 820f a0be 69ba 033d 7289 cb3f
00000060: 2555 953f 3ed9 4abf 54aa 1a40 b416 8e3e
00000070: 3f79 a53f 086f 193f ac06 52bf fe96 7f3f
00000080: 5f1f f23f ad1e 1cbf 3c0a 17bf 589b bc3c
00000090: 9526 45c0 f56c 5abe 321e 633f 3237 51bf
000000a0: 76ba 75bf b899 39bf d8f5 353f 38f1 05c0
000000b0: b1eb 763f c0c8 25c0 7c57 a6be ac7d 1040
000000c0: d4d4 823e bd97 11c0 198d 863d 44c2 3ebf
000000d0: 5376 62bf a0e4 bebe 0659 8e3f 430f a4bf
000000e0: 3b13 213f ca79 af3d c80c 14bf fe29 a83e
000000f0: 4292 8abf c541 3abe bc02 cb3f c4e9 08c0
00000100: 2571 02c0 9bdf b93e 3183 ad3f 3ba6 e5be
00000110: a8d7 08bf 1a11 2ac0 df55 23bf be51 6fbf
00000120: 820c 363e a787 563e c6b4 683f 9b0d 0ac0
00000130: 6197 873f 49f4 ed3f 204f d2bf 1828 d2bf
00000140: 9da8 5c3f 8cef b4bf 229b 15bf f31b f5bf
00000150: be03 0240 91d5 653f a28e 63bf a0d3 f3be
00000160: 6874 ae3e fc83 14be 9fb8 49c0 6373 60c0
00000170: 144b 333f 1b75 98be b70a b4bf c42d 7d3f
00000180: 2e9f d83e 107d 043f f0f2 a33f b693 11bf
00000190: daab 5dbe cab1 4fbf ddd9 c7bd 670b be3f
000001a0: ac13 073f 425c 29c0 3d87 b6bf 8e2a a23f
000001b0: dc57 f7be e18d ccbf 51b0 a9be 8ac2 98bf
000001c0: 9a39 28c0 e6a8 c7be 2c68 963e 25af 3cc0
000001d0: 2846 a2be 50db 45bd 1050 a1bd aabc 97bd
000001e0: d4ac 11bd 1db3 d1bd b1ac d9bd 8f3b 10be
000001f0: 2619 f1bd 4d7c dbbd 5a81 81bf 009d 2a40
00000200: 009f 17bf 69bf a2bf 7107 d5be d1c5 cdbf
00000210: 6e83 38bf 73c4 e0be 85c2 293e 798e 9bbf
00000220: a91a 713e 9fa5 dcbf 0cac e23e aee2 c8bf
00000230: 92e9 6fbf e660 0740 a5a4 813e 1daf 38bf
00000240: 0403 763f acca 613e 3034 1c3f 23d6 0140
00000250: d376 0740 6d73 803e 44e4 253e 0a6a bf3f
00000260: da6c 2940 a8af ca3e 16c3 d2bb 51c8 6bbf
00000270: a2ef c73f 462d b4bd 6bbd 0040 80b3 e63e
00000280: 5737 ac3f 7ec4 7c3e af8c c8be 1607 f53e
00000290: 3e95 683f c15f f6bf 9ba9 733f e32b 923e
000002a0: 0722 11c0 ab50 183f bdbf edbe 12c9 c4bf
000002b0: 12ab f7bf 48c5 173e 69e2 d43f fd70 883f
000002c0: b788 4b3e 30a6 763f 5ea9 7bbf c5b5 a4bf
000002d0: d35f 2dc0 cffa 32be 60ce c2be d6f2 c83e
000002e0: 9f1a 1ac0 1298 6abf ea8c 4f3f e1bb 79bf
000002f0: 3967 ba3f fde8 05bf 813a 38be ba17 e13f
00000300: aa83 27bf ad70 cd3e f101 5a3e da33 bb3e
00000310: ee66 54bf 635c 8f3f dc7b 67bf b9f3 3fc0
00000320: 101d ab3f 9a3c 233e 3f82 c8bd 7046 bc3f
00000330: 93d8 903f 2dac 093f 4349 373f 5254 89bf
00000340: a49b fe3e 987d 003f 995e 323f 7cec da3d
00000350: 8620 a53f 9240 413f 4de5 0fc0 3762 ff3f
00000360: 23b8 1e3f 8fc7 f9be e7ef 0dbf 7b99 463e
00000370: 4252 d5bf 800f a53f b183 a8be ec8d 0a3e
00000380: f929 e03e 4c45 31c0 d3b2 febf 13e4 053f
00000390: e1a0 e3bf 9368 cebf e868 49be 78bb d73e
000003a0: 450e f6bf 13ee 853f 2c32 7b3f e668 243f
000003b0: 3878 2fbf 79d6 60bf 63ee 1b3e 0a23 ef3e
000003c0: ea2f 79bf 70bb 9c3d 5003 02c0 e961 37bd
000003d0: 105a 3cbe f442 01c0 fcfe 453f 75cf 023e
000003e0: 3ca0 023f 6b4b acbf e53e 983f 38d3 183f
000003f0: 84e5 24bf ca3a e2bf 26c7 ed3f 482a c13d
0.8983514 -1.0659109 1.6291826 2.0049796 -0.9069329 -0.72525454 -0.08896542 0.651928
0.39909944 -1.6253495 -0.94928706 -0.41057894 1.4799074 -0.83787763 1.2634976 0.05527838
-0.38809234 0.28169957 -1.5032185 -0.044291478 1.4644583 -0.31261832 0.032160196 1.590132
1.1666609 -0.79237735 2.416646 0.27751696 1.2927626 0.59935045 -0.8204143 0.9983977
1.8915824 -0.6098431 -0.5899999 0.023023292 -3.0804799 -0.21330626 0.8871795 -0.81724846
-0.9598764 -0.7250018 0.7107825 -2.0928478 0.96453387 -2.5903778 -0.3248862 2.2576704
0.25553 -2.2748864 0.06569881 -0.74515176 -0.884618 -0.37283802 1.1120918 -1.2817158
0.6291997 0.08568151 -0.57832 0.32844537 -1.0825884 -0.18189152 1.586021 -2.139268
-2.0381558 0.3630341 1.3555661 -0.44853386 -0.53454065 -2.6572938 -0.63802904 -0.93484104
0.17778209 0.20950185 0.9090084 -2.1570804 1.0593072 1.8590175 -1.6430397 -1.6418486
0.86194783 -1.4135604 -0.5843984 -1.9149154 2.0314784 0.89779 -0.88889515 -0.47622395
0.34073186 -0.14503473 -3.1518934 -3.5070426 0.70036435 -0.29776844 -1.406577 0.9889796
0.42308944 0.5175333 1.2808514 -0.56866014 -0.21647587 -0.8113066 -0.09758351 1.484723
0.5276439 -2.646256 -1.4260021 1.2669237 -0.4830922 -1.5980798 -0.3314233 -1.1934369
-2.6285157 -0.38996047 0.29376352 -2.94819 -0.3169415 -0.048304856 -0.07876599 -0.07409032
-0.035565212 -0.10239241 -0.106286414 -0.1408522 -0.11772375 -0.10717068 -1.01176 2.6658325
-0.5922699 -1.2714664 -0.4160724 -1.6075994 -0.72075546 -0.4389988 0.1657811 -1.2152854
0.23545326 -1.7238044 0.44271886 -1.5694177 -0.93715775 2.1152892 0.25320926 -0.721422
0.9609835 0.2204997 0.6101713 2.0286949 2.1166275 0.25088063 0.16200358 1.4954236
2.6472688 0.3958714 -0.0064319475 -0.92102534 1.5620005 -0.08797698 2.0115612 0.45058823
1.3454388 0.24684331 -0.39169833 0.4785697 0.90852726 -1.9247972 0.9518067 0.28549108
-2.2677019 0.5949809 -0.46435347 -1.5373862 -1.9349082 0.1482135 1.6631595 1.0659481
0.19876371 0.9634733 -0.9830531 -1.2867972 -2.7089736 -0.17478488 -0.38048077 0.3924777
-2.4078748 -0.9163829 0.8107439 -0.97552305 1.4562751 -0.52308637 -0.17991067 1.7585366
-0.6543528 0.40125027 0.21289803 0.36562997 -0.8296956 1.1200069 -0.9042337 -2.9992507
1.3368244 0.15941086 -0.097904675 1.4708996 1.1316093 0.53778344 0.71596164 -1.0728858
0.4972812 0.5019164 0.69675595 0.10689637 1.290055 0.7548915 -2.2483704 1.9951848
0.6199972 -0.48785064 -0.55444187 0.19394486 -1.6665728 1.2895355 -0.32912973 0.13530701
0.43782023 -2.7698545 -1.9898323 0.5230114 -1.7783471 -1.6125664 -0.19668925 0.42135215
-1.9223105 1.046328 0.9812343 0.6422256 -0.68542814 -0.8782726 0.15227656 0.4670642
-0.97338736 0.07652938 -2.0314522 -0.04477111 -0.18393731 -2.0197115 0.773422 0.12774451
0.5102575 -1.3460516 1.1894194 0.59697294 -0.64412713 -1.7674191 1.85764 0.09431893

module.down1.mpconv.1.conv.3.bias f4 [64]
00000000: 70ea 50be 44b6 b9bd d7cb 8a3e b1b5 9d3c
00000010: c6ab 40be e1f5 53bd 7af9 33bd 37c1 323c
00000020: 6ff7 47be 2c04 84bd 6475 a3bd cf47 c83c
00000030: 62c1 8d3c a76e 193e 3ea8 51bc 3267 e2bd
00000040: d073 9abe 8403 17be 56d3 e43d 8cf9 97bc
00000050: 3c71 05be 57d2 903d dc04 5d3e b095 9b3e
00000060: a79c 9fbe 569c ad3d 669b 02be c6d0 1abf
00000070: d6b2 b53d 49f4 dcbe 4cfd 19bd a039 10be
00000080: 6e24 82be a9fd 633d 1572 153e 569f dcbd
00000090: 3390 123d 11ac 73be 1d1e 70bd beee 32bf
000000a0: 1ee7 8abd 4f1b 543e cda6 47be db90 01be
000000b0: ae1b e9bd 3d72 09bd 2d12 36bd db9d 7f3e
000000c0: f661 473d f5b2 a6bd 96ad f4bc 52a9 3ebd
000000d0: 8d11 703d 4aca 1e3d 8da8 3a3e 727d 20be
000000e0: c198 9dbd f19d 1dbe 31bd b1bd 8988 a73e
000000f0: ef53 333e a9d9 ccbc 4392 583d f2e8 6f3a
-0.20401931 -0.090679675 0.27108642 0.019251676 -0.18815526 -0.05174816 -0.04393909 0.010910324
-0.19527982 -0.06446108 -0.07981375 0.024448304 0.017304126 0.14983617 -0.01279646 -0.11054839
-0.30166483 -0.14747435 0.11173122 -0.01855161 -0.13031477 0.07071369 0.21583885 0.3038764
-0.31174204 0.08477084 -0.12754592 -0.60474813 0.08872001 -0.43155125 -0.03759508 -0.14084482
-0.2541842 0.05566183 0.145943 -0.107725784 0.03578205 -0.23796107 -0.05862247 -0.6989554
-0.06782363 0.20713542 -0.19497223 -0.12652914 -0.113822326 -0.03355621 -0.044450928 0.24962561
0.048677407 -0.08139602 -0.029867928 -0.046548195 0.058610488 0.038767137 0.1822836 -0.15672854
-0.07695151 -0.15392281 -0.086786635 0.32721356 0.17512487 -0.025006132 0.05287386 0.0009151838

module.down1.mpconv.1.conv.4.weight f4 [64]
00000000: 55f0 913f eb3a 2e3f 805e 36bf a46e 623f
00000010: 597f d73e d737 123f 5067 b33f f6ba c73f
00000020: b243 2f3f a89a 883f 1d70 683f 51b5 993f
00000030: 6a31 923f 7ec7 1e3f f673 6b3f aade d13e
00000040: d756 b23f 0724 a83f 6267 4e3f 6292 8e3f
00000050: 8f4f a43e 0d42 d03e 714d b33f 1c47 c93e
00000060: 4ec2 153f a028 ae3f db23 fd3e 4f88 683f
00000070: aa97 1840 e8af 273f 6266 df3e df67 c33f
00000080: 2190 fa3f a37b 113f 1bac 4c3f 7c6e a13f
00000090: f15d 52be 7fd8 453f ae27 af3f 98a6 e53e
000000a0: 3c77 ce3e 8f4b c93f 53c5 9a3f 319f a43e
000000b0: 6a8c 093f a193 ba3b 3e44 ed3e 32bb 853f
000000c0: ae4f 813f 8957 8a3f f30c cb3e f0d6 e73e
000000d0: d4cc f43e d012 3d3c 5805 e43f 6c03 913f
000000e0: 7adc 873f eb45 243f e67a a03f 4d1a 953f
000000f0: d787 183f fc1e c53f c731 103f b815 e03b
1.1401469 0.6805865 -0.71237946 0.88450074 0.42089346 0.57116455 1.4015903 1.5603931
0.6846267 1.0672197 0.9079607 1.2008458 1.142133 0.6202315 0.9197382 0.40990192
1.3932751 1.3135995 0.806265 1.1138422 0.32091948 0.40675393 1.4008008 0.39312065
0.5849961 1.3606148 0.49441418 0.9083299 2.3842568 0.65502787 0.436328 1.5266074
1.9575235 0.5682928 0.7995011 1.2611842 -0.20543648 0.7728347 1.3683984 0.44853663
0.40325344 1.5726184 1.2091469 0.32152703 0.5372988 0.0056938683 0.46341127 1.0447752
1.0102441 1.0807964 0.39658317 0.45281172 0.4781252 0.01154013 1.7814131 1.1329169
1.0614159 0.64169186 1.2537506 1.1648651 0.59582275 1.5400081 0.56325954 0.0068385266

module.down1.mpconv.1.conv.4.bias f4 [64]
00000000: 0f53 a0bf 57c9 a8bd 8e46 63be c028 4e3d
00000010: 6d7c 3abe 331f 0fbe 40e8 dabe 11b6 8cbe
00000020: 6f5d 963d 63b6 19be ae4b 9ebf 8c27 9dbe
00000030: 0848 78be 4dae a63e b248 98be 817e debb
00000040: a6fb cbbf 2cb1 74bf 2b32 dcbc ea1f 6cbf
00000050: 38a7 db3e c471 643e c3a6 e4bd 8312 573f
00000060: 449b 46bf 859e 2bbe 8628 fbbc 525a c4bf
00000070: 7225 63bf 954d 0cbf 3b43 f13e 5a9b c7be
00000080: f7c1 3dbf a1ac 94ba 8589 5b3e 0343 f8be
00000090: 76d6 b83e 9b3b ecbe b202 4dbf 2838 ddbf
000000a0: eaac b3be 2d04 823e 001f 14bf da44 b93d
000000b0: 00c8 b0bd f931 cebc ec2c 1a3e cfac f9bd
000000c0: 2041 ecbe 9745 eabe 06c4 913e e1df 8f3d
000000d0: e87f 533e 2ce3 3dbd 5b73 0dbf 49de ebbe
000000e0: 110f 07be 7305 1cbe 3e89 40bf 5bed a6bd
000000f0: 8da6 e33b 3f4b b5be 8943 63be 6ed0 17bf
-1.2525347 -0.082415275 -0.22194883 0.05033183 -0.18211527 -0.13976745 -0.42755318 -0.27482656
0.0734204 -0.15010981 -1.2366846 -0.30694234 -0.24246228 0.32554856 -0.29742962 -0.006789983
-1.5936172 -0.9558284 -0.02687939 -0.92236197 0.42901015 0.22309023 -0.1116462 0.8401262
-0.77580667 -0.16759689 -0.030658972 -1.5340064 -0.8872901 -0.5480588 0.47121605 -0.3898571
-0.7412409 -0.0011342951 0.21439178 -0.48488626 0.3610112 -0.46139225 -0.8008224 -1.7282763
-0.3509286 0.2539381 -0.578598 0.090463355 -0.08631897 -0.025170313 0.15056199 -0.12191164
-0.46143436 -0.45756218 0.28469867 0.070251234 0.20654261 -0.046359226 -0.55254143 -0.46068028
-0.13189341 -0.15236454 -0.75209415 -0.08150741 0.0069473446 -0.3540897 -0.22193731 -0.59302413

module.down1.mpconv.1.conv.4.running_mean f4 [64]
00000000: 7f2c ccc1 b4bc 66c1 7a98 7dbe a900 64c1
00000010: 1c22 15c1 c15a 42c1 e27a 9bc1 a5cb a2c1
00000020: 036e a2c1 e335 8ec1 ce2c 8cbf 4a3f 4ac1
00000030: b00a 83c0 f047 16c2 4a93 63c1 c738 94c1
00000040: 12c4 1bc1 f7ea d8c1 e274 90c1 2a12 67c1
00000050: 77fc 4ac2 1b43 fac1 ec14 e6c1 6efa 80c1
00000060: 1631 cfbf e5f3 b9c1 2ad8 5fc1 26d8 4c41
00000070: d0fa 46c1 b790 9bc1 551d b640 9b1c f3c1
00000080: 4b56 8dc1 4f86 fac1 6c78 b2c1 9bdd 7cc1
00000090: 847f 2642 3462 cec1 bdcd 20c1 731d 943f
000000a0: 6585 3fc1 cbe6 d8c1 721b 4fc1 7393 59c1
000000b0: 567d 6bc1 8067 a4c0 eea2 90c1 00c4 87c1
000000c0: ccd5 3ec1 0ed7 89c1 b0fa cbc1 50c7 14c2
000000d0: c3c5 8dc1 c004 45c0 bd2f 88c1 b3aa 8dc1
000000e0: 99c0 86c1 ba33 6ac2 fe7b b9c1 d910 fdc0
000000f0: ceff bcc1 a69f 82c1 fd84 99c1 eaf6 6b40
-25.521727 -14.42107 -0.24765196 -14.250161 -9.3208275 -12.147157 -19.435001 -20.349436
-20.303717 -17.776312 -1.0951173 -12.640451 -4.0950546 -37.57025 -14.223459 -18.527723
-9.735369 -27.114729 -18.057072 -14.441935 -50.746548 -31.282766 -28.760216 -16.12228
-1.6186855 -23.24409 -13.990274 12.802771 -12.4362335 -19.445662 5.6910806 -30.388968
-17.667135 -31.31558 -22.3088 -15.804103 41.624527 -25.79795 -10.050229 1.1571487
-11.970067 -27.112692 -12.9442005 -13.598498 -14.7181 -5.1376343 -18.079556 -16.970703
-11.9271965 -17.230007 -25.497406 -37.19464 -17.721563 -3.078415 -17.02331 -17.70835
-16.844042 -58.550514 -23.185543 -7.9083066 -23.624905 -16.327953 -19.189936 3.6869454

module.down1.mpconv.1.conv.4.running_var f4 [64]
00000000: 1dc8 ab43 a1bf 8b43 71ec 853e 87a6 ac43
00000010: 4b81 6f43 5e52 9143 c59c 9e43 7981 fa43
00000020: 0c6c a043 c87d ca43 8448 d743 a9b3 cc43
00000030: 41b2 b143 470f dd43 0403 8843 cd82 b043
00000040: e604 5143 548a 9d43 adfd 8b43 5bcc 8043
00000050: b939 cc43 fd89 a943 8538 bb43 1c4c de43
00000060: 4852 0d43 56d4 eb43 811e 6743 b430 9643
00000070: 68c7 9343 00d6 9443 8f35 8a43 3c49 bd43
00000080: 66be a843 099b 8943 837d af43 f4a1 ab43
00000090: e623 c743 6ed4 a543 78d6 8443 8cfd 7343
000000a0: 99c2 6e43 f8a7 b243 cf17 c543 952b 4643
000000b0: 33a8 8e43 6474 b640 bdc9 ae43 c5fc a843
000000c0: f4d1 7943 9d9d d643 75d2 9343 30c3 e343
000000d0: c7aa 8343 cd56 6f3f ce70 a543 48a1 5343
000000e0: 45c4 b243 242f f343 98b2 ab43 fe0c 9d43
000000f0: b22f 8143 073d 0044 fe05 7143 5136 3942
343.5634 279.4971 0.26156953 345.301 239.50505 290.6435 317.22476 501.0115
320.84412 404.98267 430.56653 409.4036 355.3926 442.11935 272.02356 353.02188
209.01913 315.0807 279.98184 257.59653 408.45096 339.07803 374.44156 444.5946
141.32141 471.65887 231.11916 300.3805 295.55786 297.67188 276.41843 378.57214
337.4875 275.2112 350.98056 343.26526 398.28046 331.6596 265.67554 243.99042
238.76015 357.31226 394.186 198.17024 285.31406 5.701708 349.57608 337.97476
249.82013 429.23135 295.6442 455.5249 263.3342 0.9349182 330.8813 211.63
357.53336 486.3683 343.39526 314.1015 258.37262 512.95355 241.0234 46.303043
