learned_models/mask/decam.pth (torch_old, 416836 bytes, 39 tensors)

module.inc.conv.conv.0.weight f4 [32, 1, 3, 3]
-1.1526666 -2.176466 -2.811943 0.8417544 1.2211416 -0.61130923 2.0142434 1.653086
0.05172891 -0.07652911 -0.4766948 0.83249307 -0.72349936 0.78856254 1.4288063 0.33317575
-1.1767765 0.107464634 2.5088634 1.4292828 -1.6570631 2.5774262 -1.0208032 -2.3872697
-0.05566171 -0.38219568 -1.5284945 -0.28212366 -0.14795685 0.758639 -0.04871058 -0.04832633
-0.099249296 -0.027810808 0.0735229 1.2658887 -0.45906976 0.18478689 -0.45094645 -1.7375892
-0.92220694 -1.9318914 -0.93985367 -0.7753491 1.3803605 0.2636264 -0.14805855 -0.022707492
0.38108402 0.68760854 0.384491 -0.07441542 0.16712569 -0.34369075 -2.3218734 -1.2514365
0.8984568 -3.3168542 1.1794177 4.372417 -4.821781 1.9943006 1.8162378 0.067753516
0.03106171 -0.108751364 0.58630717 0.6163946 -0.197552 0.1581559 0.3918262 0.5996096
1.1685427 0.54480106 2.8323815 -2.2970934 -1.781111 -0.042376272 -1.6229264 -0.46262684
1.5341847 -1.035789 -0.36533147 -0.41338238 -0.9027823 -0.65406513 -0.0048253434 -1.0164682
-0.2897773 0.16306156 1.4661198 1.2258332 0.13119487 -2.987472 -0.082663715 0.35137478
-0.50038356 -0.54292905 1.119287 0.60261244 -0.1997323 0.098639466 -0.18161969 -0.025672376
-0.19580756 0.6737547 0.76223195 0.5109825 -0.2879561 1.1406385 -0.5062408 1.6763117
0.9347273 -1.5704342 -0.45434684 -0.7112152 -0.10096178 0.40936467 -1.7184811 -0.46706057
-1.1744887 0.86442244 -2.8919983 -0.50106 -1.6384761 6.3834333 -1.3405505 -1.4993637
0.2526151 -0.26015577 -0.67648727 0.37414697 1.0665439 0.6599222 1.5218102 0.120205045
0.30069378 0.2820005 0.51176554 0.20804225 0.08363114 -0.044671882 -0.5681799 -0.25136927
0.7723195 0.22218749 0.076960094 -0.60019445 -0.7474022 -0.28057438 -0.1523561 0.19114251
-0.118448965 0.90730256 2.4236684 0.20483983 -1.0100454 -0.76277965 -1.1520641 -0.43516603
-0.6466464 -1.1581974 0.48441848 0.33559301 -1.7130445 1.066308 -1.7564144 -0.52326685
1.3943359 0.4698159 0.33741415 0.31734413 -0.008149761 0.6463645 -0.020095425 0.07209326
0.6024361 -0.39274052 0.04965448 0.026965681 0.352567 -0.45834997 -0.2838672 1.4357535
-0.2800963 -0.3399789 -0.3192349 0.25661737 1.515485 2.6127274 0.96213853 0.96429825
-0.13329172 -0.31211385 0.20459062 0.38309738 -0.059570033 0.31817034 -1.5006297 -1.4215437
-0.08369861 -0.58426666 -2.1547465 1.334167 0.02513903 1.9869318 2.2067528 0.54278666
0.22796878 0.2273838 0.47372583 0.096933536 0.3679064 0.15620156 -0.3031423 -0.018454777
1.4472564 -2.219904 -0.610897 3.0172155 -1.0222431 -0.6488962 0.054634243 -0.013142694
-0.24481328 -4.0300655 -2.8623178 -2.0129414 -5.3618817 3.4114065 1.0178425 -0.20428923
-0.663814 -0.6880699 -1.8003218 -2.322971 -2.4362648 0.17219006 0.0024601228 -0.037145894
-0.1232152 -0.05995087 0.17212854 -0.043363053 0.58463854 -0.10468313 0.33973733 0.045582756
-0.101521716 0.22567764 0.6103333 0.07280491 -0.19934495 -0.24975023 -0.088319935 -0.04948896
00000000: 948a 93bf 384b 0bc0 e0f6 33c0 377d 573f
00000010: 5e4e 9c3f c37e 1cbf 5de9 0040 5298 d33f
00000020: b2e1 533d 4bbb 9cbd 5711 f4be 441e 553f
00000030: 4137 39bf 3cdf 493f 20e3 b63f 0396 aa3e
00000040: 9da0 96bf 6b16 dc3d 3891 2040 bdf2 b63f
00000050: a51a d4bf 8df4 2440 aea9 82bf 07c9 18c0
00000060: 89fd 63bd 27af c3be b5a5 c3bf 8372 90be
00000070: 0082 17be 2a36 423f bf84 47bd d4f1 45bd
00000080: 3743 cbbd 7ed3 e3bc 2d93 963d a408 a23f
00000090: 310b ebbe c638 3d3e 74e2 e6be 5369 debf
000000a0: c115 6cbf 3848 f7bf 409a 70bf 477d 46bf
000000b0: a7af b03f 0afa 863e a99c 17be 1005 babc
000000c0: 721d c33e 1d07 303f 01dc c43e 1d67 98bd
000000d0: ff22 2b3e 3cf8 afbe 9399 14c0 122f a0bf
000000e0: 4401 663f 5747 54c0 29f7 963f d7ea 8b40
000000f0: 084c 9ac0 3e45 ff3f 7b7a e83f 5bc2 8a3d
00000100: 2175 fe3c 09b9 debd 3a18 163f 09cc 1d3f
00000110: 124b 4abe 9ff3 213e 729d c83e 0480 193f
00000120: cf92 953f 1578 0b3f bd45 3540 9403 13c0
00000130: 72fb e3bf be92 2dbd 0dbc cfbf 6ddd ecbe
00000140: 2a60 c43f bc94 84bf ba0c bbbe dba6 d3be
00000150: be1c 67bf d070 27bf ea1d 9ebb a11b 82bf
00000160: b15d 94be 9cf9 263e d0a9 bb3f 1ae8 9c3f
00000170: f357 063e be32 3fc0 984b a9bd 65e7 b33e
00000180: 2319 00bf 66fd 0abf cc44 8f3f cf44 1a3f
00000190: a086 4cbe 7d03 ca3d 83fa 39be e04e d2bc
000001a0: c781 48be 307b 2c3f a221 433f c0cf 023f
000001b0: fb6e 93be 7100 923f ff98 01bf 6291 d63f
000001c0: 4a4a 6f3f fd03 c9bf 26a0 e8be 3312 36bf
000001d0: 0dc5 cebd 3f98 d13e 30f7 dbbf 9022 efbe
000001e0: a555 96bf ca4a 5d3f 8016 39c0 7845 00bf
000001f0: 96b9 d1bf 1645 cc40 2997 abbf 26eb bfbf
00000200: c456 813e 2333 85be 452e 2dbf 3190 bf3e
00000210: 8384 883f a9f0 283f adca c23f 102e f63d
00000220: 89f4 993e 5f62 903e 1103 033f 0709 553e
00000230: ce46 ab3d ddf9 36bd 3d74 11bf 79b3 80be
00000240: bbb6 453f 1e85 633e 419d 9d3d 58a6 19bf
00000250: c055 3fbf 72a7 8fbe 3d03 1cbe ddba 433e
00000260: 5f95 f2bd fb44 683f 621d 1b40 88c1 513e
00000270: 2b49 81bf 8745 43bf d676 93bf 15ce debe
00000280: 9e8a 25bf d03f 94bf b305 f83e d9d2 ab3e
00000290: 0b45 dbbf c87c 883f 30d2 e0bf d1f4 05bf
000002a0: 9979 b23f b68b f03e 8cc1 ac3e ee7a a23e
000002b0: 9386 05bc 2578 253f 299f a4bc a2a5 933d
000002c0: 4139 1a3f 4915 c9be 7f62 4b3d 22e7 dc3c
000002d0: a983 b43e d9ac eabe 0b57 91be c5c6 b73f
000002e0: c868 8fbe b711 aebe c272 a3be 5a63 833e
000002f0: 6afb c13f ed36 2740 b64e 763f 40dc 763f
00000300: a07d 08be 63cd 9fbe 3480 513e 5725 c43e
00000310: b5ff 73bd 39e7 a23e a214 c0bf 25f5 b5bf
00000320: 2d6a abbd 8092 15bf 5ee7 09c0 fcc5 aa3f
00000330: 5ef0 cd3c c853 fe3f 703b 0d40 11f4 0a3f
00000340: a670 693e 4dd7 683e 318c f23e 1785 c63d
00000350: 3a5e bc3e 4df3 1f3e 7835 9bbe 792e 97bc
00000360: b33f b93f e812 0ec0 bf63 1cbf 0f1a 4140
00000370: ddd8 82bf 101e 26bf 28c8 5f3d 7454 57bc
00000380: 55b0 7abe 4cf6 80c0 3730 37c0 08d4 00c0
00000390: 8994 abc0 7c54 5a40 aa48 823f 3231 51be
000003a0: b7ef 29bf 5925 30bf f270 e6bf 8fab 14c0
000003b0: c3eb 1bc0 9752 303e 033a 213b 4b26 18bd
000003c0: 4058 fcbd 0b8f 75bd 7742 303e 759d 31bd
000003d0: dfaa 153f 1c64 d6bd 0df2 ad3e fcb4 3a3d
000003e0: 9eea cfbd 0a18 673e ce3e 1c3f be1a 953d
000003f0: 1521 4cbe 86be 7fbe 15e1 b4bd f0b4 4abd

module.inc.conv.conv.0.bias f4 [32]
-0.53819084 0.11272642 -0.4269399 -0.0068874243 -0.70850164 -0.20547444 -0.80885077 -0.2481415
0.27254298 -0.14028433 -2.7130883 0.059881385 -0.20645611 -0.9316096 0.3845158 -0.2474722
0.05545008 0.09909067 -0.34843352 -0.04195542 -0.2732643 0.0038863951 1.0640453 -0.12163419
0.05790373 -0.22798419 -0.17404985 0.0032903214 0.1378339 0.026130022 0.027841415 0.10061882
00000000: e0c6 09bf 1cdd e63d de97 dabe e7af e1bb
00000010: 5d60 35bf e467 52be d810 4fbf ce18 7ebe
00000020: c18a 8b3e b2a6 0fbe 3da3 2dc0 2f46 753d
00000030: 3b69 53be f77d 6ebf 41df c43e 5a69 7dbe
00000040: a01f 633d 0df0 ca3d e165 b2be 72d9 2bbd
00000050: 4ce9 8bbe e4b2 7e3b a332 883f 591b f9bd
00000060: 762c 6d3d b074 69be 203a 32be 6fa2 573b
00000070: 5424 0d3e a10e d63c ae13 e43c 3d11 ce3d

module.inc.conv.conv.1.weight f4 [32]
2.973444 0.00043785846 2.0556362 -0.000280601 0.48481244 0.0018359518 1.6695877 -0.0339813
4.3874345 0.22064418 3.6904495 -0.008619927 0.000909497 2.5340362 5.683704 0.0012279946
-2.5446749e-05 1.3017871 4.288905 -0.00070242706 -0.013379993 0.575786 3.2982388 -0.014262417
2.4967475 1.8120762 0.3678171 -0.004250545 0.0015486772 -0.0025819982 -0.0079883505 0.31176993
00000000: e84c 3e40 5e90 e539 8b8f 0340 a11d 93b9
00000010: 5639 f83e 52a4 f03a 0db5 d53f fa2f 0bbd
00000020: dd65 8c40 8cf0 613e 5330 6c40 983a 0dbc
00000030: 4f6b 6e3a a62d 2240 e7e0 b540 a9f4 a03a
00000040: 7a76 d5b7 f6a0 a63f b63e 8940 1523 38ba
00000050: c237 5bbc b666 133f 5816 5340 eaac 69bc
00000060: b6ca 1f40 1df2 e73f 8652 bc3e 2848 8bbb
00000070: fcfc ca3a be36 29bb 92e1 02bc 4fa0 9f3e

module.inc.conv.conv.1.bias f4 [32]
-1.155173 -0.21248059 -1.1058948 -0.15378648 0.6071926 -0.5833292 -1.0314744 -0.4605184
-1.9720916 -0.23689869 1.3141298 -0.31790537 -0.03286982 -1.6213971 2.2641168 -0.32382372
-0.04892154 -2.1507137 2.2263792 -0.26016736 -1.0940455 -0.40862444 -1.0560327 -0.5613954
-4.215632 -0.46628165 -0.9447879 -0.21409771 -0.13074423 -0.24712877 -0.47461352 1.020432
00000000: b5dc 93bf 8394 59be f68d 8dbf 347a 1dbe
00000010: f970 1b3f 1055 15bf 5a07 84bf 11c9 ebbe
00000020: 7f6d fcbf 9295 72be 6835 a83f 7ec4 a2be
00000030: 81a2 06bd f189 cfbf 4ae7 1040 39cc a5be
00000040: f461 48bd 4ba5 09c0 ff7c 0e40 a834 85be
00000050: af09 8cbf 3937 d1be 142c 87bf 9cb7 0fbf
00000060: 75e6 86c0 78bc eebe 9fdd 71bf 6e3c 5bbe
00000070: d1e1 05be 530f 7dbe 8b00 f3be 849d 823f

module.inc.conv.conv.1.running_mean f4 [32]
-305.85083 1906.8289 -386.96265 2646.1965 -2334.293 2390.8992 -4290.6167 3948.7114
2168.2087 -4912.1387 -190.3979 3752.897 -4596.74 -3797.0566 41.26663 1182.9535
-1181.3689 -6110.353 58.59173 2378.843 3448.591 2683.2527 217.20256 3255.9197
27.226109 -2793.2979 -11807.409 2999.4414 -1429.192 1962.7516 4419.099 11243.739
00000000: e8ec 98c3 865a ee44 387b c1c3 2563 2545
00000010: b0e4 11c5 636e 1545 ef14 86c5 62cb 7645
00000020: 5783 0745 1c81 99c5 dd65 3ec3 5a8e 6a45
00000030: eca5 8fc5 e850 6dc5 0711 2542 83de 9344
00000040: ceab 93c4 d3f2 bec5 ee5d 6a42 7dad 1445
00000050: 7589 5745 0bb4 2745 db33 5943 b77e 4b45
00000060: 12cf d941 c494 2ec5 a37d 38c6 1077 3b45
00000070: 25a6 b2c4 0d58 f544 cb18 8a45 f5ae 2f46

module.inc.conv.conv.1.running_var f4 [32]
1.6770118e+06 7.346445e+06 2.1016238e+06 1.3754788e+07 1.1140633e+07 1.103244e+07 3.6309704e+07 3.0119098e+07
1.0482745e+07 4.672888e+07 477793.88 2.7355756e+07 4.2060336e+07 2.8151116e+07 511185.7 2.7832098e+06
2.7606705e+06 7.288934e+07 450104.8 1.1027031e+07 2.3157658e+07 1.4913759e+07 1.7480244e+06 2.0534658e+07
1.0812494e+06 1.5234189e+07 2.7072774e+08 1.7379914e+07 3.9695915e+06 7.4480065e+06 3.786012e+07 2.4370328e+08
00000000: 9eb6 cc49 1a32 e04a df45 004a a4e1 514b
00000010: 19fe 294b 7857 284b b282 0a4c 5dca e54b
00000020: 39f4 1f4b ac41 324c 3c4c e948 36b5 d04b
00000030: 8c72 204c a6c6 d64b 369a f948 a7df 294a
00000040: 7a7f 284a 8006 8b4c 1ac7 db48 5742 284b
00000050: cdad b04b df90 634b c361 d549 c1aa 9c4b
00000060: 0bfd 8349 8d74 684b d217 814d 2599 844b
00000070: de48 724a 8d4b e34a c66c 104c df69 684d

module.inc.conv.conv.3.weight f4 [32, 32, 3, 3]
-1.6247807 -3.4126775 -1.052445 -2.882045 -4.0694385 -0.6027485 -1.429629 -3.7016149
0.5332786 -0.3311047 0.14039272 0.7664548 -0.31648335 0.2503817 0.5561152 0.47082192
0.5108489 -0.016656585 -0.36689427 -2.9441674 -1.1542511 2.1193664 -1.008887 -0.051252067
-0.06861177 2.2588263 1.7978238 -0.07072401 0.5920491 0.46177474 0.37751603 0.37298805
0.1852237 -0.087393686 0.09528622 0.06146677 1.9321388 2.213576 1.3391105 0.5163723
-0.06665042 0.4149128 0.3310981 0.5953663 0.9279193 0.15045775 0.16421346 0.26679176
-0.12475149 0.009183437 0.018655825 -0.07239292 0.012240727 0.16758655 -1.764604 -0.19411533
1.6060704 -0.57067525 2.3159926 -0.43410972 0.25031227 0.08367148 0.39714265 -0.12474057
0.03940678 0.19140111 -0.48192638 -0.4776376 -0.32171044 -0.54743177 -0.53472286 -0.46879753
0.2648872 -2.2597764 0.0759313 -0.39006126 -1.4085231 -0.018895598 -0.73314106 -3.4992552
-3.0163941 -0.13732132 -0.055732325 0.10439824 -0.2788017 -0.08842019 0.15518633 -0.285011
-0.16199183 0.18924771 1.6046937 0.26270875 -1.2312264 -0.27720672 0.6184461 -2.004377
-0.28595978 -2.7129917 -2.2829375 0.45336634 0.44557375 0.50778335 0.4093179 0.40256983
0.33187625 0.10506136 0.12294156 0.21648619 0.17106238 0.9703001 0.6830757 -1.1097021
-0.91790026 -0.36305043 0.40493217 1.5933863 2.1263068 -0.5133783 5.209088 -2.0816312
2.2791455 -1.73678 -0.040745873 -1.4961262 1.2677704 0.9937918 0.8744571 2.4718816
1.3100827 2.662852 3.459402 1.3961734 1.5124285 2.9072297 0.6802797 -0.19142884
-0.1994919 -0.19780076 -0.27507252 -0.32238176 -0.12671652 -0.12636106 -0.044418592 0.018670943
0.6822999 0.42251122 0.41262493 0.16504732 -0.108399495 -0.01054047 -0.3070775 -0.63909525
-0.40490246 -1.6122563 0.19681963 -2.2766767 -0.25627345 1.2099283 -1.3910257 -1.6693779
-0.05222799 -0.90634596 0.42310584 1.7390872 0.9676048 0.38898474 2.6065984 0.7201496
-0.45236486 -1.8581105 -0.79915434 0.048140634 0.024854653 -0.10432297 0.14511839 0.009245262
0.08325392 0.26562205 0.103065014 0.12588522 0.0041387808 0.9262243 0.6862923 0.4527339
0.16415966 -0.88777304 0.43404427 0.5255255 0.12339824 -2.2466881 -2.1080031 -1.5379641
-0.17530708 0.34869167 0.44116998 -1.3701297 -1.5190177 -0.5538301 -0.76482344 -3.5414822
-1.5498255 -2.4161847 -5.3874135 -3.872236 -0.8828033 -4.849896 -1.495448 -0.12674603
-0.13907933 -0.11546777 -0.40215176 -0.24311379 -0.326673 -0.28147775 -0.18558128 -0.14331584
-0.5827266 -1.3621792 0.7206725 0.052936777 -0.8881688 -0.40765065 -1.867071 -3.7437603
-0.26175815 0.5829945 1.4608775 0.043639403 -0.7814619 0.05030231 -0.14879458 -0.47483313
0.52659833 -2.7495112 0.32001644 0.3206261 0.23474409 0.40589702 0.3879491 0.35856694
-0.69096154 -0.58024204 -0.5965103 0.13459596 0.15280946 0.19980772 0.027769007 0.10449531
0.13339859 0.03371449 -0.017097311 0.045144822 0.1396998 0.071305186 0.052802607 0.10677933
00000000: d0f8 cfbf 4f69 5ac0 85b6 86bf 6d73 38c0
00000010: d738 82c0 ba4d 1abf 15fe b6bf 42e7 6cc0
00000020: f284 083f 8e86 a9be 1cc3 0f3e 6236 443f
00000030: 1b0a a2be 0832 803e 915d 0e3f 920f f13e
00000040: fec6 023f 6473 88bc 91d9 bbbe 3d6d 3cc0
00000050: 80be 93bf b3a3 0740 3623 81bf b0ed 51bd
00000060: 5484 8cbd 9c90 1040 171f e63f c0d7 90bd
00000070: 8890 173f bd6d ec3e c849 c13e 4af8 be3e
00000080: 48ab 3d3e 76fb b2bd 6c25 c33d 94c4 7b3d
00000090: 5350 f73f 3bab 0d40 f967 ab3f fa30 043f
000000a0: 0480 88bd 736f d43e b185 a93e ed69 183f
000000b0: 1f8c 6d3f 9911 1a3e 9327 283e ee98 883e
000000c0: b67d ffbd 2076 163c 1ad4 983c bd42 94bd
000000d0: 558d 483c cf9b 2b3e 8bde e1bf 2bc6 46be
000000e0: b793 cd3f c617 12bf 3939 1440 a143 debe
000000f0: ee28 803e f45b ab3d 4856 cb3e fc77 ffbd
00000100: 0169 213d a7fe 433e 0ebf f6be ea8c f4be
00000110: 3bb7 a4be 7d24 0cbf 99e3 08bf 3b06 f0be
00000120: 4c9f 873e 2da0 10c0 df81 9b3d 1cb6 c7be
00000130: 7c4a b4bf f1ca 9abc 22af 3bbf ccf3 5fc0
00000140: 9a0c 41c0 f69d 0cbe 9447 64bd bfce d53d
00000150: 19bf 8ebe a515 b5bd 2ae9 1e3e f6ec 91be
00000160: 30e1 25be 27ca 413e 9a66 cd3f c381 863e
00000170: d498 9dbf 0aee 8dbe 7c52 1e3f b647 00c0
00000180: 5269 92be a8a1 2dc0 a61b 12c0 a21f e83e
00000190: 3e22 e43e 17fe 013f 1e92 d13e a21d ce3e
000001a0: afeb a93e 692a d73d c9c8 fb3d 8eae 5d3e
000001b0: fa2a 2f3e 9665 783f 0dde 2e3f b80a 8ebf
000001c0: 83fb 6abf bfe1 b9be 4553 cf3e 15f4 cb3f
000001d0: 6915 0840 c36c 03bf d9b0 a640 7239 05c0
000001e0: 85dd 1140 cf4e debf 25e5 26bd 1081 bfbf
000001f0: 4d46 a23f 2469 7e3f 6cdc 5f3f 4f33 1e40
00000200: cab0 a73f 2b6c 2a40 d866 5d40 cfb5 b23f
00000210: 4297 c13f 0d10 3a40 cf26 2e3f ec05 44be
00000220: 9b47 4cbe 488c 4abe 4ed6 8cbe 390f a5be
00000230: fac1 01be cb64 01be 45f0 35bd cef3 983c
00000240: 35ab 2e3f 6453 d83e 9343 d33e 2a02 293e
00000250: 8e00 debd efb1 2cbc 4339 9dbe bf9b 23bf
00000260: 604f cfbe 6a5e cebf 168b 493e 12b5 11c0
00000270: 4636 83be eede 9a3f 210d b2bf 2dae d5bf
00000280: 04ed 55bd 4a06 68bf 54a1 d83e 699a de3f
00000290: f3b4 773f 0229 c73e 82d2 2640 b95b 383f
000002a0: 5e9c e7be 91d6 edbf 6195 4cbf 1d2f 453d
000002b0: fc9b cb3c 48a7 d5bd ea99 143e 7079 173c
000002c0: 0881 aa3d 9dff 873e c013 d33d 0ee8 003e
000002d0: 9c9e 873b 091d 6d3f dab0 2f3f bdcc e73e
000002e0: 7819 283e 1845 63bf 0d3b de3e d788 063f
000002f0: 37b8 fc3d bdc9 0fc0 86e9 06c0 02dc c4bf
00000300: b383 33be b787 b23e 08e1 e13e 6960 afbf
00000310: 2c6f c2bf cfc7 0dbf 78cb 43bf a5a7 62c0
00000320: af60 c6bf c5a2 1ac0 b165 acc0 b7d2 77c0
00000330: 66ff 61bf 5932 9bc0 d76a bfbf b6c9 01be
00000340: d06a 0ebe 5e7a ecbd d6e6 cdbe d2f2 78be
00000350: af41 a7be da1d 90be 0509 3ebe 63c1 12be
00000360: 922d 15bf e35b aebf fe7d 383f 3cd4 583d
00000370: 085f 63bf 96b7 d0be 2ffc eebf c599 6fc0
00000380: 2a05 86be 213f 153f 09fe ba3f 3bbf 323d
00000390: e30d 48bf cc09 4e3d 9b5d 18be 541d f3be
000003a0: 26cf 063f fef7 2fc0 32d9 a33e 1b29 a43e
000003b0: c160 703e bcd1 cf3e 44a1 c63e 1696 b73e
000003c0: dbe2 30bf be8a 14bf e6b4 18bf 86d3 093e
000003d0: 157a 1c3e 659a 4c3e d47b e33c a301 d63d
000003e0: a499 083e 3418 0a3d a90f 8cbc c7e9 383d
000003f0: 770d 0f3e 7408 923d 8c47 583d 1faf da3d

module.inc.conv.conv.3.bias f4 [32]
-0.38325474 0.1447859 0.14042859 0.04196048 0.58950907 1.037358 -0.48762134 0.9412695
0.60533756 2.1163397 0.9329995 0.30820078 1.338292 -1.4180332 -0.37054414 -0.5409677
-0.10714875 -0.06554533 -0.02677036 -0.4331628 -0.7780741 -0.0015881725 -1.1716301 -0.5522661
0.8433292 -1.5201375 -0.8442976 0.101699576 -0.6142635 0.5129274 0.7277297 -2.233055
00000000: f739 c4be c142 143e 83cc 0f3e c1de 2b3d
00000010: 11ea 163f 26c8 843f 81a9 f9be 0af7 703f
00000020: 67f7 1a3f 1c72 0740 0ed9 6e3f 7ecc 9d3e
00000030: 274d ab3f 1d82 b5bf f6b7 bdbe dc7c 0abf
00000040: ce70 dbbd a13c 86bd 844d dbbc 84c7 ddbe
00000050: dd2f 47bf 3a2a d0ba faf7 95bf 5061 0dbf
00000060: 6ce4 573f de93 c2bf e323 58bf de47 d03d
00000070: 5f40 1dbf 364f 033f 7e4c 3a3f 60ea 0ec0

module.inc.conv.conv.4.weight f4 [32]
2.7705436 4.062155 2.1387973 4.0740128 3.585604 3.0537937 4.1537657 4.7006736
3.4428306 -2.6740751 4.319172 2.2876484 4.6789985 3.9509978 4.3113055 3.736324
0.0001594585 4.3342752 -0.0018297458 4.815057 4.779333 -0.00040267478 -4.551224 2.75055
3.9646404 2.1363475 3.70368 0.0007816049 3.8519416 3.1829555 0.86488444 2.3039336
00000000: 9650 3140 2cfd 8140 0ee2 0840 505e 8240
00000010: 897a 6540 5b71 4340 a6eb 8440 eb6b 9640
00000020: 5657 5c40 0c24 2bc0 a836 8a40 d568 1240
00000030: 5bba 9540 26dd 7c40 37f6 8940 ef1f 6f40
00000040: 5134 2739 62b2 8a40 15d4 efba f214 9a40
00000050: 4cf0 9840 181e d3b9 a1a3 91c0 0309 3040
00000060: abbc 7d40 ebb9 0840 1809 6d40 9ee4 4c3a
00000070: 3686 7640 8bb5 4b40 1169 5d3f a673 1340

module.inc.conv.conv.4.bias f4 [32]
1.4600838 -0.47424662 1.708349 0.45117572 -0.10540486 4.6283355 -0.72576654 1.2862372
0.18718368 -6.0233393 -0.73023283 -1.641381 1.7155521 -1.5557206 1.2301264 -0.5038924
-0.8200316 -0.9195074 -0.22277261 -0.33349925 -1.5240787 -0.3043455 -1.5515275 0.11759559
2.1952577 1.0480646 0.5525578 -0.60039115 -0.82959276 0.12500457 1.1947721 -2.3839285
00000000: 07e4 ba3f 74d0 f2be 2eab da3f 8100 e73e
00000010: 81de d7bd 531b 9440 d6cb 39bf 6ca3 a43f
00000020: 14ad 3f3e 32bf c0c0 8af0 3abf c618 d2bf
00000030: 3697 db3f da21 c7bf c874 9d3f 18ff 00bf
00000040: 97ed 51bf d664 6bbf 811e 64be 6ac0 aabe
00000050: 0315 c3bf 2cd3 9bbe 7498 c6bf f5d5 f03d
00000060: 1a7f 0c40 fb26 863f 6e74 0d3f 3cb3 19bf
00000070: 3160 54bf 3301 003e 4bee 983f 4992 18c0

module.inc.conv.conv.4.running_mean f4 [32]
37.412132 23.94204 19.360023 4.580352 -28.133017 -13.471444 3.140806 -9.39112
26.422743 -12.093789 54.211792 -14.225391 -4.58348 -9.392479 -51.318787 -5.7941885
7.147137 4.96284 12.69815 -1.0071799 0.21411613 -4.77443 -4.8333235 9.321429
1.3801229 -20.071136 -17.190565 -2.4533226 8.374255 5.442483 -7.3209057 -24.91797
00000000: 06a6 1542 4c89 bf41 54e1 9a41 3e92 9240
00000010: 6b10 e1c1 098b 57c1 f702 4940 0742 16c1
00000020: c761 d341 2980 41c1 e0d8 5842 349b 63c1
00000030: deab 92c0 9847 16c1 7046 4dc2 fe69 b9c0
00000040: 59b5 e440 96cf 9e40 9f2b 4b41 45eb 80bf
00000050: 4241 5b3e 21c8 98c0 96aa 9ac0 9324 1541
00000060: dea7 b03f b091 a0c1 4786 89c1 3d03 1dc0
00000070: f3fc 0541 d228 ae40 dc44 eac0 0158 c7c1

module.inc.conv.conv.4.running_var f4 [32]
95.06344 96.30454 119.046265 91.05269 317.43066 234.45589 75.41432 472.0383
93.69667 90.72027 143.20662 63.03195 309.71072 76.4883 493.3955 89.86237
1.1347457 155.6134 4.1473646 90.63162 67.17236 2.1352282 84.02482 114.66701
266.0584 102.7066 375.411 1.5557894 75.24391 79.8421 56.38965 96.37984
00000000: 7b20 be42 ed9b c042 b017 ee42 fa1a b642
00000010: 20b7 9e43 b574 6a43 22d4 9642 e704 ec43
00000020: b264 bb42 c770 b542 e534 0f43 b820 7c42
00000030: f9da 9a43 02fa 9842 a0b2 f643 89b9 b342
00000040: 593f 913f 089d 1b43 36b7 8440 6443 b542
00000050: 4058 8642 94a7 0840 b50c a842 8255 e542
00000060: 7a07 8543 c769 cd42 9cb4 bb43 1b24 c73f
00000070: e27c 9642 28af 9f42 008f 6142 7ac2 c042

module.down1.mpconv.1.conv.0.weight f4 [64, 32, 3, 3]
2.9023275 1.0840477 0.80032253 2.0591516 -2.0973213 -2.7946036 1.1827006 0.82176274
1.4099964 1.2446709 1.7397436 0.43772966 -1.1536076 -0.91817683 0.78189003 -2.4455643
0.13034186 0.23119251 -2.229765 -2.3728356 -3.773507 1.9167093 0.6604505 -0.7850949
2.1421897 -0.5972343 -0.4100887 -0.26594362 -0.36021408 -1.5099442 -0.8397821 0.16680661
0.8460234 -1.6697721 1.4756896 1.3642598 0.06442142 -2.7072465 -4.0633965 -0.06647988
-0.84353364 2.2249277 0.50838155 2.9818819 -2.3496237 -2.7745337 -0.60894465 -0.68370616
1.3294775 2.0992923 -0.9722004 3.310727 0.17637281 -2.8059516 0.94948 2.0299191
0.24418406 1.0412607 -2.3116775 -2.7218797 -0.54990005 -2.6126552 -0.16476998 2.2179372
4.3342366 2.792001 0.9560774 -0.45234692 -2.0785747 -0.6783745 -4.755375 -0.08936448
2.1708536 -0.7925464 -3.1572762 1.2748673 -1.2420382 -0.027852483 0.051188543 0.020655893
-2.6951065 -1.6543838 1.4260328 0.6222224 1.3024409 -0.71392894 0.31641838 0.11141408
-0.63296354 -0.5249291 -0.46833113 -2.5926042 -2.3949907 0.8703357 -3.8076706 -1.0680143
0.40805343 1.9173125 2.0484474 4.0259714 1.3960783 6.1935563 3.8076062 -0.8543093
0.39296696 -2.3157432 -1.3498377 -3.0965657 -0.34224397 1.9738683 -1.0799228 0.8611877
2.5111308 -0.99352425 0.7136968 -1.4765337 -2.5964844 0.6147838 2.9661407 3.1100988
2.3173542 -2.036411 -2.174826 1.8258964 -2.6191485 -0.9000449 -1.9741318 -1.2585516
1.1481693 0.05589049 0.6570791 1.828284 -2.9202552 0.4634513 -2.3209794 1.1227459
-1.8570048 -0.6389055 -0.5146335 -0.12515694 -4.0783987 -1.1458092 -2.7355077 -1.9322609
-0.3916369 0.094143495 -0.30621567 -0.013789043 0.36512756 -0.15079156 0.1887506 0.4410493
-0.17471828 1.2255455 -0.8808692 2.3769836 -0.6360776 -0.46781927 1.8120109 -3.2809107
1.3133403 0.7212855 -0.33654106 -0.22531565 -0.028462883 -0.09374535 0.106022745 0.20711535
0.009888717 0.02682158 -0.017765258 0.5992578 -0.686468 -2.7815747 0.48302865 -0.88214874
-4.684826 0.67984045 -0.4756986 -0.013849202 -2.5425153 -1.6507903 0.6633684 0.12389249
0.9830085 0.3692436 0.9535622 -2.825504 0.8245457 -0.4032759 -0.21101475 -0.149183
0.10034327 0.016510231 0.07766272 0.12820898 0.08412261 0.1335438 0.49463758 1.1026636
0.90740913 0.40145102 3.7764256 -8.284634 -0.9270186 1.1080848 -6.7771554 0.1708373
0.08226208 0.86916703 0.5121439 0.093567446 0.8350022 0.66209376 -0.1496483 1.98988
-0.28393763 1.6724086 4.290816 0.1079772 0.04209034 -3.4040585 1.3765941 1.1439681
-3.7392418 1.4300374 -0.122518495 0.35285208 -0.6529171 -1.8965758 0.5045756 -2.5497844
-0.73358274 0.64426863 -0.26041707 -2.4389586 2.0002975 -0.5696934 -1.63457 3.2765863
-2.7386034 -1.0346005 0.5158151 -0.04579005 0.04738174 -0.07333158 -0.19899634 0.08257015
0.035965618 -0.04302041 0.10528483 -0.026254036 1.5855645 -0.34452203 1.1828258 0.0033806348
00000000: bcbf 3940 13c2 8a3f f0e1 4c3f 24c9 0340
00000010: 833a 06c0 c9da 32c0 bc62 973f 0b5f 523f
00000020: c37a b43f 6051 9f3f ebaf de3f 1a1e e03e
00000030: 6aa9 93bf a30d 6bbf f229 483f 2084 1cc0
00000040: 5678 053e bbbd 6c3e 78b4 0ec0 8adc 17c0
00000050: 2481 71c0 bb56 f53f 4913 293f fbfb 48bf
00000060: a319 0940 59e4 18bf 25f7 d1be c329 88be
00000070: fb6d b8be da45 c1bf f6fb 56bf 5acf 2a3e
00000080: fd94 583f 18bb d5bf 66e3 bc3f 11a0 ae3f
00000090: 61ef 833d 8743 2dc0 5807 82c0 9a26 88bd
000000a0: d2f1 57bf 3765 0e40 4b25 023f 27d7 3e40
000000b0: 3c60 16c0 f691 31c0 cce3 1bbf 5e07 2fbf
000000c0: 522c aa3f ce5a 0640 20e2 78bf f3e2 5340
000000d0: 139b 343e b694 33c0 1f11 733f 32ea 0140
000000e0: 630b 7a3e 0848 853f 86f2 13c0 4733 2ec0
000000f0: 40c6 0cbf be35 27c0 76b9 28be aff2 0d40
00000100: 11b2 8a40 25b0 3240 7dc1 743f 049a e7be
00000110: 5e07 05c0 f4a9 2dbf 082c 98c0 b904 b7bd
00000120: 44ef 0a40 52e4 4abf d010 4ac0 da2e a33f
00000130: 1cfb 9ebf e42a e4bc 14ab 513d 8c36 a93c
00000140: a07c 2cc0 d9c2 d3bf 3e88 b63f f849 1f3f
00000150: 62b6 a63f 0cc4 36bf 9701 a23e 112d e43d
00000160: e609 22bf c161 06bf 19c9 efbe 3aed 25c0
00000170: 8747 19c0 52ce 5e3f e0b0 73c0 b1b4 88bf
00000180: 61ec d03e 7f6a f53f c319 0340 c2d4 8040
00000190: b2b2 b23f 9d31 c640 d2af 7340 04b4 5abf
000001a0: f732 c93e 2335 14c0 7bc7 acbf 222e 46c0
000001b0: 9a3a afbe b7a7 fc3f e93a 8abf cc76 5c3f
000001c0: 5eb6 2040 9b57 7ebf d5b4 363f 0eff bcbf
000001d0: cd2c 26c0 7962 1d3f 40d5 3d40 dc0b 4740
000001e0: 884f 1440 8f54 02c0 5930 0bc0 f9b6 e93f
000001f0: 21a0 27c0 5869 66bf 5ab0 fcbf 3818 a1bf
00000200: 36f7 923f 6ded 643d 5636 283f 3605 ea3f
00000210: 76e5 3ac0 7d49 ed3e ed8a 14c0 23b6 8f3f
00000220: 55b2 edbf 508f 23bf 05bf 03bf 2429 00be
00000230: 3e82 82c0 e0a9 92bf 8f12 2fc0 5354 f7bf
00000240: a284 c8be 4ece c03d 4dc8 9cbe 70eb 61bc
00000250: 00f2 ba3e 1a69 1abe d647 413e 37d1 e13e
00000260: 59e9 32be adde 9c3f a580 61bf 8020 1840
00000270: fbd5 22bf 0286 efbe f9ef e73f 71fa 51c0
00000280: 891b a83f 2ba6 383f 1c4f acbe 25b9 66be
00000290: fe2a e9bc 90fd bfbd 7422 d93d 0c16 543e
000002a0: 4904 223c eeb8 db3c 7288 91bc f668 193f
000002b0: 5ebc 2fbf 5205 32c0 884f f73e 80d4 61bf
000002c0: 18ea 95c0 060a 2e3f c48e f3be c3e7 62bc
000002d0: 92b8 22c0 194d d3bf 83d2 293f 59bb fd3d
000002e0: 72a6 7b3f 7f0d bd3e a71c 743f 0fd5 34c0
000002f0: 6d15 533f 2e7a cebe 4014 58be 6ec3 18be
00000300: c680 cd3d 7740 873c a20d 9f3d 3749 033e
00000310: 7a48 ac3d b5bf 083e 2341 fd3e 1524 8d3f
00000320: f74b 683f fd8a cd3e f5b0 7140 dc8d 04c1
00000330: 1751 6dbf b9d5 8d3f 75de d8c0 f9ef 2e3e
00000340: 0579 a83d bb81 5e3f dd1b 033f 4aa0 bf3d
00000350: b4c2 553f fa7e 293f 673d 19be 63b4 fe3f
00000360: 4660 91be 7c11 d63f 5d4e 8940 2623 dd3d
00000370: ec66 2c3d 18dc 59c0 3c34 b03f 8c6d 923f
00000380: bd4f 6fc0 770b b73f faea fabd 07a9 b43e
00000390: 9325 27bf ffc2 f2bf de2b 013f ab2f 23c0
000003a0: 14cc 3bbf caee 243f 6355 85be e617 1cc0
000003b0: e004 0040 6dd7 11bf 9739 d1bf 97b3 5140
000003c0: 4745 2fc0 ca6d 84bf 750c 043f 598e 3bbd
000003d0: 5b13 423d de2e 96bd b2c5 4bbe 8a1a a93d
000003e0: af50 133d 2b36 30bd 939f d73d b412 d7bc
000003f0: c7f3 ca3f 3165 b0be d666 973f a48d 5d3b

module.down1.mpconv.1.conv.0.bias f4 [64]
-0.8041932 0.10299987 0.26803353 -0.9985444 -1.3751429 0.03416316 -0.20725815 0.46712247
0.020771671 -1.7455927 0.31877875 -0.90868473 0.23264164 -0.031985305 0.098185375 0.6960474
-2.5571365 -4.454217 -0.3028568 -0.8677164 0.3259566 -0.08392087 0.26382077 -0.26630214
-2.4068236 -0.41360995 -0.32982746 -2.2143867 -0.2786077 -1.6885976 0.8359261 -0.027211033
0.008685336 -0.221916 0.10755571 -0.32897365 0.011951993 0.23826072 -1.2059945 0.17196496
-0.17945734 -0.9769866 0.80445987 -0.2073322 -0.24267045 0.2957846 -0.5580672 -2.1219947
-0.57369983 0.62878984 -2.052939 -1.6807635 -0.33749497 0.22348672 -0.8792792 -0.3206054
-0.43349648 -0.8675061 -0.40090546 0.6714906 -1.1466577 0.6926477 0.08966597 0.058246415
00000000: 9bdf 4dbf 99f1 d23d b13b 893e 9ba0 7fbf
00000010: af04 b0bf abee 0b3d 7b3b 54be ad2a ef3e
00000020: 5a29 aa3c 956f dfbf f836 a33e 909f 68bf
00000030: 9c39 6e3e 0603 03bd 6a15 c93d 2a30 323f
00000040: 20a8 23c0 f288 8ec0 0c10 9bbe a922 5ebf
00000050: c9e3 a63e b5de abbd 8413 873e c158 88be
00000060: 6609 1ac0 afc4 d3be 25df a8be 83b8 0dc0
00000070: aba5 8ebe f723 d8bf 41ff 553f ace9 debc
00000080: f14c 0e3c f33d 63be 2b46 dc3d 3c6f a8be
00000090: 4bd2 433c 9efa 733e 075e 9abf 9517 303e
000000a0: aac3 37be cb1b 7abf 15f1 4d3f e44e 54be
000000b0: 9a7e 78be 1471 973e 7edd 0ebf c3ce 07c0
000000c0: fedd 12bf 5ff8 203f 5a63 03c0 4223 d7bf
000000d0: 24cc acbe b4d9 643e 7118 61bf 6426 a4be
000000e0: 40f3 ddbe e114 5ebf 7b43 cdbe cfe6 2b3f
000000f0: aec5 92bf 5c51 313f cba2 b73d cb93 6e3d

module.down1.mpconv.1.conv.1.weight f4 [64]
1.1091591 2.6888106 1.1646051 1.995033 1.4037626 0.7552369 1.7061632 0.8342442
1.0705847 1.7957131 2.2353215 1.164069 2.421073 1.9628779 2.1504786 1.7833462
1.3293906 0.9999944 3.220254 0.8775298 2.7172184 1.3731025 1.4285969 1.3830812
1.405494 2.263791 2.2282674 1.7863507 1.7145572 1.9747452 1.7051363 0.0012683447
1.4274039 1.2716786 2.2856696 -1.4178456 3.039297e-05 2.546011 1.7085773 1.6083767
1.9777942 1.305502 0.7002327 2.6671824 1.2008986 1.4616393 0.6984985 1.418638
1.6956794 0.39651486 1.5016176 1.3718275 1.5519798 2.1288216 1.8022327 1.6901337
0.8055001 0.95618427 1.1880393 1.4981478 1.8513746 0.8345229 1.3046643 1.3973793
00000000: edf8 8d3f 7915 2c40 c811 953f 3e5d ff3f
00000010: 7eae b33f 3557 413f 8e63 da3f 0791 553f
00000020: eb08 893f edd9 e53f 820f 0f40 3700 953f
00000030: dcf2 1a40 953f fb3f 71a1 0940 b044 e43f
00000040: 7929 aa3f a2ff 7f3f a418 4e40 cba5 603f
00000050: e8e6 2d40 d3c1 af3f 43dc b63f ce08 b13f
00000060: 3ae7 b33f f4e1 1040 ef9b 0e40 24a7 e43f
00000070: 9c76 db3f 73c4 fc3f e841 da3f 963e a63a
00000080: 2cb5 b63f 5dc6 a23f 6948 1240 f77b b5bf
00000090: 68f4 fe37 d8f1 2240 a9b2 da3f 4adf cd3f
000000a0: 5c28 fd3f b11a a73f 7342 333f 1eb3 2a40
000000b0: 0cb7 993f ff16 bb3f ccd0 323f ee95 b53f
000000c0: 060c d93f ff03 cb3e 0135 c03f 0b98 af3f
000000d0: 46a7 c63f 9d3e 0840 90af e63f 4d56 d83f
000000e0: 4135 4e3f 7ec8 743f ac11 983f 4fc3 bf3f
000000f0: d8f9 ec3f 4ba3 553f 3dff a63f 53dd b23f

module.down1.mpconv.1.conv.1.bias f4 [64]
0.1318034 -0.07720474 1.3104938 -1.9321129 -1.5604724 1.3614093 0.44125226 0.57854015
0.48196083 -2.6762807 0.061123252 -2.3545098 0.2789752 -0.7982395 -0.45863166 0.409325
-5.54755 -7.60991 -0.48737133 -2.4167113 0.31599036 0.58536136 -0.42812657 0.20446447
-4.349041 -0.6406925 -0.77047765 -3.2580593 -1.1668596 -3.1542695 1.4999359 -0.69473135
0.082308 0.6733598 -0.46512392 -2.4488606 -0.06383872 -0.22350855 -1.2933756 0.673157
-0.043313004 -3.5717716 2.192065 -1.0548097 -0.8307949 0.9897351 1.0597112 -4.3533254
-0.95048994 3.2649462 -4.2524447 -1.9995141 -0.6164235 -0.9258795 -1.2827895 -0.8008372
-0.030286497 -2.0300252 0.19657351 0.9532199 -1.8255867 2.0577257 -0.055492055 0.37405512
00000000: 78f7 063e 851d 9ebd 43be a73f 7a4f f7bf
00000010: 8fbd c7bf a942 ae3f d1eb e13e 351b 143f
00000020: 92c3 f63e 2f48 2bc0 605c 7a3d 4ab0 16c0
00000030: d6d5 8e3e 6d59 4cbf c5d1 eabe 0c93 d13e
00000040: 8885 b1c0 6284 f3c0 bc88 f9be 66ab 1ac0
00000050: 7dc9 a13e 3eda 153f 6833 dbbe 225f 513e
00000060: 582b 8bc0 6c04 24bf 063e 45bf 0b84 50c0
00000070: a85b 95bf 8ddf 49c0 e6fd bf3f ead9 31bf
00000080: 1991 a83d 4f61 2c3f b924 eebe 22ba 1cc0
00000090: e0bd 82bd 6ddf 64be 558d a5bf 0454 2c3f
000000a0: fa68 31bd e897 64c0 cb4a 0c40 0104 87bf
000000b0: f9ae 54bf 485f 7d3f 9ea4 873f 714e 8bc0
000000c0: 4f53 73bf e1f4 5040 0714 88c0 14f0 ffbf
000000d0: eecd 1dbf 7006 6dbf 7232 a4bf ab03 4dbf
000000e0: 631b f8bc efeb 01c0 914a 493e 3806 743f
000000f0: d3ac e9bf c7b1 0340 a34b 63bd 2784 bf3e

module.down1.mpconv.1.conv.1.running_mean f4 [64]
-64.61355 -215.8459 -63.56648 -35.307728 -20.519 -105.04608 -98.44264 -107.17557
-46.626694 8.60609 -165.51184 -16.167753 -129.94661 -42.44689 -31.3611 -109.36427
114.23927 -17.50174 -87.60413 34.47628 -108.81478 -73.35363 -49.52093 -17.179445
158.604 -98.5504 -19.889256 8.650831 -51.007973 13.66447 -74.37824 -28.72538
-44.71389 -71.97889 40.646687 3.586523 -3.2788801 -85.288246 -42.679184 -149.46338
-156.41867 47.667816 -144.83037 -121.34773 -124.44367 -30.112562 54.71689 133.82077
-28.258198 -82.65863 41.785522 -27.837088 35.264984 -74.49098 -61.86323 -66.07064
58.982086 -37.37188 -26.020239 -51.87632 -55.891277 -119.42977 -72.198616 4.300009
00000000: 233a 81c2 8dd8 57c3 1344 7ec2 1d3b 0dc2
00000010: e926 a4c1 9817 d2c2 a2e2 c4c2 e459 d6c2
00000020: bc81 3ac2 8bb2 0941 0883 25c3 8f57 81c1
00000030: 55f2 01c3 9ec9 29c2 88e3 fac1 82ba dac2
00000040: 827a e442 9003 8cc1 5135 afc2 b6e7 0942
00000050: 2ba1 d9c2 0fb5 92c2 6f15 46c2 816f 89c1
00000060: a09a 1e43 ce19 c5c2 321d 9fc1 ce69 0a41
00000070: 2a08 4cc2 aba1 5a41 a9c1 94c2 94cd e5c1
00000080: 06db 32c2 31f5 8fc2 3596 2242 9889 6540
00000090: 2cd9 51c0 9593 aac2 7cb7 2ac2 a076 15c3
000000a0: 2e6b 1cc3 d8ab 3e42 93d4 10c3 0ab2 f2c2
000000b0: 29e3 f8c2 87e6 f0c1 18de 5a42 1ed2 0543
000000c0: ca10 e2c1 3851 a5c2 6024 2742 5bb2 dec1
000000d0: 580f 0d42 62fb 94c2 f373 77c2 2b24 84c2
000000e0: a8ed 6b42 ce7c 15c2 7329 d0c1 5a81 4fc2
000000f0: ab90 5fc2 0bdc eec2 b165 90c2 ac99 8940

module.down1.mpconv.1.conv.1.running_var f4 [64]
1491.3031 3504.883 1437.0458 1166.6814 1218.5259 2162.9824 1489.0822 1861.065
1381.7637 1267.6353 2368.3262 908.5083 3020.902 1018.1164 2124.6682 2087.108
1299.7969 559.8845 7354.055 1363.5326 2275.2925 1883.5577 1421.4908 1431.9503
2551.929 2441.421 2552.9363 1110.4114 1539.3344 1077.7375 1985.5613 626.4285
1063.8503 1394.4854 8014.2954 1115.2987 14.851003 2750.1274 1301.2892 2480.4644
3054.6282 798.8781 1856.3 3172.8433 2456.8962 1701.1678 6002.067 2452.4983
747.675 3401.6987 970.5783 1100.7805 1001.8425 2637.1523 1206.899 1816.0175
1673.0192 2617.333 1339.3452 1800.0378 1560.8896 1303.1299 2175.042 1112.7074
00000000: b369 ba44 210e 5b45 77a1 b344 ced5 9144
00000010: d450 9844 b82f 0745 a122 ba44 14a2 e844
00000020: 70b8 ac44 5474 9e44 3805 1445 8820 6344
00000030: 6fce 3c45 7387 7e44 b1ca 0445 ba71 0245
00000040: 8079 a244 9cf8 0b44 71d0 e545 0b71 aa44
00000050: ae34 0e45 d971 eb44 b5af b144 69fe b244
00000060: dd7e 1f45 bc96 1845 fb8e 1f45 2acd 8a44
00000070: b36a c044 9ab7 8644 f631 f844 6d9b 1c44
00000080: 36fb 8444 884f ae44 5d72 fa45 8f69 8b44
00000090: b59d 6d41 0ae2 2b45 41a9 a244 6e07 1b45
000000a0: 0dea 3e45 33b8 4744 9a09 e844 7e4d 4645
000000b0: 578e 1945 5fa5 d444 8990 bb45 f947 1945
000000c0: 33eb 3a44 2e9b 5445 03a5 7244 fa98 8944
000000d0: ec75 7a44 70d2 2445 c5dc 9644 8f00 e344
000000e0: 9d20 d144 5495 2345 0c6b a744 3601 e144
000000f0: 781c c344 28e4 a244 acf0 0745 a316 8b44

module.down1.mpconv.1.conv.3.weight f4 [64, 64, 3, 3]
-2.6566257 1.8419921 1.8827055 1.1275319 -1.8450661 0.69077134 -1.0423998 1.521078
-1.5482036 -0.16929673 -2.2753122 -0.346412 0.8871382 0.59936863 0.37151152 -2.7158024
1.1098534 0.7545382 -1.5000333 -2.386901 -0.43990734 -2.394008 -2.8472555 -1.9770247
2.483587 -2.6038685 -4.592455 -3.4814355 -2.4254029 -0.6324694 1.5740044 -0.98839533
-1.5586737 0.15041107 -0.36773476 -0.7359137 -4.0845475 0.020508137 -2.561339 -2.3788788
1.4388555 2.0451148 0.47802752 1.7412381 1.5611628 -1.0351822 -0.4769502 -0.6435526
1.0711187 2.1858928 -0.45220008 0.19510321 1.9374353 -1.223493 0.31320933 2.2043638
-1.6033193 0.1746446 -1.930413 0.85185647 -1.6720496 1.600904 -1.0123129 -1.0903878
-1.223957 0.53384304 0.27288035 -3.4142482 -0.94642 0.33426973 1.1931556 -0.4751241
3.9924912 -1.9842422 -7.3870425 0.711518 4.4388437 -4.7515144 -0.966001 2.9144068
0.25634447 -1.2708708 2.8454728 0.70023155 0.3992355 2.1780922 -2.0682437 0.6718232
-0.35508227 0.1530047 -1.1749464 1.1157187 2.495571 -1.8340348 4.5013385 -1.0385777
0.6236428 -2.4715226 0.74183273 0.7971298 0.21990478 -0.9017344 3.375786 -0.65950966
-0.8314151 1.6620396 0.04256442 -0.4996129 -3.1093352 -1.355985 1.1404618 4.0044765
-3.8914027 -0.5487341 0.3675605 -6.3289156 -1.6810971 3.6074114 3.9041085 -0.76608276
-0.80297863 -1.9128207 1.9440659 -1.6128106 0.3868821 1.3456266 -4.312315 -5.923141
-3.858849 -2.2185888 1.1620694 -1.1490996 -0.25422403 1.041372 3.5294845 2.0158908
1.7872471 0.82932645 -6.8308063 1.562872 2.793857 -4.010653 -2.613682 3.9323335
-3.5214772 -2.7654285 0.06692236 -0.6214964 -0.41746685 1.6325765 -2.1170254 -0.6573609
-3.0354052 0.16447443 1.2012886 0.53845274 0.8164791 -1.9683133 2.5134022 -0.5593535
-1.4068515 -1.4044808 -5.8132405 -2.3060515 -1.401478 -0.6586603 -2.4786906 -4.1344647
0.33318356 -0.6293164 -1.3797928 -0.4948165 0.7745046 1.1768903 -1.5132911 -1.5126561
-1.9957668 0.9917113 0.5066478 0.5916792 -5.4773946 -2.2587965 -2.179402 0.17805816
0.9498792 0.76122296 -4.259436 -0.050798178 -2.3109503 2.1477861 -0.6862207 3.0398862
-5.850359 1.0942342 0.62837094 0.66567564 -2.4313054 -0.8981826 -2.5620005 -0.2747729
-0.4780956 2.0883663 4.5575542 2.0952964 2.7497864 -1.031567 -1.7800512 1.4991478
2.2969003 1.4147964 1.2027138 4.358478 0.12121038 2.8939068 -2.8883622 -1.9302851
1.4913669 -1.3176339 -1.2458463 -0.41991344 -0.94755775 0.9576392 -0.48634428 2.061763
-2.3281746 -2.054276 2.0340164 0.22436766 -3.5669887 -0.414657 0.98307484 -0.068302155
1.216819 2.526037 -0.11725954 0.5626713 -0.9141469 -1.6295358 -0.6421368 -0.9836893
1.532455 -3.3340065 -1.894499 -2.6460104 -0.89658505 -3.591077 -3.1173778 0.67367774
-1.1753937 -0.5667234 -0.65329146 4.78355 -4.36123 -3.208358 2.3117092 1.4361941
00000000: 2806 2ac0 66c6 eb3f 7efc f03f f752 903f
00000010: 202b ecbf 64d6 303f 5b6d 85bf afb2 c23f
00000020: 892b c6bf 1f5c 2dbe b79e 11c0 ea5c b1be
00000030: 7d1b 633f 3970 193f c236 be3e b5cf 2dc0
00000040: ad0f 8e3f 6a29 413f 1701 c0bf fcc2 18c0
00000050: 893b e1be 6d37 19c0 6f39 36c0 250f fdbf
00000060: 17f3 1e40 c8a5 26c0 64f5 92c0 d7cf 5ec0
00000070: cd39 1bc0 84e9 21bf fa78 c93f 7a07 7dbf
00000080: 9f82 c7bf 5c05 1a3e bb47 bcbe d764 3cbf
00000090: 9db4 82c0 ae00 a83c faec 23c0 8d3f 18c0
000000a0: 6b2c b83f 29e3 0240 06c0 f43e e4e0 de3f
000000b0: 2fd4 c73f da80 84bf d132 f4be ddbf 24bf
000000c0: 6b1a 893f abe5 0b40 c586 e7be 23c9 473e
000000d0: e1fd f73f 6b9b 9cbf f95c a03e 4c14 0d40
000000e0: 9139 cdbf 09d6 323e c617 f7bf 4413 5a3f
000000f0: b905 d6bf 6cea cc3f 7893 81bf d491 8bbf
00000100: 9faa 9cbf f0a9 083f f9b6 8b3e 0b83 5ac0
00000110: 9548 72bf 6725 ab3e 53b9 983f 7743 f3be
00000120: fa84 7f40 a6fb fdbf a762 ecc0 0b26 363f
00000130: 020b 8e40 680c 98c0 d74b 77bf a485 3a40
00000140: 953f 833e e5ab a2bf 3a1c 3640 6042 333f
00000150: 9868 cc3e dd65 0b40 1b5e 04c0 9bfc 2b3f
00000160: 58cd b5be 44ad 1c3e a564 96bf dfcf 8e3f
00000170: 6fb7 1f40 a7c1 eabf f70a 9040 1df0 84bf
00000180: 0ea7 1f3f 6d2d 1ec0 c0e8 3d3f b310 4c3f
00000190: b82e 613e 11d8 66bf e10c 5840 a0d5 28bf
000001a0: 9fd7 54bf b7bd d43f 0758 2e3d 43cd ffbe
000001b0: 59ff 46c0 eb90 adbf a7fa 913f ac24 8040
000001c0: be0c 79c0 d779 0cbf e430 bc3e 7a86 cac0
000001d0: 312e d7bf d4df 6640 eadc 7940 001e 44bf
000001e0: 0290 4dbf 4fd7 f4bf 27d7 f83f 9470 cebf
000001f0: 6915 c63e 7e3d ac3f 7cfe 89c0 5f8a bdc0
00000200: 62f7 76c0 5cfd 0dc0 b1be 943f b215 93bf
00000210: a729 82be ad4b 853f 13e3 6140 5b04 0140
00000220: 83c4 e43f bd4e 543f f795 dac0 310c c83f
00000230: 8ece 3240 4557 80c0 9146 27c0 5aab 7b40
00000240: e25f 61c0 c8fc 30c0 970e 893d 631a 1fbf
00000250: 37be d5be 44f8 d03f 587d 07c0 ce48 28bf
00000260: 1444 42c0 fc6b 283e d3c3 993f 0ad8 093f
00000270: c604 513f b1f1 fbbf 95db 2040 ca31 0fbf
00000280: b613 b4bf 07c6 b3bf 1106 bac0 5996 13c0
00000290: a263 b3bf f69d 28bf dea2 1ec0 894d 84c0
000002a0: 0997 aa3e e11a 21bf 0d9d b0bf 9758 fdbe
000002b0: ef45 463f 57a4 963f 86b3 c1bf b79e c1bf
000002c0: 4975 ffbf cbe0 7d3f acb3 013f 4a78 173f
000002d0: d146 afc0 1f90 10c0 537b 0bc0 e154 363e
000002e0: 492b 733f 82df 423f 4d4d 88c0 c011 50bd
000002f0: 9ce6 13c0 5475 0940 29ac 2fbf 7f8d 4240
00000300: 2436 bbc0 de0f 8c3f ebdc 203f b869 2a3f
00000310: 829a 1bc0 4bef 65bf d1f7 23c0 09af 8cbe
00000320: f2c8 f4be cba7 0540 7cd7 9140 5619 0640
00000330: 80fc 2f40 630a 84bf b8d8 e3bf 13e4 bf3f
00000340: 6a00 1340 0c18 b53f 87f2 993f a778 8b40
00000350: 263d f83d c535 3940 edda 38c0 9513 f7bf
00000360: 1ce5 be3f 3aa8 a8bf e477 9fbf e5fe d6be
00000370: 2593 72bf d827 753f 1e02 f9be edf3 0340
00000380: d000 15c0 4279 03c0 532d 0240 a3c0 653e
00000390: 8b49 64c0 ec4d d4be cbaa 7b3f 00e2 8bbd
000003a0: bac0 9b3f 97aa 2140 c525 f0bd 3a0b 103f
000003b0: 8805 6abf a194 d0bf 1463 24bf 10d3 7bbf
000003c0: 7c27 c43f 5d60 55c0 f17e f2bf 3c58 29c0
000003d0: 9986 65bf 35d4 65c0 1e83 47c0 2576 2c3f
000003e0: 4d73 96bf c914 11bf 1c3e 27bf d712 9940
000003f0: 328f 8bc0 bd55 4dc0 0bf3 1340 35d5 b73f

module.down1.mpconv.1.conv.3.bias f4 [64]
-0.7121156 0.8049855 0.01723394 -0.3779766 -0.49601778 -0.3408842 -0.7061338 1.6275157
-0.042810235 -0.86349314 -1.0497828 -0.8848334 -1.2538981 -0.7404576 0.2921878 -0.28221914
-0.15069632 0.4066674 -0.32855192 -1.4302446 -0.16743469 0.027039919 -0.8269128 0.25294986
0.4147702 -0.44039968 -0.14514883 -0.47514614 0.069401346 0.17500097 -0.70441896 -0.03309811
0.97315615 -1.1825315 -2.3750377 0.3199765 -0.9747536 -0.17356099 -0.42742357 0.47722495
-0.97165424 -0.7848901 -0.9344942 -1.986112 0.20734575 -0.9707399 -0.73649764 -0.9568386
-0.3598259 0.76833427 0.3512211 -3.7878032 -0.021714913 -1.1260778 -0.8412194 0.06397109
-0.5247875 -0.931844 0.036587644 -0.010489307 1.0871952 0.06544606 -0.8488725 1.4083186
00000000: 354d 36bf 8813 4e3f 312e 8d3c 2686 c1be
00000010: 0bf6 fdbe 6088 aebe 2fc5 34bf 6f52 d03f
00000020: c959 2fbd e30d 5dbf 485f 86bf 7184 62bf
00000030: bc7f a0bf a18e 3dbf a499 953e 077f 90be
00000040: 2350 1abe b636 d03e f537 a8be 4112 b7bf
00000050: 0074 2bbe d282 dd3c 8fb0 53bf a582 813e
00000060: c25c d43e 117c e1be e5a1 14be 5b46 f3be
00000070: 4b22 8e3d 7433 333e cd54 34bf e291 07bd
00000080: c320 793f 315d 97bf 9e00 18c0 f6d3 a33e
00000090: 7489 79bf f9b9 31be 43d7 dabe d456 f43e
000000a0: 55be 78bf 8fee 48bf 033b 6fbf eb38 febf
000000b0: 7252 543e 6982 78bf 1c8b 3cbf 60f3 74bf
000000c0: 1a3b b8be 8eb1 443f 41d3 b33e 5e6b 72c0
000000d0: 79e3 b1bc 5123 90bf 285a 57bf 4603 833d
000000e0: 7958 06bf 548d 6ebf eddc 153d 58db 2bbc
000000f0: 3629 8b3f 9508 863d b54f 59bf c943 b43f

module.down1.mpconv.1.conv.4.weight f4 [64]
0.811961 -0.46006685 -0.0018634544 0.68982697 0.8059851 0.96303815 0.71452963 -0.64383596
0.901396 1.0628912 0.79444534 1.0082467 1.5462149 1.1243896 0.7828808 0.45561853
0.7339906 1.0698651 0.540351 0.73774916 0.5179331 2.9672665e-05 1.9439566 1.3868521
1.7948259 1.5678955 0.3827674 0.7675413 0.877442 0.97332245 0.40304044 1.7559869
0.6978891 1.2494156 0.7694399 1.3136381 0.8826187 1.2421287 0.78006226 0.4126782
0.8123037 0.93505925 1.3989605 0.938003 0.41775432 0.85720533 0.71384656 0.3489003
0.54631853 -0.15064742 0.5211607 0.48163205 0.72888553 0.57795954 1.1213226 0.5532975
0.865961 0.9892737 0.019362515 -2.4704745e-05 0.78262794 0.8819975 0.6701221 -0.4044746
00000000: addc 4f3f e28d ebbe 273f f4ba 8098 303f
00000010: 0a55 4e3f ab89 763f 6aeb 363f 6fd2 24bf
00000020: e3c1 663f d20c 883f c560 4b3f 3a0e 813f
00000030: 5fea c53f 00ec 8f3f e06a 483f d546 e93e
00000040: cfe6 3b3f 57f1 883f 7154 0a3f 21dd 3c3f
00000050: 4397 043f 90e9 f837 92d3 f83f 5f84 b13f
00000060: dbbc e53f cdb0 c83f 17fa c33e 967d 443f
00000070: 0aa0 603f a92b 793f 515b ce3e 2ec4 e03f
00000080: dca8 323f daec 9f3f 03fa 443f 4b25 a83f
00000090: 4df3 613f 13fe 9e3f 29b2 473f 8f4a d33e
000000a0: 23f3 4f3f 0b60 6f3f 2311 b33f f720 703f
000000b0: e5e3 d53e cf71 5b3f a6be 363f 0fa3 b23e
000000c0: 88db 0b3f 5143 1abe ca6a 053f 7a98 f63e
000000d0: 3e98 3a3f 28f5 133f 8087 8f3f e8a4 0d3f
000000e0: 9faf 5d3f 0b41 7d3f 239e 9e3c 093d cfb7
000000f0: 4e5a 483f 97ca 613f 1f8d 2b3f 4b17 cfbe

module.down1.mpconv.1.conv.4.bias f4 [64]
-1.6935097 0.40564543 -0.30854857 -0.21504481 -0.4341374 0.13320336 -1.4491625 -2.0296998
0.15786898 -2.3391833 -0.90047246 -0.8457378 -3.1529152 -1.7816383 0.50717443 0.7403352
-0.14715478 0.4982262 -0.32603806 -2.22974 0.49760988 -0.022341963 -1.566872 -0.02096591
-0.1482759 -2.2472703 0.6808115 -1.362053 -0.614061 -0.33619323 -0.23320207 -0.6435777
1.53598 -2.1085608 -2.9057646 0.33977005 -2.5052392 -0.10889827 -0.9773343 1.5572797
-0.3338882 -1.4728962 -1.1941937 -3.5949583 0.73543584 -2.656304 -1.031127 -0.10675213
1.0845127 -0.6364721 1.0943273 -3.7103727 -0.51496446 -0.9204942 -1.2260622 0.21236224
-0.41774338 -2.479323 -0.4079577 -0.06885652 1.3154066 -0.03999619 0.014159077 -1.2884746
00000000: edc4 d8bf c2b0 cf3e 14fa 9dbe b534 5cbe
00000010: 4247 debe 7666 083e 287e b9bf 9ae6 01c0
00000020: 68a8 213e 2eb5 15c0 5d85 66bf 4682 58bf
00000030: 5dc9 49c0 b90c e4bf 2fd6 013f 9c86 3d3f
00000040: beaf 16be 8117 ff3e 76ee a6be 0fb4 0ec0
00000050: b9c6 fe3e 7e06 b7bc 438f c8bf b3c0 abbc
00000060: a3d5 17be 47d3 0fc0 aa49 2e3f c157 aebf
00000070: 1a33 1dbf 8521 acbe 86cc 6ebe 82c1 24bf
00000080: fe9a c43f a9f2 06c0 0cf8 39c0 57f6 ad3e
00000090: d755 20c0 0e06 dfbd 9532 7abf f154 c73f
000000a0: 65f3 aabe dd87 bcbf 57db 98bf cc13 66c0
000000b0: 8645 3c3f e200 2ac0 f8fb 83bf dca0 dabd
000000c0: 50d1 8a3f d6ef 22bf eb12 8c3f bf76 6dc0
000000d0: b6d4 03bf 82a5 6bbf 9bef 9cbf 7d75 593e
000000e0: 76e2 d5be 3aad 1ec0 d5df d0be a604 8dbd
000000f0: 3e5f a83f 0cd3 23bd 79fb 673c bcec a4bf

module.down1.mpconv.1.conv.4.running_mean f4 [64]
-95.87954 27.82909 19.59497 -56.05534 -51.87578 -24.167915 -63.606056 15.344519
-58.270588 -59.50245 -32.43933 -0.7474451 17.592684 -66.10923 -17.17185 -19.71252
-37.95569 -2.8346825 -134.89337 7.34201 -125.78436 -6.9970512 78.92717 -0.3859782
-65.068054 -31.404442 -52.05064 -60.549637 -39.38851 -116.14771 -1.123375 -7.3980765
-43.385994 45.93376 37.04631 -17.647278 -28.737709 -15.5562 -138.68054 -65.394646
-24.278757 -33.59056 -9.999777 3.0287402 -11.470055 -100.07981 -48.622097 -109.938805
-141.99019 -5.691575 -56.961765 33.81391 -75.223885 -2.1422203 8.364451 -12.887809
-15.563418 -53.558273 4.5831914 1.0508412 -70.91068 -36.87592 8.658015 -5.67611
00000000: 53c2 bfc2 faa1 de41 80c2 9c41 ab38 60c2
00000010: cc80 4fc2 e457 c1c1 9a6c 7ec2 2683 7541
00000020: 1515 69c2 8202 6ec2 e0c1 01c2 9058 3fbf
00000030: d1bd 8c41 ed37 84c2 f35f 89c1 3eb3 9dc1
00000040: a0d2 17c2 706b 35c0 b4e4 06c3 bff1 ea40
00000050: 9891 fbc2 d8e7 dfc0 b6da 9d42 ef9e c5be
00000060: d822 82c2 4c3c fbc1 db33 50c2 d432 72c2
00000070: d68d 1dc2 a14b e8c2 c1ca 8fbf 0bbd ecc0
00000080: 428b 2dc2 2cbc 3742 6c2f 1442 a02d 8dc1
00000090: d4e6 e5c1 32e6 78c1 38ae 0ac3 0fca 82c2
000000a0: e53a c2c1 bc5c 06c2 16ff 1fc1 e1d6 4140
000000b0: 5885 37c1 dd28 c8c2 077d 42c2 abe0 dbc2
000000c0: 7dfd 0dc3 6221 b6c0 d9d8 63c2 7241 0742
000000d0: a172 96c2 231a 09c0 cbd4 0541 7734 4ec1
000000e0: c303 79c1 ac3b 56c2 81a9 9240 f781 863f
000000f0: 45d2 8dc2 f180 13c2 3b87 0a41 b1a2 b5c0

module.down1.mpconv.1.conv.4.running_var f4 [64]
2411.259 261.46268 116.218636 2754.3418 1573.0814 1536.7542 1176.4766 573.1624
1622.5502 1321.6431 1110.7933 1522.0515 1057.7924 1363.7151 2151.3577 1678.2197
1912.0813 2159.0999 1183.42 2499.1267 2796.9397 6.1878386 1748.4661 4535.548
1731.4615 1177.1069 1291.7655 2059.3904 663.125 1058.774 997.7658 2752.1277
2664.1968 999.1692 994.1095 3633.065 1957.2338 3191.9639 2182.5886 2272.0134
1892.0343 1210.3541 2502.3232 857.03534 1817.6283 1074.7051 1725.518 1192.0492
9428.927 1.2498207 1827.5162 178.89128 1921.828 2778.2651 1353.0282 1592.3883
2291.8303 1424.9481 171.4246 2.632816 3265.6333 1510.6271 1719.4159 14.086229
00000000: 25b4 1645 39bb 8243 f16f e842 7825 2c45
00000010: 9ba2 c444 2218 c044 400f 9344 654a 0f44
00000020: 9bd1 ca44 9434 a544 63d9 8a44 a641 be44
00000030: 5b39 8444 e276 aa44 b975 0645 08c7 d144
00000040: 9a02 ef44 99f1 0645 71ed 9344 0732 1c45
00000050: 09cf 2e45 c602 c640 ea8e da44 62bc 8d45
00000060: c56e d844 6c23 9344 7f78 a144 3fb6 0045
00000070: 00c8 2544 c558 8444 0371 7944 0b02 2c45
00000080: 2683 2645 d4ca 7944 0287 7844 0a11 6345
00000090: 7ba7 f444 6c7f 4745 6b69 0845 3700 0e45
000000a0: 1981 ec44 554b 9744 2c65 1c45 4342 5644
000000b0: 1b34 e344 9056 8644 93b0 d744 9301 9544
000000c0: b553 1346 20fa 9f3f 8570 e444 2be4 3243
000000d0: 7f3a f044 3ea4 2d45 e720 a944 6d0c c744
000000e0: 493d 0f45 571e b244 b36c 2b43 0f80 2840
000000f0: 221a 4c45 11d4 bc44 4fed d644 3261 6141
