learned_models/mask/decam.pth (torch_old, 416836 bytes, 39 tensors)

module.inc.conv.conv.0.weight f4 [32, 1, 3, 3]
00000000: a010 7d3e 5734 bcbe a3b3 a0bf 58f4 b03e
00000010: 15c2 89be bd87 71be cc41 913e 23b7 083f
00000020: 7c7f b73e 8a22 21bf 899c 583c ea92 adbf
00000030: 6ad4 fcbe 8b46 cd3f 0eb3 a4bc a561 3dbd
00000040: a427 69bf 7bfa ab3f 0d9c 8a3f 1b58 dbbd
00000050: efe5 cc3f de13 3bbe 8e7d 35bc 62b0 2ebf
00000060: 09df 41bf ebd3 c7be 7c39 12bf 9d3d 0f3f
00000070: 155c 2c3f 72fa 0a40 bb59 2fbf 2b82 5fbf
00000080: a4c0 3fbf 0b1e 8f3b b5aa 00bf 00a4 ab3d
00000090: 499e 643e a98b 893e f7b4 f93d 3048 30bd
000000a0: 77f6 143f 2930 1d3e 5699 0fbe 6b4e df3d
000000b0: 1dc1 de3e 6cc9 9cbe bac0 393f 2a99 0040
000000c0: 55ba 98be 8019 b03e 2460 3f3f ae50 d2bf
000000d0: 2146 7bbf ade6 5bbf 4cae d73e fcae c5be
000000e0: 6153 4fbf ed91 853f 7670 18be 80e7 5abf
000000f0: 3330 913f c997 0f3e 3080 5abf 1795 8fbf
00000100: 944a afbf 62ca 7b3e 0e9b 58be ce65 b0bf
00000110: b61e c83e 5b52 343f deee 28be 7aea 2a40
00000120: 5f7c a13f 046b 8bbf f281 a63e f15f 73bf
00000130: f733 0b3f 3412 b2bf e11d 683f fcde 593e
00000140: 8169 0f3e 462b 24bf 896b e5be daca cabe
00000150: 39b8 71bf 9e08 d63f cb5b 283f 28fe 82bf
00000160: 61fb a23d f960 913f 47ca 243f a94d 46c0
00000170: 9bb5 f93e 62ed c83d 2ad3 a5be ac2f 5d3f
00000180: fb58 4d3e 1126 cbbd 4e3b 68be 4010 113f
00000190: 493b 4e3f 31ae 663f 9ffa 163f faa1 05bf
000001a0: 6ba0 47bf 2352 3fbf 81ef 27bf 4839 f03c
000001b0: 5256 843e 4ac2 4b3e cbdd cc3c 8f12 ef3e
000001c0: 700f abbe b99c 013e 98fc debe 96e7 cebe
000001d0: 07b0 90be 5a25 1a3f 284b ff3e d476 693f
000001e0: 5cdb 31bf 713d debe 38f8 243f 4c0b 76bf
000001f0: 54c5 1ebf 6b9e 0e3e 960b b03f 7cdc 363f
00000200: 89aa 23bf 3d0e d93d 3ca6 523f 3f97 65be
00000210: bf19 63bf 6702 d1be 6b1f 87bf a2f5 abbf
00000220: b14f 6fbf d446 db3e 2f1b 023d d234 17bf
00000230: 467c f23e fb31 323f bb9d a03e cf19 883f
00000240: 9cde 4cbe 2d93 2dbf 1941 1cbe 6cb8 123f
00000250: 3248 043f 39a3 09bf 27a5 953c 4310 693f
00000260: 74b4 72bd 9f2d 19be 921c 32bd 5ffd 383d
00000270: bf49 873d 85e0 cfbe a6b4 e93e fdd2 dfbe
00000280: 6d6e 8ebe 7e69 3b3e d24f 4c3e 1bff 0bbf
00000290: aade 963f 4c50 68bf 3071 9abf 37a9 7b3e
000002a0: 5506 223f 06bf 303f 804b a5be 2c20 133e
000002b0: 3e20 02be 6d81 9c3e ee15 ad3e 21b0 cdbe
000002c0: bb43 bdbe 4862 c03c d740 d23e 4269 6abc
000002d0: 224c 4d3d 94b7 2d3c fafe 133f 202b 5fbe
000002e0: 2945 c33d 098d 5c3f 94d2 a43d 3a40 983e
000002f0: 946f a93f 5eb0 293f 83ed 943f 1318 a93e
00000300: e57f a5bf 365b 993e e335 ab3e 891a 73bf
00000310: 6776 c53d ab07 41bf ae79 2e3f d863 cabd
00000320: 7ca1 cabf 514d 7a3f 4d97 fa3e e4dd f9be
00000330: 0c2e 273f a7fc 703e 570b 23bf 12b8 1fbf
00000340: 26c5 003f 2b23 623f e2c9 31c0 7c5c 943f
00000350: 9499 e5bd c1b6 38bf ba99 f53e c807 453f
00000360: 7661 b4bf cd7d f2be defd b53f 2c61 bc3e
00000370: f87e 6d3f fe89 bfbd 668b 80bf c4a1 2a3e
00000380: 72ba f63d 5931 a8bd 0e66 d93e c7c3 173e
00000390: 6078 40be bd50 12be 89c2 153c 367a 9e3e
000003a0: 8dfd 0cbe db57 103e dcef 543f 4f16 aebf
000003b0: f07a 81bf b6b7 0f3f c5c2 85bf e091 8cbe
000003c0: f7f9 243f b302 503f 1cf6 6a3f 6234 883e
000003d0: e5ac 093e f2c1 bf3e daee 413e bcfa cdbd
000003e0: b758 65bd de1e b5bc ec77 603e 3a7c 35be
000003f0: 9f3d dbbe 4c23 bc38 339e 233f f89f b43c
0.24713373 -0.36758682 -1.2554821 0.3456142 -0.26905885 -0.23586936 0.28370512 0.53404444
0.3583945 -0.6294333 0.013220915 -1.356046 -0.4938081 1.6037153 -0.020104911 -0.0462357
-0.9107611 1.3435816 1.0828873 -0.10710164 1.600767 -0.18269297 -0.011077298 -0.6823789
-0.7573095 -0.39028868 -0.57118964 0.5595339 0.67328006 2.171536 -0.6849629 -0.87307996
-0.7490332 0.004367595 -0.5026048 0.0838089 0.22326006 0.26864365 0.121927194 -0.043037593
0.58188576 0.15350403 -0.14023337 0.10903629 0.4350671 -0.30622423 0.725597 2.0093484
-0.2982966 0.34394455 0.74756074 -1.6430871 -0.98153883 -0.8589886 0.42125165 -0.38610065
-0.809866 1.0435158 -0.1488665 -0.8550949 1.1342834 0.14022745 -0.8535185 -1.1217374
-1.3694634 0.24588922 -0.21152899 -1.3781068 0.3908593 0.70438164 -0.1649737 2.6705613
1.261608 -1.0892034 0.32521015 -0.9506827 0.5437617 -1.3911805 0.9067059 0.21276468
0.1400509 -0.6412853 -0.44808605 -0.39607888 -0.94421726 1.672138 0.65765065 -1.0233812
0.07958103 1.1357719 0.6437115 -3.09849 0.48771366 0.09810902 -0.32387668 0.86400867
0.20053475 -0.0991937 -0.22678873 0.5666542 0.8055921 0.90109545 0.5897617 -0.5220028
-0.77979153 -0.74734706 -0.6559983 0.029324189 0.25847107 0.19898334 0.025008103 0.46693847
-0.33410215 0.12657441 -0.4355209 -0.4041106 -0.28259298 0.60213244 0.49862027 0.9119694
-0.6947534 -0.4340625 0.6444125 -0.9611099 -0.6201985 0.13927619 1.3753536 0.7143018
-0.6393209 0.10598419 0.82284904 -0.22420977 -0.8871116 -0.40822145 -1.0556463 -1.3434336
-0.93480974 0.42827475 0.031764206 -0.5906497 0.47360438 0.69607514 0.3137034 1.0632876
-0.20006794 -0.678027 -0.15259208 0.57312655 0.5167266 -0.53764683 0.018267227 0.9104044
-0.059254125 -0.1495881 -0.043484278 0.04516351 0.06605863 -0.40600982 0.45645636 -0.4371566
-0.27818623 0.18301961 0.19952324 -0.54686135 1.1786702 -0.90747523 -1.2065792 0.24576269
0.6329091 0.6904148 -0.32284164 0.14367741 -0.12707612 0.30567494 0.33805794 -0.40173438
-0.36965737 0.023484364 0.41065094 -0.014307322 0.050121434 0.0106028505 0.5781094 -0.21793795
0.09534676 0.861527 0.08047977 0.297365 1.3237176 0.6628474 1.1634983 0.3302618
-1.2929655 0.299524 0.3343955 -0.94962364 0.09641724 -0.75402325 0.6815442 -0.09882325
-1.5830531 0.97774225 0.48943558 -0.48802102 0.65304637 0.23533879 -0.6368918 -0.62390244
0.50300825 0.8833491 -2.777947 1.1590724 -0.11210933 -0.7215386 0.47968847 0.76965
-1.4092243 -0.47361603 1.4218099 0.36792886 0.92771864 -0.09352492 -1.0042541 0.16663271
0.1204728 -0.08212537 0.42460674 0.14820777 -0.1879592 -0.14288612 0.009140619 0.30952615
-0.13768597 0.14096014 0.83178496 -1.3600558 -1.0115643 0.56139696 -1.0450064 -0.27455044
0.64443916 0.8125412 0.91781783 0.26602465 0.1344486 0.37452656 0.18938771 -0.100575894
-0.05599281 -0.022109445 0.21920747 -0.1772317 -0.4282045 8.971113e-05 0.6391327 0.022048935

module.inc.conv.conv.0.bias f4 [32]
00000000: 2b49 6ebb 3b98 d5be a11c 46be 8d90 05bf
00000010: 9409 51be b2ab ddbd ded3 bbbe e210 083e
00000020: 7f78 5fbf 3e85 9dbe 55ce 24bd 5c01 a2bd
00000030: b3a5 96bc 9ce2 193e b577 7abe 8129 49be
00000040: 6d69 f1bd a096 1c3e 3cdc 8ebd bf29 45be
00000050: bcb4 8fbe ef9e 2ebe 8003 8ebe c20c 7b3e
00000060: ec12 10bf b2df 5c3e 0d6f 1c3d 89f8 563e
00000070: a483 a1bd f913 c13d 5ef9 afbe c3d8 8abe
-0.003635953 -0.41717705 -0.19346859 -0.5217369 -0.2041381 -0.10823764 -0.3668508 0.1328769
-0.8729324 -0.30765718 -0.040235836 -0.079104155 -0.018389558 0.15027851 -0.24459727 -0.19644739
-0.117876865 0.15291834 -0.069756 -0.19254206 -0.28067577 -0.17052816 -0.27737045 0.24516585
-0.5627887 0.21569708 0.038191844 0.20993246 -0.078864366 0.094276376 -0.3436994 -0.271185

module.inc.conv.conv.1.weight f4 [32]
00000000: 3f4b b4b9 b3e4 093f 65cb 2b3f a7ed ad3f
00000010: 25d5 653b e792 c73f e490 bf3e a87a d03f
00000020: edac a03f 6e24 8a3f 7005 213f 6b3d 0140
00000030: faa5 d338 cfd6 0b40 c0e8 a43f 615c 3d40
00000040: 51df b9be 811e 5439 4e13 ff3f 1c7f 88b9
00000050: b539 383f be03 673f ce3d c13f 2cd6 c3bf
00000060: 442b b83f 6eb5 d8ba 24a0 9e3f 53ee 8aba
00000070: 6c2c e539 8f27 58bc c741 b63f a707 bdb9
-0.00034388338 0.5386459 0.6710723 1.3588151 0.003506967 1.5591706 0.3741523 1.6287432
1.2552773 1.0792367 0.6289892 2.0193737 0.000100921796 2.1849859 1.288353 2.9587634
-0.3630319 0.00020229259 1.9927766 -0.00026034645 0.71963054 0.90240085 1.5096986 -1.5299735
1.4388204 -0.0016533562 1.2392621 -0.0010599591 0.0004371138 -0.013193025 1.4238824 -0.0003605459

module.inc.conv.conv.1.bias f4 [32]
00000000: 11a1 2bbe 5a88 4ebf ec6a e7bf d15d 1ec0
00000010: 2b1f 4dbf e05d a7bf f2b0 a53f f600 27c0
00000020: a7fd d73f c5d2 44be 3fa0 893d c372 ce3f
00000030: ee91 08be b6bf 873f 6189 853c 138a e03f
00000040: 917d 42bf f2f5 8cbd 62d4 063e 1e4d b4bd
00000050: a92e 29c0 2bd2 923e 0a6a b83f 59c1 6ac0
00000060: 6850 8f3f 32b6 58be 0f61 853e 2657 72bd
00000070: 7d90 15be 8dd4 9fbe 2e68 a13e b1c4 b7bd
-0.1676066 -0.80676806 -1.8079505 -2.474476 -0.80125684 -1.3075523 1.2944624 -2.6094337
1.6874284 -0.19221027 0.06720018 1.6128772 -0.13336918 1.060538 0.016300859 1.7542137
-0.7597285 -0.06882848 0.13166955 -0.088037714 -2.643473 0.2867597 1.440736 -3.668051
1.1196413 -0.21163252 0.26050612 -0.059165142 -0.14605899 -0.3121685 0.31524795 -0.08973063

module.inc.conv.conv.1.running_mean f4 [32]
00000000: 743e 3fc3 3d27 4fc4 b3cf c5c1 b603 5644
00000010: 053f 8b44 4e70 bcc2 1dd0 0b45 cdc2 4643
00000020: c703 8fc2 5069 c241 69fd 49c4 f009 1543
00000030: da9c 77c3 1dbb 7841 49c2 28c3 edaa 9142
00000040: d80c 0b44 e8a7 b7c3 8d92 14c2 87d0 4643
00000050: 853d dd44 62f4 07c2 3bd2 3f43 9a3a 48c4
00000060: e3ee fcc1 1a3d 9c43 cf80 25c2 e38a 0644
00000070: f1c7 e6c3 eb3a 1745 d7db 60c2 cba0 1f44
-191.24396 -828.6131 -24.726416 856.058 1113.9694 -94.219345 2237.007 198.76094
-71.50738 24.301422 -807.95953 149.03882 -247.6127 15.545682 -168.75893 72.83384
556.2007 -367.31177 -37.143116 198.81456 1769.9225 -33.988655 191.82121 -800.91565
-31.616644 312.47736 -41.37579 538.1701 -461.56204 2419.6824 -56.214687 638.5124

module.inc.conv.conv.1.running_var f4 [32]
00000000: 6702 b647 f65f 9048 3caa 1848 d6b5 ba48
00000010: eb07 e848 e741 9148 cd86 fa49 f914 7648
00000020: 206f 1a47 d9ea cd47 6d41 9f48 338b c047
00000030: 1f14 3947 0623 d747 7861 0c48 d48d fd47
00000040: 402c ef47 d690 6947 dbfb fc46 e683 9346
00000050: e53a 9649 0f30 f347 2956 e947 a8a3 bc48
00000060: f42c 5047 b7c4 1647 be1c 1848 ed62 df47
00000070: 9321 b147 dba4 0c4a c94a 1547 5dc1 1a48
93188.805 295679.7 156328.94 382382.7 475199.34 297487.22 2.0523136e+06 251987.89
39535.125 105429.695 326155.4 98582.4 47380.12 110150.05 143749.88 129819.66
122456.5 59792.836 32381.928 18881.95 1.2306846e+06 124512.12 119468.32 386333.25
53292.953 38596.715 155762.97 114373.85 90691.15 2.3043108e+06 38218.785 158469.45

module.inc.conv.conv.3.weight f4 [32, 32, 3, 3]
00000000: 0981 883b c31e ae3b fe99 db3c 664c a63c
00000010: 65c5 46be b7c3 9cbd a285 6b3d 5ed7 ac3d
00000020: 1fb1 d13d d9fe ddbf 4d9a e93e 3fa8 83bf
00000030: 02dd 5f3f 94dc 1bbf 6a23 1bbe 2f2d 1abf
00000040: 726e 9cbc c962 eb3d df11 71bf 60d4 29bd
00000050: 6f39 45bf ca9a 863e 4793 dd3d 2d1f 3bbf
00000060: d488 97be aaf9 3cbe 6227 203f ae5b b9be
00000070: bf7a 473e 6aa4 1fbf d2f2 fd3f 5224 1bbf
00000080: 40da 60bf 19c9 47be 84a3 58bf 5105 c6be
00000090: d8f7 7ebe cf16 71be 4e63 ebbe f476 babd
000000a0: f22e d7bd 114e c2be 47b6 a8be 3f1d debd
000000b0: ffcd 5dbe 72f3 053f 3877 b1bd ae03 853f
000000c0: 3a78 853d b31c adbe 1b35 d3be dfc3 05c0
000000d0: c95e 17c0 62b7 07bf 8849 013f 04be 1a3f
000000e0: ed61 463f d032 08be 98d0 5dbf 09c6 443e
000000f0: 5f79 513e 59b1 9bbd 4519 c43e 157e b1bf
00000100: 456d 85be 5e4f 76be e21a 813e 44ec 9cbf
00000110: 5e4a afbd b469 eebe 57f2 e73d 2d79 8bbd
00000120: 71d5 613f c32d a6be b819 d73e b330 86bf
00000130: 8c32 633f e50a 03c0 bbd5 fe3e c8ad 46be
00000140: 858c 9d3f c810 38bf 19fd cabe 5c24 8e3e
00000150: dd78 c0bf 48e3 e6be cb96 94bb a57f 91bf
00000160: c57b 423e a44b 3d3f 4034 00bf cf02 223f
00000170: b253 a23f cb51 763e b59b 9bbe a481 2bbe
00000180: 8e3c 9c3e a723 a5be 99d4 1440 8c3f 853f
00000190: d65a 08bf 4bcf 7fbf 99c3 60bf 0739 df3f
000001a0: 5dff 1440 10ef 803f ab0f fcbf 50a9 b4bf
000001b0: a6a4 3abe 366b c43a 9b17 6abd 22b3 ad3c
000001c0: b3a7 edbd 6884 523e b82a 56bd 9e7a 1ebe
000001d0: 7393 b3bd 711a 92bb e35b 3d3e d21d a6be
000001e0: e916 d4bd 612a b9be e5a8 a1ba 4fe8 63bd
000001f0: b93c d1be bc6f 80be d3b7 bcbe d316 5cbd
00000200: 21a9 46bf 2aa2 debe beda a2bd bd7f 52bf
00000210: 3b7c ccbf f36f 583f d0f6 93bd 0251 4abe
00000220: d7bf ddbf 28f6 243e f73d 353f cfd4 383e
00000230: e180 943f 3009 e5be 7568 9ebe 4a87 3fbf
00000240: bfbf b0be c961 80bf e988 11bf 0b13 47bf
00000250: b1e8 c3bc 5104 83bf 2d0c d5be 77fe 86be
00000260: 4a62 73be 2128 863b 17a6 6bbd a6e3 80bd
00000270: 0ca7 953d 3835 f3bd c401 9e3d 34e3 923b
00000280: c24b 4e3c 6206 2a3c 7223 f23e b3b4 b03f
00000290: 6bbf eabe 290d 4cbf e8ed cfbe 4446 8bbe
000002a0: 4131 013f 8031 f9bd ac14 17bc 155b 8dbc
000002b0: 0674 c63d a6b2 0abd 7a9e e8bd 7e2a 2bbd
000002c0: f9cf 933d b563 a03c 19ae 31bc 5a29 253c
000002d0: 5b39 b4bf d296 b0be f017 d1bf e0d2 37bf
000002e0: a33d 3bbe 6ce7 b6bf f66d 72bf cc60 67bf
000002f0: aa39 cfbf 0562 93be 1f14 a13f bec1 c7be
00000300: aece 11bf aa3f a53d 6376 1dbf 2998 eabe
00000310: 150d 843f feee c1be cbdd 18bf 5e5b 7a3f
00000320: 7ed8 91ba 7936 bfbe 5cfa 22bf 886c 76bf
00000330: fca8 b0bf ba2f 6e3f 5612 573f 8a56 843d
00000340: f4ec 70be 1abb 993e 8ea4 34bf 2496 07bf
00000350: 438a 09c0 c27c 213f 306a 01be 4911 ed3e
00000360: 8b1d 9dbf 0ae4 87bf d10a 073e 2fb7 10bf
00000370: 142c fa3f cf82 d43e fbd5 b83e d196 09c0
00000380: c85d 4c3f a5c2 7e3d 423f c8bd 44fa 403d
00000390: 6e95 04be b0bd 0cbd c2fc 0cbe 28fb 8fbd
000003a0: 7a26 813d fee8 1fbe 12ba 253f 7eb4 18bd
000003b0: 4145 b9be b72d 47bf 24b2 46bf e73a 173f
000003c0: 44b4 74bd 480d 45bf 2761 ed3f d606 94bd
000003d0: e250 8abb 76f1 9ebc a90c 6fbd 8072 80bd
000003e0: 29db 463c 9356 3c3b c093 a3bd 206c 84bd
000003f0: 95a6 20be 18a6 1c3f 1b75 123e 5a10 cb3e
0.004165773 0.0053137257 0.026806828 0.020300101 -0.19411238 -0.07654517 0.05750049 0.084395155
0.10238861 -1.7343398 0.45625535 -1.028572 0.87446606 -0.6088345 -0.15150228 -0.60225195
-0.019095633 0.11493451 -0.94167894 -0.041462302 -0.7704076 0.2628997 0.108191065 -0.73094445
-0.2959658 -0.18454614 0.62560093 -0.3620276 0.19480418 -0.6236025 1.9839728 -0.60602295
-0.87833023 -0.19510306 -0.84624505 -0.3867593 -0.24899232 -0.23543857 -0.459742 -0.0910472
-0.10507001 -0.37950185 -0.32951567 -0.10845422 -0.21660613 0.52324593 -0.08665317 1.0391748
0.06517072 -0.33810958 -0.41251454 -2.09008 -2.3651602 -0.53014195 0.50502825 0.6044619
0.7749317 -0.13300633 -0.86646414 0.1921617 0.20456456 -0.07602186 0.3830053 -1.3866602
-0.2605993 -0.24053714 0.25215822 -1.2259603 -0.08559106 -0.4656502 0.113255195 -0.06810222
0.8821631 -0.32456788 0.4201181 -1.0483612 0.88749003 -2.04754 0.49772438 -0.1940223
1.2308508 -0.71900606 -0.39646223 0.27762115 -1.5036885 -0.45095277 -0.0045345775 -1.1367079
0.18992527 0.73943543 -0.5007973 0.63285536 1.2681792 0.24054639 -0.30392233 -0.16748673
0.3051495 -0.32253763 2.325476 1.0410018 -0.53263605 -0.9992568 -0.8779846 1.7439278
2.3280861 1.0072956 -1.9692281 -1.411417 -0.18226871 0.0014985565 -0.05715142 0.021203581
-0.11604252 0.20558321 -0.052286834 -0.15476462 -0.08768358 -0.0044587185 0.18492083 -0.32444626
-0.10355932 -0.36165145 -0.001233366 -0.05564147 -0.4086664 -0.25085247 -0.36858997 -0.053732704
-0.7760182 -0.43483096 -0.07951878 -0.82226163 -1.5975412 0.8454582 -0.0722481 -0.19757465
-1.732417 0.16109526 0.70797676 0.1804993 1.1601831 -0.44733572 -0.3093907 -0.7481581
-0.3452129 -1.0029842 -0.56849533 -0.7776343 -0.023914667 -1.0235692 -0.41610852 -0.26366016
-0.23767963 0.004094139 -0.057531442 -0.062934205 0.07307252 -0.11875385 0.077151805 0.004482651
0.012591304 0.010377498 0.47292668 1.3805145 -0.45849165 -0.7970758 -0.40611196 -0.27202046
0.5046578 -0.121676445 -0.009221237 -0.017255345 0.096900985 -0.03386178 -0.11358352 -0.04178857
0.07217402 0.019578794 -0.010844731 0.01008066 -1.4080003 -0.34490067 -1.633543 -0.71806145
-0.18285231 -1.4289374 -0.9469904 -0.90382075 -1.6189473 -0.2878572 1.2584265 -0.39015
-0.56955993 0.080687836 -0.6150877 -0.45819214 1.0316492 -0.3787765 -0.5971343 0.97795665
-0.0011127142 -0.37346247 -0.6366327 -0.96259356 -1.380157 0.93041575 0.84012353 0.064618185
-0.2352789 0.3002556 -0.7056359 -0.5296347 -2.1490638 0.6308099 -0.12638164 0.4630225
-1.2274641 -1.0616467 0.1318772 -0.56529516 1.9544702 0.4150605 0.36100754 -2.14983
0.798306 0.062197346 -0.097776905 0.047113672 -0.12947628 -0.034360588 -0.13768294 -0.07030326
0.06306167 -0.15616223 0.64737046 -0.037281506 -0.3618565 -0.7780413 -0.7761557 0.5907425
-0.059742227 -0.7697339 1.8545274 -0.07227866 -0.0042210678 -0.019402247 -0.058361683 -0.06271839
0.012137213 0.0028738126 -0.079871655 -0.06465936 -0.15688546 0.6119094 0.14302485 0.39660913

module.inc.conv.conv.3.bias f4 [32]
00000000: e395 61bd 8ae4 b1bd c0ab 013d 5fe5 17bc
00000010: 1c7a 9c3d 92ad eebd d61e 543d 4d69 423c
00000020: 69e9 21bd 924c ddbd 78da 53bd a404 433c
00000030: ff8b 6a3c 334f b13c e0a0 7d3d 74ed 9cbc
00000040: f965 d4bd 302e 483d d9df 9e3d 79a1 6e3b
00000050: 9920 9cbc 750b 933d b1c1 0abe 1130 20bd
00000060: 704b 0fbe 3b48 85bb ce27 17bd 2a7c f5bd
00000070: 462a cbbc bc52 663b 7086 e53d b276 213e
-0.055074584 -0.086861685 0.031657934 -0.009270995 0.07640478 -0.116542 0.05178722 0.011865926
-0.039529238 -0.1080562 -0.05172202 0.011902962 0.014315604 0.02164421 0.061921 -0.019156195
-0.10371012 0.048872173 0.07757539 0.0036412163 -0.019058513 0.0717992 -0.1355045 -0.03910834
-0.13993621 -0.0040674484 -0.036903195 -0.11986573 -0.024800431 0.0035144528 0.112072825 0.15767935

module.inc.conv.conv.4.weight f4 [32]
00000000: 2974 2440 f834 2440 4c56 0440 0d16 0340
00000010: 697e 0340 301c 4f3f 8710 1940 91eb a33f
00000020: d026 1440 62c5 ee3f 0f66 ef3f d934 0340
00000030: 70fa 0340 173f ef3f 09a3 0340 adfb e33f
00000040: 7d76 463f e1e9 1a40 5ab3 0a40 db69 4a40
00000050: d8d2 0840 1ec8 2340 0e75 1740 f47d 1940
00000060: 59e9 a33f 5850 1340 76cc 1b40 e338 593f
00000070: 3493 3b40 3344 d83f 4e4a 1240 95e9 1f40
2.5695899 2.565733 2.0677671 2.0482209 2.0545905 0.80902386 2.3916337 1.2806264
2.314869 1.8653986 1.8703021 2.0501006 2.0621605 1.8691128 2.0568259 1.781118
0.7752455 2.4205248 2.1671968 3.162711 2.137869 2.5590892 2.3665195 2.3983126
1.2805587 2.3017788 2.4343543 0.8485243 2.9308596 1.6895813 2.2857852 2.4986317

module.inc.conv.conv.4.bias f4 [32]
00000000: c616 0cbd fc74 273f dddf 553c 6f56 70bd
00000010: 4769 89bc c894 b1bf dbb9 c93e dae4 593d
00000020: 601e 003e 1c98 813e 0213 b13c a08a b6bd
00000030: 1ba3 5f3e bc4a 8d3d 166b a93e 286e 87bb
00000040: bec4 9dbe e461 b83d 4f54 823d 3a05 adbb
00000050: 97d8 133d ff06 573e 5cbe 403f 035f 923e
00000060: d4b8 5cbd 529b 413e 8bd6 443e 9fbd 6bbe
00000070: fc18 f6bb 53a0 96bd 735a 0c3e 2c4d 6e3e
-0.034201406 0.6541288 0.013053861 -0.05867618 -0.016773833 -1.387353 0.3939961 0.053196765
0.12511587 0.25311363 0.021615509 -0.08913159 0.21839564 0.0689902 0.33089513 -0.0041330047
-0.30814165 0.09003046 0.06363737 -0.005280164 0.036095228 0.20998763 0.75290465 0.28588113
-0.053887203 0.18906906 0.19222467 -0.23021553 -0.0075103026 -0.07354798 0.13706379 0.23271626

module.inc.conv.conv.4.running_mean f4 [32]
00000000: 404e 54bf bdb8 bac0 29bc 0dc1 fe00 e4c0
00000010: 8208 b6c0 1e8c df41 32f4 00c1 d750 11c2
00000020: b34c adbf bf9e 69c0 a74e 56c1 b562 2ec1
00000030: 336c 9ec0 b7e2 67c1 8e3e cec1 f904 f7c1
00000040: cc4e 4ec1 70b6 1bc1 48a6 87c0 d49c 8fc1
00000050: d27c 853f 4e0b 6640 abe7 25c1 0aaa 17c1
00000060: c87b e0c1 aedb abc0 25b7 50c1 4359 333f
00000070: 3164 14c1 27a3 9040 7556 cec0 bd19 d7c0
-0.829319 -5.835051 -8.858438 -7.125121 -5.6885386 27.943417 -8.059618 -36.328945
-1.3539032 -3.650314 -13.394202 -10.899098 -4.950708 -14.49285 -25.780544 -30.877428
-12.8942375 -9.73204 -4.239048 -17.951576 1.0428717 3.59444 -10.36906 -9.479013
-28.06044 -5.3705664 -13.044713 0.7005808 -9.274461 4.519916 -6.448054 -6.721892

module.inc.conv.conv.4.running_var f4 [32]
00000000: a8fd 8842 e60f 9d42 7116 ad42 8d5f 9d42
00000010: ba57 dd42 0aea 0342 c63c 9342 a154 f442
00000020: 3d14 b142 5f49 7742 022f 9b42 ce5b 8a42
00000030: 6140 8c42 2a2d e142 f958 3143 b0ab 3743
00000040: ac35 a242 0eaa eb42 6823 de42 3a7a f042
00000050: 1439 c142 c6be a842 e430 e542 95d6 ad42
00000060: 3ebc c042 8007 7b42 d30e dc42 2091 4242
00000070: a1dc cf42 7fb5 3f42 1d88 d142 dc0f 6e42
68.49542 78.53105 86.54383 78.68662 110.67134 32.978554 73.6187 122.16529
88.53953 61.82165 77.59181 69.179306 70.12574 112.58821 177.34755 183.67065
81.10483 117.83214 111.06915 120.23872 96.61148 84.372604 114.59549 86.919106
96.36766 62.757324 110.02895 48.641724 103.930916 47.927242 104.76585 59.515488

module.down1.mpconv.1.conv.0.weight f4 [64, 32, 3, 3]
00000000: 83b5 af3e e195 bdbe 3443 923f ff7b a7be
00000010: e462 b23e fc40 87bf 78b3 413f 0857 71bf
00000020: bc87 353f 20ac 1a3f 2627 b0bf e801 793e
00000030: fc8c 8e3f 3728 173f 79e8 91be 6583 903f
00000040: 6d64 0b40 81d0 bdbf f882 a73d 7cf9 bfbd
00000050: ea45 903f 85be 483d 7f2f 6f3e 048a 9b3f
00000060: cfe2 d13e c5e7 d1be 943d 3bbf 2afc 573f
00000070: 0d50 813e 6f56 3abf a13c 10bd a50b ffbd
00000080: 0076 8f3e 5e33 cabe a46c 5cbe c1b2 3b3f
00000090: 6b75 42bf f88c 03c0 d8ea 43bf c77b 5f3e
000000a0: d44f afbf fe4a 943d 6728 f1bf 4bcc bdbf
000000b0: 12a4 2dc0 5e36 8e3e 93d2 29bf 3e27 0dbf
000000c0: 2f3f f9bf d746 3b3f 287a b2bf 9587 0cc0
000000d0: 2928 cabf 533a 26c0 180a 61bf 7c37 973e
000000e0: 78ef 8abf 7fe7 503e 4eb2 84be 5b77 3c3e
000000f0: 7607 d73e f52a 37bf 3caf 913f b58a be3e
00000100: 5431 953e e0fc d73f 4b20 e2be d895 07bf
00000110: 864f 58bc 7d97 f1be 2f9e 53bf e540 bcbf
00000120: e138 a93f 0f22 a03f 4ed3 4d3f a221 49bf
00000130: 06db 283f cfbd 71be f77b 4bbf 7652 fd3d
00000140: b091 1ebf a4f8 523e 1376 12bf e19e cabf
00000150: 94a0 1fbf 4908 4b3f 927f 183f 8b60 273f
00000160: 0c07 d1be 4ede e2bd 8f26 b6bf cdd2 a9bf
00000170: 15f7 d43e f885 e33d b7bd f3bf cf20 10bf
00000180: 34d8 8b3e eea5 9abf 44d6 5dbf 6293 113f
00000190: 1010 213f 08d4 6bbc 5449 3f3f 7fca 66bf
000001a0: f33a 4ebf a8ef fbbe 5a34 7e3f 480b 9f3f
000001b0: 0830 9e3f eb2a c0bf 0725 13be 4644 78bf
000001c0: 23ef 4d3f 78a2 9b3e c915 5dbe f7c4 043e
000001d0: 99d2 e83d 3d53 53bf 08d9 1cbe e57b 6fbf
000001e0: 5813 90bf 8c6c 29bf 9687 833f d7f8 1bbf
000001f0: c912 a93e e8f4 a03e 78bc e73f 9536 e63e
00000200: 2cc8 5d3f fa04 d13d 7ad7 3e3f 8a78 1e3f
00000210: 9975 433e bb0f c0be 74c0 45bf 7e6d 85be
00000220: da3f 783f beaa 893e 7fea 90bf 27ef c83b
00000230: 80b0 8f3e 13be 16c0 7581 98bf 28f8 2dbf
00000240: fcba b3bf b9ee fabf cd84 15c0 3ba6 f83d
00000250: 1ed6 11bf a425 5abf becb 2e3f 10e6 88be
00000260: 7c5a fe3c 109b d5be 273a 373e 6d74 85bf
00000270: 8077 00bd d52d cf3f 9f22 95bf dcc2 40bf
00000280: 1bc0 4b3f 6fed 8ebe 5d31 50bf 3992 2fbf
00000290: 9715 8abf 860a 1e3d 1161 d5bf 2ec7 9bbf
000002a0: f1ea 5ebf a86e 103f 068b b03e dc6b 2a3c
000002b0: 9a00 93bd 9477 c9bf 9c3b e13e 2ed1 373e
000002c0: 6fe2 153f 377d 3d3e 0391 1240 5396 ecbf
000002d0: 6008 a73f faa8 b33f cbb2 533f 2a9b 08bf
000002e0: 15b9 953d ab0e 00be 3b00 debe 3a25 ca3f
000002f0: 3679 883f afb0 8b3f 1e6e babf 984e 71be
00000300: c32b 36bf 22ae 16bd 7279 d33f 086a 2ac0
00000310: f8ea 803d 5195 e33f b07e 313f ae7c 81bf
00000320: 8028 a53f 896c 003f dff3 2b3d 66b5 f63f
00000330: 84dc f4bf d66e 83be 59aa 4bbf 232b 343f
00000340: 4a8c 90bf 1512 94bf 348b 9abe 65a4 ddbf
00000350: 02fc 303f e8d7 863f 29b9 353e 3a3f 2dbf
00000360: 1b02 563e 71d4 763f 0e6e b73e c18b 3d3d
00000370: 0c87 163f fa91 5c3b 9247 ac3f bad0 20bf
00000380: f866 153f 88c3 ff3f c611 ec3e 1306 21bf
00000390: 92a1 d3be 0313 a93e d095 94be b8f0 ca3e
000003a0: 8923 e83f c54e 8cbf f5e5 243f d7be 033f
000003b0: 3a0a 3c3f 17a3 c63f 8e7b e5be d484 96bf
000003c0: 7101 d63e c9d6 063f 27f8 983f 7f28 013e
000003d0: 5446 1fbf d91b 67bd 1193 e0be 07ab 0fbf
000003e0: fb48 983d cf78 953c d907 95bf 9357 973f
000003f0: 9f4e 873f b2d4 35c0 982c 883e 0cf5 c1be
0.3431817 -0.3702841 1.1426759 -0.3271179 0.34841073 -1.0566707 0.7566447 -0.94273424
0.7091024 0.6041889 -1.3761947 0.24317133 1.1136775 0.5904574 -0.28497675 1.1290098
2.1780045 -1.4829255 0.08179277 -0.09373757 1.1271336 0.04900982 0.23357962 1.2151494
0.40993354 -0.4099714 -0.73140836 0.84369147 0.25256386 -0.7278814 -0.03521407 -0.12453393
0.28019714 -0.39492315 -0.21525818 0.7331963 -0.75960416 -2.055479 -0.7653022 0.21824561
-1.3696237 0.07240866 -1.8840455 -1.482797 -2.713139 0.27775854 -0.66336936 -0.55138004
-1.9472407 0.7315497 -1.3943529 -2.1957753 -1.5793506 -2.5973098 -0.87906027 0.2953452
-1.085433 0.20400809 -0.25917286 0.18404905 0.4199788 -0.7154992 1.1381602 0.372152
0.29139197 1.6874046 -0.44165263 -0.5296302 -0.013202554 -0.4718589 -0.82663244 -1.4707304
1.3220483 1.2510394 0.8040055 -0.78566945 0.65959203 -0.23607562 -0.7948603 0.12369244
-0.6194105 0.20602661 -0.57211417 -1.5829736 -0.623544 0.7930952 0.59569657 0.6538169
-0.4082569 -0.110775575 -1.4230517 -1.3267456 0.4159476 0.11109537 -1.9042271 -0.5630006
0.27313387 -1.2081888 -0.8665507 0.56865513 0.62915134 -0.014393814 0.74721265 -0.90152735
-0.805587 -0.4920628 0.9929863 1.2425318 1.2358408 -1.5013098 -0.14369594 -0.96979177
0.8044302 0.3039739 -0.21590342 0.12965761 0.11368293 -0.82548887 -0.15317166 -0.93548423
-1.1255903 -0.66181254 1.0275753 -0.60926574 0.33022144 0.3143685 1.8104391 0.44963518
0.86633563 0.10206027 0.7454754 0.6190268 0.19087829 -0.37512 -0.77246785 -0.26060098
0.9697243 0.26888078 -1.1321563 0.006132025 0.28064346 -2.3553512 -1.1914507 -0.6795678
-1.4041438 -1.9604102 -2.3362305 0.12141081 -0.5696734 -0.85213685 0.68279636 -0.26738024
0.031049006 -0.41719866 0.17893277 -1.0426155 -0.031363964 1.6185862 -1.165119 -0.7529733
0.79590005 -0.27915522 -0.8132532 -0.68582493 -1.0787839 0.038584255 -1.6670247 -1.217016
-0.8707724 0.5641885 0.34481066 0.010401692 -0.07177849 -1.5739617 0.4399079 0.1795089
0.58548635 0.18504797 2.2901008 -1.8483375 1.3049431 1.4035943 0.8269469 -0.5336176
0.07310692 -0.12505595 -0.4335955 1.5792611 1.0661991 1.0913295 -1.4564855 -0.23565137
-0.71160525 -0.03678716 1.6521437 -2.6627216 0.06294817 1.7779943 0.69333935 -1.0116174
1.2902985 0.5016561 0.04198062 1.9274108 -1.9129796 -0.256705 -0.79556805 0.7037832
-1.1292813 -1.1568018 -0.3018433 -1.7315794 0.69134533 1.0534639 0.17746414 -0.676746
0.2089924 0.9641791 0.35826153 0.046275858 0.58799815 0.0033656345 1.3459342 -0.6281849
0.5836024 1.9981546 0.4610731 -0.62899894 -0.41334206 0.33022317 -0.29020548 0.3963678
1.8135844 -1.0961539 0.64413387 0.51463073 0.73453104 1.5518521 -0.44820827 -1.1759286
0.41797975 0.52671486 1.195073 0.12613104 -0.6221669 -0.056423042 -0.43862203 -0.5612034
0.07435795 0.018246083 -1.164302 1.18236 1.0570868 -2.841107 0.26596522 -0.37882268

module.down1.mpconv.1.conv.0.bias f4 [64]
00000000: 88b8 79bd d835 e3bd 00b5 24be d4ac 4abd
00000010: 65e8 4cbe 8936 b2bd e6dc 933d 8de7 b83c
00000020: 1bf2 613d 0a3f bcbd 4913 a3bd a3c0 903c
00000030: d8ce f6bd d491 6b3c bb92 3b3d cf0b abbc
00000040: 7588 a63c d4da 15be 742f 1dbe 8a9b d6bd
00000050: edb3 903c 0559 ac3d f2b4 d1bd 0d30 abbd
00000060: 4034 29be b670 f9bd c41e 34be 54de 1dbe
00000070: 53a8 ec3d 0e59 06ba af53 cf3b 1c94 b43c
00000080: d1ef 88be d701 57be 4c17 c8bd 2906 aebc
00000090: 7e38 ae3b d806 6d3d 02bf 053d 4846 2c3d
000000a0: 5e11 923d c075 cabd 2416 04be 7c61 83bd
000000b0: fa16 873e 63f6 213d 5180 12bd 6c3a 4ebe
000000c0: c8bc 10be f534 0bbe d94e ca3d 86d6 323d
000000d0: 8a1d 08bc aa18 c3bd 981b 043e 0634 4c3d
000000e0: 8a27 f6bd 220a 6f3e 6d40 88be aae8 ccbd
000000f0: a74a c03c 5524 03be 813e 6d3e 832f 30be
-0.060967 -0.11094254 -0.16084671 -0.049481228 -0.20010526 -0.08701808 0.072198674 0.02257135
0.05516253 -0.09191711 -0.07962663 0.017669981 -0.12051171 0.01437803 0.04579423 -0.020879654
0.02032874 -0.14634258 -0.15350133 -0.104788855 0.01766392 0.08415417 -0.10239591 -0.08358774
-0.16523838 -0.12179701 -0.17589861 -0.15416843 0.11555543 -0.00051249645 0.0063271145 0.02204328
-0.26745465 -0.20996796 -0.097700685 -0.021243172 0.005316793 0.057867855 0.032652862 0.042059213
0.07132219 -0.0988574 -0.12899071 -0.06415078 0.26384717 0.039541613 -0.035766903 -0.20139474
-0.14134514 -0.1359442 0.0987832 0.043661617 -0.008307824 -0.09526189 0.12901151 0.0498543
-0.1201926 0.23343709 -0.26611653 -0.10005315 0.023473097 -0.12806828 0.23168375 -0.17205624

module.down1.mpconv.1.conv.1.weight f4 [64]
00000000: 7e23 a83f 7f12 983f 90a2 573f 9a0d ac3f
00000010: c5cf db3f 3bc5 e53f 09a8 9f3f 6c9a b03f
00000020: 14c8 e93f f20d 9b3f 565f 6b3f d669 d03f
00000030: 97f6 903f 1b0e 0bb9 f7cf 943f c6cf 923f
00000040: bfe6 cf3f 30ae ba3f 4f25 8f3f 0570 af3f
00000050: 8cbf b73f d67d af3f 281d bc3f 2ac8 e43f
00000060: 018d ce3f 245b 7d3f 53a4 763f 67bc 0040
00000070: f45b b73f 0cc3 633f 7fe7 b83f efa1 c439
00000080: ac55 d03f 8875 bc3f c31e cf3f 7078 b43f
00000090: a504 983f 323f a03f eabc a73f 28f5 b83f
000000a0: 3a28 d03f b638 9d3f 2bc3 1c3f 4b77 e13f
000000b0: f60c bf3f a96e fd3f a310 c93f a583 a03f
000000c0: ab59 503f 8047 d53f 3824 a43f b9f4 c93f
000000d0: b9e1 cd3f 605c 463f fdc5 b43f db59 d43f
000000e0: 0cef ef3f 5fe1 993f eb4c fb3f de82 ed3f
000000f0: a80e 6c3f 3f72 913f 07bf a13f de20 f53f
1.3135831 1.1880645 0.84232426 1.3441651 1.7172781 1.7950815 1.2473155 1.3797126
1.8264184 1.2113631 0.91942346 1.6282299 1.1325253 -0.00013261328 1.1625966 1.1469657
1.6242293 1.4584408 1.1183261 1.3706061 1.435533 1.3710277 1.4696398 1.7873585
1.6136781 0.98967195 0.9634449 2.0114992 1.4324937 0.8896949 1.4445647 0.00037504683
1.6276145 1.4723368 1.6181263 1.4099255 1.1876417 1.2519286 1.3104527 1.4449816
1.6262276 1.2282932 0.612353 1.761453 1.492583 1.9799396 1.5708202 1.2540175
0.8138682 1.6662445 1.2823553 1.5777808 1.608451 0.77484703 1.4122921 1.6589922
1.8744826 1.2021903 1.9632849 1.8555562 0.92209864 1.136299 1.2636422 1.9150655

module.down1.mpconv.1.conv.1.bias f4 [64]
00000000: fd6d 0cbf a150 3ebf 6476 70bf 8882 82bf
00000010: cf59 ffbe 1f97 6bbf cfdb 85bd 3d39 b8be
00000020: 59df 14bf 8370 833d 39ea babf fb1c 2dbf
00000030: f346 15c0 3090 89bd f74b d03e adba c2bf
00000040: 6e1c 0abf ff5e 88bf 6945 87be d7b1 02c0
00000050: c680 28bf 0479 26bf 5f23 0ebf d614 a1ba
00000060: 286d 5cbf 3dac dbbf f14d aabf 81f6 62bf
00000070: 8d19 a1be 14bf 53bf 1ca9 81be 8110 02be
00000080: 03d5 a4bf a525 f1be f936 55bf 4928 2d3e
00000090: b849 39be 1ee4 18bf cdb1 dcbe 2ba1 93be
000000a0: 4fbc 223e 2b25 5cbf ed28 50bd 1956 1abf
000000b0: d39f 7bbd 0ca8 74bf d1e5 04be 96f3 b3bf
000000c0: fb8c 97bf 15d1 8bbf 977e d83d bec0 3cbf
000000d0: b191 90bf 9676 9cbe 82dd 733e 6ac2 91be
000000e0: 47d4 c5be ec76 2d3f 473b 72bf ed78 2abf
000000f0: 7870 aabc d718 093d 7685 593e 05b2 fbbe
-0.5485533 -0.7434178 -0.9393065 -1.0196085 -0.49873206 -0.9202747 -0.06536066 -0.3598117
-0.581533 0.06417944 -1.4602729 -0.67622346 -2.3324554 -0.06716955 0.40682957 -1.5213219
-0.5394963 -1.065399 -0.26420143 -2.0421045 -0.6582149 -0.65028405 -0.5552272 -0.0012289535
-0.8610406 -1.7161938 -1.3305036 -0.88657385 -0.31464806 -0.8271344 -0.25324333 -0.12701608
-1.2877506 -0.47099033 -0.83287007 0.16909899 -0.18094528 -0.5972308 -0.431044 -0.288339
0.15892147 -0.85994214 -0.05082028 -0.60287625 -0.061431717 -0.9556892 -0.12978293 -1.4058712
-1.1839899 -1.0923182 0.1057102 -0.737316 -1.1294461 -0.30559224 0.23814967 -0.2846864
-0.38638517 0.67759585 -0.946217 -0.6659077 -0.020805582 0.033470955 0.21242318 -0.49159256

module.down1.mpconv.1.conv.1.running_mean f4 [64]
00000000: e28b 2fc1 c68d 78c2 845a cac1 b4c5 cb41
00000010: 124e f1c1 846b 19c2 12f0 32c2 d292 00c2
00000020: 33cc bec1 4a77 39c2 e1de c9c1 95a4 45c2
00000030: 4d10 30c1 2bb7 c5bf 7649 d9c1 a0d5 2842
00000040: a46a 50c2 92db 12c2 cecf ddc1 53ae e4c1
00000050: 04aa 03c2 b066 28c2 a483 4ec2 64e6 2cc2
00000060: ae54 46c2 a239 4241 419e 1142 d2b5 74c2
00000070: 4cfd 04c2 bedd 17c2 fd19 b340 0518 9dc1
00000080: af8d e0c1 17a2 89c0 2cfa 1ac2 b864 dcc1
00000090: 8714 3141 8d75 b9c1 704e b0c1 c583 82c1
000000a0: 3ec9 14c2 d0e4 86c2 92a7 2842 514a 90c1
000000b0: 55c3 b8c1 4936 1ec2 8de3 6cc2 f002 00c2
000000c0: d5c2 7241 b00c 82c1 217e d6c1 be96 9ac1
000000d0: 72bf bac1 6b21 eac1 fe16 a9c1 7519 3ac2
000000e0: cf55 52c2 dbc7 0ac2 b9b8 2ac2 7b64 dfc1
000000f0: de0c bcc0 5c48 02c2 10d7 3bc1 6cb9 46c2
-10.971651 -62.13845 -25.294197 25.471535 -30.16312 -38.354996 -44.734444 -32.14338
-23.849707 -46.366493 -25.233828 -49.410725 -11.00398 -1.5446523 -27.16087 42.20862
-52.10414 -36.714424 -27.726467 -28.58512 -32.91603 -42.10028 -51.628555 -43.22499
-49.582695 12.1390705 36.404545 -61.17756 -33.24736 -37.966545 5.5969224 -19.636728
-28.069181 -4.3010364 -38.74431 -27.54918 11.067512 -23.182398 -22.0383 -16.31434
-37.196526 -67.4469 42.163643 -18.036287 -23.095377 -39.553013 -59.222218 -32.00287
15.172566 -16.256195 -26.811586 -19.323605 -23.34348 -29.266317 -21.136227 -46.52486
-52.583797 -34.69517 -42.680393 -27.924063 -5.8765707 -32.570663 -11.7400055 -49.681076

module.down1.mpconv.1.conv.1.running_var f4 [64]
00000000: 7031 ae43 0cc9 3344 c04e de43 3ff1 9a43
00000010: 8a1f d843 0946 b843 6fef dc43 05f8 a543
00000020: d2a9 f043 db3e a843 e494 fe43 d526 a943
00000030: 04ca a043 7fd3 f640 4ad6 9a43 1dc1 b143
00000040: 361a df43 9af7 a543 7406 8a43 15d2 8743
00000050: 09a9 bd43 351e 9d43 7bee bf43 907f aa43
00000060: 0f74 cb43 753c c343 ed64 8e43 136f b743
00000070: 18b9 fa43 f40f 0d44 bd3f a343 171b 5641
00000080: 093e d243 bf5e a743 909d 9243 dbef 8e43
00000090: a1c0 9043 5a01 9344 9e7d e543 9871 8d43
000000a0: c133 cd43 1110 1244 a42c 6143 0eae 9743
000000b0: 56ec f543 618a 8543 4f5f cd43 8ea1 9f43
000000c0: 59e9 8c43 25b1 c043 75c2 1044 4de5 9843
000000d0: 4580 9e43 3dfc ad43 dcaf ae43 baae c643
000000e0: f864 f743 e03f a643 f692 b343 6ee4 6d44
000000f0: eee0 f443 3306 c143 22e4 b843 eb8d e243
348.38623 719.14136 444.61523 309.88474 432.2464 368.54715 441.87057 331.93765
481.32672 336.49106 509.1632 338.30338 321.57825 7.7133174 309.67413 355.5087
446.20477 331.9344 276.0504 271.64127 379.3206 314.236 383.86313 340.99658
406.9067 390.47232 284.78848 366.86777 501.44604 564.24927 326.49796 13.381614
420.48465 334.7402 293.23096 285.87387 289.5049 1176.0422 458.98138 282.88745
410.40433 584.25104 225.17438 303.3598 491.84637 267.0811 410.7446 319.26215
281.82303 385.38394 579.0384 305.7914 317.0021 347.9706 349.3739 397.36505
494.78882 332.49902 359.14813 951.5692 489.75726 386.04843 369.7823 453.10873

module.down1.mpconv.1.conv.3.weight f4 [64, 64, 3, 3]
00000000: 2bf5 2b3f 9dfa 54bf 2119 4dbf 0e38 d93f
00000010: 1428 27c0 9e2c 7bbf e20f 5d3f ce1d 5a3f
00000020: 51b6 af3f f842 cebf d842 81bf 0769 2cbf
00000030: 1979 883f ff67 6dbf e5e8 6c3f b7a3 0a3f
00000040: 923f ad3e 9214 873f eeb2 8abf b4c9 093e
00000050: 5431 d43e f526 2cbf 7516 843b b5df d33f
00000060: 8563 813f 4c1d 7cbf d532 0740 4c80 95bf
00000070: 590c ae3f 9669 673e c3d9 75be ee7a 0440
00000080: 1cc5 cb3f 9ae1 39be 3b0e 5f3e 37f6 88be
00000090: f943 d7bf 613e ccbf 48b7 443f f1ec 4a3e
000000a0: 342e 31bf 0f11 0fbf 91e8 583f fa00 e7bf
000000b0: a749 853f 11ab 13c0 148e e43e 75e8 0340
000000c0: d522 023f 5260 19c0 3d74 08bf cafb 74bf
000000d0: e161 a7bf d6c6 95bf 09bd cb3f 8f0f 41bf
000000e0: 6abe 973f 7648 eb3d 028c 0cbf 931a ee3e
000000f0: 2f9f 7bbf 94a2 0abd b1c8 d33f 5333 17c0
00000100: 6eb2 bfbf 2d8e 3a3e c70c 2e3f 0ccb 4abf
00000110: e254 05bf 0828 24c0 72d2 023f d3f5 8bbf
00000120: 7010 bb3d e7a7 b8be f605 8d3f 3d24 82bf
00000130: b05f 793f 05f1 0340 7d17 69be 5212 6cbf
00000140: 8522 823f 02b3 acbf ad8e 4bbf 70c6 d6bd
00000150: 94cd 3440 0565 473f dd77 dbbe 49c7 603e
00000160: 72e4 8b3f eaea 143f 096e edbf 74a8 24c0
00000170: 1d11 d33f 61ee 283b 58ac 8fbf 187b c33f
00000180: 6a87 73be c2f6 d63d de23 793f f97e 8bbf
00000190: 8abe a63f c61a 7dbe 6e3d c23d d8e5 1240
000001a0: 1464 a13c 1b61 fdbf 945a ddbe 1f1e 9e3f
000001b0: 5f60 2cbf e9f7 d1bf 19d2 5dbe 34d3 93bf
000001c0: 139d 27c0 a7b6 f6bd 4a7f 5f3f 4c98 f4bf
000001d0: 4f8e 0bbf 50db 45bd 1050 a1bd aabc 97bd
000001e0: d4ac 11bd 1db3 d1bd b1ac d9bd 8f3b 10be
000001f0: 2619 f1bd 4d7c dbbd 0cc3 4abf 2021 0f40
00000200: da44 9dbf 9194 f6bf 1b11 343d 6fd8 debf
00000210: c590 83bf 8d35 55bf 4ed6 d63e 52d2 a9bf
00000220: 5229 0abe bd54 bfbf be09 623f f468 b2bf
00000230: 6151 22bf 4be0 1d40 d658 693f 5982 d4bd
00000240: de01 d0bd d85d b23e 1f60 b23e 9995 a43e
00000250: 5b34 1540 cc08 a03e f7d2 2abf b5c0 8a3f
00000260: 81b4 1040 bcbf d0bd e19d 163f b4ec e6be
00000270: 0238 563f 291f 2f3f 1c5f df3f 18b0 263d
00000280: 4c3a 033f 8a64 3a3f fa89 06bf 20d0 b03e
00000290: 9495 b93c 6020 14c0 5411 e03e fddd c3be
000002a0: 4582 35c0 6ba0 323f 6578 4dbf 01b2 7abf
000002b0: 1822 cfbf c22f 113f 1df8 6a3f c878 3c3f
000002c0: 5ce9 2ebf 437a b53e 1426 243f b1ed d1bf
000002d0: abbb 0ac0 83eb 5bbf 4109 a9be fddc 233f
000002e0: d3dd 34c0 349e 9bbf 970f 19bf c564 b2bf
000002f0: 8607 a73f 54ae 9dbf f7fc 133f f4b4 083f
00000300: ab97 c5bf 12e8 a9be 4a60 00bf a9b7 213d
00000310: 2d1d bfbf b009 e43f 7698 7b3c 0186 9ebf
00000320: d6f8 843f 37ad 143f 752b 373f b9e9 c43f
00000330: 4c21 3a3e 5107 773f 4a8f af3f ba5d e4be
00000340: 3f1f 683f 0d1d 5dbd 1715 b53d cc8d 26be
00000350: 27d8 af3d a1fd b53f 5d2b 02c0 cefc 2540
00000360: 7815 cfbd ed6f 5cbe 6591 32bf a0e0 2d3f
00000370: 692f e3bf d372 2e3f 5e88 6a3d 09f5 8c3f
00000380: 2cef 29be e592 2bc0 a685 f2bf fb8a 0dbe
00000390: 4310 0cc0 6601 fabf 294b 23bf fd25 9f3e
000003a0: 4e9b b4bf 52b3 b33f a3ba 373e 4eec e73d
000003b0: 398d e8bf 072d bcbf ef9d e13e e24b 2abf
000003c0: 0786 93bf 52b6 a83f c769 14c0 8338 d5be
000003d0: f98e 2d3f ffc2 41bf 4ddf 27be 789d a3bc
000003e0: 8728 2a3f ba52 e3bf 28a4 05bd d245 433f
000003f0: d15a 01c0 7b33 04c0 2e10 d83f aed9 a33e
0.6717097 -0.83194906 -0.8011647 1.6970232 -2.6118212 -0.98114955 0.8635236 0.8520173
1.3727514 -1.6114187 -1.0098524 -0.6734776 1.0661956 -0.9273681 0.9254287 0.5415606
0.33837563 1.0553153 -1.0835855 0.1345585 0.41443884 -0.67246944 0.0040309974 1.6552645
1.0108496 -0.98482203 2.1124775 -1.1679778 1.3597518 0.22598872 -0.24008851 2.070003
1.5919528 -0.18152466 0.21782772 -0.26750347 -1.6817619 -1.5956537 0.76842165 0.19816948
-0.69211125 -0.55885404 0.8472987 -1.8047173 1.0413102 -2.307316 0.44639647 2.061063
0.508344 -2.396504 -0.53302366 -0.956967 -1.3076745 -1.1701305 1.5917064 -0.75414366
1.1854985 0.1148843 -0.54901135 0.4650465 -0.9828977 -0.033846453 1.6545621 -2.3625076
-1.4976327 0.18218298 0.67988247 -0.79216075 -0.52082646 -2.5649433 0.51102364 -1.0934395
0.091339946 -0.360656 1.1017444 -1.0167309 0.9741163 2.0615857 -0.22762866 -0.92215455
1.0166785 -1.3492129 -0.7951458 -0.10487068 2.8250475 0.7788852 -0.42864886 0.21951021
1.0929091 0.5817095 -1.8549205 -2.5727816 1.6489598 0.002577685 -1.122447 1.527194
-0.23782125 0.10496284 0.97320354 -1.0898124 1.3026898 -0.24717245 0.09484373 2.2952785
0.019701041 -1.9795259 -0.43233168 1.2352942 -0.6733455 -1.6403781 -0.21662177 -1.1548829
-2.618962 -0.12046557 0.873036 -1.9108977 -0.5451402 -0.048304856 -0.07876599 -0.07409032
-0.035565212 -0.10239241 -0.106286414 -0.1408522 -0.11772375 -0.10717068 -0.7920387 2.2363968
-1.2286637 -1.9264089 0.043961626 -1.74098 -1.0278555 -0.83284837 0.41960377 -1.326731
-0.13492325 -1.4947735 0.88296115 -1.3938279 -0.63405424 2.4668148 0.9115118 -0.10376424
-0.10156606 0.34837222 0.3483896 0.32145384 2.3313205 0.3125671 -0.66728157 1.084006
2.261017 -0.101928204 0.58834654 -0.45102465 0.8367921 0.6840692 1.74509 0.04069528
0.5126083 0.7280966 -0.52554286 0.34533787 0.022654332 -2.314476 0.4376322 -0.382553
-2.836076 0.6977603 -0.8026183 -0.9792786 -1.618228 0.567135 0.9178484 0.736218
-0.6832483 0.3544484 0.641206 -1.6400663 -2.1677043 -0.8590624 -0.33014873 0.64009076
-2.826039 -1.2157655 -0.59789413 -1.3937002 1.3049171 -1.2318826 0.5780787 0.5340111
-1.543691 -0.33184868 -0.50146925 0.039481793 -1.4930779 1.7815456 0.015356174 -1.2384645
1.0388439 0.58076805 0.71550685 1.5383826 0.18176764 0.9649554 1.3715603 -0.44602758
0.9067268 -0.053982783 0.08841913 -0.16265029 0.0858615 1.4218026 -2.0338967 2.593555
-0.10111517 -0.21527071 -0.69753104 0.67920876 -1.7748843 0.6814396 0.057258956 1.1012279
-0.16595143 -2.6808407 -1.8947036 -0.13822548 -2.1884925 -1.9531677 -0.6378656 0.3108367
-1.4109895 1.4039099 0.1794229 0.113243684 -1.8168098 -1.4701241 0.44065806 -0.6652204
-1.1525277 1.318064 -2.3189561 -0.41644678 0.67796284 -0.75688165 -0.16393776 -0.019972548
0.6646809 -1.7759621 -0.032627255 0.7627841 -2.021168 -2.065642 1.6879938 0.32002014

module.down1.mpconv.1.conv.3.bias f4 [64]
00000000: 88f8 e7bd f074 acbc 819f 953d 79df dd3c
00000010: aacc 69be a99a 8cbc 01dd dcbd 2461 863c
00000020: efe1 bfbd 96fc 2abd 32ac 7d3d 517a 8dbc
00000030: 419e bd3d b2a4 8abd f37c a73b d0f1 68be
00000040: 250e f6bd 380a 00be 5699 2c3d b81d edbc
00000050: a0e5 22be 2487 0abc 8f90 cf3d a271 eb3d
00000060: 5ec0 6dbe 64f2 6ebd 7501 1dbe ba21 b0be
00000070: 25d6 843d 62a3 a9be 37bc 1cbd 4fb4 44bd
00000080: 7263 28be 5a67 e13d 9198 7abc 859f a6bd
00000090: 1770 f83c 5671 3ebe f334 32bb f2da d4be
000000a0: 1907 0ebe 1b04 053e b76b 53bd 42ee 95bd
000000b0: 4357 ffbd 3d72 09bd 10b6 80bc 627f 14bd
000000c0: 2f9c 803d 26aa b1bd 1e38 43bb 4f5d 65bc
000000d0: 3ef2 f73c 4aca 1e3d dd25 323e eb2e b0bc
000000e0: adee 8abc 3b31 10be a3a3 a4bd b042 353e
000000f0: 5761 df3d aa62 9dbd 6fbb 03be f2e8 6f3a
-0.113267004 -0.021051854 0.073058136 0.0270841 -0.2283198 -0.017163591 -0.10784341 0.016403742
-0.09369265 -0.04174479 0.061931796 -0.01727024 0.092587 -0.067696944 0.0051113307 -0.22748494
-0.120144166 -0.12503898 0.04213842 -0.028944835 -0.15907907 -0.008455072 0.10134994 0.11496283
-0.23217914 -0.05833663 -0.15332587 -0.3440073 0.06486157 -0.33132464 -0.038265433 -0.04802352
-0.16444185 0.11006041 -0.015295164 -0.08135895 0.030326886 -0.18597922 -0.0027192205 -0.41573292
-0.13869895 0.12989847 -0.051616397 -0.07320835 -0.12467816 -0.03355621 -0.015711814 -0.036254294
0.0627979 -0.08675031 -0.0029788087 -0.013999297 0.030266877 0.038767137 0.17397256 -0.021506747
-0.016959513 -0.1408128 -0.08039024 0.1770122 0.10907238 -0.07684834 -0.12864469 0.0009151838

module.down1.mpconv.1.conv.4.weight f4 [64]
00000000: 506d ae3f bed5 3d3f d6fc 1bbd 649b 933f
00000010: 2220 0f3f 71f3 2b3f f1d1 a63f df8a d53f
00000020: 1206 363f 1551 a73f cfc0 653f d9df a33f
00000030: 2558 a63f 7b27 5f3f be21 6e3f 74cf fb3e
00000040: 6569 b63f dbde a73f 9d13 803f ccbd 953f
00000050: f0bb 803e bd2b 053f 93b5 b33f fd09 c63e
00000060: 7e43 1b3f c04e 9f3f c833 2c3f b081 5d3f
00000070: 0649 e23f 5866 593f 70e2 073f 25c5 ab3f
00000080: 3ff1 dc3f fd67 2d3f f891 7a3f a33c ae3f
00000090: ef9d 61be c49e 593f eee1 9b3f 2679 063f
000000a0: 76b0 db3e 3d1f c03f 092d a63f 6a04 c93e
000000b0: 7409 293f a193 ba3b 09e1 123f 7df6 993f
000000c0: 12d8 6e3f 6ed5 933f c340 ee3e da2f f23e
000000d0: cd95 133f d012 3d3c 1311 c13f a2f0 833f
000000e0: 5dd3 7a3f 82bd 293f 1bca a03f 14c0 963f
000000f0: efdb 473f b5e7 b63f 229c 273f b815 e03b
1.362711 0.7415427 -0.03808292 1.1531796 0.55908406 0.6716834 1.3032819 1.6683005
0.7110301 1.3071619 0.8974733 1.2802688 1.299565 0.8716962 0.93020236 0.49181712
1.4250914 1.3114885 1.0005985 1.1698546 0.25143385 0.52019864 1.4039787 0.38679495
0.6064986 1.2445908 0.6726651 0.8652601 1.7678535 0.8492179 0.5307989 1.3419539
1.7261122 0.677368 0.9787898 1.3612255 -0.22032903 0.8500788 1.2178323 0.5252861
0.42908067 1.5009533 1.2982494 0.3926118 0.6603005 0.0056938683 0.57374626 1.2028347
0.9329845 1.1549509 0.46533784 0.47302133 0.5765045 0.01154013 1.5083336 1.030781
0.97978765 0.6630479 1.2561678 1.1777368 0.7806997 1.4289461 0.65472615 0.0068385266

module.down1.mpconv.1.conv.4.bias f4 [64]
00000000: ac73 95bf b5e2 5abd 1140 d0bd 7199 103d
00000010: 6f70 89be 8ff7 02be 5762 03bf f05e 91be
00000020: 85d0 133e 2af8 1cbe 88d0 8ebf c436 bfbe
00000030: a891 34be f35a 793d cfe7 97be 18de 34be
00000040: 4f08 b7bf f24a 74bf d324 f2bd 6172 74bf
00000050: 1d60 a53e a734 be3d 5230 7cbe d9f2 293f
00000060: 8d65 3bbf 246a a6be 5589 bcbd 4d03 a4bf
00000070: 3cc3 6abf d707 01bf f497 f43e 7b1d 9fbe
00000080: eba3 29bf 150f b53c 4c3e d03c b295 f5be
00000090: f673 943e 0130 e3be 9e26 44bf 3309 c0bf
000000a0: 9dc7 efbe f262 293e db8e e9be d449 9a3d
000000b0: bae9 13be f931 cebc a7f6 0c3e bf41 e4be
000000c0: d7d9 f1be fb24 fabe fec0 8f3e 0086 883d
000000d0: c9c1 083e 2ce3 3dbd 2713 13bf 7e0e afbe
000000e0: 21fe afbd 2f0d 3fbe fc9f 41bf 034e 85be
000000f0: 92d5 b7bd ff2d d7be 8172 e9be 6ed0 17bf
-1.1675925 -0.05343886 -0.1016847 0.035302583 -0.26843593 -0.12789749 -0.5132193 -0.28392744
0.14435013 -0.15329042 -1.1157389 -0.3734647 -0.17633688 0.06087775 -0.29669043 -0.17662847
-1.429941 -0.9542686 -0.1182343 -0.9548703 0.3229989 0.092873864 -0.24627808 0.6638618
-0.7320183 -0.32502854 -0.092058815 -1.2813507 -0.91704154 -0.5040259 0.4777218 -0.3107718
-0.66265744 0.022101918 0.02542033 -0.4796577 0.2899472 -0.44372562 -0.76621425 -1.5002807
-0.4683198 0.16541651 -0.45616803 0.07533613 -0.14444628 -0.025170313 0.13765965 -0.4458141
-0.4723651 -0.4885634 0.2807693 0.066661835 0.13355173 -0.046359226 -0.574511 -0.34190744
-0.08593393 -0.18657373 -0.7563474 -0.2603608 -0.08976282 -0.4202728 -0.45595172 -0.59302413

module.down1.mpconv.1.conv.4.running_mean f4 [64]
00000000: 7f2c ccc1 b4bc 66c1 7a98 7dbe a900 64c1
00000010: 1c22 15c1 c15a 42c1 e27a 9bc1 a5cb a2c1
00000020: 036e a2c1 e335 8ec1 ce2c 8cbf 4a3f 4ac1
00000030: b00a 83c0 f047 16c2 4a93 63c1 c738 94c1
00000040: 12c4 1bc1 f7ea d8c1 e274 90c1 2a12 67c1
00000050: 77fc 4ac2 1b43 fac1 ec14 e6c1 6efa 80c1
00000060: 1631 cfbf e5f3 b9c1 2ad8 5fc1 26d8 4c41
00000070: d0fa 46c1 b790 9bc1 551d b640 9b1c f3c1
00000080: 4b56 8dc1 4f86 fac1 6c78 b2c1 9bdd 7cc1
00000090: 847f 2642 3462 cec1 bdcd 20c1 731d 943f
000000a0: 6585 3fc1 cbe6 d8c1 721b 4fc1 7393 59c1
000000b0: 567d 6bc1 8067 a4c0 eea2 90c1 00c4 87c1
000000c0: ccd5 3ec1 0ed7 89c1 b0fa cbc1 50c7 14c2
000000d0: c3c5 8dc1 c004 45c0 bd2f 88c1 b3aa 8dc1
000000e0: 99c0 86c1 ba33 6ac2 fe7b b9c1 d910 fdc0
000000f0: ceff bcc1 a69f 82c1 fd84 99c1 eaf6 6b40
-25.521727 -14.42107 -0.24765196 -14.250161 -9.3208275 -12.147157 -19.435001 -20.349436
-20.303717 -17.776312 -1.0951173 -12.640451 -4.0950546 -37.57025 -14.223459 -18.527723
-9.735369 -27.114729 -18.057072 -14.441935 -50.746548 -31.282766 -28.760216 -16.12228
-1.6186855 -23.24409 -13.990274 12.802771 -12.4362335 -19.445662 5.6910806 -30.388968
-17.667135 -31.31558 -22.3088 -15.804103 41.624527 -25.79795 -10.050229 1.1571487
-11.970067 -27.112692 -12.9442005 -13.598498 -14.7181 -5.1376343 -18.079556 -16.970703
-11.9271965 -17.230007 -25.497406 -37.19464 -17.721563 -3.078415 -17.02331 -17.70835
-16.844042 -58.550514 -23.185543 -7.9083066 -23.624905 -16.327953 -19.189936 3.6869454

module.down1.mpconv.1.conv.4.running_var f4 [64]
00000000: 1dc8 ab43 a1bf 8b43 71ec 853e 87a6 ac43
00000010: 4b81 6f43 5e52 9143 c59c 9e43 7981 fa43
00000020: 0c6c a043 c87d ca43 8448 d743 a9b3 cc43
00000030: 41b2 b143 470f dd43 0403 8843 cd82 b043
00000040: e604 5143 548a 9d43 adfd 8b43 5bcc 8043
00000050: b939 cc43 fd89 a943 8538 bb43 1c4c de43
00000060: 4852 0d43 56d4 eb43 811e 6743 b430 9643
00000070: 68c7 9343 00d6 9443 8f35 8a43 3c49 bd43
00000080: 66be a843 099b 8943 837d af43 f4a1 ab43
00000090: e623 c743 6ed4 a543 78d6 8443 8cfd 7343
000000a0: 99c2 6e43 f8a7 b243 cf17 c543 952b 4643
000000b0: 33a8 8e43 6474 b640 bdc9 ae43 c5fc a843
000000c0: f4d1 7943 9d9d d643 75d2 9343 30c3 e343
000000d0: c7aa 8343 cd56 6f3f ce70 a543 48a1 5343
000000e0: 45c4 b243 242f f343 98b2 ab43 fe0c 9d43
000000f0: b22f 8143 073d 0044 fe05 7143 5136 3942
343.5634 279.4971 0.26156953 345.301 239.50505 290.6435 317.22476 501.0115
320.84412 404.98267 430.56653 409.4036 355.3926 442.11935 272.02356 353.02188
209.01913 315.0807 279.98184 257.59653 408.45096 339.07803 374.44156 444.5946
141.32141 471.65887 231.11916 300.3805 295.55786 297.67188 276.41843 378.57214
337.4875 275.2112 350.98056 343.26526 398.28046 331.6596 265.67554 243.99042
238.76015 357.31226 394.186 198.17024 285.31406 5.701708 349.57608 337.97476
249.82013 429.23135 295.6442 455.5249 263.3342 0.9349182 330.8813 211.63
357.53336 486.3683 343.39526 314.1015 258.37262 512.95355 241.0234 46.303043
