learned_models/mask/decam.pth (torch_old, 416836 bytes, 39 tensors)

module.inc.conv.conv.0.weight f4 [32, 1, 3, 3]
000000 f8 6f 80 be 81 46 49 be 9e 91 2d be ab 78 f2 3e
       -0.25085425 -0.19655801 -0.1695008 0.47357687
000010 93 64 8a 3e 49 f8 e7 3e d1 7a d7 3e e8 df f4 3e
       0.27029857 0.45306614 0.4208589 0.47827077
000020 b3 6b 59 3e cf 5c e5 3f aa dd 33 3f 0b 89 26 3f
       0.2123249 1.7918948 0.7026011 0.6505286
000030 9f ec 06 3e 8a 0e 8f be a5 d7 b1 bc 17 c3 49 3e
       0.13176201 -0.2794078 -0.021709273 0.19703327
000040 c3 57 e2 bf 49 7b a3 bf f5 af ea bc f8 40 fd bc
       -1.7683033 -1.2771999 -0.028648356 -0.030914769
000050 77 f2 4a be 4e a9 fe 3e 25 a9 5f bd 59 07 5c 3e
       -0.19819055 0.49738544 -0.05460467 0.21487178
000060 d8 85 83 3f 20 89 e5 ba 59 ab 63 3e a1 0a 05 3f
       1.0275221 -0.001751218 0.22233333 0.51969343
000070 03 b8 4a 3e 9c ec 1e 40 7e d2 9c bf 64 b6 82 bf
       0.19796757 2.4831915 -1.2251737 -1.0211911
000080 8c 6b de bb 3a 73 97 bf 53 43 4e bf 33 25 95 3f
       -0.006787723 -1.1832039 -0.8057148 1.1651977
000090 5b b1 29 3f 24 9e 1e 40 81 03 49 3f 42 80 f5 bf
       0.6628625 2.4784021 0.7852097 -1.9179766
0000a0 82 72 91 bf 34 2e 5a bf df 7f 8b bf 65 b1 ed be
       -1.136307 -0.8522675 -1.0898398 -0.46424404
0000b0 11 7d 08 3f 1a 2b 1b c0 b3 73 3f bf 84 5d e1 be
       0.53315836 -2.4245057 -0.7478592 -0.4401666
0000c0 38 d9 b4 bf 50 6e 10 3f e0 a2 0d bd 12 59 b5 bf
       -1.412879 0.56418324 -0.034579158 -1.4167807
0000d0 5f 70 1a 3f 05 56 06 bf 92 84 ae bf 3f 80 1a c0
       0.60327715 -0.52475005 -1.3634207 -2.4140775
0000e0 b0 59 1a c0 86 c7 fd bf 24 e8 38 3f 77 d1 ba 3e
       -2.411724 -1.9826515 0.7222922 0.36487934
0000f0 87 8e b6 bf 67 71 f0 3f ef c8 48 40 3b 78 4d 3f
       -1.4262246 1.8784608 3.137264 0.8026158
000100 8f 73 f8 be 25 77 72 3e 74 8e 71 bf d1 a6 ba 40
       -0.48525664 0.23678263 -0.9435799 5.8328633
000110 06 d3 02 c0 27 59 6f 3e 28 34 40 bf cf 89 7f 3e
       -2.0441298 0.23373853 -0.75079584 0.24954914
000120 80 b0 81 40 47 6f a7 3f 0b b1 c5 be c2 0a f6 3e
       4.0527954 1.3080834 -0.38611636 0.48055083
000130 78 79 c5 3c 21 92 84 bf 67 41 af bf 22 50 ce bf
       0.024105772 -1.0357095 -1.3691834 -1.6118205
000140 6d 9f ed bf 87 df bc be 67 de 88 3e 59 fa 02 3f
       -1.8564278 -0.36889288 0.2673218 0.5116325
000150 46 3d 97 be 92 94 b6 bd aa 17 31 3f da d5 cf be
       -0.29538935 -0.08915056 0.69176733 -0.40592843
000160 ee d9 9c 3e e9 f9 b0 3f 2c e5 06 3f 12 b2 c5 3e
       0.30635017 1.3826267 0.5269344 0.3861242
000170 56 97 b9 be c3 31 a6 be ff c1 a9 3e bb c8 f9 3d
       -0.36248273 -0.3245984 0.3315582 0.121964894
000180 fa 4b b0 be 89 e7 22 be 16 c4 e0 3e 02 f9 16 3f
       -0.34432966 -0.15908636 0.43899602 0.58973706
000190 e6 55 95 3c 37 34 4a 3e 54 c3 1f bc ed e3 68 3e
       0.018229436 0.19746481 -0.00975116 0.22743197
0001a0 c7 d4 f7 3d 9a 11 37 3e e8 41 7c 3e 67 6c c7 3e
       0.12101131 0.17877808 0.24634516 0.38949892
0001b0 8f f5 50 bf 62 8a 80 3f d6 2e 54 bf 90 d4 c1 3f
       -0.8162469 1.0042231 -0.82883966 1.5142994
0001c0 bd 7a fb 3f 4a 0d 32 c0 ee ee 24 3e 98 9c 78 be
       1.9646832 -2.782061 0.1610677 -0.24278486
0001d0 c4 5d a5 3e 23 40 bf bd b4 7f 23 bd 77 f3 9f be
       0.322981 -0.09338405 -0.03991671 -0.31240436
0001e0 c6 f8 af be f3 aa e4 bc e9 d5 86 bf 49 21 5b bd
       -0.34369487 -0.027913546 -1.053403 -0.05349854
0001f0 35 43 dd bc f0 07 02 bf e2 79 8c 3f d3 96 96 bf
       -0.027009586 -0.5079336 1.0974696 -1.1764778
000200 48 60 ed be c0 d4 af 3f c4 9b d4 bf 43 cb 8b bf
       -0.4636252 1.3736801 -1.6610036 -1.0921406
000210 4f d4 1b 40 1c eb 36 bf 9b ce 33 be a9 ea 9c 3f
       2.4348333 -0.714525 -0.17559282 1.2259113
000220 30 e4 20 3f 22 fe 05 40 65 ee 86 bf 1a 05 93 bf
       0.62848186 2.093636 -1.0541502 -1.1485932
000230 f7 72 55 3f fb 32 93 bf 16 1e f7 bf 36 83 de ba
       0.8337855 -1.1499933 -1.9306056 -0.001697636
000240 7c 1b ba 3e f2 c3 59 bc 52 df 0c be cc b8 00 be
       0.36349094 -0.013291346 -0.13757065 -0.12570494
000250 17 02 98 be 99 aa 5e be 2e e2 3f 3e 9d 44 b1 3e
       -0.29689094 -0.21744765 0.18738624 0.3462266
000260 f4 41 c9 3e 5a fc 97 c0 26 55 32 bf 6f 9d c0 bf
       0.3930813 -4.7495546 -0.69661176 -1.5048045
000270 78 c4 1b 3d 09 0e 22 3f b5 7b 9b 3e 54 51 a9 be
       0.038029164 0.63302666 0.30367818 -0.3306986
000280 32 5d f9 bd d9 d1 ef be 64 a2 b7 3e bb ca 8f be
       -0.12175979 -0.4683979 0.35866082 -0.2808436
000290 27 da 80 bf 66 59 9e 3e e7 e8 0c c0 42 b7 03 bf
       -1.0066575 0.3092758 -2.2017152 -0.51451504
0002a0 54 af dc 3f 5c 00 9d 3e 68 94 ae 3f 8f 1d f2 3d
       1.7241006 0.30664337 1.363904 0.11822044
0002b0 3b ae ee be 9f 0f 7d 3e 60 55 8c be 12 28 b5 be
       -0.46617302 0.2471299 -0.27408886 -0.35382134
0002c0 2c 82 54 3e 0b 4f e5 be 99 cd bd 3d 9a 4d 45 be
       0.20752782 -0.44786867 0.0926773 -0.19267884
0002d0 fb f0 bc 3e 8d 23 14 3e b9 3a 77 3e e2 91 87 3e
       0.36902604 0.14466687 0.24143495 0.26478487
0002e0 ae 83 9f 3a a0 ea 26 3e 10 a8 1c 3c 73 ed b1 3e
       0.0012169981 0.1630044 0.009561554 0.34751472
0002f0 ad 03 cc 3e 9e 1d a5 3f 4b 06 85 c0 28 c0 b2 3f
       0.39846554 1.2899663 -4.157018 1.3964891
000300 a6 14 f8 bf ea 1a e7 bf 94 c5 98 bd df 7b 2d 3f
       -1.9381301 -1.8055089 -0.0745956 0.6776714
000310 14 ea 3f 3e 90 2e 77 3f 71 d0 9e bf 54 fc d1 3e
       0.18741637 0.96555424 -1.2407361 0.41012824
000320 c5 a9 4f bf 6f ad ba bf 0e 1b 05 bf 7e 20 0e 3f
       -0.8111842 -1.4584178 -0.5199441 0.5551833
000330 37 4a 17 3f 17 8b fb 3f 2a 9e c7 3f 9d 0d bf 3e
       0.5909762 1.9651822 1.5595143 0.37315074
000340 7b 22 a4 3e 56 21 10 3f e9 bb f2 3e 0d bd 8c 3e
       0.32057557 0.56300867 0.4740899 0.27487984
000350 53 e5 16 3f e0 53 35 3e d9 c4 32 be 0f f8 11 3e
       0.5894367 0.17707777 -0.17457904 0.14254783
000360 0f 30 ac 3f 8f 6f 90 bf 57 79 25 be 7b 7e f5 3f
       1.3452166 -1.1284045 -0.16159569 1.9179224
000370 d2 d7 fd 3e 18 9b 32 bf f5 69 e8 be df 41 a9 3e
       0.4957872 -0.69767904 -0.4539334 0.33058068
000380 f6 57 c9 bf dd dd 93 be 57 06 e8 bd 4e 2d cc bd
       -1.5729969 -0.28880206 -0.11329334 -0.09969579
000390 d9 d6 ab bb 11 d1 0b 3f 1f 70 d9 3d 4b 92 2e 3e
       -0.0052441177 0.54615885 0.106170885 0.17047994
0003a0 39 33 5d 3e dc 63 b2 be ab 6d 0a bf ce 0e 90 bd
       0.21601571 -0.34841812 -0.5407359 -0.07034074
0003b0 6d c2 9d 3e 24 d0 49 c0 cd 76 85 3e 3d 5f 80 40
       0.30812398 -3.153329 0.260672 4.011626
0003c0 25 54 a3 bf b7 c2 52 bf 27 ff 14 3f a5 11 c9 bf
       -1.2760054 -0.8232836 0.5820183 -1.570851
0003d0 d3 11 1c c0 1b 91 54 bf 38 80 23 be 0c a5 78 bf
       -2.438588 -0.83033913 -0.1596688 -0.9712684
0003e0 b8 97 22 c0 af 6d 56 3f 91 d8 5b 40 62 da 96 bf
       -2.5405102 0.83761114 3.4350932 -1.1785395
0003f0 60 bd ea be f9 6c 1c bf b3 ea 57 bf 24 d3 b8 3d
       -0.45847607 -0.6110378 -0.843425 0.09024647

module.inc.conv.conv.0.bias f4 [32]
000000 2c e3 4f be c1 e4 40 3e 13 d6 d7 3d 71 34 4c bf
       -0.20301503 0.18837263 0.10538878 -0.7976752
000010 1b c9 91 be 09 6c 52 be 75 bb c0 bd c0 30 e0 be
       -0.28473744 -0.20549025 -0.094107546 -0.43787193
000020 b8 0c ad be be 8c e5 bd 6d a4 24 be 88 44 75 3d
       -0.33798766 -0.11208485 -0.16078348 0.05987981
000030 83 b3 07 c0 3b 4a 9d 3d 50 e1 e2 be 70 e6 30 bf
       -2.1203315 0.07680174 -0.44312525 -0.6910162
000040 5f 48 63 3d 3a 10 0c 3e f6 d8 a1 be c6 df 2b bd
       0.05548894 0.13678065 -0.3161084 -0.041961454
000050 d3 e9 8b be 0a 11 8c be da c5 3d be 1f 0e f9 bd
       -0.2732683 -0.2735675 -0.18532506 -0.121608965
000060 89 1a 80 bf 94 59 63 3e 8c ae 9c 3f 23 98 82 be
       -1.0008098 0.2220214 1.2240767 -0.25506696
000070 bf 23 0d 3e 88 0a d6 3c f7 b5 57 be 3d 80 c6 bf
       0.13783167 0.026128069 -0.21065508 -1.5507885

module.inc.conv.conv.1.weight f4 [32]
000000 66 7b 95 3a f6 9e 84 40 82 53 b6 bc c8 5f 59 40
       0.0011404573 4.1444044 -0.022256617 3.396471
000010 2d 5b cc 3f 7e 64 07 3f 27 00 e4 3f 78 04 8f 3f
       1.5965325 0.52887714 1.7812546 1.1173239
000020 53 49 4b 40 87 27 60 3b 0c dd 04 bb 9b 9b de 38
       3.1763504 0.0034203248 -0.0020273356 0.00010614769
000030 79 ee 01 40 ba 9b 61 3d b6 2d da 3f d0 a3 a4 3f
       2.0301802 0.055080153 1.70452 1.2862492
000040 d5 ed 1f b8 2d c0 08 3f 6c 96 13 40 e7 f1 12 3c
       -3.8130052e-05 0.53418237 2.306056 0.008968807
000050 03 59 d1 ba d8 6b e3 3f 2b 90 53 3f 52 da 96 bc
       -0.0015971962 1.7767286 0.8264186 -0.01841465
000060 e5 08 1e 40 79 2f da 38 37 f6 45 40 65 1a e1 3f
       2.4692929 0.000104038925 3.0931528 1.758618
000070 ad 76 0b 3c bf 16 01 bb 68 9c d7 3f 2d 5b 18 40
       0.008512181 -0.0019697396 1.6844606 2.380565

module.inc.conv.conv.1.bias f4 [32]
000000 b4 8c c3 be 9b f3 0b 40 df 0c ee be d4 1a dc 3f
       -0.38193285 2.1867435 -0.46494195 1.7195687
000010 ae 6b 23 c0 ec 81 81 bf dc ca 91 bf 43 00 56 c0
       -2.5534472 -1.0117774 -1.1390033 -3.343766
000020 d1 05 fd bf b4 9b 4d bf 0e de 75 be 12 13 4a bf
       -1.97674 -0.8031571 -0.24010488 -0.7893535
000030 ac 34 4d 3f 45 4e 1b bf 12 a2 a4 c0 60 c0 98 c0
       0.80158496 -0.60666305 -5.144784 -4.7734833
000040 05 f8 e6 bd 64 15 c9 bf 16 f6 cb 3f 03 da c6 be
       -0.11277775 -1.5709653 1.5934474 -0.38838205
000050 e3 1c 37 be ef 2e 68 bd 8e 45 a3 3f 73 20 28 bf
       -0.17882113 -0.056685384 1.2755601 -0.65674514
000060 76 07 91 3f 4b e3 76 bd 12 59 c5 3f 91 a3 a2 bf
       1.1330402 -0.060275357 1.5417807 -1.2706167
000070 bd 80 a6 be 3f a2 4a be 36 24 e1 bf 16 aa 12 40
       -0.32520095 -0.19788454 -1.7589176 2.2916312

module.inc.conv.conv.1.running_mean f4 [32]
000000 2b e0 00 45 53 91 b5 42 0c 7d fa 44 49 92 b8 c1
       2062.0105 90.78384 2003.9077 -23.071428
000010 0e b8 d7 c4 c1 4e cd c5 92 fe 27 c5 88 0a 70 45
       -1725.7517 -6569.844 -2687.9106 3840.6582
000020 0f d7 05 c3 d5 08 18 45 d4 7e 3b 44 cf e6 14 45
       -133.84007 2432.552 749.9817 2382.4255
000030 51 6c af c3 f6 12 3b c5 bf fb 0e 41 64 01 14 c4
       -350.84622 -2993.185 8.936461 -592.0217
000040 35 db 16 44 bd ab ad c5 82 2f 7e c2 84 f4 a2 c4
       603.4251 -5557.4673 -63.546394 -1303.6411
000050 eb 75 13 45 3f ce 8b c4 c9 86 0a 44 80 78 50 45
       2359.3699 -1118.4452 554.106 3335.5312
000060 5f bc 0d c3 6d 10 65 43 ff f1 a2 44 a4 ca 87 c5
       -141.73582 229.06416 1303.5624 -4345.33
000070 09 9f 34 c5 bd d5 db 44 9d 5c 21 44 b2 b2 ee c2
       -2889.9397 1758.6793 645.4471 -119.349014

module.inc.conv.conv.1.running_var f4 [32]
000000 4f 9e 9e 4a 72 57 a9 48 9c 7a 96 4a fc cd bf 48
       5.1976075e+06 346811.56 4.930894e+06 392815.88
000010 67 42 71 4a 7b f6 4a 4c d2 fc 0d 4b 8c c2 89 4b
       3.9527938e+06 5.3205484e+07 9.305298e+06 1.8056472e+07
000020 60 f2 77 49 11 4f e0 4a 33 42 29 49 18 ab d2 4a
       1.01559e+06 7.3501525e+06 693283.2 6.90318e+06
000030 57 df d6 48 b8 8e 26 4b 5e e7 e7 48 55 58 81 49
       440058.72 1.0915512e+07 474938.94 1.0595946e+06
000040 b9 82 e0 48 9f c6 12 4c 1e 48 89 48 47 25 fd 49
       459797.78 3.8476412e+07 281152.94 2.0737689e+06
000050 ac 9c ce 4a 6f a8 d2 49 1a 06 43 49 de 8f 4e 4b
       6.770262e+06 1.7257099e+06 798817.6 1.3537246e+07
000060 6d 5a 8b 48 95 1d 8f 47 4d fc 37 4a f9 c9 b2 4b
       285395.4 73275.164 3.0144192e+06 2.3434226e+07
000070 52 d4 1b 4b 21 78 66 4a 0c 4e a2 49 2b 1b 34 48
       1.0212434e+07 3.7760082e+06 1.3296015e+06 184428.67

module.inc.conv.conv.3.weight f4 [32, 32, 3, 3]
000000 84 3a db 3e ec 4e d5 3e f2 0d a3 3e 5f f0 f9 3e
       0.4281808 0.41661775 0.31846577 0.488162
000010 2d e8 db 3e 17 aa f9 3e 91 c7 a3 3e 60 eb 9c 3e
       0.42950574 0.4876258 0.31988195 0.30648327
000020 ea c3 a8 3e 69 86 11 3e c0 06 34 40 d2 31 3d 3e
       0.3296197 0.1421143 2.812912 0.18476036
000030 3e 3a 8e 3f 75 b8 50 bf 95 19 44 bf 7c 51 67 3f
       1.1111524 -0.8153146 -0.76601535 0.9035871
000040 22 b9 9b 3f bb 93 c4 3e 37 e3 83 bd 44 3a c3 bd
       1.2165873 0.3839396 -0.06439822 -0.09532598
000050 60 a5 97 3d 81 9e 70 be 0a b6 3a be e2 c7 0f be
       0.0740459 -0.23497964 -0.18233505 -0.14041093
000060 46 05 8a bd c3 bb 0e bc 50 a8 0e bd 89 f0 5d c0
       -0.06739287 -0.008711758 -0.034828484 -3.467806
000070 d1 98 dd bf 91 b3 47 40 53 64 5f 3f 82 ed 11 3d
       -1.7312261 3.1203349 0.8726246 0.035626896
000080 a8 54 4a c0 4a e5 98 3f 32 29 e4 3f 0a 93 bd 3f
       -3.161417 1.1944973 1.7825072 1.4810498
000090 d1 1c cd be 9c 0b 9f bf 1a 82 9b 3e c0 69 15 be
       -0.40061048 -1.2425418 0.30372697 -0.14591122
0000a0 6f c4 57 3d 9d 9f af be 01 f9 e9 3f 2a c8 78 bf
       0.052677568 -0.34301463 1.8279115 -0.97180426
0000b0 56 3f e1 bd 11 e1 20 3f 57 75 45 3f fc 2d 17 3f
       -0.109984085 0.62843424 0.7713217 0.5905454
0000c0 12 44 84 bc 1d fc 73 3e ad 48 b0 3d a2 b0 73 3f
       -0.01614574 0.23826642 0.08607612 0.95191395
0000d0 b8 e7 c9 3f a6 ba 98 3f be 81 9f 3e ee 1d 06 bf
       1.577384 1.193196 0.31153673 -0.5238942
0000e0 e1 5c 4c c0 eb 13 c1 be 70 3d ba bf fb 18 b6 bf
       -3.1931689 -0.3771051 -1.4549999 -1.4226373
0000f0 ae a6 08 3f ae 0a 5d 3e cd a6 53 bf da 36 5f 3e
       0.53379333 0.21586105 -0.8267639 0.21798268
000100 8a 40 16 3f 0a 96 b1 bc a1 f6 40 3f 0b 54 26 be
       0.5869223 -0.02167799 0.75376326 -0.16242997
000110 c6 c8 a2 3e 97 ac 39 3f 95 18 70 3f 46 cb 7c 3f
       0.31793803 0.72528976 0.9378751 0.9874767
000120 4f 6a 1e c0 3b 23 05 c1 83 08 2c c0 cd ed 39 c0
       -2.4752386 -8.321101 -2.6880195 -2.9051392
000130 3f 9d 3b bf 7c a1 11 c0 df 6e 47 3f 83 90 d5 be
       -0.73286813 -2.2754812 0.7790355 -0.41711816
000140 71 e5 d9 3e 27 2c 81 3e b6 74 14 3e 0e e9 92 3e
       0.42557862 0.25228998 0.14497647 0.28693432
000150 46 5d f6 3e 91 5f ad 3e 56 f8 d7 3e 82 46 d6 3e
       0.48118037 0.33861974 0.42181653 0.41850668
000160 1a 7e 05 3f ae 2d 07 3f a0 46 4c bf 5a 29 01 bf
       0.5214554 0.52804077 -0.79795265 -0.5045372
000170 26 64 91 be 0a 95 b7 be a4 82 aa be 4c 64 a7 be
       -0.2839672 -0.35855895 -0.33302796 -0.32693708
000180 a7 60 3d 3e 52 c4 d9 3a 81 61 3a 3c 96 2e 0d 3d
       0.18493901 0.0016614294 0.011375786 0.034468256
000190 9d 11 29 bc 44 05 38 3d 93 8f 2b bd e7 28 1b 3d
       -0.010319141 0.044926897 -0.04188497 0.037880804
0001a0 03 39 59 bd 80 b5 bd bd fb be fd bd 6b 6f c3 bc
       -0.053032886 -0.09263134 -0.12389942 -0.02385684
0001b0 7f 8c 44 c0 e0 52 c9 be 32 bd ad bf d4 e5 80 40
       -3.0710752 -0.3932104 -1.3573363 4.028055
0001c0 f8 3f f8 3e 9c 47 01 c0 b1 8a f1 bf 0c d7 31 bf
       0.48486304 -2.0199957 -1.887045 -0.6946876
0001d0 1b 96 e3 3e 05 6a ea bc 92 a9 d3 bd d5 2d 28 be
       0.4445046 -0.028615007 -0.10335077 -0.16423734
0001e0 69 ee 23 3b 69 ff e8 bd f5 67 09 be b5 fb 59 bc
       0.002501393 -0.113768406 -0.13418563 -0.013304641
0001f0 4f 78 db bd 73 9c 9b bd 4d d1 a0 3f 1d a5 12 40
       -0.107163064 -0.075982 1.2563874 2.2913277
000200 1a 0d 1b bf 60 19 61 bf 80 d7 93 c0 1a 07 a6 bf
       -0.60566866 -0.87929344 -4.620056 -1.2970917
000210 16 6a 03 bf 40 0e 46 3f 1d 3e 02 40 ab b3 84 3e
       -0.5133375 0.77365494 2.035041 0.25918326
000220 1c 0d 39 bf a7 69 07 40 da f7 a1 bf 8f f7 37 bf
       -0.7228563 2.1158235 -1.2653763 -0.7186212
000230 72 af 2a bf d7 68 c0 bf 75 6e bb bf da fb c7 be
       -0.6667396 -1.5031995 -1.4643084 -0.39059335
000240 c2 43 d3 bd 7f 1a 5a bd 08 06 12 be 71 72 af bd
       -0.10315658 -0.053247925 -0.14260113 -0.0856675
000250 48 92 80 bd bf ca 61 bd 82 01 b4 bd 0d 5f 13 be
       -0.06277901 -0.055124994 -0.0878935 -0.14391728
000260 b2 37 b3 bd 9f 1a 3f bf 14 a1 e7 be a7 fa 07 bf
       -0.087508574 -0.74649996 -0.4524008 -0.5311684
000270 e0 04 81 bd 1d b9 9d 3d 1f 1c 8d bd c3 56 e9 3f
       -0.06299758 0.07701323 -0.06890129 1.8229603
000280 33 e5 e3 3f 5b 4c e5 3f 21 d0 4e c0 bf 08 e8 be
       1.7804321 1.7913927 -3.2314532 -0.45319173
000290 bc b4 e2 bf d3 35 75 bf f6 ea ad 3f 16 78 e3 3e
       -1.7711406 -0.95785254 1.3587329 0.44427556
0002a0 13 83 20 40 e4 6c ff bf 67 b6 8d bf 3f d4 d6 bd
       2.5080001 -1.9955106 -1.107129 -0.104897015
0002b0 42 2d 02 3c 68 46 46 bd a3 5a 9b bd 98 12 c3 bc
       0.007945361 -0.04840699 -0.07585647 -0.023812577
0002c0 a1 60 cc 3c 05 c5 8d 3c cb 3e 7c bd ad 69 85 bd
       0.02494842 0.01730586 -0.06158332 -0.06514297
0002d0 9e 61 11 3e 7f c0 4f 3e 78 af 53 3e fb cb 09 3e
       0.14197394 0.20288275 0.20672405 0.13456719
0002e0 95 4e 26 3e 33 c5 52 3e 8e 80 08 3e 13 d6 41 3e
       0.16240914 0.20583038 0.1333029 0.18929319
0002f0 85 eb 38 3e de bc 6e 3f dd 1b dd bf a0 12 d2 bf
       0.18058594 0.9325694 -1.7274128 -1.6411934
000300 2f 09 fa be 75 74 bb bf 87 af c0 bd b7 9c 19 c0
       -0.48835132 -1.4644915 -0.09408479 -2.40019
000310 7e 57 1c c0 b6 49 86 c0 ca 10 47 bf 5c 4c bc bf
       -2.44284 -4.196498 -0.77759993 -1.4710803
000320 7f 13 49 bf 2b 48 29 3e 11 c0 9e 3f 15 28 f0 3f
       -0.78545374 0.16531436 1.2402364 1.8762232
000330 75 f3 e0 3f a2 1a 6c bf 78 ef 95 bf 46 4d 0f be
       1.7574297 -0.9222814 -1.1713705 -0.13994321
000340 f1 6d fb bd 39 2b 5b bd 33 40 3e bd c6 a3 98 3d
       -0.12276829 -0.053508017 -0.046447944 0.07453112
000350 31 2d 14 3c b5 78 d9 3d 7d 39 35 3e 73 76 2b 3e
       0.009043978 0.10618726 0.17697711 0.16744404
000360 aa 43 fd 3f 48 8f cf bf 50 30 4e bf f8 88 92 3f
       1.9786274 -1.6215601 -0.8054247 1.144805
000370 7a 90 0c 40 1d 12 90 bf c6 11 00 c0 3d 16 c3 be
       2.1963181 -1.1255528 -2.0010848 -0.38102904
000380 40 c5 54 3d 19 1e 59 ba 99 a1 d1 bd ba 73 e1 bd
       0.051945925 -0.0008282378 -0.102359004 -0.11008401
000390 18 44 ea bd 30 b6 de bc 2e 8c 5b bd c9 a0 aa bd
       -0.11438769 -0.027186483 -0.053600483 -0.083314486
0003a0 7c 00 46 bd 1e bd 35 bd 4f 0d a4 3e 94 75 5e 3e
       -0.048340306 -0.04436981 0.32041404 0.2172454
0003b0 69 73 c4 bf 98 11 82 bf 9d a9 2a 40 2d 9d fe 3f
       -1.534772 -1.0161619 2.6666024 1.9891716
0003c0 59 cb 70 bf d3 4b ea bf 72 6a 05 c0 0d 3b e3 3f
       -0.94060284 -1.830439 -2.084622 1.7752396
0003d0 9a 4e f7 3e ac 57 95 3f ff bf 56 bf cd 05 87 3f
       0.48302156 1.166738 -0.8388671 1.0548645
0003e0 dc e1 86 bf 4b 22 a8 bf 30 8a 94 bb 3c a8 f6 3f
       -1.0537677 -1.3135465 -0.004533075 1.9270091
0003f0 c0 f9 24 bf d4 d3 3a bf bd e6 30 bf 18 8b 02 bf
       -0.6444359 -0.72979474 -0.6910208 -0.5099349

module.inc.conv.conv.3.bias f4 [32]
000000 50 07 12 bf f5 f2 ca 3d 94 8f b3 be 09 1b fc 3e
       -0.5704241 0.099096216 -0.3507048 0.49239376
000010 bd ca 88 3e f7 11 1f bf e5 8b 86 be 8f de f2 be
       0.26717177 -0.6213679 -0.26278606 -0.47435424
000020 93 a0 91 3d 4d 6f b7 3f 65 2f ec be e4 e3 94 3e
       0.07110705 1.4330841 -0.4612991 0.29080117
000030 8a 8f 79 be 17 11 2b 3e 6b 9e fa 3e b6 da 2e bd
       -0.24371162 0.16705738 0.48948988 -0.042689048
000040 b6 0a c6 be 7c fd a0 be d8 ad 2c be 4a ae f9 bd
       -0.38680047 -0.31443393 -0.16863191 -0.12191446
000050 a4 e8 62 be c7 1f a6 ba b7 30 05 3f c0 0f 99 3e
       -0.22159058 -0.0012674265 0.5202746 0.2989483
000060 94 7c 80 bc 99 6b c7 bd c3 d8 1f 3e 08 9e d5 bc
       -0.015684403 -0.097373195 0.15610032 -0.026076332
000070 fd ea 24 bf dd f3 98 be a1 31 43 be de 78 9d 3e
       -0.64421064 -0.29873553 -0.190619 0.30756277

module.inc.conv.conv.4.weight f4 [32]
000000 78 bf 07 40 9d 93 56 40 d1 8d 73 40 1a 2d b5 3f
       2.1210613 3.3527596 3.8055308 1.4154389
000010 9e 6f 76 40 25 48 6b 3f 30 87 4a 40 98 ad 3c 40
       3.8505626 0.9190696 3.1645012 2.9480953
000020 ba 19 49 40 78 5f 5a c0 f3 44 3f 40 d1 6f 6b 40
       3.1421952 -3.412077 2.9885833 3.6786997
000030 43 a1 72 40 53 2d 73 40 2c 22 40 40 86 d4 9e 40
       3.7910926 3.7996414 3.0020857 4.963443
000040 f7 62 b5 3f a4 10 0e 40 31 48 56 40 6b 11 72 40
       1.4170827 2.2197657 3.3481562 3.782313
000050 7b 22 5a 40 6e 27 c1 ba f4 d3 6f c0 2c 13 ae bf
       3.4083545 -0.0014736482 -3.7473116 -1.3599601
000060 a3 e3 a4 3f e8 8c d5 3f d3 b7 70 40 47 4e 8b 39
       1.2881969 1.6683626 3.7612197 0.00026570467
000070 8d 9b 4d 40 72 1d 72 40 a6 c7 30 40 00 4d 9d 3f
       3.212619 3.7830472 2.7621856 1.2289124

module.inc.conv.conv.4.bias f4 [32]
000000 2e 8a 58 bf a1 5c f2 3d 41 12 d8 bf f9 98 03 bd
       -0.84585845 0.11834074 -1.6880571 -0.032128308
000010 fd 0c fa 3e ef 29 13 40 eb 57 24 c0 58 e6 a7 3f
       0.48838034 2.2994344 -2.567866 1.311717
000020 42 96 cd 3f b5 cc db c0 00 22 5d bf 39 6f b3 3e
       1.606148 -6.8687387 -0.86380005 0.35045794
000030 c8 de 34 3f fe 85 a3 bc 06 15 23 40 4a c4 6b 3f
       0.7065244 -0.019961353 2.5481582 0.9209639
000040 8f a1 64 bf 83 75 82 3f c0 97 a2 3f 5a d4 9c 3d
       -0.8930902 1.0192112 1.270256 0.0765769
000050 05 15 d9 be d4 04 25 be 98 d7 dd bf 0d 8a 3a c0
       -0.4239885 -0.16115123 -1.7331419 -2.914676
000060 66 53 6e bd 11 5c f0 3f 9b 20 a1 3f e6 d6 15 bf
       -0.058185004 1.8778096 1.2588075 -0.58531034
000070 b3 06 7e 3e 21 4e c2 3f 82 bc 8d be 68 55 7b 3f
       0.24807243 1.5180093 -0.27682883 0.98177195

module.inc.conv.conv.4.running_mean f4 [32]
000000 0e 3c 8d c1 09 23 3a c1 2c c1 ab c1 ff 5b 98 40
       -17.654324 -11.6335535 -21.469322 4.76123
000010 b9 5b c1 c0 6c 92 19 c2 f3 0c 89 c1 ed 44 85 40
       -6.0424466 -38.39299 -17.131323 4.164664
000020 f0 2d 15 c0 8c 55 96 3f 55 ea 87 c1 46 b3 4e c2
       -2.3309288 1.1744857 -16.98942 -51.67507
000030 36 f3 d0 3f 14 65 de c0 c9 50 94 41 6a 22 55 c1
       1.6324222 -6.9498386 18.539446 -13.320902
000040 4e b1 38 c0 0c f3 c5 c0 a1 06 c8 c0 9e 78 eb c0
       -2.8858218 -6.185919 -6.250809 -7.358474
000050 3f c3 d0 c0 3c db 06 41 ba 61 72 41 f4 39 e9 c1
       -6.5238338 8.428524 15.148859 -29.153297
000060 00 af 00 be 7b 78 91 40 72 f1 f7 3f c0 50 03 41
       -0.12566757 4.545957 1.9370558 8.207214
000070 f6 e6 d5 c1 5a e1 b8 c1 0b c7 92 c0 4d 7f 96 41
       -26.737774 -23.110035 -4.586797 18.812159

module.inc.conv.conv.4.running_var f4 [32]
000000 7a d4 3a 43 a0 9b 3c 43 a5 2b 54 43 ca 73 a1 42
       186.82999 188.60791 212.17049 80.72615
000010 19 a8 ee 42 92 82 68 43 cc f4 13 43 49 5d a9 42
       119.328316 232.51004 147.95624 84.6822
000020 70 24 14 43 59 25 ae 42 b9 ac 0d 43 e0 9a f0 43
       148.14233 87.072945 141.6747 481.20996
000030 b0 bd df 42 7e 15 f7 42 73 6a 5c 43 77 88 81 43
       111.87048 123.54198 220.41582 259.06613
000040 e3 11 b1 41 b9 b3 03 43 01 28 df 42 71 93 1c 43
       22.133734 131.70204 111.57813 156.57594
000050 bb f4 d9 42 fe a5 33 40 92 4f b8 42 5d f2 0b 43
       108.97799 2.8070064 92.15541 139.94673
000060 f7 d4 2e 43 f8 4f 3f 43 55 f5 cd 42 2f 6e aa 42
       174.8319 191.31238 102.979164 85.2152
000070 95 cc 53 43 ef a7 72 43 16 b2 c8 42 66 31 b7 42
       211.79915 242.65599 100.347824 91.59648

module.down1.mpconv.1.conv.0.weight f4 [64, 32, 3, 3]
000000 e3 bb 01 c0 0a f7 52 c0 33 bc 0d c0 a0 67 11 bd
       -2.0270927 -3.296328 -2.2146118 -0.035499215
000010 b0 d5 0d 3f e8 47 c3 3f 32 ad 02 3e 53 cd 06 3f
       0.55404186 1.5256319 0.12761381 0.5265705
000020 d4 51 4e bf 33 e8 f3 bf 3c 5f 1c 3f fc d4 36 3f
       -0.8059361 -1.9055237 0.61082816 0.7141874
000030 2a ff 3e c0 20 db f3 be fa 87 9e 3e 8b 5f 26 be
       -2.984324 -0.47628117 0.30963117 -0.16247384
000040 27 a5 44 3f 84 50 fa bd 29 76 eb bf 8e fe d1 bf
       0.768145 -0.122223884 -1.8395435 -1.6405809
000050 bf 9d 80 be 80 f6 9b be 6f 3b 95 bf 66 7e 4e 3f
       -0.2512035 -0.30461502 -1.1658763 0.8066162
000060 c8 cb dc bf 6b 72 1b c0 03 0d 5e bf d7 3e f1 bf
       -1.7249689 -2.4288585 -0.86738604 -1.8847302
000070 26 b4 2f 3e 89 99 54 bf ca 70 9a 3f 38 80 73 3f
       0.17158565 -0.83046776 1.206567 0.9511752
000080 50 99 26 40 09 e4 f8 3e 80 07 89 3f fb b2 9d be
       2.6031075 0.48611477 1.0705414 -0.30800614
000090 f5 b7 bc bf 2e 5f 50 bf 7a 56 3a 40 98 35 c3 bf
       -1.4743639 -0.8139523 2.911528 -1.525073
0000a0 55 a1 fd bd ec 0d e2 be 39 a5 8c bf 7c 6e 9f 3e
       -0.12384287 -0.44151247 -1.0987922 0.3113898
0000b0 07 85 cb bf 54 d8 3d be a6 ac 52 40 97 3e 88 3f
       -1.5899972 -0.18539554 3.2917876 1.0644101
0000c0 dc 84 af bf e1 25 b3 3f 91 49 1d bf a1 0b ae 3f
       -1.371242 1.3995935 -0.6144038 1.3597299
0000d0 0e ba 99 3f 05 d2 62 be 46 29 cc 3f 4c 8b e2 bf
       1.2009904 -0.22150429 1.5950096 -1.769876
0000e0 7f 0b 73 3f d9 bd a7 3f 99 c0 66 3f 2b 29 ae 3e
       0.94939417 1.3104812 0.9013763 0.34015784
0000f0 32 da 1f c0 c8 34 80 c0 4f de e0 bf 5d b8 bd bc
       -2.4976926 -4.006443 -1.7567843 -0.0231592
000100 68 01 ba 3f ce 36 f6 3f c9 fc 42 c0 08 80 28 3f
       1.4531679 1.9235475 -3.0466788 0.6582036
000110 eb f4 6b bf 14 bb a3 be 14 74 82 be 88 a3 ed bf
       -0.9217059 -0.31978667 -0.25479186 -1.8565531
000120 9c ad 68 3f 80 e5 64 bf eb 54 58 bf cd b4 02 c0
       0.90889907 -0.8941269 -0.84504575 -2.0422852
000130 89 a9 85 3f 75 c7 90 bf 18 f3 b4 bf d5 65 14 c0
       1.0442363 -1.131087 -1.4136686 -2.3187153
000140 6e a0 0f 3f 6a 20 86 bf 91 f4 28 c0 7c 0e 3b 40
       0.5610417 -1.0478642 -2.6399271 2.922759
000150 e4 67 54 bf b8 2d 40 c0 8f 31 b0 c0 6b 71 97 c0
       -0.82971025 -3.0027905 -5.5060496 -4.732595
000160 29 0a e5 c0 5e 0f 89 c0 0b 86 5c 3f e0 08 08 3f
       -7.1574903 -4.283126 0.86142033 0.5313854
000170 47 9e f2 3f 2f 41 c3 be 8b 04 fd bf 86 d4 23 40
       1.8954552 -0.3813567 -1.9767011 2.5598464
000180 15 03 0e c0 c0 c5 70 c0 97 4d ab 3f 7c 86 85 40
       -2.218938 -3.7620697 1.3383054 4.1726665
000190 91 98 fc bf f6 02 f7 bf c4 1d a2 bf 66 ec ec c0
       -1.973406 -1.9297779 -1.2665334 -7.403857
0001a0 76 18 83 c0 92 88 a3 3f 26 cd 05 c0 ea 07 55 bf
       -4.096736 1.2776053 -2.0906463 -0.832152
0001b0 fa d3 18 40 f3 fe f5 bf 28 b3 38 bf d1 4c ab bf
       2.387938 -1.9218429 -0.7214837 -1.3382818
0001c0 5f e4 25 c0 af cd b8 3f 7e e6 39 3f c3 2e 8e 3e
       -2.5920637 1.443777 0.7261733 0.2777005
0001d0 87 d4 17 40 04 ac b1 3f 7e ac 4d 3f 2b e7 73 bf
       2.3723466 1.388062 0.8034133 -0.9527461
0001e0 58 58 98 3f 8f 65 14 3f ac 8b c4 c0 ba 81 b5 c0
       1.190196 0.57967466 -6.14205 -5.672086
0001f0 e9 03 64 c0 af ac d0 3e 45 ab b9 3f 4e 51 2c 3f
       -3.5627387 0.40756747 1.4505392 0.6731156
000200 01 0c f8 3e e4 51 59 bf 18 3b 39 c0 6f 6c 65 bf
       0.48446658 -0.8489058 -2.8942318 -0.8961858
000210 8c 81 4d 3f b3 0c 92 3f 68 bd 32 bf 36 a9 b6 bc
       0.802758 1.1410125 -0.6982026 -0.022297483
000220 ae 1b e9 bf 9b f6 3e c0 f5 c7 f3 3f 03 04 71 bf
       -1.8211572 -2.9838016 1.9045397 -0.94146746
000230 33 bd b4 bf f3 92 13 c0 38 05 e2 be ad 99 4d c0
       -1.4120239 -2.305844 -0.44144607 -3.2125046
000240 eb 8e 01 3e 3c 21 ad 3f 70 8c 02 3f 99 31 ac 3e
       0.12652175 1.3525767 0.5099554 0.3363159
000250 33 72 ce 3e f0 53 0d 40 36 c9 14 3f 0f 1e 18 3f
       0.40321502 2.2082481 0.58119524 0.59420866
000260 f0 e6 94 3f 64 e4 09 3f 91 db aa 3f cc 20 67 3f
       1.1632977 0.5386412 1.3348256 0.9028442
000270 96 74 cb be 34 3f de be 16 22 27 bf 3e 35 89 3f
       -0.39737386 -0.43407595 -0.65286386 1.0719373
000280 44 8a 8a be 31 db bd 3e c5 b2 98 c0 f3 c8 d4 bf
       -0.27058613 0.37081292 -4.7718225 -1.6623825
000290 33 4a ae 3f b0 0c c3 bf df 66 63 3e 07 ce be 3d
       1.3616394 -1.5238247 0.22207211 0.0931664
0002a0 c0 62 4f bf c1 04 c8 3f 17 83 15 40 26 aa 2a bf
       -0.81010056 1.5626451 2.336126 -0.66665876
0002b0 b0 a9 3c c0 d7 06 7a 3f ef 38 55 c0 bd be f0 bf
       -2.947857 0.97666687 -3.3316 -1.8808209
0002c0 90 73 9f bf 57 3f 3b 3f 42 89 ad 3f 83 3d 86 bf
       -1.2457142 0.73143524 1.3557513 -1.0487522
0002d0 72 d5 c8 3f 3b cf af 3f d1 a8 ed 3f d7 d6 0b bf
       1.5690138 1.3735117 1.8567144 -0.54624695
0002e0 dc b1 01 40 03 c1 04 bf 76 22 0b c0 18 97 03 c1
       2.0264807 -0.5185701 -2.1739783 -8.224388
0002f0 f6 05 de bf 36 d5 51 be 82 86 0f be 50 55 d8 bd
       -1.7345569 -0.2049149 -0.14016154 -0.10563147
000300 84 9f 85 bd c7 c6 04 be e2 63 30 bc ea 30 77 bb
       -0.06524566 -0.12966453 -0.010766001 -0.0037718364
000310 ea 23 91 3c 73 e6 9f 3d ef 83 19 c0 2f b0 4b 3f
       0.01771732 0.078076266 -2.3986776 0.7956571
000320 ce 48 c5 3f ac 78 a2 3f a8 6f 52 bd 49 c9 5a bf
       1.5412843 1.2693076 -0.051376015 -0.85463387
000330 0c f6 5f 40 99 c4 0a c0 43 f9 4c 40 58 cc a1 c0
       3.4993925 -2.1682494 3.2027137 -5.0561943
000340 30 89 85 c0 69 9f 08 c0 f0 32 98 bf 81 c3 4f c0
       -4.1729965 -2.1347296 -1.1890545 -3.2463076
000350 be 69 aa 3f e6 e7 ef bf b2 0d 6d c0 38 b2 56 40
       1.331352 -1.8742645 -3.703961 3.3546276
000360 e5 61 f2 3e 99 f4 05 be 7d 92 5f 3f 79 cd 16 bd
       0.47340313 -0.13081588 0.873329 -0.036817048
000370 b3 73 2a 3e b8 cc a6 3f 2f 43 1c c0 fa 13 8b bf
       0.16645698 1.3031225 -2.4416006 -1.0865471
000380 9c c6 24 3e 24 f6 c8 3f da f8 30 bd 8f 86 8b bf
       0.16091388 1.5700116 -0.043206073 -1.0900439
000390 ff a9 8b bf 27 4a 86 bf 70 9b 6b be 3e 45 b0 be
       -1.0911254 -1.049138 -0.23008513 -0.34427828
0003a0 5b a4 2d c0 15 51 be bf 7c 76 5d 3f 27 ba 1f c0
       -2.7131565 -1.4868494 0.8650892 -2.4957368
0003b0 71 71 40 c0 cb 61 16 40 b3 86 9b 3e 70 16 6b c0
       -3.006924 2.3497188 0.30376205 -3.6732445
0003c0 11 f9 52 bf 46 4f 74 40 70 65 0e 40 41 39 9f bd
       -0.82411295 3.8173385 2.2249413 -0.07774592
0003d0 4b 8d 84 be 45 23 ee be fe 4e 81 be d8 af a9 be
       -0.25889048 -0.46511284 -0.2525558 -0.3314197
0003e0 92 38 e5 be cc 42 06 be 9c 65 7b be 7e 06 b1 be
       -0.44769722 -0.13111418 -0.2455048 -0.34575266
0003f0 ae e6 1b 3f 17 b3 cb 3f 8d 93 69 3f 3a 69 88 3f
       0.60898864 1.5914029 0.9124077 1.0657113

module.down1.mpconv.1.conv.0.bias f4 [64]
000000 a0 5e 1a be 2b 96 f1 3c 00 aa 8e 3e 4d cd 5d be
       -0.15075159 0.029490551 0.27864075 -0.21660347
000010 9f 61 57 be ed 9d eb be cc 9a f0 bd 4a 7f 21 be
       -0.21033333 -0.46018925 -0.11748275 -0.15771213
000020 21 84 1b 3e 8b 3f 98 3d 89 4f 9e bd 92 ea 8d bc
       0.15187122 0.07433995 -0.07730014 -0.017323766
000030 95 51 79 3d 84 d0 45 3e cf 21 9e 3c 6a f1 8f be
       0.06086882 0.19317824 0.01930323 -0.28113872
000040 18 3c e0 bf fd 67 d7 be 90 77 cb bd f8 32 0f be
       -1.7518339 -0.42071524 -0.09934914 -0.13984287
000050 cc cd fc bd 5a a5 6a 3c b1 62 a2 3e 39 83 91 bf
       -0.1234394 0.014321649 0.3171592 -1.1368171
000060 54 7f f1 be 22 91 32 bd c3 d6 9c 3e 3a c5 1b 3d
       -0.47167456 -0.04359544 0.306326 0.038029887
000070 4f 88 47 3e 42 e5 66 bf d7 15 f8 3e 5b 16 44 be
       0.19485591 -0.9019357 0.48454162 -0.19149153
000080 61 c9 27 bb fb 5f 40 bf aa 7a b2 3d ba 03 48 3c
       -0.002560221 -0.75146455 0.087148026 0.01220792
000090 ed ca 43 3c 56 de 32 bd 38 67 97 bd d0 e9 bd 3e
       0.011950237 -0.043669067 -0.07392734 0.37092447
0000a0 ea c4 34 3e 82 1f d5 be d3 10 08 3c b2 13 6e bd
       0.17653242 -0.416256 0.008304792 -0.05812425
0000b0 fd 33 31 3b c0 b4 78 3e 75 51 47 bf ab fd 07 bf
       0.0027039044 0.242877 -0.7785867 -0.5312144
0000c0 6e 81 ac bf 6e b7 3e be c5 be 97 be df de ad 3e
       -1.3476999 -0.1862466 -0.29637733 0.339591
0000d0 2b 8a 81 be 19 3d 3b 3e 99 27 2d bf ff bb ae be
       -0.25300726 0.18285026 -0.67638546 -0.34127805
0000e0 dc f1 14 be 07 4a a9 3e a0 e3 89 3e cf 2e 41 be
       -0.14545387 0.3306429 0.26931477 -0.18865512
0000f0 f7 7d a1 bf c5 08 b1 3e d9 89 42 3e 8a 20 8b be
       -1.2616566 0.34577003 0.18997897 -0.27173263

module.down1.mpconv.1.conv.1.weight f4 [64]
000000 5d 6f 2d 40 01 61 22 40 32 3f c3 3f 60 39 17 40
       2.709922 2.5371706 1.5253661 2.362877
000010 e1 19 cc 3f 40 d8 ce 3f 43 dd 0b 40 40 fd 1e 40
       1.5945398 1.6159744 2.1853797 2.4842072
000020 17 82 0d 40 7b e4 09 40 e9 74 2a 40 ce b0 06 40
       2.211065 2.1545703 2.6633856 2.1045413
000030 04 a5 0f 40 7c 9d 0e 40 e0 39 1c 40 e7 bd f5 3f
       2.2444468 2.228362 2.4410324 1.9198579
000040 47 c3 ad 3f 3f 83 43 40 d4 85 3c 40 f7 a4 e5 3f
       1.3575219 3.0548856 2.9456682 1.7940968
000050 f5 6a 4a 40 57 a2 f7 3f 78 3d 97 3f 4f 9b e4 3f
       3.1627781 1.9346417 1.1815634 1.7859896
000060 0b 2f 0c 40 76 9f 41 3a 7c f6 61 40 bf 7c dc 3f
       2.1903713 0.0007386127 3.5306692 1.722557
000070 7e e9 10 40 d9 60 b3 3f 16 3a 12 40 da 82 f2 3f
       2.2642512 1.401393 2.2847953 1.8946183
000080 c0 25 d4 b9 d7 5c ea 3f 67 db 4a 40 a4 9a ae 3a
       -0.00040463917 1.8309582 3.1696413 0.0013321233
000090 dd 12 de 38 bc aa fc 3f d1 78 29 40 b6 7b 15 40
       0.000105892985 1.9739604 2.647999 2.3356757
0000a0 c5 47 5f 40 93 5d e7 3f 4d 47 f2 3c e5 31 00 40
       3.4887555 1.8075432 0.029575014 2.0030453
0000b0 22 c2 0e 40 8d ed 11 40 22 05 b2 3f fb 1b eb 3f
       2.230599 2.280124 1.3907816 1.8367914
0000c0 7e 1b fd 3f 32 d0 01 3f 7e 54 92 3f fe 6f 26 40
       1.9774015 0.50708306 1.1432035 2.6005855
0000d0 ab 39 c8 3f f3 18 0e 40 49 f7 da 3f 69 b5 ff 3f
       1.5642599 2.2202728 1.7106715 1.9977237
0000e0 5c c9 f3 3f 8b ed 4a 40 25 1c 26 40 b2 d3 06 40
       1.9045825 3.1707485 2.5954678 2.1066709
0000f0 6d ef b3 3f f4 72 d7 3f 8b 36 dd 3f 66 01 58 3f
       1.4057442 1.6831956 1.728227 0.84377134

module.down1.mpconv.1.conv.1.bias f4 [64]
000000 07 dc 42 bf 20 b1 54 3e ed 13 c8 3d e4 03 24 bf
       -0.76116985 0.20770693 0.097694255 -0.64068437
000010 24 0a 4d be fc 27 cf bf 9b 3d 1b bf 77 98 89 be
       -0.200234 -1.6184077 -0.6064088 -0.26874134
000020 82 f2 c8 3c d8 63 a9 be 6c ac 52 bf ae d2 bd be
       0.0245297 -0.33083987 -0.82294345 -0.37074798
000030 1d 9c 08 3f 12 84 d0 3e 1c a0 70 3e f2 05 54 bf
       0.5336321 0.40725762 0.23498577 -0.8282157
000040 cf 5f b8 c0 96 97 2c bf 4f f3 6e bf e7 75 60 be
       -5.7616954 -0.674188 -0.9334001 -0.21919976
000050 ca a0 5a bf 72 78 75 bb 77 78 c6 3e bc 6d 9b bf
       -0.85401595 -0.0037455824 0.38763782 -1.2142863
000060 b8 22 de bf 43 38 1e be 48 33 22 be a1 28 21 be
       -1.7354345 -0.1545115 -0.15839875 -0.15738155
000070 0d 2b 6e bd 02 f9 ac bf e2 56 17 be 12 32 82 be
       -0.058146525 -1.3513491 -0.14779237 -0.25428826
000080 95 b5 ae bd 05 c0 68 c0 fe 2c 07 bf 15 da 3f bd
       -0.08530728 -3.63672 -0.5280303 -0.04683884
000090 1c f8 15 bd 89 f4 6a be 9b 91 de be cf fa 4a 3f
       -0.03661357 -0.22944845 -0.43470463 0.79288954
0000a0 66 98 5c bf fd ef 32 bf 42 04 fb be 13 00 08 bf
       -0.8617004 -0.69897443 -0.49026686 -0.53125113
0000b0 09 80 d4 bb 5d d1 03 3f 26 c9 54 c0 5c 23 ff be
       -0.0064849895 0.5149134 -3.3247771 -0.49831665
0000c0 7b ff 8e c0 51 4f 8d 3f af eb dd bf 95 a3 89 bd
       -4.4686866 1.103983 -1.733755 -0.06720654
0000d0 da ea f5 be 20 5f 8b bc 8c e9 b5 bf 8e ef cf bf
       -0.4803074 -0.017013133 -1.4211898 -1.6244981
0000e0 b6 bd 40 bc 7e 8d 05 be 4b ae 6e bf 28 c4 85 be
       -0.011763981 -0.13042256 -0.932347 -0.26126218
0000f0 eb 20 91 c0 83 88 af be 2e e8 d1 be 5c dc b6 bf
       -4.5352683 -0.34283838 -0.40997452 -1.4285998

module.down1.mpconv.1.conv.1.running_mean f4 [64]
000000 56 78 e9 c2 74 9a 08 c3 c2 82 7c c2 c9 8f c6 c2
       -116.73503 -136.60333 -63.127693 -99.28083
000010 e5 10 18 c2 bd 13 21 c0 66 30 59 c2 0e 8d 99 c2
       -38.0165 -2.5168297 -54.297264 -76.7755
000020 ec 74 5d c2 7b 5e f9 c2 90 2a 5d c3 72 16 9e c2
       -55.36418 -124.68453 -221.16626 -79.04384
000030 9f 8a 01 c3 0b 49 61 c3 50 ff a6 c2 8e cb 4a c2
       -129.54149 -225.28532 -83.49866 -50.698784
000040 17 08 f1 42 4a 30 5f c2 f5 6d 31 c3 dd 56 7a c2
       120.5158 -55.797157 -177.42952 -62.584827
000050 9b 4a e0 c2 23 ca 3b c2 f9 74 a1 c2 58 d7 8e c2
       -112.14571 -46.9474 -80.72846 -71.42059
000060 c9 f1 01 c3 7d a2 6a c2 2d 17 58 c3 2f 13 b0 c2
       -129.94447 -58.65868 -216.09053 -88.03747
000070 5d 18 16 c1 43 d3 e6 42 79 62 e9 c2 81 67 81 c2
       -9.380948 115.41262 -116.69233 -64.702156
000080 1b 15 ef 40 bf 0f 0f 42 16 6f cd c2 33 21 0c c1
       7.4713264 35.765377 -102.716965 -8.758105
000090 35 41 e9 c0 e0 4a 46 c3 cc a9 01 c3 fd cc ca c2
       -7.28921 -198.29248 -129.66327 -101.40037
0000a0 3a ef a2 c3 98 02 64 41 27 4b 00 c1 d7 75 d0 c2
       -325.86896 14.250633 -8.018348 -104.230156
0000b0 d2 23 80 c3 c3 3f 0e c3 0c ac 26 42 1f 10 86 c2
       -256.27985 -142.24907 41.668015 -67.03149
0000c0 b0 69 cb c2 33 dc d6 c2 cc 3a 89 bf e5 13 23 c3
       -101.70642 -107.43008 -1.0721068 -163.07771
0000d0 f6 96 c1 c1 de fc 95 c2 aa b7 94 42 db 48 98 3f
       -24.198711 -74.99388 74.35872 1.1897234
0000e0 f7 67 49 c2 6e 73 b0 c2 70 21 b3 c2 71 32 5d c2
       -50.35153 -88.22545 -89.56531 -55.29926
0000f0 0e b3 1b 42 df eb 3d c2 dd 72 39 41 b3 cb ef 41
       38.92486 -47.480343 11.590543 29.974463

module.down1.mpconv.1.conv.1.running_var f4 [64]
000000 80 02 43 45 e5 d6 4f 45 28 27 aa 45 e5 45 31 45
       3120.1562 3325.431 5444.8945 2836.3684
000010 78 e2 5a 45 ef 94 95 44 b6 db 06 45 99 63 27 45
       3502.1543 1196.6542 2157.732 2678.2249
000020 27 41 43 45 81 de 1f 45 e7 c6 7a 45 fa a9 7e 45
       3124.072 2557.9065 4012.4314 4074.6235
000030 aa 3a 2a 45 e3 4e ec 45 65 d2 09 45 c1 74 e6 44
       2723.6665 7561.861 2205.1497 1843.6486
000040 8c cd 04 45 58 7e 09 45 df 34 55 45 e7 38 0f 45
       2124.8467 2199.8965 3411.3044 2291.5564
000050 0b 2e b5 45 7c 04 e5 44 92 0b f6 44 ec 54 04 45
       5797.7554 1832.1401 1968.3616 2117.3076
000060 c4 8a 30 45 f2 32 3b 43 e4 ed 8a 45 53 56 03 45
       2824.6729 187.199 4445.7363 2101.3953
000070 d6 c0 b2 44 d0 28 6c 45 fd f9 b1 45 44 a1 f8 44
       1430.0261 3778.5508 5695.2485 1989.0396
000080 0e b7 82 40 6e ec d1 44 67 f8 5a 45 34 83 68 40
       4.0848455 1679.3884 3503.5251 3.633008
000090 47 d4 81 40 57 27 62 45 1e 77 67 45 f5 e5 01 45
       4.057163 3618.4587 3703.4448 2078.3723
0000a0 c3 33 22 46 08 4b 0b 45 25 55 23 44 22 df 22 45
       10380.94 2228.6895 653.3304 2605.9458
0000b0 98 69 62 45 d3 a5 53 45 45 84 b0 44 bd 46 04 45
       3622.5996 3386.364 1412.1334 2116.4211
0000c0 73 ef 00 45 14 14 c4 44 23 fa b8 44 e3 ff 25 45
       2062.9656 1568.6274 1479.8168 2655.993
0000d0 ce 73 0d 45 2d b8 47 45 11 2a 10 45 b8 a4 06 45
       2263.2378 3195.511 2306.6292 2154.295
0000e0 6b bf b8 44 76 03 30 45 8d 5b 00 45 ef a9 23 45
       1477.9818 2816.2163 2053.722 2618.6208
0000f0 2b 00 03 45 a7 fe dc 44 70 bd a1 44 72 6c 42 45
       2096.0105 1767.9579 1293.9199 3110.7778

module.down1.mpconv.1.conv.3.weight f4 [64, 64, 3, 3]
000000 80 21 d1 3f 43 98 85 c0 63 1e 0f be 69 fc 06 bf
       1.6338348 -4.1748366 -0.13976435 -0.527289
000010 e3 b4 ac 3f 76 43 9a 3f bd 83 c7 bf 9e 38 23 c0
       1.3492702 1.2051837 -1.5587078 -2.5503306
000020 9c ea 94 c0 e6 ae 33 bf 01 a4 91 bf 41 93 2c 40
       -4.653639 -0.7018875 -1.1378175 2.6964877
000030 0a 8e 04 be 61 11 23 3f 56 9c 58 3f a5 b0 8e 3f
       -0.12944809 0.63698393 0.8461355 1.1147658
000040 ca 8a 8b 40 f8 aa b7 3e 80 19 ec bf 5a 7b d3 3f
       4.360692 0.35872626 -1.8445282 1.6522019
000050 de 2d f4 bf c5 7e f3 bd b7 b6 aa 3f 8b 61 80 bf
       -1.9076498 -0.11889414 1.333701 -1.0029768
000060 6c 04 2f bf 02 40 d1 3f ef 14 77 bf ab 3f 24 3b
       -0.6836612 1.6347659 -0.9651632 0.0025062363
000070 e4 c3 76 40 08 cb 2d 3f 9a 78 16 40 62 44 70 bf
       3.8557062 0.67887926 2.351111 -0.93854344
000080 10 14 bb c0 d6 c5 4e 40 08 c3 3c 3f 75 76 3d c1
       -5.846199 3.230825 0.73735094 -11.84142
000090 e7 ad 16 40 a9 e5 4f be fb 44 81 40 84 eb e8 be
       2.3543642 -0.20302452 4.0396705 -0.45492184
0000a0 b8 29 da bf 61 90 99 bf b2 d5 9b bf 77 af 48 bf
       -1.7043982 -1.1997186 -1.217459 -0.7839274
0000b0 85 76 61 3f df 53 66 3d 00 bb ac bf fb 7d 75 40
       0.8807147 0.05623233 -1.3494568 3.8358142
0000c0 6e 93 33 3f 5d 36 6c 3f dd db 28 be 5e cd 06 bf
       0.70146835 0.9227045 -0.16490121 -0.52657115
0000d0 ad 9d 11 bf 05 c2 b4 3e d7 e3 19 c0 27 0e a4 3f
       -0.5688122 0.35304275 -2.4045312 1.2816819
0000e0 eb f7 b5 3f 12 a6 ea bf 62 2d 18 bf ad 13 04 c0
       1.4216284 -1.8331931 -0.5944425 -2.063701
0000f0 c1 42 54 bf b3 0c 30 bf d2 3d b6 3f c9 7e 65 3f
       -0.8291436 -0.6876938 1.4237616 0.89646584
000100 7d 22 c4 3e e4 9f 99 3f 1d f3 2e bf 2d ad 42 3f
       0.38307562 1.200192 -0.6833971 0.76045495
000110 f0 9e d1 3f a6 91 e6 bf dd d5 fc 3e 86 5e 2a c0
       1.6376629 -1.8013198 0.49381915 -2.6620193
000120 38 ba 6e 40 f9 2a b4 3f ab 5e 89 40 57 a8 63 3f
       3.730116 1.4075614 4.292806 0.8892874
000130 4f d2 88 bf 9a 96 05 bf a0 8b b8 bf 4f 08 b6 bf
       -1.0689181 -0.52182925 -1.441761 -1.4221286
000140 09 64 3e c0 30 30 95 40 bc bd 05 bf 0f 05 c9 bf
       -2.9748557 4.6621323 -0.52242637 -1.5704669
000150 5d b8 5e be 57 9e d5 3f 43 1e 3b bf ea 4b d8 3f
       -0.21750017 1.6688946 -0.7309305 1.6898167
000160 93 21 d6 3f 38 11 7d 3f fd b3 57 c0 31 fe 8c c0
       1.6728996 0.988544 -3.3703606 -4.406029
000170 0b da 33 c0 69 84 27 40 2f fb 50 40 fc a9 2a 40
       -2.8101833 2.6174567 3.265331 2.666625
000180 bb e9 96 bf 1c 91 b1 be f9 90 52 c0 02 e3 04 c0
       -1.1790079 -0.34681022 -3.2900984 -2.0763555
000190 67 39 6a c0 98 8a 3f c0 9a 81 36 c0 7a 7e 87 3f
       -3.6597536 -2.992834 -2.8516603 1.0585473
0001a0 54 fb 60 40 1f 57 40 bf ec fb 58 40 40 c8 5d be
       3.5153399 -0.75132936 3.390376 -0.2165842
0001b0 89 8a 6b 3f fd c2 22 c0 34 15 86 c0 3c 31 dd c0
       0.9200826 -2.5431511 -4.1900883 -6.91226
0001c0 26 71 1c bf 27 8a 99 3f 7d 6a cf bf d2 55 ee bf
       -0.6111015 1.1995286 -1.6204373 -1.861994
0001d0 6b 8d 94 3f ce be 23 bf 4f 25 f7 3d ca 22 12 40
       1.1605657 -0.6396302 0.12067663 2.2833734
0001e0 4d 7d f7 3f 6e 17 fe 3f d0 53 42 40 ce a2 94 3f
       1.9335114 1.98509 3.0363655 1.1612184
0001f0 1a 71 16 3f 3b 20 f6 3f 42 73 b5 be 8e d3 82 bf
       0.5876633 1.9228586 -0.35439497 -1.0220811
000200 c0 3d 9c 3f 2b 87 7a bf f9 53 46 bf 25 89 0f c0
       1.2206345 -0.978625 -0.7747188 -2.2427456
000210 4a b2 4c bf ed a6 2b 40 09 65 bd 3e bd 54 b3 be
       -0.7995955 2.6820633 0.36991146 -0.35025588
000220 20 46 3e bf 08 ae 65 be 43 ba 2a bf 41 43 8e bf
       -0.7432575 -0.22429669 -0.6669046 -1.1114274
000230 b4 57 54 3f 13 1d 7f bf 41 aa 8a bf 56 97 b5 3f
       0.82946324 -0.9965374 -1.0833207 1.4186809
000240 5c 99 aa be 44 d3 a5 bf 69 f8 0e c0 3c 54 e6 bf
       -0.3332013 -1.2955098 -2.2339118 -1.7994456
000250 08 4d 18 c0 37 2b c4 bf ea 6a ff 3f 21 e6 3f c0
       -2.3797016 -1.5325688 1.9954503 -2.998421
000260 fe 3e d8 bf f7 6b 82 40 b2 0c 0e c0 54 36 e9 3e
       -1.6894224 4.0756793 -2.2195249 0.45549262
000270 6b fc 86 c0 d7 da aa bf ea 81 67 bf 82 7a 8d 3f
       -4.2183127 -1.3348035 -0.9043261 1.1053011
000280 84 bb 39 3e ca 79 5c c0 4f d6 ce bf 68 13 28 be
       0.18137938 -3.4449334 -1.6159152 -0.16413653
000290 4f 00 46 3f e1 43 33 40 75 00 c4 bf 8b 5c 19 40
       0.7734422 2.801018 -1.531264 2.3962734
0002a0 e1 cb 68 be 3b 2a 60 3f 55 35 cb 3f 14 3a 9b be
       -0.22734024 0.8756444 1.5875651 -0.30317748
0002b0 6d ab ad 3f 03 9c 81 bd dc 3a a2 3f 25 ac 45 40
       1.356794 -0.06328585 1.2674212 3.0886319
0002c0 81 46 00 bf 39 45 28 c0 f1 7c a3 c0 e1 21 f0 bf
       -0.5010758 -2.629225 -5.1090016 -1.8760339
0002d0 6e e3 11 c0 0c ed b1 bf ab f5 63 be fd 35 0e c0
       -2.2795062 -1.3900466 -0.22261684 -2.2220452
0002e0 e3 95 ac bf ab 0a 6b 40 77 8a 03 bf 3e d8 33 3e
       -1.3483242 3.6725261 -0.51383156 0.17562959
0002f0 9e df 75 40 23 94 f7 3f 65 87 3c 3f 5c 38 e1 3e
       3.8417735 1.9342083 0.73644096 0.4398831
000300 cd 1c 17 3f ff 34 4c 40 f2 57 d0 3f 6f 3f 1e 40
       0.5902832 3.1907346 1.6276839 2.4726217
000310 e1 ba eb bf cc 71 2e 3f e0 d8 fa 3f 8a fb 06 3e
       -1.8416406 0.6814239 1.9597435 0.13181892
000320 1f f9 49 40 1f ba 5a 3d 6f c6 12 bf 0c e7 e9 bf
       3.1558301 0.053400155 -0.57334036 -1.8273635
000330 17 7a 9e 3f 19 ab cd bf 16 31 5b bd 46 67 86 bf
       1.2381009 -1.606784 -0.05351361 -1.0500267
000340 e7 62 29 bf a6 7d 01 3f b9 b6 b0 be ea f7 30 bf
       -0.6616654 0.5058235 -0.34514406 -0.69128287
000350 cf c2 c5 3e 7e 47 4c 40 fc 76 56 c0 a9 8a f0 3e
       0.3862519 3.1918635 -3.3510122 0.4698079
000360 68 da f8 bf 86 ec 4b c0 34 a4 0c c0 19 6e 3d c0
       -1.9441652 -3.1863112 -2.1975222 -2.9598448
000370 32 dc c3 3e 0b 28 08 40 b9 86 48 c0 d0 e3 25 c0
       0.38253933 2.127444 -3.1332228 -2.5920296
000380 11 35 7e c0 a5 97 df 3c 63 35 68 3d 4d 17 88 3d
       -3.971989 0.02729399 0.05669154 0.06645069
000390 9c a6 d0 3d 09 e4 9a 3d 00 bd f2 3d 85 2b 58 3d
       0.10188028 0.075630255 0.11852455 0.05277588
0003a0 e9 08 cd 3c a8 32 ec 3c 19 11 a3 bf 10 25 78 c0
       0.025028663 0.028832749 -1.2739593 -3.877262
0003b0 88 cb 33 3f c8 0a 8c 3d 79 95 30 c0 f9 3b 3d c0
       0.7023244 0.06837994 -2.759123 -2.9567854
0003c0 4e 0f 83 3e 72 c3 4d 40 d9 67 48 3f af ab 26 c0
       0.25597614 3.215054 0.7828346 -2.6042287
0003d0 26 ec fa 3f a8 5f 54 3e e5 72 ef 3d 29 41 89 bf
       1.9603317 0.20739615 0.11691836 -1.072301
0003e0 db 7f 43 40 1d 6b 9f 3f b3 87 c2 be 10 5c c5 40
       3.0546787 1.2454563 -0.37994155 6.167488
0003f0 27 b0 ff bf 36 ec 7f c0 6a cd a0 bf bf 98 9b 3f
       -1.9975632 -3.9987922 -1.2562687 1.215599

module.down1.mpconv.1.conv.3.bias f4 [64]
000000 05 b6 4b be 67 6c 1d bd dc c0 9e 3e 14 e2 3e 3b
       -0.19893654 -0.03843346 0.31006515 0.0029126452
000010 7e f9 8a be 60 07 8c 3d 4b 61 e6 be 1c 9e 30 be
       -0.27143472 0.06837344 -0.44996104 -0.17247814
000020 51 46 0c 3f 04 cc 01 3d 39 eb 0e bd a7 f8 8b bc
       0.54794794 0.031688705 -0.034892295 -0.01708634
000030 b7 f0 08 be 04 90 73 be 55 da af bd ec 83 13 3b
       -0.13373075 -0.23785406 -0.085865654 0.0022509051
000040 75 29 b1 3d 77 7c a6 bc 2b 73 99 be 07 da 6d be
       0.086504854 -0.020323021 -0.2997068 -0.23227702
000050 fb 73 36 bf fd 47 bf be 53 75 5f 3d 8f a9 da be
       -0.7127072 -0.3735961 0.05455525 -0.42707488
000060 10 e5 cc 3e 18 e1 e1 bd 88 ac 28 3f 79 2a 90 bd
       0.4001851 -0.11029261 0.6588826 -0.07039351
000070 a7 e8 e7 3d 79 94 d7 3e d0 ac 9b 3e 68 b7 1a 3d
       0.11323672 0.42105463 0.30405283 0.037772566
000080 9a 5f 35 bf fa 52 47 bf ae 9f e9 be 61 12 d2 be
       -0.70849 -0.7786099 -0.45629638 -0.41029647
000090 0d e4 bb be 79 27 14 bd 76 0e ea 3e f3 4a 4f be
       -0.36697426 -0.036170457 0.45714158 -0.20243435
0000a0 63 2b bd be 08 00 14 3e ba b4 17 bd 16 de d8 3c
       -0.36947164 0.14453137 -0.03703759 0.026473086
0000b0 1c d1 c6 bf 29 08 82 be c4 61 19 bf 93 93 da be
       -1.5532565 -0.2539685 -0.59914804 -0.42690715
0000c0 12 54 1d bf fe b9 78 bc 8d 25 65 be e8 01 1c 3e
       -0.61456406 -0.015181063 -0.22377606 0.15235102
0000d0 2b 4c df bd 1f 63 a0 bf c6 bb 16 3e 71 b5 0b 3f
       -0.109032 -1.2530249 0.14720067 0.5457373
0000e0 e2 59 0b bd af 72 19 3e d4 82 3a 3c 0f 49 bc bd
       -0.034021266 0.14985155 0.011383731 -0.09193622
0000f0 a4 0c 55 be dc af e7 be 24 f9 a7 bd 7f 24 d0 bd
       -0.20805603 -0.45251358 -0.08201817 -0.10163211

module.down1.mpconv.1.conv.4.weight f4 [64]
000000 7a 99 24 3f 9f d7 46 bb 05 35 3e 3f 1b a7 19 3f
       0.64296687 -0.0030340923 0.7429965 0.6002061
000010 b3 47 1d 40 dc 04 37 3f 1f db fe 3f 74 aa 53 3f
       2.4575012 0.7149179 1.991062 0.82681966
000020 37 47 c8 3f 8e b8 82 3f 14 17 06 b7 d1 de 69 3f
       1.5646733 1.0212572 -7.992396e-06 0.91355616
000030 05 f7 e7 3b 2d 35 e1 3f 4f 13 69 3f 0f 8d 20 3e
       0.0070790076 1.7594353 0.9104509 0.1567881
000040 75 a6 5a 3f 9c bb 33 39 ec 89 29 3f 5a 1f 57 3f
       0.85410243 0.0001714066 0.6622608 0.84032214
000050 c3 37 ec 3f e8 2c 9b 3f 11 01 7f 3f 4b 32 ac 3f
       1.8454517 1.2123079 0.99611 1.3452848
000060 c8 3a e2 3f e8 73 e1 3f 2d 41 bf 3f e5 ba 1b 40
       1.7674189 1.7613497 1.4941765 2.4332821
000070 bd 56 a0 3f fa 99 92 3f 31 cd 4b 3f ac 54 a0 3f
       1.252647 1.145324 0.7960997 1.252584
000080 aa 08 7b 3f c1 d4 ad 3f d2 83 b4 3f a4 68 1a 3f
       0.98060095 1.3580552 1.4102728 0.6031592
000090 85 3f 72 3f 33 9a ea 3f ff 0c 7a 3f a7 73 be 3f
       0.94628173 1.8328308 0.9767608 1.4879044
0000a0 27 9c ba 3f 56 b9 bb 3f 97 a7 57 3f c3 b1 fc 39
       1.4578904 1.4665935 0.84240097 0.00048197628
0000b0 5b 46 a3 3f 22 da 08 40 50 54 9c 3f 42 ea b3 3f
       1.2755846 2.1383138 1.221323 1.4055865
0000c0 c1 bc 2f 3f 62 72 2b 3b 6f 2e b8 3f 4a de 1a 3f
       0.6864739 0.0026160707 1.438917 0.60495436
0000d0 3b 7b 3a 3f f4 0f 3f 3f 47 b0 fc 3f 7a c4 02 3f
       0.72844285 0.7463372 1.9741296 0.5108105
0000e0 45 91 8e 3f 8a d3 c0 3f a0 58 bb 3f 99 d1 95 3f
       1.1138083 1.5064557 1.4636421 1.1704589
0000f0 72 f2 11 3f cc 91 b8 3f 63 4b 0c 3f 23 af b9 3f
       0.5701057 1.4419494 0.5480253 1.4506572

module.down1.mpconv.1.conv.4.bias f4 [64]
000000 06 98 aa 3d f1 42 d9 bd 0a 4c 1c 3f cc f2 70 3e
       0.083297774 -0.10608471 0.61053526 0.2353012
000010 03 f0 98 bf 0d 45 25 3f a1 e3 3b c0 81 d1 f3 bd
       -1.1948246 0.6455849 -2.9357684 -0.11905194
000020 92 78 92 3e 86 af ba be c3 0a 25 be 31 3a 4e bd
       0.28607613 -0.3646204 -0.16117387 -0.050348464
000030 09 60 60 be 49 94 b0 bf 95 73 49 be 3f 41 55 bf
       -0.21911635 -1.3795253 -0.19672997 -0.8330268
000040 35 3e 13 3f db 90 83 bd 13 28 f6 3c 59 16 ba bd
       0.57516795 -0.06424113 0.030048406 -0.09086294
000050 02 6b 09 c0 b1 0c 8c bf 6a 6a 0c 3f 86 74 19 bf
       -2.1471562 -1.0941373 0.54849875 -0.59943426
000060 90 a7 f5 3e 29 6e 80 bf 03 45 7c 3f 5a d2 8d bf
       0.47979403 -1.0033618 0.98542804 -1.1079819
000070 9e 25 a8 bd 1b a5 8b 3f 18 14 6c 3e d2 64 4a 3e
       -0.082103 1.0909761 0.2305454 0.19765022
000080 5e 8c ad bf 03 86 e2 bf 86 92 f6 bf b2 52 4f be
       -1.3558462 -1.7697147 -1.9263465 -0.2024639
000090 1b b3 7d bf b5 c1 9c bf ef a6 ed 3e ca d3 1e c0
       -0.9910142 -1.2246615 0.46416423 -2.4816766
0000a0 87 e1 73 bf 4b 38 84 3e b3 b7 80 3d cd bc d1 bd
       -0.95266 0.25824198 0.06285038 -0.10241089
0000b0 80 c5 7f c0 ee 6a fa bf 59 f5 b5 bf 55 b8 90 bf
       -3.9964294 -1.9563882 -1.4215499 -1.1306254
0000c0 ec 11 6f bf 42 d5 91 be 22 e7 84 bf 24 ba dd 3f
       -0.9338672 -0.28483015 -1.0383036 1.7322431
0000d0 af e7 3c 3e c9 95 b7 bf bb 7e fa be a4 dd bf 3f
       0.18447755 -1.4342586 -0.48924813 1.4989514
0000e0 ed f7 a2 3c 41 56 cd 3d 88 a6 91 3d b0 6e 9b be
       0.01989361 0.10026217 0.071118414 -0.30357885
0000f0 f8 45 16 3f f2 eb b0 bf 23 59 88 be cf cf e2 be
       0.58700514 -1.3822005 -0.26630506 -0.4429917
