learned_models/mask/example_model.pth (torch_old, 416836 bytes, 39 tensors)

module.inc.conv.conv.0.weight f4 [32, 1, 3, 3]
0.08358998 0.17631406 -0.15138812 -0.9077423 -0.00719495 0.110916816 0.07735636 0.40082988
0.03444468 0.041896734 0.018405305 0.05689866 0.015745545 -1.251392 0.18050236 0.070660755
0.22111034 0.09809268 -0.03036861 -0.8027612 0.26236278 0.6839642 0.05213819 0.38224614
-0.35485908 0.012504267 0.13095562 -0.012278072 -0.1763213 -0.008418808 -0.18368064 1.0276141
-0.18825953 -0.009976977 -0.4052581 -0.009473632 -0.57796896 0.2965842 0.03365857 0.323391
0.024343286 -0.103595376 0.25082228 -0.2901672 -0.44499332 -0.83319795 0.0071713957 0.028166909
-0.2577139 -0.21432114 0.15843622 0.44151023 0.22398447 0.14338586 0.1780482 0.11696981
0.15036255 0.09900262 -1.1574785 -0.036432605 0.103361234 0.14496529 0.020156467 0.09521442
0.24402466 -0.015844839 0.010888422 0.039788336 0.16295578 0.023271559 -1.2970504 0.04176776
0.047411762 0.031113619 0.014316209 0.1790735 0.020852124 -0.5296534 -0.017660605 -0.16929804
-1.7909017 0.1319179 0.28866458 -1.1813657 0.056370188 0.15917581 0.14574876 0.024094068
0.10384251 -0.003875852 0.500827 0.1565364 0.88248837 0.04821403 -0.7729463 -0.052853204
-0.028165447 -0.069403775 -0.20953952 0.121673025 0.0037116932 0.2178373 -0.044427715 -0.1106481
-0.049503498 0.147592 -2.1181023 0.04911504 0.018361077 0.14418772 0.043290827 0.11446781
-0.4947524 0.32541707 0.18679653 -0.98887926 0.070560426 0.033832904 0.02410653 0.08691542
0.12748489 0.08906358 0.00065927516 0.1031308 -1.2222193 0.0044836416 0.022544522 0.01853472
0.099947065 -2.0628765 0.08537868 0.19887906 0.049603786 0.17207201 0.16693984 -0.28385386
-0.38402095 -0.35303006 0.072730474 0.3725509 0.20523852 -0.0029929325 0.41451532 -0.42510462
0.020859133 0.07160006 0.598703 0.08066356 -0.6403281 -0.018960789 -0.7499254 0.04320854
-0.0207058 0.004283907 0.006484165 -2.9975646 0.007954707 0.014055617 0.005356252 0.0063727535
0.007615489 0.0048514493 0.0036720396 0.02271947 0.011599957 0.011728107 -0.11492665 0.18244635
-1.3661948 0.11547765 0.2222135 0.006735512 0.017554473 0.0068338197 -2.3948276 0.006149237
0.024457725 0.002533942 0.018259235 0.008049644 0.015098206 0.040466227 0.15817533 0.082711875
0.32102075 0.19112761 0.052203473 -0.0053874855 -1.2376716 0.33479595 0.2022662 0.023905236
-1.5600238 0.020929804 -0.015051552 0.111083075 0.001615272 -0.0013919706 0.0006251954 -0.00028408336
0.0045576626 0.42621052 -0.61928976 -0.0023328264 -0.28914276 0.4552938 0.001255926 0.37868762
0.14238329 -0.01994857 0.025503024 0.16932961 0.14417994 -1.0671997 0.09850767 -0.0015419971
-0.018458774 -0.007066407 0.086194895 -0.6294527 0.2878515 0.67585087 0.13316508 -0.007871082
-0.7491928 0.06005556 -1.5624014 0.020082569 0.05216294 0.033171393 0.0662899 0.13338946
0.20795771 0.1454472 0.043952037 -0.060903575 0.0013367214 -0.023936 -0.6259319 0.31082195
0.0625 0.55667454 -0.32056102 0.057495374 0.20371017 -0.22750667 0.25513035 -1.0959569
0.2218066 0.08513187 0.04909424 0.10985488 0.009035544 -0.02978714 -0.004491884 -0.004347302
00000000: 3931 ab3d ac8b 343e 7d05 1bbe cd61 68bf
00000010: 9dc3 ebbb 5b28 e33d 036d 9e3d 9339 cd3e
00000020: dd15 0d3d e99b 2b3d b9c6 963c 920e 693d
00000030: cdfc 803c 9d2d a0bf 9cd5 383e 96b6 903d
00000040: c06a 623e d1e4 c83d 97c7 f8bc c281 4dbf
00000050: 6a54 863e 4718 2f3f db8e 553d c4b5 c33e
00000060: 17b0 b5be b2de 4c3c 3b19 063e f729 49bc
00000070: 928d 34be 0aef 09bc c716 3cbe dc88 833f
00000080: 1bc7 40be 7976 23bc fd7d cfbe 4b37 1bbc
00000090: c6f5 13bf e2d9 973e 92dd 093d 8193 a53e
000000a0: 926b c73c d029 d4bd c76b 803e cc90 94be
000000b0: 2ad6 e3be 764c 55bf 07fe ea3b 4abe e63c
000000c0: 14f3 83be 0077 5bbe 1b3d 223e a10d e23e
000000d0: 2f5c 653e bed3 123e 4452 363e de8d ef3d
000000e0: a4f8 193e e3c1 ca3d 4128 94bf 5b3a 15bd
000000f0: 0eaf d33d c871 143e 2d1f a53c c7ff c23d
00000100: 9ae1 793e 09cd 81bc 5a65 323c 18f9 223d
00000110: e1dd 263e ffa3 be3c bf05 a6bf ac14 2b3d
00000120: d632 423d fde1 fe3c 888e 6a3c 0b5f 373e
00000130: 13d2 aa3c 5d97 07bf f9ac 90bc 775c 2dbe
00000140: 443c e5bf 7c15 073e d8cb 933e fe36 97bf
00000150: 6de4 663d fcfe 223e 2a3f 153e ec60 c53c
00000160: 62ab d43d 0202 7ebb 3336 003f 144b 203e
00000170: c2ea 613f 137c 453d cfdf 45bf 9a7c 58bd
00000180: 39bb e6bc 9123 8ebd 8791 56be b52f f93d
00000190: e13f 733b be10 5f3e d6f9 35bd 799b e2bd
000001a0: 2ec4 4abd 5b22 173e fd8e 07c0 da2c 493d
000001b0: f869 963c f2a5 133e b951 313d 196e ea3d
000001c0: 3050 fdbe 119d a63e 9747 3f3e 3127 7dbf
000001d0: fc81 903d 5f94 0a3d 0f7b c53c b600 b23d
000001e0: 668b 023e f766 b63d 35d3 2c3a 3e36 d33d
000001f0: af71 9cbf 83eb 923b 4aaf b83c 20d6 973c
00000200: 0cb1 cc3d 2b06 04c0 04db ae3d f4a6 4b3e
00000210: 572d 4b3d a533 303e 47f2 2a3e 4b55 91be
00000220: 659e c4be 5bc0 b4be b7f3 943d febe be3e
00000230: 0c2a 523e 1325 44bb 5a3b d43e 50a7 d9be
00000240: c6e0 aa3c 0da3 923d 9a44 193f f032 a53d
00000250: 8bec 23bf a853 9bbc 1cfb 3fbf 70fb 303d
00000260: 369f a9bc 0460 8c3b 1e79 d43b 19d8 3fc0
00000270: 7654 023c 8849 663c 8083 af3b 88d2 d03b
00000280: 5a8b f93b e8f8 9e3b 9aa6 703b 2f1e ba3c
00000290: bf0d 3e3c 3f27 403c aa5e ebbd 37d3 3a3e
000002a0: 79df aebf 8c7f ec3d f08b 633e 92b5 dc3b
000002b0: 66ce 8f3c 3cee df3b db44 19c0 8a7f c93b
000002c0: 915b c83c 7e10 263b 6494 953c a7e2 033c
000002d0: 775e 773c eabf 253d b7f8 213e d864 a93d
000002e0: d55c a43e f5b6 433e 4fd3 553d 8189 b0bb
000002f0: 066c 9ebf 606a ab3e df1e 4f3e ead4 c33c
00000300: dcae c7bf fb74 ab3c c99a 76bc 867f e33d
00000310: 89b7 d33a c872 b6ba 27e4 233a 06f1 94b9
00000320: 7258 953b 4438 da3e c689 1ebf 55e2 18bb
00000330: 850a 94be 451c e93e e29d a43a 58e3 c13e
00000340: edcc 113e 2f6b a3bc b8eb d03c be64 2d3e
00000350: e8a3 133e 009a 88bf 64be c93d d61c caba
00000360: db36 97bc 518d e7bb f386 b03d d023 21bf
00000370: 4661 933e 9004 2d3f 6d5c 083e b6f5 00bc
00000380: 19cb 3fbf d2fc 753d c5fc c7bf 3384 a43c
00000390: cfa8 553d bade 073d 00c3 873d 3f97 083e
000003a0: def2 543e 1cf0 143e 0d07 343d 0776 79bd
000003b0: ed34 af3a 6e15 c4bc 133d 20bf 0e24 9f3e
000003c0: 0000 803d 3982 0e3f 9320 a4be 4580 6b3d
000003d0: 6699 503e 82f7 68be 72a0 823e 5148 8cbf
000003e0: 4521 633e 9e59 ae3d 0b17 493d 98fb e03d
000003f0: d109 143c 2904 f4bc a730 93bb d073 8ebb

module.inc.conv.conv.0.bias f4 [32]
-0.10120482 0.0037644787 -0.3533951 0.12586993 0.11422466 0.16708268 -0.09079668 -0.22035252
0.3298316 -0.28428084 0.3455609 -0.18570063 -0.1786121 0.124927856 -0.2575311 0.042232748
0.031971846 -0.098983146 0.089962736 0.24577075 0.14062846 -0.05456115 -0.2706179 -0.08442196
0.08391234 -0.046030257 0.07438557 0.17812218 -0.15722775 -0.07651769 0.1773807 -0.01788586
00000000: 7944 cfbd 79b5 763b 34f0 b4be 0ce4 003e
00000010: 9eee e93d b917 2b3e 9cf3 b9bd 17a4 61be
00000020: b0df a83e 428d 91be 5ced b03e 4e28 3ebe
00000030: 17e6 36be 2dda ff3d 1edb 83be 3ffc 2c3d
00000040: e9f4 023d adb7 cabd 623e b83d 54ab 7b3e
00000050: e800 103e 837b 5fbd 6e8e 8abe 6ce5 acbd
00000060: 3cda ab3d 398a 3cbd 7657 983d a965 363e
00000070: 5000 21be 4fb5 9cbd 49a3 353e 5e85 92bc

module.inc.conv.conv.1.weight f4 [32]
0.5252217 1.4146794 0.36564937 0.4361138 0.3767771 0.15206784 1.0929502 1.0686789
1.419433 0.92958397 -0.3900199 0.5175813 0.9082163 1.5913851 0.83333874 0.3358211
0.57041067 2.3608043 1.1538615 2.244161 0.91704226 0.85997355 0.5678197 0.6285912
0.28899544 1.5601794 0.41151932 0.756831 0.51679647 0.47100458 0.85447997 0.56689775
00000000: ee74 063f 3714 b53f 6536 bb3e 4f4a df3e
00000010: eee8 c03e acb7 1b3e cbe5 8b3f 78ca 883f
00000020: fbaf b53f 37f9 6d3f b0b0 c7be 3580 043f
00000030: dd80 683f 82b2 cb3f b055 553f bef0 ab3e
00000040: 6f06 123f 6b17 1740 bcb1 933f 55a0 0f40
00000050: 48c3 6a3f 3a27 5c3f a25c 113f 5aeb 203f
00000060: 36f7 933e f5b3 c73f a9b2 d23e adbf 413f
00000070: c64c 043f 8327 f13e 33bf 5a3f 3620 113f

module.inc.conv.conv.1.bias f4 [32]
0.08107962 0.023950012 0.28770748 -0.012518403 0.026963599 0.07866833 0.10012992 -0.01693078
0.14396484 0.28261483 -0.5002143 0.6450648 0.21722792 0.08995028 0.45803696 0.09670654
0.05108647 0.15210237 0.117487565 0.12355389 0.19998273 0.007838706 -0.013003718 0.1472111
0.049911287 0.27448335 0.0023459818 0.16890341 0.0952287 0.15600646 0.09190774 -0.050189506
00000000: 120d a63d d132 c43c 654e 933e fd19 4dbc
00000010: c4e2 dc3c dd1c a13d ea10 cd3d 6bb2 8abc
00000020: 856b 133e e4b2 903e 0b0e 00bf f722 253f
00000030: ff70 5e3e da37 b83d d283 ea3e 140e c63d
00000040: 0c40 513d b9c0 1b3e 529d f03d d209 fd3d
00000050: 46c8 4c3e ea6d 003c 8c0d 55bc 82be 163e
00000060: c76f 4c3d 1589 8c3e 0bbf 193b 04f5 2c3e
00000070: 4407 c33d 28c0 1f3e 203a bc3d 8393 4dbd

module.inc.conv.conv.1.running_mean f4 [32]
-0.40504032 -0.8129978 0.09879351 0.27552798 -0.482482 -0.06652361 -0.7024565 -1.1202935
-1.6962483 -0.707492 0.8907744 -2.9474583 -0.9138181 -0.84580505 -1.8691118 -0.5104254
-0.8005215 -2.4852083 -0.9478614 -1.8883832 -0.38753346 -0.9511437 -0.34148732 -0.297093
-0.46091136 -1.0682645 -0.201977 -0.35975507 -2.4395585 0.26844344 -1.0186362 -0.46103656
00000000: 7261 cfbe a020 50bf 4054 ca3d 0112 8d3e
00000010: e107 f7be 883d 88bd 30d4 33bf c765 8fbf
00000020: aa1e d9bf 321e 35bf cb09 643f 28a3 3cc0
00000030: fcef 69bf ae86 58bf 0e3f efbf 3dab 02bf
00000040: faee 4cbf a70d 1fc0 0ba7 72bf 8ab6 f1bf
00000050: c96a c6be 277e 73bf 6dd7 aebe 931c 98be
00000060: 93fc ebbe e4bc 88bf 0fd3 4ebe d131 b8be
00000070: ba21 1cc0 6b71 893e ac62 82bf fc0c ecbe

module.inc.conv.conv.1.running_var f4 [32]
10.724519 23.099073 12.566256 4.9459987 9.618061 7.618281 16.637222 24.642702
85.531975 20.034678 14.427859 169.55205 25.837196 24.703146 94.87018 9.636929
26.818502 112.14615 40.377064 90.855064 20.301785 21.687056 3.7927647 13.823024
13.524555 30.903803 5.6060963 14.165677 87.80323 12.241793 47.823242 6.4214396
00000000: a197 2b41 e7ca b841 620f 4941 9f45 9e40
00000010: 94e3 1941 f5c8 f340 0819 8541 4124 c541
00000020: 5f10 ab42 0547 a041 83d8 6641 538d 2943
00000030: 94b2 ce41 0ba0 c541 88bd bd42 dc30 1a41
00000040: 4b8c d641 d44a e042 1d82 2142 cbb5 b542
00000050: 0e6a a241 177f ad41 a8bc 7240 1b2b 5d41
00000060: 9464 5841 fd3a f741 2465 b340 9da6 6241
00000070: 419b af42 62de 4341 004b 3f42 6f7c cd40

module.inc.conv.conv.3.weight f4 [32, 32, 3, 3]
-0.2914035 -0.16487382 0.0086417645 -0.15823647 0.3504063 -0.21477237 -0.23343171 -0.059899673
0.0075653964 -0.19110529 0.19424249 -0.08394326 0.2937241 0.024138335 -0.30026677 0.095119774
0.29297763 -0.011915796 0.18338072 0.20997877 -0.15565123 0.3777079 -0.6082327 0.35654572
0.52279043 -0.42968878 0.32902408 0.28723624 -0.5396631 0.19602719 -0.84760576 0.03380991
-0.4132378 0.3192163 -0.09003937 0.06594956 -0.1983283 -0.10707854 0.18381126 -0.02810774
-0.5199903 0.023703707 -0.16124314 0.18444327 0.15503098 0.07898664 -0.29274994 0.16042644
0.13818626 0.012387488 -0.19385682 0.2887683 0.17886306 -0.39338407 0.05871087 -0.1364117
-0.09932924 -0.28199518 -0.36198932 0.072307795 -0.013124947 0.12227249 -0.04840362 0.055640586
-0.073377624 -0.0024295833 0.108105056 0.19510545 -0.20069559 -0.29105926 -0.10235018 -0.15988952
0.21288764 -0.18765286 0.013795377 -0.017430216 -0.045351174 0.06400834 -0.027304722 0.21602856
0.05788754 0.060116682 -0.014115039 -0.02761179 0.14578344 -0.041770827 0.05071411 -0.28956318
0.68118143 -0.30245718 -0.41935688 -1.0876244 -0.35588622 0.35769817 -0.7383228 0.6302315
-0.41905433 -0.04628717 -0.10418138 0.59717256 -0.39508012 0.09327323 0.0022909117 -0.21386497
-0.07128632 0.26191792 -0.25025114 -0.047978587 0.36631557 0.0114675565 0.18754591 0.49733937
-0.08359245 0.20275962 -0.12108717 -0.083205774 0.052272525 0.22170764 -0.0775332 -0.08411454
0.18650039 0.02779886 0.22782533 -0.062100243 0.3885081 0.21016315 -0.089493394 -0.33775404
-0.12843417 -0.032047547 0.62630624 -0.3252457 -0.14139302 -0.23829304 -0.042872865 -0.32579345
0.042675626 -0.108881816 -0.21468918 -0.10326758 0.06957966 -0.024106955 -0.042464986 -0.18476054
0.05250441 0.06786441 0.12407159 0.055722058 0.0007713124 -0.07161421 0.13739344 0.22676034
-0.03921886 -0.30009407 -0.24416249 -0.010645083 0.13432261 -0.052185647 0.13306902 0.10293924
-0.19104676 -0.079995945 0.08578369 0.54763186 0.03546143 0.20585623 0.38659987 -0.02109445
0.18365711 0.18804051 -0.078635044 -0.0059120227 -0.31312168 0.13078554 0.31295046 0.28148362
0.25277865 0.3507422 0.0842077 0.39443624 -0.03701856 0.0049499953 -0.017886933 0.13443087
0.058942568 -0.031353775 0.12244692 -0.18596134 -0.015230096 0.061592918 -0.09336653 0.066014834
0.11694576 -0.046661265 0.011398729 -0.011604008 -0.46915537 0.030819105 -0.26317456 -0.5129621
0.5714589 -0.122348964 -0.9802815 0.55679786 -0.1262828 -0.20489565 0.13269071 -0.03463946
0.32634774 -0.14098087 0.044479463 -0.18361467 -0.06433325 -0.043894555 -0.34012085 -0.15093645
-0.4365227 -0.5873494 -0.022065092 -0.15656573 0.17426658 -0.14031658 0.0631806 -0.12603423
-0.16132939 -0.2711434 -0.15688811 -0.085121475 0.25230157 0.095511585 -0.091731854 0.39366397
0.015232846 -0.12417854 -0.25417235 -0.07731082 -0.046824742 0.17284557 0.12151448 -0.17938639
0.21623497 -0.1960642 0.0252306 0.074842215 0.027081896 -0.019386565 0.46527147 -0.093573675
0.42518175 -0.13671635 -0.30293727 0.026680429 0.14619139 -0.014582149 -0.029821323 0.13737623
00000000: d732 95be afd4 28be 3096 0d3c be08 22be
00000010: 7468 b33e 4aed 5bbe b908 6fbe 5c59 75bd
00000020: 25e7 f73b 1bb1 43be 81e7 463e 72ea abbd
00000030: 0163 963e c2bd c53c 91bc 99be 28ce c23d
00000040: 2a01 963e 793a 43bc 28c8 3b3e ad04 573e
00000050: 0963 1fbe ee62 c13e 23b5 1bbf 298d b63e
00000060: 98d5 053f 2b00 dcbe d875 a83e a110 933e
00000070: 5c27 0abf 5abb 483e b1fc 58bf 437c 0a3d
00000080: e893 d3be 5270 a33e 9066 b8bd 9010 873d
00000090: 9316 4bbe fe4b dbbd 0539 3c3e 3442 e6bc
000000a0: 161e 05bf 472e c23c ec1c 25be b2de 3c3e
000000b0: 71c0 1e3e bfc3 a13d 52e3 95be d446 243e
000000c0: b380 0d3e e4f4 4a3c 6782 46be 70d9 933e
000000d0: e127 373e a369 c9be cf7a 703d 82af 0bbe
000000e0: 216d cbbd ac61 90be aa56 b9be 1c16 943d
000000f0: 050a 57bc 006a fa3d e042 46bd 62e7 633d
00000100: 0247 96bd a539 1fbb 2f66 dd3d b9c9 473e
00000110: 2583 4dbe b805 95be f99c d1bd 14ba 23be
00000120: 38ff 593e 1228 40be 0106 623c d0c9 8ebc
00000130: 27c2 39bd ce16 833d 27ae dfbc 9736 5d3e
00000140: 7c1b 6d3d e93c 763d c442 67bc 1f32 e2bc
00000150: 4148 153e e317 2bbd 99b9 4f3d a041 94be
00000160: e861 2e3f abdb 9abe f2b5 d6be 4737 8bbf
00000170: b836 b6be 3724 b73e b902 3dbf da56 213f
00000180: 4a8e d6be 9e97 3dbd 0c5d d5bd 4de0 183f
00000190: f147 cabe 0906 bf3d 1f23 163b 6bff 5abe
000001a0: 90fe 91bd 1b1a 863e eb20 80be 3285 44bd
000001b0: b78d bb3e 6be2 3b3c 090c 403e 44a3 fe3e
000001c0: 8532 abbd 38a0 4f3e 8dfc f7bd ca67 aabd
000001d0: b71b 563d 5407 633e bac9 9ebd 3e44 acbd
000001e0: f5f9 3e3e 6fba e33c 0b4b 693e d35c 7ebd
000001f0: 89ea c63e 0235 573e 5048 b7bd 19ee acbe
00000200: 3f84 03be 4a44 03bd 9b55 203f 9b86 a6be
00000210: 55c9 10be 1703 74be 759b 2fbd 66ce a6be
00000220: a3cc 2e3d 6efd debd 7bd7 5bbe f47d d3bd
00000230: c87f 8e3d f37b c5bc c4ef 2dbd de31 3dbe
00000240: dd0e 573d 7ffc 8a3d 3f19 fe3d d03c 643d
00000250: e631 4a3a 79aa 92bd deb0 0c3e dd33 683e
00000260: f5a3 20bd eea5 99be bb05 7abe b768 2ebc
00000270: de8b 093e 9ec0 55bd 3f43 083e cfd1 d23d
00000280: c3a1 43be ead4 a3bd 5caf af3d 9a31 0c3f
00000290: 0140 113d facb 523e 6bf0 c53e 45ce acbc
000002a0: 9c10 3c3e b18d 403e 690b a1bd a4b9 c1bb
000002b0: 7c51 a0be a5ec 053e 0b3b a03e 9f1e 903e
000002c0: 346c 813e 7b94 b33e 1675 ac3d 8cf3 c93e
000002d0: c6a0 17bd 9233 a23b 9e87 92bc 3fa8 093e
000002e0: c36d 713d d16c 00bd 73c5 fa3d a66c 3ebe
000002f0: a787 79bc db48 7c3d f436 bfbd c932 873d
00000300: 4281 ef3d e21f 3fbd bcc1 3a3c bd1e 3ebc
00000310: 2235 f0be 5978 fc3c d1be 86be 7c51 03bf
00000320: 214b 123f 1892 fabd baf3 7abf 4e8a 0e3f
00000330: 4750 01be 2ad0 51be 13e0 073e 1be2 0dbd
00000340: 0d17 a73e 4a5d 10be 1930 363d 7c05 3cbe
00000350: 27c1 83bd c7ca 33bd 5224 aebe 168f 1abe
00000360: e77f dfbe 885c 16bf dac1 b4bc c452 20be
00000370: f072 323e 26af 0fbe d564 813d 1e0f 01be
00000380: 8833 25be 4fd3 8abe 47a7 20be 2b54 aebd
00000390: ac2d 813e 949b c33d e9dd bbbd 538e c93e
000003a0: 3093 793c 5251 febd e122 82be 2355 9ebd
000003b0: 4dcb 3fbd 6efe 303e 95dc f83d 11b1 37be
000003c0: b36c 5d3e 0ec5 48be 67b0 ce3c e046 993d
000003d0: dada dd3c 93d0 9ebc 1038 ee3e 8ea3 bfbd
000003e0: 6cb1 d93e 5fff 0bbe 981a 9bbe ea90 da3c
000003f0: 32b3 153e f7e9 6ebc d94b f4bc 5bac 0c3e

module.inc.conv.conv.3.bias f4 [32]
-0.0025353213 -0.035584044 -0.016888492 0.00072381896 0.013150239 -0.07440255 0.026399614 -0.008374738
-0.07586176 -0.10298933 -0.019021865 -0.075785704 0.009465328 0.019901652 0.03750605 0.02707484
0.035774972 -0.025386162 -0.05238626 -0.057605904 -0.113592625 0.025262414 -0.028150545 -0.0029103365
-0.0059186025 -0.302525 -0.08757897 -0.0061660116 -0.105915174 -0.014311092 0.038839526 0.012660566
00000000: a227 26bb 93c0 11bd bc59 8abc abbe 3d3a
00000010: 1a74 573c 5d60 98bd 0144 d83c 3236 09bc
00000020: 695d 9bbd 12ec d2bd bed3 9bbc 8935 9bbd
00000030: 7714 1b3c ca08 a33c f29f 193d 0ecc dd3c
00000040: c788 123d a4f6 cfbc fa92 56bd 2bf4 6bbd
00000050: 40a3 e8bd 1ff3 ce3c f99b e6bc 58bb 3ebb
00000060: d6f0 c1bb 8fe4 9abe 9a5c b3bd 410c cabb
00000070: 0eea d8bd 1279 6abc 3216 1f3d 436e 4f3c

module.inc.conv.conv.4.weight f4 [32]
0.92123514 1.0258358 1.060412 0.61378235 1.4531766 1.0556744 1.0677081 1.0525031
0.9866681 0.60469186 1.1966307 0.51906115 1.411402 0.77968395 1.1695224 1.2149715
0.81388426 1.1731583 0.60056525 0.6183637 0.55849236 1.0444994 0.5405049 0.8804999
-0.0113258185 -1.3685845 0.55567974 0.88874567 1.012762 0.95219743 1.265864 0.77289695
00000000: 11d6 6b3f 964e 833f 95bb 873f d720 1d3f
00000010: b101 ba3f 5720 873f a9aa 883f 6cb8 863f
00000020: 4896 7c3f 16cd 1a3f 322b 993f 31e1 043f
00000030: d2a8 b43f 5e99 473f e9b2 953f 3084 9b3f
00000040: b85a 503f 0d2a 963f a5be 193f 154d 1e3f
00000050: 5bf9 0e3f 28b2 853f 875e 0a3f 7168 613f
00000060: ed8f 39bc c72d afbf 0741 0e3f d684 633f
00000070: 2fa2 813f 36c3 733f d507 a23f 93dc 453f

module.inc.conv.conv.4.bias f4 [32]
-0.024325239 -0.0059783133 0.06435721 -0.045268074 0.041780606 -0.12181929 0.29875666 -0.022365563
-0.21015055 -0.20094512 -0.10230086 -0.55852246 0.032765858 -0.013840682 -0.038180735 0.11630797
0.10029572 -0.059365176 -0.105319135 -0.0003828513 -0.21352105 0.07497729 0.005500351 -0.063419424
-0.106324226 -0.5490674 -0.050372057 -0.03788838 -0.03732712 0.023893133 0.037114937 -0.10438075
00000000: b945 c7bc bae5 c3bb b7cd 833d 046b 39bd
00000010: 2422 2b3d 647c f9bd a2f6 983e fc37 b7bc
00000020: b531 57be 8fc4 4dbe 1d83 d1bd 54fb 0ebf
00000030: 7e35 063d 07c4 62bc 6763 1cbd df32 ee3d
00000040: d867 cd3d e628 73bd 8fb1 d7bd 6fb9 c8b9
00000050: 43a5 5abe b28d 993d 4a3c b43b 0be2 81bd
00000060: 84c0 d9bd ae8f 0cbf ee52 4ebd d930 1bbd
00000070: 52e4 18bd 88bb c33c d505 183d 93c5 d5bd

module.inc.conv.conv.4.running_mean f4 [32]
0.46485394 -1.9500675 0.121254824 -0.9680724 -0.7914131 -0.5416254 -0.5862913 -0.10590388
-2.0958717 -4.3114104 -1.1847528 -1.33566 -0.9079006 -0.47474644 -0.58376306 -0.8286603
-0.7154573 -1.6545925 -2.628912 0.729486 -5.088195 0.30114007 -1.804661 -0.055192996
2.0281672 -4.484322 0.5079555 -0.58770496 -1.6659666 0.77510095 0.09658792 -1.3697293
00000000: 5601 ee3e d09b f9bf 7354 f83d 98d3 77bf
00000010: 0d9a 4abf f6a7 0abf 3017 16bf 22e4 d8bd
00000020: c322 06c0 13f7 89c0 fba5 97bf e8f6 aabf
00000030: 2c6c 68bf f711 f3be 7f71 15bf 1523 54bf
00000040: 3628 37bf b0c9 d3bf 1840 28c0 98bf 3a3f
00000050: 7ed2 a2c0 082f 9a3e 22ff e6bf 0d12 62bd
00000060: 7ecd 0140 917f 8fc0 5f09 023f d573 16bf
00000070: 653e d5bf 046d 463f e3cf c53d 4a53 afbf

module.inc.conv.conv.4.running_var f4 [32]
2.5137668 6.7794843 5.840907 4.9641604 8.480597 5.5716877 6.472667 10.783723
4.474303 10.303378 3.8872736 13.547066 10.214327 7.7175484 10.594261 6.1598344
2.5967824 5.623413 7.408406 2.6823747 22.509512 1.9687703 2.530211 2.7191546
5.9539576 21.512611 5.7229266 2.510393 7.2136497 5.9382014 8.259214 0.51319873
00000000: 8ee1 2040 89f1 d840 b6e8 ba40 67da 9e40
00000010: 86b0 0741 444b b240 1720 cf40 218a 2c41
00000020: 7d2d 8f40 a3da 2441 17c9 7840 c8c0 5841
00000030: e26d 2341 28f6 f640 1882 2941 5d1d c540
00000040: af31 2640 00f3 b340 a911 ed40 07ac 2b40
00000050: 7b13 b441 aa00 fc3f faee 2140 a106 2e40
00000060: d286 be40 d419 ac41 3722 b740 47aa 2040
00000070: 38d6 e640 bf05 be40 be25 0441 fe60 033f

module.down1.mpconv.1.conv.0.weight f4 [64, 32, 3, 3]
-0.022338962 0.08597079 0.1052126 -0.07958041 0.086302966 0.06448069 -0.050108768 -0.062432285
0.0026947097 -0.14725943 0.081835605 0.14725897 0.07139721 0.060977884 0.1684944 0.29273474
0.21274441 -0.041425303 -0.19718155 -0.2853733 -0.16103373 -0.14572705 -0.09088652 -0.07966489
-0.24057016 -0.17761956 -0.17176673 0.27467772 0.09356231 -0.009862815 -0.021782974 0.11717974
0.029347137 0.073509976 -0.20843104 -0.13438903 -0.15381846 -0.108962305 -0.10131384 -0.15595804
-0.22518563 -0.29668176 0.115448244 0.17056331 0.025204007 -0.08548105 0.12837423 -0.014002104
0.5958446 0.1878979 0.19147892 0.22804093 0.2910981 0.082519785 0.022512494 0.16384712
0.19853033 0.27899 0.68136793 0.57593817 0.104380965 0.28096473 0.083198436 0.1570688
-0.09975221 -0.30528775 0.031412166 -0.17214747 -0.06251458 -0.31695837 -0.16516918 0.06900409
-0.13250186 -0.13884003 0.017589562 -0.3106586 -0.23772834 0.14349966 0.032050505 -0.5354936
-0.26004145 0.07191922 -0.0958492 0.49572858 0.42547044 0.17789754 0.5163648 0.11199931
0.20002969 0.19874933 -0.4194147 -0.21827248 -0.18801904 0.26551598 0.17199405 0.21519893
0.052120984 -0.06546588 -0.03973711 1.6992545 0.89127827 0.012321602 0.3522066 -0.13849638
-0.35575333 0.17686641 -0.22020757 -0.41237184 -0.019351518 -0.109672144 0.034795385 -0.07887601
-0.3066342 -0.013124691 -0.08068104 -0.08003822 0.051724534 0.11333572 -0.15681551 -0.11273556
-0.102675974 0.0038575924 0.3351703 -0.018862162 -0.07313423 0.18807721 0.12661883 -0.13148971
-0.17346878 0.019941056 -0.0036945737 -0.048755832 0.2096295 -0.016431894 0.0617828 -0.06843724
-0.20297073 -0.005178517 -0.28391823 -0.59039015 -0.22227553 0.018517485 -0.2131083 0.006886786
0.23946097 0.37876496 0.34783953 0.25224254 0.7496135 0.70526695 -0.08917729 -0.077199094
0.11027427 -0.08402715 -0.09540302 -0.01680648 0.20957166 0.18159705 0.117263466 0.050968703
0.024208669 -0.15620033 -0.20642002 -0.027103793 -0.14538486 -0.4093916 -0.3433577 -0.27608716
-0.08808795 -0.319638 -0.017621277 0.035819646 -0.1243707 0.06625095 -0.0044332976 -0.09173415
0.19860496 -0.060466886 -0.00940141 0.02590421 -0.34697935 -0.4419095 -0.45714235 -0.25078812
-0.20838901 -0.4358235 -0.2967746 0.5492833 0.40255058 -0.18045269 -0.33374566 -0.45769632
-0.22998834 -0.23487428 0.011501576 -0.18895346 0.07150798 -0.052534413 -0.16604906 -0.07590503
-0.0375573 0.005433546 -0.14733851 -0.094702676 0.14318636 0.017074175 -0.07167746 0.25147998
0.41050676 -0.051604204 0.3033604 0.28739274 0.2916261 0.44775435 0.20120363 0.25279754
-0.012375512 -0.02539798 -0.010002034 -0.04898061 0.040824655 0.03674326 -0.018137887 -0.0010448528
-0.0039562904 -0.4709626 -0.17630322 0.31955966 -0.20516409 -0.30361885 -0.5523847 0.08906275
-0.1811412 0.4081437 -0.15621904 -0.2097253 -0.20019916 -0.21659169 -0.006685886 -0.10785742
-0.31233612 -0.17144403 -0.2486005 -0.0061806953 -0.15742545 0.09363815 -0.052402895 -0.18562147
-0.15739183 0.031353507 -0.1403529 -0.06414568 -0.0017819069 0.12819217 0.15331024 0.077323526
00000000: 3300 b7bc 7411 b03d b479 d73d 0efb a2bd
00000010: 9cbf b03d 740e 843d da3e 4dbd ffb8 7fbd
00000020: ba99 303b 2dcb 16be 6d99 a73d 0ecb 163e
00000030: b338 923d f2c3 793d cc89 2c3e 54e1 953e
00000040: acd9 593e 94ad 29bd f6e9 49be 731c 92be
00000050: 07e6 24be 7939 15be b622 babd 5927 a3bd
00000060: 0658 76be e7e1 35be 9ee3 2fbe 8fa2 8c3e
00000070: 999d bf3d a597 21bc 3572 b2bc eefb ef3d
00000080: 6869 f03c 668c 963d f26e 55be 479d 09be
00000090: 9682 1dbe a127 dfbd a17d cfbd 77b3 1fbe
000000a0: 1097 66be ace6 97be 2170 ec3d 26a8 2e3e
000000b0: a278 ce3c b010 afbd 8974 033e 1569 65bc
000000c0: 4689 183f 4f68 403e 0d13 443e 9083 693e
000000d0: cf0a 953e 2200 a93d 1f6c b83c 8ac7 273e
000000e0: 894b 4b3e c7d7 8e3e 216e 2e3f af70 133f
000000f0: b0c5 d53d 9cda 8f3e f163 aa3d a5d6 203e
00000100: e34a ccbd ad4e 9cbe 0baa 003d 6d47 30be
00000110: a507 80bd 5e48 a2be 1c22 29be 0452 8d3d
00000120: 91ae 07be 152c 0ebe fc17 903c a50e 9fbe
00000130: 0f6f 73be 93f1 123e 6447 033d 1c16 09bf
00000140: 2724 85be 624a 933d 964c c4bd 23d0 fd3e
00000150: 43d7 d93e c62a 363e 7c30 043f e55f e53d
00000160: 95d4 4c3e f284 4b3e 86bd d6be d282 5fbe
00000170: 1088 40be b6f1 873e 351f 303e 1c5d 5c3e
00000180: d07c 553d fa12 86bd 61c3 22bd 2c81 d93f
00000190: d02a 643f 8be0 493c 6c54 b43e ffd1 0dbe
000001a0: 4d25 b6be 781c 353e 187e 61be 6722 d3be
000001b0: 1387 9ebc ca9b e0bd 9b85 0e3d bf89 a1bd
000001c0: 28ff 9cbe f208 57bc 1a3c a5bd 14eb a3bd
000001d0: 1bdd 533d 8f1c e83d 3f94 20be e7e1 e6bd
000001e0: c847 d2bd a9cf 7c3b 719b ab3e d284 9abc
000001f0: 66c7 95bd 5097 403e 5ea8 013e 3da5 06be
00000200: cda1 31be 6d5b a33c a920 72bb 32b4 47bd
00000210: 1ea9 563e 2e9c 86bc f60f 7d3d d328 8cbd
00000220: 8fd7 4fbe 8db0 a9bb bb5d 91be cf23 17bf
00000230: 329c 63be fbb1 973c 1039 5abe 8caa e13b
00000240: 4235 753e 7bed c13e 0618 b23e ef25 813e
00000250: ace6 3f3f 608c 343f 95a2 b6bd 8f1a 9ebd
00000260: 7ad7 e13d 6d16 acbd a962 c3bd bead 89bc
00000270: f499 563e 94f4 393e d427 f03d 8fc4 503d
00000280: 4251 c63c fbf2 1fbe c55f 53be c608 debc
00000290: c5df 14be c79b d1be 95cc afbe 4c5b 8dbe
000002a0: 7567 b4bd 98a7 a3be 7f5a 90bc 9fb7 123d
000002b0: 11b6 febd 94ae 873d 3245 91bb 1ddf bbbd
000002c0: 195f 4b3e 20ac 77bd 5f08 1abc 1135 d43c
000002d0: 47a7 b1be f641 e2be 900e eabe 4d67 80be
000002e0: ee63 55be 4224 dfbe d7f2 97be d59d 0c3f
000002f0: 1c1b ce3e 97c8 38be b6e0 aabe 2c57 eabe
00000300: 1082 6bbe e282 70be 1b71 3c3c 047d 41be
00000310: c772 923d 532e 57bd c408 2abe 1974 9bbd
00000320: afd5 19bd e30b b23b e8df 16be 7af3 c1bd
00000330: 729f 123e 24df 8b3c a2cb 92bd fcc1 803e
00000340: f12d d23e ee5e 53bd 0e52 9b3e 2425 933e
00000350: 0450 953e 0f40 e53e 5308 4e3e ae6e 813e
00000360: a9c2 4abc 6d0f d0bc 92df 23bc e49f 48bd
00000370: c137 273d 1a80 163d e895 94bc 71f3 88ba
00000380: c5a3 81bb 0322 f1be d588 34be 539d a33e
00000390: 8916 52be ee73 9bbe 1569 0dbf 8866 b63d
000003a0: 147d 39be 36f8 d03e e2f7 1fbe 3bc2 56be
000003b0: 0201 4dbe 36ca 5dbe 4715 dbbb 5ae4 dcbd
000003c0: 85ea 9fbe 068f 2fbe 2191 7ebe 6e87 cabb
000003d0: 2334 21be 5cc5 bf3d 6ba4 56bd 8e13 3ebe
000003e0: 532b 21be 896c 003d acb8 0fbe cf5e 83bd
000003f0: e08e e9ba cf44 033e 5cfd 1c3e cc5b 9e3d

module.down1.mpconv.1.conv.0.bias f4 [64]
-0.017408865 0.18933965 -0.070532106 -0.18101828 -0.009442374 0.02105752 -0.084827736 0.059299942
-0.03540878 -0.07325763 0.003854829 -0.055669956 -0.045366086 0.1035613 -0.03348963 0.03167978
-0.018347168 -0.0459659 -0.017020073 -0.084617496 -0.10964966 -0.46412465 -0.074835666 -0.024218526
0.0014037379 0.013315791 0.13198858 -0.025828982 0.049909268 -0.0904479 -0.07091349 -0.0151178185
-0.0036854853 -0.07149893 0.036726374 -0.021078557 0.060750384 0.06182022 0.13692176 -0.017574245
-0.0167187 0.14531173 0.07152525 0.06261112 0.08641369 0.014428074 0.20812577 0.03759349
-0.013033148 -0.052239604 -0.052988414 -0.12092261 -0.008787032 -0.04956151 0.011796314 -0.010693375
-0.33378044 0.037981637 0.01972494 -0.12113041 0.0055597145 -0.025847035 0.031639274 0.0735631
00000000: 099d 8ebc 41e2 413e 2373 90bd db5c 39be
00000010: 30b4 1abc d280 ac3c 2aba adbd 7fe4 723d
00000020: cc08 11bd 1908 96bd 4ca1 7c3b 2e06 64bd
00000030: cad1 39bd f217 d43d 6c2c 09bd a8c2 013d
00000040: cd4c 96bc bd46 3cbd ae6d 8bbc f04b adbd
00000050: 0090 e0bd bfa1 edbe 7143 99bd ee65 c6bc
00000060: a1fd b73a 7a2a 5a3c 0428 073e 4d97 d3bc
00000070: a96d 4c3d c03c b9bd 183b 91bd bab0 77bc
00000080: 2f88 71bb 086e 92bd 656e 163d f0ac acbc
00000090: 65d5 783d 3337 7d3d 3835 0c3e ddf7 8fbc
000000a0: a8f5 88bc 99cc 143e d57b 923d 423a 803d
000000b0: a9f9 b03d ba63 6c3c ec1e 553e a2fb 193d
000000c0: fc88 55bc 32f9 55bd 610a 59bd 46a6 f7bd
000000d0: 7cf7 0fbc 0301 4bbd 5445 413c 4433 2fbc
000000e0: 45e5 aabe a292 1b3d 3396 a13c 3813 f8bd
000000f0: 442e b63b 29bd d3bc 2f98 013d 40a8 963d

module.down1.mpconv.1.conv.1.weight f4 [64]
0.3889298 0.7339163 0.6287005 0.643908 0.78073126 0.7410866 0.5664638 0.2824756
0.6667897 0.8186526 0.71394324 0.7398367 0.70515424 0.58754843 0.6822877 0.9062429
0.8460419 0.82508117 0.30937994 0.8081818 0.41453505 0.3071757 0.9400327 0.8004715
0.48486874 0.686218 0.8970345 0.4373214 0.6032343 1.0409092 1.0005631 0.68379706
1.4092902 0.80624443 0.16644816 0.79713523 0.80437857 -0.50831354 0.26113203 0.8321408
0.69932044 0.7718051 0.7527767 0.3565471 0.39481053 0.46282873 0.96770793 0.87032676
0.76006544 0.55605793 0.57159746 0.5409233 0.41326582 0.67613757 0.7349861 1.0513237
0.29914197 1.022285 0.71840924 0.82147896 0.49302962 0.63507885 0.71007776 0.739854
00000000: cf21 c73e f0e1 3b3f 84f2 203f 28d7 243f
00000010: 01de 473f dab7 3d3f c603 113f a4a0 903e
00000020: bbb2 2a3f 3793 513f fcc4 363f f065 3d3f
00000030: fd84 343f 9369 163f 68aa 2e3f 89ff 673f
00000040: 3496 583f 8538 533f 0c67 9e3e 01e5 4e3f
00000050: f03d d43e 2246 9d3e fca5 703f b3eb 4c3f
00000060: b740 f83e fcab 2f3f 0ea4 653f 97e8 df3e
00000070: 906d 1a3f 833c 853f 7412 803f 530d 2f3f
00000080: 9f63 b43f 0966 4e3f 6371 2a3e 0e11 4c3f
00000090: c1eb 4d3f d620 02bf 19b3 853e 2e07 553f
000000a0: aa06 333f 0595 453f f9b5 403f 578d b63e
000000b0: 9b24 ca3e e3f7 ec3e b5bb 773f bccd 5e3f
000000c0: a693 423f d059 0e3f 3654 123f f379 0a3f
000000d0: 9497 d33e 5a17 2d3f 0d28 3c3f c691 863f
000000e0: 2329 993e 3cda 823f abe9 373f 724c 523f
000000f0: 616e fc3e 8794 223f a8c7 353f 1267 3d3f

module.down1.mpconv.1.conv.1.bias f4 [64]
-0.033672877 0.05370365 -0.107463256 -0.22363481 -0.00799628 -0.044640698 -0.03255578 0.008606881
-0.19398597 -0.14244798 -0.03183894 -0.06940515 -0.17230919 0.11041283 -0.10486267 -0.29661116
-0.34626868 -0.051770642 0.018944679 -0.056133956 -0.0547733 -1.1732816 -0.18697624 -0.08703245
-0.056581583 -0.06000168 0.14383179 -0.08083532 0.124235146 -0.04556682 -0.2827923 -0.09372841
-0.029516373 0.109120876 0.83724093 -0.15216877 -0.047322083 0.26612315 0.18327336 -0.038451
-0.11396851 0.18221502 0.062375177 -0.16172636 0.18299134 -0.04025057 0.29076797 0.16568358
-0.1547321 -0.0803354 -0.07182 -0.12536745 -0.058849055 0.11785005 0.0056720437 -0.089935504
-0.57653403 -0.15167615 -0.0447397 -0.18953472 -0.32604527 -0.13548109 -0.1277613 0.075951554
00000000: 92ec 09bd 5cf8 5b3d b215 dcbd 8600 65be
00000010: d402 03bc 2ad9 36bd 3659 05bd e003 0d3c
00000020: 42a4 46be e2dd 11be 8c69 02bd 4a24 8ebd
00000030: d271 30be 1f20 e23d 3dc2 d6bd 6bdd 97be
00000040: 214a b1be 740d 54bd df31 9b3c b8ec 65bd
00000050: f859 60bd 172e 96bf b376 3fbe 123e b2bd
00000060: 17c2 67bd 52c4 75bd a448 133e fd8c a5bd
00000070: ff6e fe3d 46a4 3abd 27ca 90be aef4 bfbd
00000080: 52cc f1bc c47a df3d 6c55 563f 21d2 1bbe
00000090: cdd4 41bd 4b41 883e 03ac 3b3e cc7e 1dbd
000000a0: 5268 e9bd 9396 3a3e 1d7d 7f3d 989b 25be
000000b0: 1562 3b3e c8dd 24bd 8adf 943e f5a8 293e
000000c0: 1772 1ebe e386 a4bd 5d16 93bd 5360 00be
000000d0: b50b 71bd 5e5b f13d 8ddc b93b 1b30 b8bd
000000e0: bc97 13bf fe50 1bbe fa40 37bd 6415 42be
000000f0: 68ef a6be 8ebb 0abe dcd3 02be 7d8c 9b3d

module.down1.mpconv.1.conv.1.running_mean f4 [64]
2.169502 -2.1265235 -1.3441714 -3.2344759 -2.2307992 -0.018613156 0.21016648 1.4901307
-3.1594727 -0.13167465 2.5105808 -0.3367738 -2.6692023 -3.7625625 0.038582437 -0.21158999
-5.5687857 -2.651622 -5.5397696 -2.6675308 0.39671856 11.467995 -2.6134975 -3.1050506
-1.5729985 -0.105849825 -3.5258176 0.7060013 -0.75881135 -2.3520083 0.068286285 -0.5127371
-4.1875896 0.1722153 -2.1052089 -1.5899906 -1.6757563 -0.8061598 -0.45632914 -1.5560458
-0.71073914 -2.298048 -4.99085 1.0639509 -0.77011603 -1.5393431 -0.9010836 -2.7832828
-0.8991873 -1.8037194 1.0464365 -1.6143862 -0.26343942 -4.2029004 -1.6733047 -1.6611496
1.6165688 -3.0951233 -0.7560559 -1.0774776 -1.8087652 0.29627278 -2.1245162 -5.5694838
00000000: 1fd9 0a40 f618 08c0 cf0d acbf a701 4fc0
00000010: 6ac5 0ec0 9e7a 98bc e235 573e 9abc be3f
00000020: cd34 4ac0 b8d5 06be 5bad 2040 9e6d acbe
00000030: 36d4 2ac0 d3cd 70c0 9e08 1e3d 0cab 58be
00000040: 7e33 b2c0 2db4 29c0 cb45 b1c0 d3b8 2ac0
00000050: b21e cb3e e87c 3741 8b43 27c0 26b9 46c0
00000060: 0458 c9bf cbc7 d8bd ffa6 61c0 80bc 343f
00000070: 7641 42bf 4e87 16c0 aed9 8b3d bd42 03bf
00000080: bc00 86c0 3559 303e bebb 06c0 d084 cbbf
00000090: 2f7f d6bf 7d60 4ebf f9a3 e9be 822c c7bf
000000a0: 00f3 35bf 3813 13c0 0bb5 9fc0 8b2f 883f
000000b0: 5326 45bf 3209 c5bf 6aad 66bf 4e21 32c0
000000c0: 2431 66bf 47e0 e6bf a2f1 853f 35a4 cebf
000000d0: 88e1 86be 297e 86c0 d92e d6bf 8da0 d4bf
000000e0: baeb ce3f 8016 46c0 e18c 41bf c9ea 89bf
000000f0: 9e85 e7bf 11b1 973e 13f8 07c0 3639 b2c0

module.down1.mpconv.1.conv.1.running_var f4 [64]
5.5573664 9.884457 7.2550426 11.592353 9.844762 5.2978907 3.5577729 5.365706
7.354191 5.4880533 7.9751325 4.4620757 13.68399 10.449349 5.356938 3.4009783
19.834345 11.946634 10.749911 7.9082694 5.192604 32.736057 12.620559 11.722528
4.404323 5.7636485 12.829243 9.567437 3.3677065 8.896366 3.938585 7.8493156
18.930923 7.587188 30.122065 17.516716 9.65734 6.394682 0.88361734 5.1106763
2.9144697 8.964807 25.099768 3.6286974 11.22374 6.250259 8.634521 9.280318
9.277701 4.7247415 6.2616396 7.3766894 5.335081 8.503863 6.341416 7.861603
9.421329 6.0525427 3.1108656 12.061223 7.515231 4.318278 3.8315425 12.030522
00000000: f2d5 b140 bc26 1e41 4f29 e840 477a 3941
00000010: 2584 1d41 5288 a940 8db2 6340 ddb3 ab40
00000020: 8855 eb40 229e af40 4934 ff40 53c9 8e40
00000030: 9ff1 5a41 8930 2741 096c ab40 a1a9 5940
00000040: bdac 9e41 6a25 3f41 a3ff 2b41 8b10 fd40
00000050: d029 a640 b9f1 0242 cfed 4941 7a8f 3b41
00000060: 37f0 8c40 cf6f b840 9444 4d41 3914 1941
00000070: 8188 5740 8457 0e41 c711 7c40 982d fb40
00000080: 8872 9741 3eca f240 fdf9 f041 3c22 8c41
00000090: 7784 1a41 3ca1 cc40 bf34 623f a98a a340
000000a0: ac86 3a40 d96f 0f41 53cc c841 943c 6840
000000b0: 7094 3341 1f02 c840 ff26 0a41 2f7c 1441
000000c0: 7771 1441 1531 9740 5a5f c840 d70d ec40
000000d0: fcb8 aa40 d30f 0841 e1ec ca40 4092 fb40
000000e0: c3bd 1641 6eae c140 6c18 4740 c5fa 4041
000000f0: c67c f040 552f 8a40 fe37 7540 057d 4041

module.down1.mpconv.1.conv.3.weight f4 [64, 64, 3, 3]
0.14417858 -0.025322739 0.09283411 -0.027614903 0.15265748 0.20732684 0.30591494 0.45982698
0.020234574 0.45807126 0.8697674 -0.24249619 -1.2987673 0.008763941 -1.47975 0.117096625
-0.09398777 0.41870743 0.38971218 0.23067364 0.60157984 -0.29558498 0.10859388 0.24665754
0.04066159 0.47155747 -0.21752764 -1.4737754 -0.73634887 0.6663169 -0.7858626 -0.22084847
-0.19482817 -0.9634052 -1.2105407 -0.3893393 -0.44258717 0.12997149 0.48566815 -0.11485954
0.29492226 0.19246335 0.17436117 0.100309566 -0.048629653 -0.005778864 0.12547116 -0.25151414
0.1676431 0.030324452 -0.18860002 -0.11759802 0.28834426 0.16758263 -0.57105744 -0.48193634
-0.57897526 0.107209414 -0.13043782 -0.4416037 -0.49349812 -0.30397147 0.22553782 -0.15976101
-0.56070745 -0.19472645 -0.11647466 -0.43323308 -0.08205632 -0.74963784 -0.5215089 -0.2827816
-0.34506878 0.025628494 0.17747729 0.098630436 -0.37571698 -0.56446314 0.15464313 0.01710306
-0.008204187 -0.03648473 0.2751857 0.2386203 -0.19381066 0.4875671 0.052293073 0.044572037
0.19062868 0.123993464 -0.52179193 -0.42778838 -0.8516189 0.06432753 -0.14825518 -0.7445019
-0.5561246 -0.84840304 -0.50168043 0.37705228 -0.3067604 -0.4040768 -0.294009 -0.36314642
-0.3041673 0.8071812 0.08758622 -0.101800136 -0.23066501 -0.36407575 -0.58413595 -0.4459297
0.18182425 -0.15643406 -0.3232438 -0.14278187 0.10285408 0.32016307 0.35095856 -0.15733953
-0.18400703 0.0035927887 0.5029745 -0.2387681 -0.25304395 -0.5156136 -0.47947443 -0.4172741
-0.0054618767 -0.38020998 -0.25473905 -0.0014901032 -0.13107687 -0.13101488 -0.22587095 -0.06398704
0.07599903 -0.2900467 0.43567982 0.016141364 0.088985465 -0.2801685 -0.23138854 -0.06612535
-0.22756903 -0.36437306 -0.121819176 -0.05248256 -0.39690575 -0.5484354 -0.3368131 -0.28562188
-0.54061407 -0.5815521 -0.41232005 0.20589417 -0.046010967 -0.06776641 -0.4777131 -0.17575023
0.18821828 -0.36037838 -0.5428359 -0.43487823 -0.31804332 -0.057157423 0.08515566 0.06655113
-0.04574563 0.1773439 0.13443565 0.2549182 -0.096372895 -0.11866821 0.026865572 -0.4642768
0.086685024 -0.043949015 0.24462524 -0.0969402 -0.2767138 -0.6095109 -0.3544079 -0.89160913
-0.93679404 -0.24159177 0.16473101 -0.0053523136 0.4234583 -0.09889328 -0.51025134 -0.7463649
-0.14227279 -0.87737215 -0.84433925 -0.29946437 -0.2884048 -0.8021818 -0.10872615 -0.35684714
-0.046541866 0.06700639 0.042662736 -0.048052 -0.26619437 0.1194287 0.2101244 -0.23743889
0.110250704 -0.10301195 -0.5810034 -0.21854372 -0.4589283 -0.48174864 -0.050830778 0.18075587
0.2531423 0.07090559 0.16405721 -0.5379976 0.28847644 0.2465121 -0.007127515 0.2871519
0.17775695 0.48939547 0.42876574 0.65881765 -0.42749554 0.47534525 -0.025379939 0.064741075
0.04092085 0.5149887 -0.082791485 0.10032206 0.0556848 -0.06982132 0.2562456 0.17027092
-0.15207896 0.39718834 -0.38240957 -0.040988468 0.21465307 -0.03880065 0.16580395 -0.46254835
0.30931377 0.4682073 0.17331505 0.2466593 -0.45774657 0.09579703 0.021850105 -0.009439166
00000000: 8da3 133e a271 cfbc cf1f be3d a638 e2bc
00000010: 3e52 1c3e 7d4d 543e e2a0 9c3e 716e eb3e
00000020: fac2 a53c 5188 ea3e 14a9 5e3f ec50 78be
00000030: 023e a6bf a296 0f3c 7368 bdbf 5bd0 ef3d
00000040: a97c c0bd d260 d63e 5b88 c73e b635 6c3e
00000050: 2301 1a3f ea56 97be 7866 de3d cb93 7c3e
00000060: c48c 263d fb6f f13e 91bf 5ebe aca4 bcbf
00000070: 5c81 3cbf bf93 2a3f 4b2e 49bf 1a26 62be
00000080: 0981 47be b9a1 76bf fff2 9abf 7b57 c7be
00000090: c99a e2be 3f17 053e 7fa9 f83e 7a3b ebbd
000000a0: 0d00 973e 1d15 453e bc8b 323e 1a6f cd3d
000000b0: e32f 47bd a05c bdbb 837b 003e 76c6 80be
000000c0: a2aa 2b3e fc6a f83c 5d20 41be 3bd7 f0bd
000000d0: dca1 933e c89a 2b3e d230 12bf 5cc0 f6be
000000e0: b937 14bf 9c90 db3d 7e91 05be e119 e2be
000000f0: c9ab fcbe 26a2 9bbe 63f3 663e 6498 23be
00000100: 868a 0fbf 5f66 47be 448a eebd bad0 ddbe
00000110: 250d a8bd 44e8 3fbf 9b81 05bf c0c8 90be
00000120: dbac b0be d9f2 d13c 9bbc 353e c1fe c93d
00000130: fa5d c0be a880 10bf c55a 1e3e b71b 8c3c
00000140: db6a 06bc 0371 15bd 24e5 8c3e e158 743e
00000150: 4d76 46be 65a2 f93e 4331 563d 2b91 363d
00000160: 2a34 433e 49f0 fd3d 2894 05bf 1407 dbbe
00000170: b203 5abf 27be 833d 35d0 17be ad97 3ebf
00000180: 2f5e 0ebf f130 59bf 216e 00bf ff0c c13e
00000190: b30f 9dbe 28e3 cebe 5988 96be 54ee b9be
000001a0: d1bb 9bbe 6da3 4e3f 6760 b33d 977c d0bd
000001b0: 7333 6cbe 2368 babe ef89 15bf e650 e4be
000001c0: 2330 3a3e 4030 20be 3680 a5be 6935 12be
000001d0: 29a5 d23d 6aec a33e d7b0 b33e 9d1d 21be
000001e0: 576c 3cbe fe74 6b3b f0c2 003f a07f 74be
000001f0: fa8e 81be 41ff 03bf ac7d f5be f3a4 d5be
00000200: 8bf9 b2bb e2aa c2be 286d 82be 914f c3ba
00000210: 0439 06be c428 06be b74a 67be a30b 83bd
00000220: 61a5 9b3d 0081 94be 6d11 df3e e53a 843c
00000230: 033e b63d 3f72 8fbe 1ef1 6cbe ba6c 87bd
00000240: db07 69be 1b8f babe 557c f9bd f4f7 56bd
00000250: 3b37 cbbe 4366 0cbf c472 acbe 083d 92be
00000260: af65 0abf 99e0 14bf 9d1b d3be ecd5 523e
00000270: ff75 3cbd 1ec9 8abd d096 f4be def7 33be
00000280: 4bbc 403e 8483 b8be 4bf7 0abf 5ca8 debe
00000290: 93d6 a2be e71d 6abd 1766 ae3d f54b 883d
000002a0: c55f 3bbd a499 353e 80a9 093e a384 823e
000002b0: 275f c5bd 5208 f3bd 3015 dc3c b0b5 edbe
000002c0: eb87 b13d e203 34bd 0a7f 7a3e 9588 c6bd
000002d0: 6ead 8dbe e808 1cbf f474 b5be 7f40 64bf
000002e0: bcd1 6fbf d563 77be 3faf 283e 7662 afbb
000002f0: 87cf d83e 8f88 cabd d59f 02bf c511 3fbf
00000300: f5af 11be 769b 60bf 9e26 58bf 6553 99be
00000310: cba9 93be c95b 4dbf d1ab debd abb4 b6be
00000320: afa2 3ebd a53a 893d 1fbf 2e3d 2dd2 44bd
00000330: a14a 88be 0997 f43d da2a 573e 2e23 73be
00000340: 1fcb e13d eef7 d2bd a4bc 14bf edc9 5fbe
00000350: a6f8 eabe c2a7 f6be ef33 50bd 1118 393e
00000360: de9b 813e f336 913d 9dfe 273e 36ba 09bf
00000370: 2fb3 933e ab6d 7c3e ee8d e9bb 9305 933e
00000380: eb05 363e 0b92 fa3e 2f87 db3e 46a8 283f
00000390: b2e0 dabe 7460 f33e 97e9 cfbc f896 843d
000003a0: 9f9c 273d 4dd6 033f 958e a9bd a775 cd3d
000003b0: bf15 643d 7bfe 8ebd a032 833e 805b 2e3e
000003c0: 96ba 1bbe 455c cb3e 30cb c3be 86e3 27bd
000003d0: 04ce 5b3e 6eed 1ebd 83c8 293e 23d3 ecbe
000003e0: 605e 9e3e deb8 ef3e 8079 313e 4194 7c3e
000003f0: c25d eabe 3c31 c43d fefe b23c bba6 1abc

module.down1.mpconv.1.conv.3.bias f4 [64]
-0.08436006 -0.0051281014 -0.1460659 -0.020125996 -0.8992627 -0.012242676 -0.03188473 -0.08904075
-0.20800915 0.004320964 -0.052648656 -0.0011992576 -0.022778401 -0.005822594 -0.11682992 0.0137059465
-0.076960154 -0.012353394 -0.0005960948 0.17678848 0.049989443 -0.08481781 -0.022210814 0.05446705
0.08784374 0.03554139 -0.0005626127 -0.14999452 -0.031151842 -0.0040437207 -0.013107336 -0.13788974
0.042445652 0.022237916 -0.122486815 0.1135094 -0.064793445 -0.05324151 0.026907573 -0.014349688
0.011356678 -0.023322407 0.03972719 -0.03438882 -0.007848489 -0.3563368 0.030172447 -0.12897715
0.07193239 -0.019775022 0.01967852 -0.051609874 -0.026623977 -0.061952237 -0.04914439 0.045325253
0.104300104 -0.039553158 0.0006051315 0.06956259 0.014100653 -0.08653411 -0.0023547087 0.008500398
00000000: f8c4 acbd a209 a8bb 4d92 15be 46df a4bc
00000010: 1536 66bf 8195 48bc 9099 02bd ff5a b6bd
00000020: 5a00 55be e096 8d3b 1ea6 57bd 6830 9dba
00000030: c599 babc 75cb bebb 8644 efbd e88e 603c
00000040: 499d 9dbd e465 4abc 3f43 1cba 0a08 353e
00000050: bbc1 4c3d f6b4 adbd 74f3 b5bc d718 5f3d
00000060: 6be7 b33d d993 113d 4d7c 13ba 2a98 19be
00000070: 2632 ffbc 3081 84bb 27c0 56bc f832 0dbe
00000080: 7edb 2d3d 4a2c b63c 5eda fabd 9e77 e83d
00000090: 6db2 84bd c513 5abd 456d dc3c f41a 6bbc
000000a0: 5c11 3a3c a20e bfbc fab8 223d 4bdb 0cbd
000000b0: f396 00bc c771 b6be 352c f73c 9612 04be
000000c0: 4a51 933d 3aff a1bc d934 a13c e064 53bd
000000d0: 871a dabc a1c1 7dbd a14b 49bd f9a6 393d
000000e0: 4b9b d53d 7e02 22bd b0a1 1e3a d576 8e3d
000000f0: 6d06 673c cc38 b1bd 7551 1abb 4145 0b3c

module.down1.mpconv.1.conv.4.weight f4 [64]
0.3790966 0.48121852 0.17315112 0.34239617 0.16178246 0.61896276 0.64819765 0.11339557
0.16965516 0.28227964 0.66653186 0.5339916 0.89656836 0.25234103 0.060777936 0.5615681
0.6137787 1.0298479 0.6081749 0.32881477 0.49691153 0.13271613 0.4821984 0.1626965
0.50859666 0.54727703 0.46902367 0.6707829 0.20853937 0.36678395 0.7576723 0.22758247
0.766826 0.68322486 0.11190669 0.20335765 0.5827298 0.5393402 0.53390324 0.21933548
0.3986532 0.7576262 0.35950032 0.4122693 0.7857347 0.18417268 0.48931605 0.2378036
0.15152662 0.58579373 0.9327544 0.29054496 0.17907932 0.5089924 0.25170457 0.79381585
0.7139474 0.39413783 0.59868103 0.6389336 0.5234648 0.26619846 0.7704903 0.72535014
00000000: f318 c23e 4662 f63e 874e 313e 8d4e af3e
00000010: 4daa 253e 5874 1e3f 48f0 253f f03b e83d
00000020: 15ba 2d3e f586 903e d5a1 2a3f acb3 083f
00000030: 8185 653f d832 813e 49f2 783d edc2 0f3f
00000040: 9a20 1d3f 0ed2 833f 5ab1 1b3f 695a a83e
00000050: 306b fe3e bde6 073e b5e2 f63e e999 263e
00000060: 6433 023f 591a 0c3f df23 f03e 6eb8 2b3f
00000070: 588b 553e 1bcb bb3e d0f6 413f 610b 693e
00000080: b54e 443f d3e7 2e3f 562f e53d fd3c 503e
00000090: c82d 153f 3312 0a3f e2ad 083f 7b99 603e
000000a0: 461c cc3e caf3 413f 6d10 b83e f614 d33e
000000b0: e925 493f c397 3c3e a287 fa3e c982 733e
000000c0: cb29 1b3e 94f6 153f fec8 6e3f 4fc2 943e
000000d0: 9260 373e 534d 023f 6cdf 803e 8437 4b3f
000000e0: 42c5 363f 6fcc c93e 2943 193f 2791 233f
000000f0: ca01 063f 2a4b 883e da3e 453f 8cb0 393f

module.down1.mpconv.1.conv.4.bias f4 [64]
-0.09273068 -0.0934279 -0.24809176 0.037347727 -1.4496847 -0.029581513 -0.112728365 0.03095085
-0.1313289 -0.024190774 -0.15971853 -0.007804317 -0.051619228 0.020512277 -0.13739933 -0.051083725
-0.13432315 -0.20464298 -0.092493415 -0.09515294 -0.034722663 0.015405297 -0.066705205 0.0894186
0.018314557 0.03310696 -0.08767186 -0.19461419 0.065143704 -0.13884275 -0.073947296 -0.112953894
-0.3025961 -0.010849094 -0.01785679 0.08310085 -0.14680977 -0.19541258 -0.049959455 -0.29276213
-0.06130564 -0.18836668 -0.032061853 0.004324837 -0.11525377 -1.3113284 -0.063553676 -0.181503
-0.19158438 -0.1517805 -0.032820098 -0.029542597 0.07776444 -0.14261594 -0.021227397 -0.117426045
-0.008768947 -0.13163602 -0.15491532 -0.16561525 -0.14078233 -0.017562255 -0.11567277 -0.11367265
00000000: 95e9 bdbd 2057 bfbd c40b 7ebe eef9 183d
00000010: 458f b9bf ee54 f2bc 21de e6bd a38c fd3c
00000020: 157b 06be bb2b c6bc 418d 23be 5bbb ffbb
00000030: af6e 53bd 5d09 a83c 69b2 0cbe 2b3d 51bd
00000040: 028c 09be ee8d 51be 306d bdbd 8bdf c2bd
00000050: 5a39 0ebd 8066 7c3c bd9c 88bd 1921 b73d
00000060: 6908 963c 2a9b 073d 4e8d b3bd f148 47be
00000070: 106a 853d cb2c 0ebe ae71 97bd 5f54 e7bd
00000080: e0ed 9abe 66c0 31bc 6748 92bc c730 aa3d
00000090: 4d55 16be 3c1a 48be 49a2 4cbd ebe4 95be
000000a0: 9f1b 7bbd 32e3 40be 4a53 03bd 5db7 8d3b
000000b0: 2b0a ecbd 9cd9 a7bf 6e28 82bd ecdb 39be
000000c0: b22e 44be 596c 1bbe 5e6e 06bd 5103 f2bc
000000d0: f642 9f3d ea09 12be 14e5 adbc 117d f0bd
000000e0: a1ab 0fbc 98cb 06be 1fa2 1ebe 0b97 29be
000000f0: 3e29 10be b8de 8fbc d8e5 ecbd 35cd e8bd

module.down1.mpconv.1.conv.4.running_mean f4 [64]
-4.003709 -4.284976 -0.27486548 -4.3324814 5.625824 -2.688091 -2.4938433 -3.748116
-2.7138643 1.6633134 -3.8644948 -4.913597 -0.7943435 -0.90226704 -0.3399642 -3.016464
-5.04915 2.0657134 -2.0849102 2.8430479 -4.7073846 0.938703 -0.57666725 -1.402628
3.1697059 -1.4800435 -2.7856412 -1.6572117 -5.693703 -2.7880473 -2.9792805 -7.4652977
-1.5424427 -1.8823963 6.6998696 -6.102739 -3.9792788 -4.5311766 -3.4376037 -8.270302
-3.09186 -3.372681 -3.3084407 -4.8950534 -3.5537796 15.103885 -1.9988633 -0.31099993
-6.471963 3.6495664 -0.45891482 -5.241259 0.7533212 -5.0019255 -1.0953581 1.8451352
-3.3941746 -1.0020399 -5.0855722 1.3615967 -3.4825983 -3.3960676 0.38499117 -5.473949
00000000: 621e 80c0 861e 89c0 2bbb 8cbe b0a3 8ac0
00000010: c006 b440 af09 2cc0 219b 1fc0 22e1 6fc0
00000020: f4af 2dc0 74e7 d43f e253 77c0 303c 9dc0
00000030: 185a 4bbf f9fa 66bf ca0f aebe bf0d 41c0
00000040: a392 a1c0 a634 0440 2b6f 05c0 7ff4 3540
00000050: e5a2 96c0 d74e 703f 77a0 13bf 5089 b3bf
00000060: 76dc 4a40 1172 bdbf f247 32c0 831f d4bf
00000070: d132 b6c0 5e6f 32c0 88ac 3ec0 b8e3 eec0
00000080: c36e c5bf 5df2 f0bf 5565 d640 a349 c3c0
00000090: 81ac 7ec0 66ff 90c0 b301 5cc0 2853 04c1
000000a0: 09e1 45c0 01da 57c0 7ebd 53c0 47a4 9cc0
000000b0: 2071 63c0 83a9 7141 c1da ffbf 623b 9fbe
000000c0: 521a cfc0 7f92 6940 e2f6 eabe 65b8 a7c0
000000d0: a8d9 403f c60f a0c0 b234 8cbf 642d ec3f
000000e0: 283a 59c0 d842 80bf 02bd a2c0 cd48 ae3f
000000f0: e4e2 5ec0 2c59 59c0 901d c53e 972a afc0

module.down1.mpconv.1.conv.4.running_var f4 [64]
13.211495 17.848028 15.696117 26.336441 41.726696 21.916357 11.634849 12.178664
9.949582 13.6605 14.837106 39.469048 17.56136 10.457407 0.6620623 19.246883
11.635109 23.517334 10.591732 22.697527 24.989292 6.7109976 6.8577495 12.353004
13.540755 14.394913 7.3131604 10.118494 24.430412 12.029751 18.43438 13.5498295
21.823826 26.49101 7.6565285 12.096838 11.360227 18.059698 18.159235 14.125588
18.775402 15.073053 14.296321 29.533947 33.255215 30.332293 22.903955 5.7368507
10.533503 5.206614 31.295958 20.838129 8.104315 18.023245 14.500052 22.91454
23.980537 13.515081 13.861852 24.627207 26.888887 14.949304 15.941037 31.32513
00000000: 4962 5341 c3c8 8e41 4c23 7b41 08b1 d241
00000010: 23e8 2642 b354 af41 5728 3a41 cfdb 4241
00000020: 7d31 1f41 6891 5a41 c964 6d41 4ee0 1d42
00000030: aa7d 8c41 8a51 2741 ea7c 293f 9ef9 9941
00000040: 6829 3a41 8023 bc41 bc77 2941 8994 b541
00000050: 12ea c741 7ec0 d640 af72 db40 e8a5 4541
00000060: efa6 5841 9051 6641 6905 ea40 5ae5 2141
00000070: 7c71 c341 dc79 4041 9c79 9341 1acc 5841
00000080: 3297 ae41 97ed d341 4802 f540 a68c 4141
00000090: 7dc3 3541 437a 9041 1d46 9141 6902 6241
000000a0: 0634 9641 3a2b 7141 bbbd 6441 8645 ec41
000000b0: 5705 0542 89a8 f241 4d3b b741 4894 b740
000000c0: 3a89 2841 959c a640 1f5e fa41 7db4 a641
000000d0: 46ab 0141 9b2f 9041 3700 6841 fa50 b741
000000e0: 24d8 bf41 c63d 5841 25ca 5d41 8504 c541
000000f0: 711c d741 5930 6f41 7d0e 7f41 de99 fa41
