learned_models/mask/WFC3-UVIS.pth (torch, 412323 bytes, 21 tensors)

module.inc.conv.conv.0.bias f4 [32]
0	0x3ca33f32	0.019927595
1	0x3d63a1fa	0.055574395
2	0xbd917899	-0.0710308
3	0xbda27b32	-0.07933654
4	0xbada02f6	-0.0016632963
5	0xbed3bf9f	-0.41357133
6	0x3cefbf4f	0.029266028
7	0x3d01bd28	0.031674534
8	0x3c88a510	0.01668027
9	0xba87c3bf	-0.001035802
10	0x3d7ea1c3	0.062165987
11	0xbf488390	-0.7832575
12	0xbdcc86d0	-0.09986651
13	0x3c9184cd	0.01776352
14	0xbe4f6dda	-0.20256749
15	0x3c4ad4e0	0.012379855
16	0x3db19661	0.086712606
17	0xbf0c8f74	-0.5490639
18	0x3bc843f1	0.006111615
19	0x3c01402d	0.007888836
20	0xbe001549	-0.1250812
21	0x3d07f974	0.03319688
22	0x3ce72d1e	0.028219756
23	0xbd9ee609	-0.077587195
24	0x3ccd0224	0.025025435
25	0xbdaec133	-0.085329436
26	0xbe5b0146	-0.21387205
27	0xbf991fa5	-1.1962782
28	0xbb09075f	-0.0020908935
29	0x3dab5455	0.083656944
30	0xbb0bf4b2	-0.0021355567
31	0x3c163b05	0.009169345

module.inc.conv.conv.0.weight_g f4 [32, 1, 1, 1]
0	0x3f60d4b3	0.87824553
1	0x4035ad8e	2.838718
2	0x3fff18c3	1.9929432
3	0x3fb2dce3	1.3973659
4	0x404cfc66	3.2029052
5	0x3fdea30d	1.7393509
6	0x4020aef3	2.510678
7	0x3feb7173	1.8393997
8	0x4022c31f	2.5431592
9	0x4013853f	2.3050077
10	0x403b32c0	2.9249725
11	0x3f9e5c2f	1.2371882
12	0x4028bb9f	2.6364515
13	0x3fd27d8b	1.6444563
14	0x3f7cf27a	0.9880749
15	0x3f62c660	0.88583946
16	0x402a76eb	2.6635082
17	0x3f9af0ee	1.2104776
18	0x4004ca52	2.0748487
19	0x4033b715	2.8080494
20	0x40016df5	2.0223362
21	0x3f5168c2	0.8180047
22	0x4016d6ec	2.3568678
23	0x3fc76e01	1.5580446
24	0x3f72b598	0.9480834
25	0x40217dc4	2.5233011
26	0x3fa2a112	1.2705405
27	0x3fa1787b	1.2614893
28	0x406bfe5e	3.6874003
29	0x3f438758	0.76378393
30	0x40477dea	3.1170602
31	0x40a1412b	5.039205

module.inc.conv.conv.0.weight_v f4 [32, 1, 3, 3]
0	0xbea8b532	-0.3295074
1	0x3f151586	0.5823597
2	0x3cccc5ec	0.02499672
3	0xbf01c9e2	-0.50698674
4	0xbe3191d3	-0.17340784
5	0xbe740df9	-0.23833455
6	0x3a0422c3	0.000504058
7	0x3f80eecb	1.0072874
8	0x3d90e407	0.07074743
9	0x3d197158	0.03746161
10	0x3eaaa56b	0.3332933
11	0xbd23ba90	-0.03997284
12	0xbf8b5af4	-1.0887132
13	0x3e95c3aa	0.29250842
14	0x3dc1dc20	0.09465814
15	0xbadeb5f0	-0.0016991477
16	0x3e0443f1	0.12916543
17	0x3df4e2b1	0.119573005
18	0xbd19f696	-0.03758868
19	0xbe90ef39	-0.28307512
20	0x3e2752e0	0.16340208
21	0x3d24eddc	0.040265903
22	0x3f05a922	0.522112
23	0xbd0ed94b	-0.034875195
24	0x3d112d4b	0.035443585
25	0xbfce199b	-1.6101564
26	0xbee8f895	-0.45502153
27	0xbf0760a4	-0.52881837
28	0xbf66227b	-0.89896363
29	0x3c8287bd	0.015933866
30	0xbf20c2eb	-0.6279742
31	0xbe8c4569	-0.27396706
32	0xbf4fdaeb	-0.8119342
33	0xbf30b939	-0.6903263
34	0xbf069223	-0.52566737
35	0xbc5ff8d2	-0.013670163
36	0x3c7294f3	0.01480602
37	0xbb64fc88	-0.003494056
38	0xbeea9623	-0.4581767
39	0x3faba1fc	1.3408809
40	0x3d3a58f2	0.04549498
41	0xbf26c4a6	-0.6514381
42	0x3c00d1c1	0.007862509
43	0xbaa36137	-0.0012464885
44	0xbea967b5	-0.33086935
45	0xbec0b517	-0.3763816
46	0x3f08d4d1	0.5344973
47	0x3ddc97c4	0.107711345
48	0xbf5221be	-0.82082736
49	0x3f2b0df7	0.66818184
50	0x3dbbfe2a	0.09179337
51	0x3c2f1d4a	0.010688135
52	0xbd89a9ea	-0.06721862
53	0x3bc3f4f3	0.005980128
54	0x3ca37e2f	0.01995763
55	0x3eaf02b5	0.34181753
56	0x3caf6232	0.021409128
57	0x3c36da00	0.011160374
58	0x3f36974b	0.71324605
59	0x3ea7cb5e	0.32772344
60	0xbf57b22f	-0.8425626
61	0xbf4364ae	-0.763255
62	0x3c5c9640	0.013463557
63	0xbc66c978	-0.01408612
64	0x3c0a3a7c	0.008436795
65	0x3eb3568d	0.3502697
66	0xbd8b043d	-0.06787918
67	0xbf42c66f	-0.76084036
68	0x3f2937ca	0.6610075
69	0x3d3ed1b6	0.046586715
70	0xbeb0f237	-0.34559795
71	0x3e79cfe1	0.24395706
72	0x3da32d92	0.07967676
73	0x3de97548	0.11399323
74	0x3d09a315	0.033602793
75	0x3e18360e	0.1486437
76	0xbfb81005	-1.4379889
77	0x3e297f3e	0.16552445
78	0x3de98f3f	0.11404275
79	0x3e7d80d4	0.24756175
80	0x3df2937c	0.11844537
81	0x3d91eacd	0.07124863
82	0xbe20f6af	-0.15719102
83	0xbf645348	-0.8918958
84	0x3e54d8cc	0.20785826
85	0x3c44a69c	0.012002613
86	0xbef7c7a1	-0.48394492
87	0x3f88f022	1.0698283
88	0x3e1cb2a4	0.15302521
89	0xbc44cea4	-0.012012158
90	0x3ee0c1e4	0.43897927
91	0x3c3eb1b9	0.011639052
92	0x3b6c6a0c	0.003607395
93	0x3f22b561	0.6355801
94	0xbf9747b2	-1.1818755
95	0x3b5bedf1	0.0033558572
96	0x3e65f745	0.22457607
97	0xbe17cc3c	-0.14824003
98	0x3c7a5ff1	0.015281663
99	0xbf330ad1	-0.6993838
100	0xbef02adb	-0.46907696
101	0x3ea954bc	0.3307246
102	0xbe93dbd7	-0.28878662
103	0xbd2c55be	-0.042073958
104	0x3edbf807	0.42962667
105	0x3f0375b5	0.5135148
106	0x3ec207f1	0.37896684
107	0x3e292617	0.16518436
108	0x3cf77fa6	0.030212235
109	0x3d3e448d	0.046452094
110	0x3c68525c	0.014179792
111	0xc007bfbb	-2.1210773
112	0xbfa3c97f	-1.2795867
113	0x3cbecc47	0.023290766
114	0x3dcdc3d5	0.100471176
115	0x3ce02285	0.02736021
116	0x3b13efdc	0.0022573387
117	0xbf202c46	-0.62567556
118	0xbe245308	-0.16047299
119	0x3e99e489	0.3005717
120	0xbf114d7a	-0.56758845
121	0x3ec6f738	0.38860488
122	0x3f2c165f	0.67221636
123	0xbee502b9	-0.4472864
124	0x3e8a2dff	0.26988217
125	0x3bcd146a	0.006258537
126	0x3f0a8ba5	0.5411933
127	0x3e31bd5f	0.17357396
128	0x3c132ff5	0.008983602
129	0x3edd867e	0.43266672
130	0x3eec05f4	0.46098292
131	0xbcf9ec51	-0.030508192
132	0x3d1d8a02	0.038461693
133	0xbf172538	-0.59041166
134	0xbed8102b	-0.42199835
135	0xbd360b7a	-0.04444454
136	0x3eea447a	0.45755368
137	0xbe383221	-0.17987873
138	0xbef9be08	-0.48777795
139	0x3f27ee20	0.65597725
140	0xbeace523	-0.33768567
141	0xbdc35e9b	-0.09539529
142	0x3f27bc7a	0.6552197
143	0xbef3472f	-0.47515246
144	0x3f8a0e4f	1.0785617
145	0xbf3862fe	-0.7202605
146	0x3c2aa053	0.010414201
147	0xbf174ff0	-0.5910635
148	0x3e222bdb	0.15837042
149	0x3da931f5	0.08261482
150	0x3ab272da	0.0013614551
151	0x3cf05587	0.029337658
152	0x3b3c3685	0.002871902
153	0xbdbdc087	-0.09265237
154	0xbdbff4b6	-0.09372847
155	0xbe03f7c6	-0.12887487
156	0xbea1fa7d	-0.3163642
157	0xbea2dfc1	-0.31811336
158	0xbef853c0	-0.48501396
159	0xbd38481f	-0.044990655
160	0xbc6f16ea	-0.0145928655
161	0x3f3c2a9e	0.7350253
162	0x3f5fadbf	0.8737449
163	0x3e58eff2	0.21185282
164	0x3c204449	0.009781905
165	0x3db915d9	0.0903737
166	0x3db1eac6	0.086873576
167	0xbd53a650	-0.05167228
168	0x3a45fd47	0.0007552695
169	0xbf07f5ed	-0.5310963
170	0xbf58d5af	-0.84701055
171	0x3ca46df8	0.020071968
172	0xbf8b1fa4	-1.0869031
173	0xbf27ce52	-0.65549195
174	0x3dc6d375	0.09708301
175	0x3efd02b5	0.49416128
176	0x3e1f3b7b	0.15550034
177	0x3d956c50	0.072960496
178	0x3e847885	0.258732
179	0x3e53bb8e	0.20677015
180	0xbbcede48	-0.006313119
181	0xbdc0778f	-0.09397804
182	0xbd94eb1d	-0.07271407
183	0x3b94e343	0.0045436933
184	0xbc12c72e	-0.008958621
185	0xbe9631fc	-0.2933501
186	0xbf1a9119	-0.6037765
187	0x3f85b444	1.0445638
188	0xbd8e1c37	-0.06938975
189	0x3f03499a	0.5128418
190	0xbdfc4ef4	-0.123197466
191	0x3e635f9e	0.22204444
192	0x3f39526c	0.7239139
193	0xbeeb3df1	-0.45945695
194	0xbef7868d	-0.48344842
195	0x3ea2b417	0.31778023
196	0xbd0f0eff	-0.03492641
197	0xbf190a77	-0.59781593
198	0xbe23ad16	-0.15983996
199	0x3c9a18d7	0.018810673
200	0xbbbad445	-0.005701574
201	0xbf2442b9	-0.6416431
202	0x3f154453	0.5830738
203	0x3a98117b	0.0011601889
204	0x3f12a9a3	0.57290095
205	0xbf1eac54	-0.619817
206	0xbd36b99a	-0.044610597
207	0xbe06bfad	-0.13159056
208	0xbe103cb5	-0.14085658
209	0x3c5de7ea	0.013544062
210	0x3f470b35	0.77751476
211	0xbc131306	-0.0089767035
212	0xbb72370a	-0.0036959075
213	0xbf5adcd9	-0.85493237
214	0x3e65dd98	0.22447813
215	0x3c691c5e	0.014227955
216	0xbf42afbc	-0.760494
217	0x3d161d29	0.036648903
218	0x3d1de3b6	0.03854724
219	0x3f17f0a6	0.59351575
220	0x3f42e045	0.7612346
221	0x3c7c6359	0.015404546
222	0xbe50842f	-0.20362924
223	0xbedd1538	-0.4318025
224	0xbbc62e3a	-0.006047991
225	0x3cb02ad7	0.021504803
226	0xbf3ec8d7	-0.7452521
227	0x3cb9b216	0.022667926
228	0x3eb00a2c	0.3438276
229	0xbfa6ccfd	-1.3031307
230	0x3d4bfd1e	0.04980194
231	0x3e17c468	0.14821017
232	0xbe1f7876	-0.15573296
233	0x3d6aab50	0.057292283
234	0x3e28e2fb	0.16492836
235	0x3dad0df4	0.08449927
236	0x3e518b9d	0.20463414
237	0xbf7d3364	-0.9890654
238	0x3e49f2e6	0.19721565
239	0x3ee0f368	0.43935704
240	0xbf357dc0	-0.70895004
241	0x3f07063b	0.5274388
242	0x3bad2fa8	0.005285222
243	0x3eedffbe	0.46484178
244	0x3d4e2368	0.050326735
245	0xbd972993	-0.073809765
246	0x3e85c88d	0.2612957
247	0x3f2c484b	0.6729781
248	0xbef9764a	-0.4872306
249	0xbe149b0e	-0.14512274
250	0x3d0fe6f2	0.035132356
251	0xbf14a057	-0.5805716
252	0x3c38f090	0.011287823
253	0x3f9f630c	1.2452102
254	0x3cd6885a	0.026188064
255	0xbd2527a7	-0.04032102

module.inc.conv.conv.2.bias f4 [32]
0	0x3e92cb74	0.28670847
1	0x3ea7a95e	0.32746404
2	0x3ea5dc56	0.32394665
3	0x3e09881b	0.13430826
4	0x3e8fe3eb	0.28103575
5	0xbd47dcd2	-0.048794575
6	0xbd73618f	-0.05941921
7	0x3e8e7fce	0.27831882
8	0x3ce30820	0.027713835
9	0xbd83b54c	-0.06431064
10	0xbe09116f	-0.13385557
11	0x3c1ff19a	0.009762192
12	0x3c6dfca4	0.014525566
13	0xbc1356a7	-0.0089928275
14	0xbbedad63	-0.0072533353
15	0x3eab606b	0.33472
16	0xbd3be6e5	-0.045874495
17	0xbb3317c9	-0.002732741
18	0x3eb684de	0.35648245
19	0x3dd40c65	0.103539266
20	0x3e80e5e5	0.25175396
21	0xbca8653f	-0.02055609
22	0x3e5e19ce	0.21689531
23	0x3ebfe578	0.37479758
24	0xbca99e82	-0.020705465
25	0xbc93d94e	-0.018047955
26	0x3e5a0b85	0.21293457
27	0xbdb91691	-0.09037507
28	0x3e6218d0	0.22079778
29	0xbe5a96bc	-0.21346563
30	0x3e8a123b	0.26967034
31	0x3e8c6112	0.2741781

module.inc.conv.conv.2.weight_g f4 [32, 1, 1, 1]
0	0x3fafce0e	1.3734758
1	0x401d1cf9	2.4548934
2	0x40143363	2.3156364
3	0x4075767c	3.8353567
4	0x3fc350e4	1.5259061
5	0x3f08ea16	0.53482187
6	0x3efd3f4e	0.4946236
7	0x4029ef2a	2.6552224
8	0x40d2b5de	6.5847006
9	0x3f0817b2	0.53161156
10	0x3ed25a21	0.41084388
11	0x3f963749	1.1735622
12	0x3f08fb0e	0.5350808
13	0x3f0cbacd	0.54972535
14	0x3fc50523	1.5392193
15	0x3ffbd3d0	1.9674015
16	0x3f08925d	0.5334833
17	0x3f0aa53c	0.5415838
18	0x40265f6a	2.5995736
19	0x400d5637	2.2083871
20	0x3ffbcc4f	1.9671725
21	0x3f0d55e6	0.55209196
22	0x403d3fb1	2.9570124
23	0x4012aa8d	2.2916596
24	0x3f0c46a5	0.54795295
25	0x3f05d9a6	0.5228523
26	0x405918ff	3.3921506
27	0x3f08cd43	0.53438205
28	0x404c937c	3.1965017
29	0x3ecc6120	0.3991785
30	0x40303432	2.7531857
31	0x40303b54	2.753621

module.inc.conv.conv.2.weight_v f4 [32, 32, 3, 3]
0	0xbd82a9e5	-0.06380061
1	0xbede23bc	-0.43386638
2	0x3cfd0a9d	0.03088885
3	0x3e1426fe	0.14468
4	0xbe87d94e	-0.26532978
5	0xbdb8f8f5	-0.0903186
6	0x3f138cb8	0.57636595
7	0xbde6f2c1	-0.112767704
8	0xbd9b4db8	-0.07583183
9	0x3ee5469d	0.44780436
10	0x3e169a22	0.14707235
11	0xbeab9dd8	-0.33518863
12	0xbc6069fa	-0.013697142
13	0xbf0f1818	-0.5589614
14	0x3c1c705c	0.009548273
15	0xbdd60194	-0.1044952
16	0xbf1537d9	-0.5828834
17	0x3e81e93e	0.25373262
18	0xbe856171	-0.26050904
19	0x3da762a1	0.08173109
20	0x3e5980cc	0.21240538
21	0xbe94dc4b	-0.2907432
22	0xbe0f21d7	-0.13977753
23	0x3c86a8c4	0.016437896
24	0x3e27cc98	0.1638664
25	0x3da43974	0.08018771
26	0x3eada712	0.33916527
27	0xbd18617e	-0.03720235
28	0x3ab46504	0.0013763015
29	0x3dae804c	0.085205644
30	0x3db10c49	0.08644921
31	0x3dca7308	0.09885222
32	0x3de3cc9d	0.11123011
33	0x3dc08555	0.09400431
34	0x3df96446	0.12177329
35	0x3e2c361e	0.16817519
36	0xbcd85449	-0.026407378
37	0xbf42749c	-0.7595918
38	0x3e974035	0.29541174
39	0x3db6b739	0.08921666
40	0xbf3ce59d	-0.7378786
41	0x3ebf91c2	0.37415892
42	0x3dd4860e	0.103771314
43	0xbf1a9268	-0.6037965
44	0x3ebefe61	0.3730345
45	0xbf07e9eb	-0.53091305
46	0xbe8eddb4	-0.2790352
47	0x3db28610	0.08716977
48	0x3e5766bf	0.21035288
49	0xbde8e454	-0.11371675
50	0xbde7f2ee	-0.11325632
51	0x3dd3b350	0.103369355
52	0xbdcda29e	-0.100407824
53	0xbe6503bd	-0.22364707
54	0xbdc9fede	-0.09863065
55	0xbf4cffa2	-0.80077565
56	0x3d5dd02d	0.05415361
57	0xbf1b0619	-0.6055618
58	0xbf91c958	-1.138957
59	0xbf7067a6	-0.93908155
60	0x3e6d31fa	0.23163596
61	0xbe3f1f96	-0.18664393
62	0xbdd1137c	-0.102087945
63	0xbe5c1abf	-0.21494578
64	0xbe880136	-0.26563424
65	0x3ec08938	0.3760469
66	0xbd740cab	-0.059582394
67	0xbf802a2e	-1.0012872
68	0xbed7cee8	-0.42150044
69	0xbda91540	-0.08256006
70	0x3c15ec84	0.009150628
71	0xbe8d98bc	-0.2765559
72	0x3d11c1af	0.0355851
73	0x3e8df761	0.27727798
74	0x3eebec3a	0.46078664
75	0xbf334b71	-0.7003699
76	0x3e2a85b4	0.16652566
77	0x3e9dc301	0.3081284
78	0xbe37f4e6	-0.17964515
79	0x3b5a46f3	0.003330645
80	0x3e83f715	0.25774446
81	0x3c828928	0.015934542
82	0x3e676006	0.22595224
83	0x3f0c5bf3	0.54827803
84	0x3d2fd236	0.042925082
85	0xbf25fd5e	-0.6483973
86	0xbf0cbdc4	-0.5497706
87	0x3e4ac19b	0.19800417
88	0xbdc5eb2d	-0.09663997
89	0x3db8a455	0.09015719
90	0x3d6ff9ac	0.058587715
91	0xbe0117f6	-0.12606797
92	0x3e9c7799	0.30559996
93	0x3ca9d261	0.0207302
94	0x3d3b436e	0.045718603
95	0x3d2051ab	0.039140385
96	0x3d2708cf	0.040779885
97	0xbdb22724	-0.08698872
98	0xbeb089db	-0.34480175
99	0xbf98087f	-1.1877593
100	0xbec0dab6	-0.37666863
101	0xbf595b7e	-0.8490523
102	0xbf02ac3f	-0.51044077
103	0xbd89ff90	-0.06738198
104	0xbe8be159	-0.27320364
105	0xbf9a029f	-1.203205
106	0xbf410967	-0.7540497
107	0xbf0c793b	-0.54872483
108	0x3e64c66e	0.2234132
109	0xbdaef7a3	-0.08543327
110	0xbe005e4f	-0.12535976
111	0x3d870530	0.06592786
112	0xbe838145	-0.25684562
113	0xbc781514	-0.015141744
114	0xbcc8beea	-0.024505097
115	0xbed6476a	-0.4185136
116	0xbd3e1516	-0.046406828
117	0xbe3309ce	-0.17484209
118	0xbe452d80	-0.19255638
119	0x3e03c653	0.12868623
120	0x3d076d04	0.03306295
121	0xbf4f2ea1	-0.80930525
122	0xbf31ee10	-0.6950388
123	0x3e91a2a1	0.28444389
124	0xbef64b7c	-0.48104465
125	0x3db00e4a	0.085964754
126	0xbe9b86d8	-0.30376315
127	0xbe9475ba	-0.28996068
128	0xbe38c686	-0.1804448
129	0xbcd65c1c	-0.026166968
130	0x3cff07b7	0.031131608
131	0x3f03a41d	0.5142229
132	0xbc4ddf1a	-0.012565399
133	0x3f0a9302	0.54130566
134	0x3f1ba029	0.6079126
135	0xbdd93637	-0.10606044
136	0xbd14c0e9	-0.036316786
137	0xbe13430f	-0.1438105
138	0xbdeb2e52	-0.11483444
139	0xbe074683	-0.13210492
140	0x3ce909c4	0.02844704
141	0x3e212913	0.15738325
142	0x3da3f7d8	0.08006257
143	0xbe29f753	-0.16598253
144	0x3e7d1522	0.24715093
145	0x3f0392c1	0.51395804
146	0x3e4318ec	0.19052476
147	0x3eba46c2	0.3638211
148	0xbefdfd51	-0.49607328
149	0x3e16e598	0.1473602
150	0x3e3173ba	0.17329302
151	0xbe618d9d	-0.22026677
152	0x3e0ba289	0.13636221
153	0xbd107ebe	-0.03527712
154	0xbdeebd4a	-0.11657198
155	0x3e2aa474	0.16664296
156	0xbc27aae6	-0.010233616
157	0x3d213623	0.03935827
158	0x3ef36d94	0.4754454
159	0x3d89c4c7	0.067269854
160	0x3d9866ad	0.07441459
161	0xbf12bb31	-0.5731688
162	0xbe04eb16	-0.12980303
163	0xbed6f399	-0.41982725
164	0xbea4ba9f	-0.3217363
165	0xbe82ca7c	-0.25545108
166	0xbf93df13	-1.1552452
167	0x3e57aa13	0.21060972
168	0x3e85e1fe	0.2614898
169	0xbed0ecc2	-0.40805632
170	0x3eec898c	0.4619869
171	0x3e2d7fac	0.16943234
172	0x3ee7ee96	0.45299214
173	0x3f159ec6	0.58445394
174	0xbe8df85e	-0.27728552
175	0xbe994ee1	-0.29942992
176	0x3e34fe79	0.17675199
177	0xbe472763	-0.19448619
178	0xbeb7831d	-0.3584222
179	0x3eb4c84a	0.35309058
180	0xbf966477	-1.174941
181	0xbc8ed51c	-0.017435603
182	0xbed833f3	-0.42227134
183	0xbfe24a9b	-1.7679018
184	0x3cd373fa	0.025812138
185	0xbdda7bcb	-0.10668143
186	0xbdbbbe36	-0.09167139
187	0x3f41600e	0.7553719
188	0x3db88d17	0.09011286
189	0xbc07efed	-0.008296949
190	0x3c48782b	0.0122356815
191	0x3e0bf2f4	0.13666898
192	0x3db644a3	0.0889981
193	0x3c5d6ba8	0.013514437
194	0x3e9cc004	0.30615246
195	0x3e031e93	0.12804632
196	0xbcb3201b	-0.021865895
197	0x3e9bd931	0.3043914
198	0x3e99614f	0.29957053
199	0x3e1d00cc	0.15332335
200	0x3e2406e9	0.16018261
201	0xbdcce2f8	-0.10004228
202	0xbe2bc3b0	-0.16773868
203	0xbdd31eb7	-0.10308593
204	0x3ee19b19	0.44063643
205	0x3e38265f	0.17983387
206	0x3f426c2e	0.7594632
207	0x3e9d9457	0.30777237
208	0xbe6d030c	-0.23145694
209	0x3ea843ff	0.32864377
210	0x3e6eca1a	0.23319283
211	0xbee3a198	-0.44459224
212	0xbdecb175	-0.11557285
213	0x3efd098e	0.49421352
214	0x3e600c36	0.21879658
215	0x3ed53cd9	0.41647986
216	0xbcc689e3	-0.024235671
217	0xbbbb5876	-0.0057173325
218	0x3d917ab6	0.071034834
219	0x3d38d537	0.045125213
220	0xbda141ca	-0.078738764
221	0xbe41064c	-0.18850058
222	0x3c16acaa	0.00919644
223	0x3d885a66	0.06657867
224	0x3af06251	0.0018339847
225	0x3dae7ed0	0.08520281
226	0xbe4910d1	-0.19635321
227	0x3e3a582c	0.18197697
228	0xbe695e1d	-0.22789808
229	0xbe019daf	-0.12657808
230	0xbe508c02	-0.20365909
231	0xbec0a91c	-0.3762902
232	0x3e3220e2	0.17395356
233	0xbea4f831	-0.32220605
234	0xbe5a1c32	-0.21299818
235	0xbec7e0a8	-0.39038587
236	0xbd224444	-0.039615884
237	0x3e42b478	0.19014156
238	0x3d6753cf	0.05647641
239	0xbd7435db	-0.059621673
240	0xbeb3883d	-0.3506488
241	0x3e025c37	0.1273049
242	0x3e2037a6	0.15646228
243	0xbd70fa7e	-0.058832638
244	0xbf70f475	-0.9412301
245	0x3da092b0	0.078404784
246	0xbf197a2f	-0.5995206
247	0xbd82fcd9	-0.06395883
248	0x3c9b01b3	0.018921709
249	0xbf8019bc	-1.0007854
250	0x3da169d2	0.07881512
251	0xbc91a7c0	-0.017780185
252	0x3e52bdd4	0.20580226
253	0xbf908424	-1.1290326
254	0x3e88b0b9	0.2669733
255	0xbf466784	-0.775017

module.down1.mpconv.1.conv.0.bias f4 [64]
0	0xbed13e89	-0.40868023
1	0xbdfc12a9	-0.12308247
2	0x3e2a4f5f	0.1663184
3	0xbd8dc2d5	-0.06921927
4	0xbd869437	-0.065712385
5	0xbe26aefb	-0.16277687
6	0x3f0ac8a8	0.5421243
7	0x3ec2a351	0.38015226
8	0xbd15737d	-0.03648709
9	0x3e5d52d1	0.21613623
10	0xbc62f6a6	-0.013852751
11	0x3ddbdc19	0.1073534
12	0x3eb2de88	0.34935403
13	0x3f1b3b37	0.6063723
14	0xbf166af3	-0.5875694
15	0xc006ae5d	-2.1043923
16	0x3f0ec620	0.55771065
17	0x3d93fd3d	0.07226036
18	0xbcba5bf9	-0.022748934
19	0xbe164096	-0.14673075
20	0x3edafcc6	0.42770976
21	0x3e853ed7	0.26024505
22	0x3eaa60c7	0.3327696
23	0xbe158e74	-0.14605123
24	0x3eb898f1	0.36054185
25	0xbf237958	-0.6385703
26	0x3eca4181	0.395031
27	0x3e52342c	0.20527714
28	0xbe90aef5	-0.28258482
29	0xbd4999d0	-0.049218953
30	0x3debbdbc	0.11510798
31	0x3e00cb6b	0.12577598
32	0x3e9ba467	0.30398867
33	0xbe9e5b93	-0.3092924
34	0x3e1d9298	0.15387952
35	0x3e8fdb86	0.2809717
36	0x3e8d7f2b	0.27636084
37	0x3d4e4741	0.05036092
38	0x3dfd0daf	0.123561256
39	0xbfa12af3	-1.2591232
40	0xbe039cbb	-0.12852757
41	0x3ddf6468	0.10907823
42	0xbe5f0ada	-0.21781483
43	0x3eba22d8	0.3635471
44	0x3ec7a1b7	0.38990566
45	0xbd9cf8f4	-0.076646715
46	0xbd33d586	-0.043904804
47	0x3e658f4f	0.22417949
48	0xbd717729	-0.05895153
49	0x3d04b1cd	0.032396127
50	0x3dff5cfb	0.124689065
51	0xbb7bbbe2	-0.0038411547
52	0x3eec1cac	0.46115625
53	0xbd7a7e6a	-0.061155714
54	0xbfa6a797	-1.3019894
55	0xbfd128b9	-1.6340553
56	0xbef1f3fe	-0.47256464
57	0x3dc3bd82	0.0955763
58	0xbd1fdfc7	-0.03903177
59	0xbd26abd6	-0.04069122
60	0xbea925d1	-0.33036664
61	0x3f264fd8	0.6496558
62	0xbe9744d4	-0.295447
63	0xbe900cf9	-0.28134897

module.down1.mpconv.1.conv.0.weight_g f4 [64, 1, 1, 1]
0	0x3f962742	1.173073
1	0x3fe945ec	1.8224463
2	0x3f931d3a	1.1493294
3	0x3f5c8b99	0.8615051
4	0x3eeac7d8	0.45855594
5	0x3ecef4f3	0.40421256
6	0x3fca3a8d	1.5799118
7	0x3fbf45a0	1.4943123
8	0x3f7c1753	0.9847309
9	0x3f7e0225	0.9922202
10	0x3f0c480d	0.5479744
11	0x3f91cf5a	1.1391404
12	0x3f8f1367	1.1177796
13	0x3fa97c6f	1.3241099
14	0x3ff05d1f	1.8778418
15	0x3f3414b3	0.70344085
16	0x40253161	2.5811388
17	0x3fe729a7	1.8059586
18	0x3fa6f221	1.3042642
19	0x3f8e1bbb	1.1102213
20	0x3fad307e	1.3530424
21	0x3f9d678e	1.2297227
22	0x3fd49076	1.6606586
23	0x3fef1816	1.8679225
24	0x3f63ae75	0.88938075
25	0x3fc879e1	1.5662194
26	0x3f9b7e7c	1.2147975
27	0x3f1b6be0	0.6071148
28	0x3f88dfe7	1.069333
29	0x3fc6fd37	1.5546025
30	0x3f852db0	1.0404568
31	0x400807dc	2.1254797
32	0x3ff0a0f6	1.8799121
33	0x3e238a01	0.15970613
34	0x3f875a39	1.0574409
35	0x3fa0ee26	1.2572677
36	0x3f97a6d9	1.1847793
37	0x3fd4f2b6	1.663657
38	0x3eae4f17	0.34044716
39	0x3feb5160	1.8384209
40	0x3fdb12f7	1.7115163
41	0x3f962b11	1.1731893
42	0x3ea58460	0.32327557
43	0x3f89d07d	1.076675
44	0x3fb07d15	1.3788172
45	0x3fe45289	1.7837688
46	0x3f06ccff	0.5265655
47	0x3fa1faa7	1.2654618
48	0x3f22ae83	0.63547534
49	0x3f7e17c2	0.99255
50	0x3f679eea	0.9047686
51	0x3f916554	1.1359048
52	0x3f94950a	1.1607983
53	0x3f43bdf3	0.76461715
54	0x3fb47fb2	1.410147
55	0x3fb79faf	1.4345607
56	0x3f693a81	0.91104895
57	0x3fd449a4	1.6584973
58	0x3f01b6cd	0.50669557
59	0x3f326786	0.69689214
60	0x3f5e5f51	0.8686419
61	0x4016aea0	2.3544083
62	0x3f38f32a	0.7224604
63	0x3f9c7e74	1.222609

module.down1.mpconv.1.conv.0.weight_v f4 [64, 32, 3, 3]
0	0x3d9e608e	0.0773326
1	0xbdd060cb	-0.10174712
2	0xbc61c9c4	-0.013781015
3	0x3be2f861	0.0069265817
4	0xbe1ca141	-0.15295888
5	0xbdbbadba	-0.09163995
6	0x3e62c16b	0.22144096
7	0x3df37c51	0.11888946
8	0x3ce5bdd9	0.028044628
9	0x3e52e788	0.20596135
10	0x3ef0524e	0.46937793
11	0x3edf0746	0.43560237
12	0x3e49dee1	0.19713928
13	0x3e991805	0.29901138
14	0x3ec3a5e2	0.38212496
15	0x3d9e7efc	0.07739064
16	0x3e5a745e	0.21333453
17	0x3ea9b238	0.33143783
18	0xbe57c79f	-0.21072243
19	0x3d80085d	0.06251595
20	0x3db99e73	0.09063425
21	0xbd97d264	-0.07413176
22	0xbd690a93	-0.05689485
23	0xbde0ef6b	-0.10983165
24	0xbdc33fd1	-0.095336564
25	0x3d1a89c2	0.037729032
26	0xbd0dcae9	-0.03461734
27	0x3db3b931	0.08775557
28	0xbed96380	-0.42458725
29	0xbdab53fe	-0.083656296
30	0xbc8e1e1c	-0.017348342
31	0xbee46218	-0.4460609
32	0xbd9b4849	-0.07582147
33	0xbf0cb598	-0.5496459
34	0xbd2fbc77	-0.042904343
35	0xbd914666	-0.070935056
36	0x3dd37f92	0.103270665
37	0x3e283080	0.16424751
38	0x3e8a7d49	0.2704871
39	0xbe4cf7d9	-0.20016421
40	0x3dca06a2	0.09864546
41	0x3e36a8a7	0.17837773
42	0x3ec5fa0b	0.3866733
43	0x3e8d607a	0.27612668
44	0x3ea15451	0.3150964
45	0x00104d01	1.496992e-39
46	0x00290eac	3.770519e-39
47	0xa4fa07c6	-1.08433386e-16
48	0x00222702	3.1364e-39
49	0x80226044	-3.15694e-39
50	0x002ee348	4.305966e-39
51	0x8017a0ce	-2.169902e-39
52	0x001512dc	1.935311e-39
53	0x8010f78c	-1.558171e-39
54	0x801509b9	-1.932033e-39
55	0x80103e90	-1.491811e-39
56	0x00309b2b	4.463768e-39
57	0x002e70e9	4.264937e-39
58	0x000e59b1	1.317872e-39
59	0x802a8958	-3.90636e-39
60	0xa780fc4f	-3.580069e-15
61	0x002be43d	4.030803e-39
62	0x002a7455	3.898823e-39
63	0x3e6f2504	0.23353964
64	0x3e19d947	0.15024291
65	0x3d2e075b	0.042487483
66	0xbe3a72ac	-0.18207806
67	0xbe814fc5	-0.25256172
68	0xbda1a396	-0.0789253
69	0xbec68bfe	-0.3877868
70	0xbead835c	-0.33889282
71	0xbdf49209	-0.119419165
72	0xbc8dec09	-0.017324464
73	0xbede05f3	-0.43363914
74	0xbea4afd8	-0.32165408
75	0x3ff985ce	1.9493959
76	0xbeb04609	-0.34428433
77	0xbeba53c4	-0.36392033
78	0xbe540467	-0.20704804
79	0xbea837f4	-0.3285519
80	0xbea66cea	-0.3250497
81	0x001118eb	1.570142e-39
82	0x002eae84	4.287037e-39
83	0x80270ad0	-3.585463e-39
84	0x002d68b2	4.170155e-39
85	0x802e1bc0	-4.234388e-39
86	0x8026210c	-3.501604e-39
87	0x80152b41	-1.944062e-39
88	0x0021c70a	3.101973e-39
89	0x002bf3e2	4.036415e-39
90	0x03f71dd2	1.4524202e-36
91	0x801e1d6e	-2.765622e-39
92	0x0015853e	1.976344e-39
93	0x802a17fe	-3.865698e-39
94	0x801119cb	-1.570456e-39
95	0x0031a37d	4.558588e-39
96	0x00119ccd	1.617453e-39
97	0x0017fe51	2.203448e-39
98	0x80105ee7	-1.503412e-39
99	0xbbd29027	-0.0064258757
100	0x3d0bca7e	0.03412866
101	0xbb8a09ed	-0.004212609
102	0xbe0668b2	-0.13125876
103	0xbd22bf0b	-0.039732974
104	0xbd535d7b	-0.05160282
105	0x3abcd2a0	0.0014406033
106	0xbdc617b7	-0.09672492
107	0x3cf582c0	0.029969573
108	0x80104cca	-1.496915e-39
109	0x80152d33	-1.94476e-39
110	0x290d6237	3.1393477e-14
111	0x0004aaee	4.2866e-40
112	0x0013a205	1.802996e-39
113	0x001654b0	2.050761e-39
114	0x8030e728	-4.491027e-39
115	0x8016da61	-2.09872e-39
116	0x802cdc7f	-4.119861e-39
117	0x8004c613	-4.38398e-40
118	0x0014a58f	1.896101e-39
119	0x002ba38e	4.007599e-39
120	0x8015fe6d	-2.019816e-39
121	0x8021e9b2	-3.114405e-39
122	0x801563bb	-1.964322e-39
123	0x801653ca	-2.050439e-39
124	0x003183a9	4.54717e-39
125	0x8013e720	-1.827786e-39
126	0x3d360fa4	0.04444851
127	0xbdc5f464	-0.096657544
128	0xbe3f0876	-0.18655571
129	0x3ce2f471	0.02770445
130	0x3e47317c	0.1945247
131	0xbe3f345b	-0.18672316
132	0xbdab96b7	-0.08378356
133	0x3da1623c	0.07880065
134	0xbdcb1159	-0.09915418
135	0xbed99508	-0.42496514
136	0xbc64aa03	-0.01395655
137	0x3a924c63	0.0011161681
138	0xbece9403	-0.403473
139	0xbe0fb105	-0.14032371
140	0xbe147a1a	-0.14499703
141	0xbebc97c6	-0.36834544
142	0xbe0fedce	-0.14055559
143	0x3d46f23f	0.048570868
144	0x00319324	4.552723e-39
145	0x80319231	-4.552383e-39
146	0x0005b96c	5.25694e-40
147	0x800449d9	-3.93834e-40
148	0x0022e9b7	3.206248e-39
149	0x00121eb9	1.66406e-39
150	0x80273865	-3.601815e-39
151	0x80150e9a	-1.933783e-39
152	0x80151e43	-1.939401e-39
153	0x000ad9f3	9.9654e-40
154	0x0005db56	5.3786e-40
155	0x001e21cc	2.767189e-39
156	0x8010ebd5	-1.553969e-39
157	0x802ba2b1	-4.007289e-39
158	0x0016eb16	2.104714e-39
159	0x0010afc3	1.53242e-39
160	0x0010d156	1.544464e-39
161	0x001ad9af	2.465813e-39
162	0x3daf1886	0.08549599
163	0xbdf7819b	-0.12085267
164	0x3d384c68	0.04499474
165	0x3d3a3a9d	0.045466054
166	0xbe84ab00	-0.25911713
167	0xbc9756d1	-0.018474014
168	0x3ea199ae	0.3156256
169	0x3e370b1d	0.17875333
170	0x3d1c7240	0.038194895
171	0xbe218523	-0.15773444
172	0xbe1c63af	-0.15272401
173	0xbe88beb0	-0.26707983
174	0xbd451ecb	-0.04812507
175	0xbe84d6a9	-0.25945023
176	0xbe7872aa	-0.24262491
177	0xbe05a822	-0.13052419
178	0xbe0d5d1d	-0.13805051
179	0xbe67a1e2	-0.22620347
180	0x3e225af9	0.15855016
181	0xbd0dc2a1	-0.03460944
182	0x3e14f53c	0.14546674
183	0xbeaf963e	-0.34294313
184	0xbe88d695	-0.26726213
185	0x3d226f84	0.03965713
186	0xbe08c17b	-0.13355057
187	0xbe125cfe	-0.14293286
188	0x3d30f712	0.043204375
189	0x802ac81a	-3.928874e-39
190	0x80216534	-3.066876e-39
191	0x0005d270	5.34668e-40
192	0x80046f66	-4.07304e-40
193	0x00206a9f	2.976984e-39
194	0x80186634	-2.240715e-39
195	0x802594e4	-3.451325e-39
196	0x8015feef	-2.019998e-39
197	0x8029f801	-3.854222e-39
198	0x3e85655f	0.26053903
199	0x3ed0cf44	0.4078313
200	0x3e832b26	0.25618857
201	0x3e609bee	0.21934482
202	0x3e8b03e1	0.27151397
203	0x3e53c4aa	0.2068049
204	0x3e33932c	0.1753661
205	0x3eb522c3	0.35378084
206	0x3e92a1a5	0.2863895
207	0xbccc48ee	-0.02493712
208	0x3dd8f14d	0.105928995
209	0x3df0123c	0.11722228
210	0xbe3f2c83	-0.18669324
211	0x3d94e5b5	0.07270376
212	0x3c1a61cb	0.00942273
213	0x3e70a618	0.2350086
214	0xbd87e30f	-0.06635105
215	0xbc4ede9d	-0.012626317
216	0x80135c67	-1.778022e-39
217	0x8021ba93	-3.097502e-39
218	0x8031aafe	-4.56128e-39
219	0x00237b07	3.258376e-39
220	0x002e92a2	4.277035e-39
221	0x002e112b	4.230592e-39
222	0x800725db	-6.56428e-40
223	0x0029a6a4	3.825035e-39
224	0x0003ddee	3.5512e-40
225	0x0021ca13	3.103062e-39
226	0x000bff7f	1.101845e-39
227	0x001abd76	2.455689e-39
228	0x80138850	-1.793774e-39
229	0x80165095	-2.049288e-39
230	0x00283c31	3.695012e-39
231	0x8004165b	-3.75362e-40
232	0x80310990	-4.50337e-39
233	0x801701ae	-2.112819e-39
234	0x3e6a1d90	0.2286284
235	0x3bb40ae6	0.0054944633
236	0xbdab8ae1	-0.083760984
237	0xbe079d2e	-0.13243553
238	0xbe2392a5	-0.15973909
239	0xbe0ee7e1	-0.13955642
240	0xbe8158b6	-0.25262994
241	0xbe4c0ce7	-0.19926797
242	0xbe7a722b	-0.24457614
243	0x00227ebb	3.167869e-39
244	0x801124c2	-1.57439e-39
245	0x00326dcb	4.631161e-39
246	0x001924d6	2.309102e-39
247	0x0029a064	3.822793e-39
248	0x0015f999	2.018084e-39
249	0x80283ded	-3.695635e-39
250	0x000e6518	1.321963e-39
251	0x002cae00	4.103181e-39
252	0x3e87aac7	0.2649748
253	0x3e8a1c0e	0.2697453
254	0x3e1a0fb0	0.15045047
255	0xbd8fd108	-0.070222914

module.down1.mpconv.1.conv.2.bias f4 [64]
0	0xbb2bf9c5	-0.0026241404
1	0xbe4cc7a0	-0.19998026
2	0x3b1a1858	0.0023513045
3	0x3d8f5fe4	0.070007116
4	0x3dce0de5	0.10061244
5	0xbd8d8ab1	-0.06911219
6	0xbc345ea8	-0.011008896
7	0xbe394ff3	-0.18096904
8	0xbe986d7d	-0.29771033
9	0x3e85973c	0.26091945
10	0x3e2376d9	0.15963306
11	0xbcf7f9db	-0.030270508
12	0xbec35a0b	-0.38154635
13	0x3d792d47	0.060834195
14	0xbe29e8cf	-0.16592716
15	0x3d6fb3f9	0.058521245
16	0x3dbd1f63	0.09234502
17	0xbd8fd444	-0.07022908
18	0x3cc33814	0.023830451
19	0xbae8de4a	-0.0017766443
20	0xbdba00e9	-0.09082205
21	0xbd5facb2	-0.054608054
22	0x3e7a1bde	0.24424693
23	0x3cc414a0	0.023935616
24	0xbc931154	-0.017952599
25	0xbcc635f8	-0.024195656
26	0xbf6ac3a2	-0.9170476
27	0x3e521327	0.20515119
28	0xbce51ef4	-0.027968861
29	0xbd41d5d6	-0.04732307
30	0xbc9d968e	-0.01923683
31	0xbd6451d8	-0.055742115
32	0xbc7009ad	-0.014650744
33	0xbb7c8e74	-0.0038537057
34	0xbc1c5657	-0.009542069
35	0xbe5c73ce	-0.21528551
36	0xbdbbea8d	-0.091755964
37	0xbdae1298	-0.0849964
38	0x3ddaa492	0.106759205
39	0x3df266bc	0.11836001
40	0x3e1ea1c0	0.1549139
41	0xc00601e1	-2.0938647
42	0xbd253067	-0.040329363
43	0x3e48b4b3	0.19600181
44	0xbc844dff	-0.016150473
45	0x3dd929a0	0.106036425
46	0xba846787	-0.0010101654
47	0xbae9fbeb	-0.0017851567
48	0x3d1bb8a5	0.038017888
49	0x3d026b10	0.031840384
50	0xbd090bdb	-0.033458572
51	0x3e3a8d49	0.18217959
52	0xbec7b658	-0.39006305
53	0x3e51fbea	0.20506254
54	0xbcffec69	-0.031240659
55	0xbd91619e	-0.07098697
56	0xbcbdaef4	-0.023154713
57	0xbd82908b	-0.06375226
58	0xbdac0306	-0.08399014
59	0x3e0d4284	0.13794905
60	0xbe3de9e1	-0.18546249
61	0xbe020f6d	-0.12701197
62	0xbd857f80	-0.06518459
63	0x39ca8476	0.00038627133

module.down1.mpconv.1.conv.2.weight_g f4 [64, 1, 1, 1]
0	0x3f169c62	0.5883237
1	0x3f4f1744	0.80894876
2	0x3f161587	0.586266
3	0x3f0a7001	0.54077154
4	0x3f72c807	0.9483647
5	0x3ea96b91	0.3308988
6	0x3f0dbcd6	0.55366266
7	0x3ec2fc16	0.3808295
8	0x3eb298db	0.34882244
9	0x3f2d8a82	0.6778947
10	0x3f986b28	1.1907701
11	0x3f187b14	0.595628
12	0x3e1f1e19	0.15538825
13	0x3facbd74	1.3495317
14	0x3e0a6090	0.13513398
15	0x3f8e8569	1.1134464
16	0x3f31f82f	0.69519323
17	0x3f0b4f56	0.5441793
18	0x3f543ebb	0.8290822
19	0x3f1b462c	0.6065395
20	0x3ed35419	0.412751
21	0x3f6a2012	0.91455185
22	0x3f800711	1.0002156
23	0x3f4a87df	0.7911357
24	0x3f030ea5	0.5119422
25	0x3ea1c1c4	0.31593144
26	0x3ee81f41	0.45336345
27	0x3fab08be	1.3362043
28	0x3f099aab	0.5375163
29	0x3f06fa00	0.5272522
30	0x3f16b439	0.5886875
31	0x3f880c7e	1.0628812
32	0x3f1666f1	0.58750826
33	0x3f33799d	0.7010744
34	0x3fe9b97d	1.8259732
35	0x3e82fffd	0.2558593
36	0x3ece4162	0.40284258
37	0x3f0dfd2c	0.55464435
38	0x3f8bd494	1.0924249
39	0x3f499c8e	0.7875451
40	0x3f7a39cb	0.97744435
41	0x3edc2db2	0.43003613
42	0x3f00296d	0.5006321
43	0x3f216992	0.6305171
44	0x3fa861a6	1.31548
45	0x3f908d2a	1.129308
46	0x3f07c71a	0.5303818
47	0x3f182955	0.5943807
48	0x3fa0b91d	1.2556492
49	0x3f1e5df0	0.6186209
50	0x3ec96885	0.39337555
51	0x3f61a04c	0.8813522
52	0x3eab85c6	0.335005
53	0x3fceecba	1.6165993
54	0x3f0ac531	0.5420714
55	0x3f074410	0.5283823
56	0x3f0800cb	0.5312621
57	0x3f0b260f	0.5435495
58	0x3f0146c1	0.50498587
59	0x3f8a7576	1.0817096
60	0x3e8aa3fb	0.27078232
61	0x3f87495d	1.0569264
62	0x3eff7c03	0.498993
63	0x3f0664ec	0.52497745

module.down1.mpconv.1.conv.2.weight_v f4 [64, 64, 3, 3]
0	0xbcd741fe	-0.026276585
1	0xbd896c7d	-0.067101456
2	0xbd39e3c0	-0.045383215
3	0xb9d0d5a7	-0.00039832035
4	0xbca5731e	-0.020196494
5	0xbb9d3dbf	-0.0047986205
6	0xbd703dd9	-0.058652733
7	0xbb628343	-0.0034563101
8	0x365178f7	3.1213838e-06
9	0xbb83b6bc	-0.0040195864
10	0xbd0fb88d	-0.03508811
11	0xbd74dae7	-0.059779074
12	0xbd6c521e	-0.0576955
13	0xbcc43f18	-0.023955867
14	0xbb8434fd	-0.004034637
15	0xbcc3cb7a	-0.023900736
16	0xbd0f07c3	-0.03491951
17	0xbd04ec04	-0.032451645
18	0xbd3df419	-0.046375368
19	0xbd636a8e	-0.05552154
20	0xbd7f530d	-0.062335063
21	0x3be3901f	0.006944671
22	0x3b2f35de	0.0026734988
23	0xbbd64b21	-0.006539718
24	0xbbf9d5a4	-0.007624345
25	0xbd8c58b5	-0.06852857
26	0xbcb562f7	-0.022141917
27	0xbd941ed3	-0.07232442
28	0xbc06baac	-0.008223217
29	0xb8d82418	-0.000103064056
30	0xbbb3e6cd	-0.00549016
31	0xbd8ec7d8	-0.06971711
32	0xbca9cca0	-0.020727456
33	0xbd8e85bf	-0.06959104
34	0xbb695952	-0.0035606218
35	0xbc9de75c	-0.01927536
36	0xbca69e24	-0.02033908
37	0x3c88380e	0.016628291
38	0xbbbf108c	-0.00583083
39	0xbaa900c2	-0.0012893903
40	0xbcf0cf2d	-0.029395664
41	0xbced4e36	-0.028967958
42	0xbccdc424	-0.025117941
43	0xbcb5f98b	-0.022213718
44	0xbcb24d64	-0.021765418
45	0xbcb35627	-0.021891667
46	0xbc0673e2	-0.00820634
47	0xbbcf4349	-0.0063251597
48	0xbca2cf1c	-0.019874148
49	0xbb87d584	-0.004145326
50	0xbc3e8588	-0.011628516
51	0xbc4fc771	-0.012681828
52	0xbca6dd94	-0.020369329
53	0xbc5f585a	-0.0136319045
54	0xbc918858	-0.01776521
55	0xbd876599	-0.06611175
56	0xbd86f1b8	-0.06589073
57	0x3c8b7341	0.01702273
58	0x3c45b189	0.012066253
59	0x3be334f5	0.006933803
60	0xbbc6f1d3	-0.006071308
61	0xbd46b090	-0.048508227
62	0xbd14364d	-0.036184598
63	0xbc5bb250	-0.013409212
64	0xbc4e7740	-0.012601674
65	0xbda351e7	-0.07974606
66	0xbc4a366c	-0.012342077
67	0xbc6cc0ea	-0.014450291
68	0xbd89bcca	-0.06725462
69	0xbcf3086d	-0.029667104
70	0xbd5096b7	-0.050924983
71	0xbd19301b	-0.037399393
72	0xbd119a7f	-0.03554773
73	0x3c7a032e	0.015259547
74	0x3c569988	0.013098128
75	0x3c9d00c4	0.019165404
76	0xbd6b352f	-0.057423767
77	0xbcda3306	-0.026635658
78	0xbca50042	-0.020141724
79	0xbd9855c4	-0.074382335
80	0x3b7f331c	0.0038940376
81	0xbc67ccd8	-0.01414796
82	0xbcf2db4e	-0.029645588
83	0xbd2fba81	-0.042902473
84	0xbd44e6cc	-0.048071668
85	0xbc0b75a7	-0.008511937
86	0xbda207a7	-0.07911616
87	0x3c8fb717	0.017543359
88	0xbd3c8e6f	-0.046034273
89	0xbda5ccea	-0.08095725
90	0xba997b8a	-0.0011709791
91	0xbd8674d6	-0.065652534
92	0xbb760289	-0.0037538132
93	0xbd952026	-0.072815225
94	0xbd8f67ff	-0.070022576
95	0xbc1f0f58	-0.009708248
96	0xbd0b91e2	-0.03407467
97	0xbcfa1629	-0.030528145
98	0xbd668824	-0.056282178
99	0xbb2de3d0	-0.0026533492
100	0x3ca47a14	0.020077743
101	0xbce7331f	-0.028222619
102	0xbc2bf0b8	-0.010494404
103	0x3c10d136	0.008838942
104	0xbae1c88a	-0.0017225903
105	0xbca14728	-0.01968725
106	0x3c176e38	0.009242587
107	0xbc70bc29	-0.014693298
108	0xbb2fc81d	-0.0026822158
109	0xbc310b89	-0.010805973
110	0xbcc3f92a	-0.023922522
111	0xbcd7e639	-0.026354896
112	0xbd468fda	-0.04847703
113	0xbd1270ee	-0.03575223
114	0xbd0c914b	-0.03431825
115	0xbcddee29	-0.027091103
116	0x3c3c7cff	0.011504411
117	0xbccb18f3	-0.02479217
118	0xbc1e7c28	-0.009673156
119	0xbd34f578	-0.04417941
120	0xbd1c4449	-0.03815106
121	0xbc6ce490	-0.01445879
122	0x38725f8b	5.7786277e-05
123	0x3c8d9e4a	0.017287392
124	0xbc1d9152	-0.009617167
125	0xbb1bfa43	-0.002380029
126	0xbd40f597	-0.047109213
127	0xbd0fa1b7	-0.035066333
128	0xbd1fc147	-0.039002683
129	0xbc81494b	-0.01578202
130	0xbc1b4b1a	-0.009478355
131	0xbd58570a	-0.052817382
132	0xbb8df3df	-0.00433205
133	0xbd5e5952	-0.0542844
134	0xbca40b4e	-0.020024922
135	0xbb9423ba	-0.0045208605
136	0xbb97fdd1	-0.0046384116
137	0xbcacc75b	-0.021091154
138	0xbc209e29	-0.009803333
139	0xb92e7082	-0.00016635846
140	0xbc8ec36a	-0.017427165
141	0xbb2f8f86	-0.0026788427
142	0x3c10525e	0.0088087
143	0xbc267211	-0.0101590315
144	0xbc397916	-0.011320373
145	0xbd314ff1	-0.04328913
146	0xbd092fbe	-0.033492796
147	0xbd32cfa9	-0.04365507
148	0xbbb1c195	-0.005424688
149	0xbca8e242	-0.0206157
150	0xbd33dc2e	-0.04391115
151	0xbd3b1e56	-0.045683227
152	0xbd1fc2e3	-0.039004218
153	0xbd7a8203	-0.061159145
154	0xbd7ebc27	-0.062191155
155	0xbc7bcc2c	-0.015368503
156	0xbd589cd7	-0.05288395
157	0xbd3dc55e	-0.046330802
158	0xbcabbcb5	-0.020964006
159	0xbc269f5a	-0.010169828
160	0xbd7597af	-0.05995911
161	0xbd1d61f9	-0.038423512
162	0xbcd121e5	-0.025528857
163	0xbc531800	-0.01288414
164	0x3b90bcf7	0.0044170576
165	0xbaadc0bc	-0.0013256292
166	0xbd2505ec	-0.04028885
167	0xbd268fc7	-0.04066446
168	0xbcfe634e	-0.031053212
169	0xbd99c61e	-0.07508491
170	0xbca64a5d	-0.020299131
171	0xbd1485bf	-0.036260363
172	0xbd9db018	-0.07699603
173	0xb958f1f2	-0.00020689497
174	0xbd8208a0	-0.06349301
175	0xbd7a5f2b	-0.061125915
176	0xbd04e2ce	-0.03244286
177	0xbce3c16b	-0.02780219
178	0xbd0396f8	-0.032126397
179	0xbc8d6770	-0.017261237
180	0xbcb20dd7	-0.021735115
181	0x3bca9590	0.00618238
182	0xbb294e62	-0.0025834073
183	0xbd678f06	-0.056532882
184	0xbbd6a39d	-0.006550266
185	0xbd3279e4	-0.043573275
186	0xbd32890e	-0.043587737
187	0xbb8334de	-0.004004105
188	0xbb40bdfe	-0.002941012
189	0x3bd1080b	0.0063791326
190	0xbc4ab144	-0.012371365
191	0x3ca7781c	0.020443015
192	0x3b904667	0.004402924
193	0xbbf4ce50	-0.0074708834
194	0xbbf98734	-0.0076149944
195	0xbba7bbc9	-0.0051188213
196	0xbc928b61	-0.017888727
197	0x3b2af67e	0.0026086862
198	0xbbc6ee24	-0.006070869
199	0xbd4836fb	-0.04888056
200	0xbd63bab3	-0.055597972
201	0xbd316ae9	-0.043314848
202	0xbbad93fc	-0.005297182
203	0xbbf74a83	-0.0075467243
204	0xbb651138	-0.003495289
205	0xbc63f6ac	-0.013913792
206	0xbd4dcd6c	-0.050244734
207	0x3b0135cb	0.00197159
208	0xbc0f2c1d	-0.008738545
209	0xbc40c0f0	-0.01176475
210	0x3b85ae81	0.0040796404
211	0xbb3fbb14	-0.0029255794
212	0x3c56915e	0.013096182
213	0x3b33e502	0.0027449732
214	0x3c07dd9e	0.008292584
215	0x3c3a060a	0.011353979
216	0xbcdc479a	-0.026889611
217	0xbcffa437	-0.031206233
218	0x3c018120	0.007904321
219	0xbc6dab4b	-0.014506171
220	0xbb94685f	-0.0045290436
221	0xbcf64375	-0.030061463
222	0xbc354d2c	-0.0110657625
223	0xbcdf4a5d	-0.027257139
224	0xbcd0c273	-0.025483346
225	0x3c8d517c	0.017250769
226	0x3c197763	0.009366843
227	0xbc4fe100	-0.0126879215
228	0x3b30a615	0.0026954461
229	0x3cc92138	0.024551973
230	0x3c95c1db	0.018280914
231	0xbc99b9cf	-0.018765358
232	0xbc7cf92e	-0.015440268
233	0xbc3eb11c	-0.011638906
234	0xbc8d1669	-0.0172226
235	0x3bc1a2ab	0.005909284
236	0xbc30818b	-0.010773073
237	0xbd088664	-0.03333129
238	0xbc314fd7	-0.010822258
239	0xbd323a0f	-0.0435124
240	0xbc028ccd	-0.00796814
241	0xbc3e20ff	-0.011604547
242	0xbb547c18	-0.0032422598
243	0xbba499ef	-0.005023233
244	0xbb0c9c27	-0.0021455379
245	0xbc3bc977	-0.011461607
246	0xba8dec65	-0.0010827897
247	0x3ac15771	0.0014750791
248	0x3aa2c69a	0.0012418807
249	0x3c02d1a5	0.007984553
250	0xbb47710f	-0.0030432378
251	0xbbe4889c	-0.006974293
252	0xbc48a815	-0.012247105
253	0xbcf30be7	-0.029668761
254	0xbd51966e	-0.05116885
255	0xbc532c2b	-0.012888948

module.up8.up.weight f4 [64, 32, 2, 2]
0	0xbba05646	-0.004893097
1	0x3d4f818e	0.050660662
2	0xbd2efe06	-0.042722724
3	0x3bce7777	0.0063008624
4	0xbcd9f50b	-0.026606103
5	0x3d948e00	0.07253647
6	0xbd611469	-0.054951105
7	0x3d26bb0d	0.04070573
8	0xbd268efe	-0.04066371
9	0x3cfd1c5d	0.030897314
10	0xbde4b233	-0.11166801
11	0xbda95b3c	-0.08269355
12	0x3cab0975	0.020878533
13	0x3d0c0eb5	0.034193713
14	0x3d6d409e	0.057922952
15	0x3ce04dd8	0.027380869
16	0xbd2d93aa	-0.04237715
17	0xbc0722b1	-0.008248017
18	0x3cf14fc5	0.029456982
19	0x3debcd7d	0.11513803
20	0x3ccb5d10	0.02482465
21	0x3d3d2a81	0.046183113
22	0xbdaa5798	-0.083174884
23	0xbdc9fd2a	-0.0986274
24	0x3dcccd9b	0.10000154
25	0x3dacee8f	0.08443939
26	0x3c9c2a76	0.019063216
27	0xbd199590	-0.03749615
28	0xbd1d26bb	-0.038367014
29	0xbde5a3a9	-0.11212856
30	0xbdd99df5	-0.10625831
31	0xbd04ef15	-0.03245457
32	0xbdd30328	-0.103033364
33	0x3a83f4a1	0.0010067412
34	0x3bdff41b	0.0068345196
35	0xbd020cbc	-0.031750426
36	0xbc54597a	-0.012960786
37	0x3d296559	0.04135642
38	0xbde34e6c	-0.11098942
39	0xbca18b9f	-0.019719897
40	0x3bf24bde	0.007394298
41	0xbd3f9b0b	-0.04677872
42	0xbcbef727	-0.02331121
43	0xbb61772f	-0.0034403314
44	0xbdae2ea5	-0.085049905
45	0x3cb89fa9	0.02253707
46	0xbd9a19e1	-0.07524467
47	0x3c6a54ed	0.014302474
48	0xbc4077fd	-0.011747357
49	0xbd503122	-0.050828107
50	0xbd5b0c65	-0.053478617
51	0xbc17f5c4	-0.009274904
52	0x3cc55467	0.024088098
53	0xbd6823c5	-0.056674737
54	0x3ac21ea4	0.0014810157
55	0xbd36c2d1	-0.044619385
56	0xbda68909	-0.08131606
57	0xbdb22265	-0.086979665
58	0xbdc55a20	-0.096363306
59	0xbdaf980b	-0.08573922
60	0x3c2a51b8	0.01039546
61	0xbcbdfdfb	-0.023192396
62	0xbcf77b03	-0.030210024
63	0xbd2f4fdb	-0.042800765
64	0x3d225bc7	0.039638307
65	0xbda4dcfc	-0.08049962
66	0x3d1863a2	0.037204392
67	0x3dacee88	0.08443934
68	0xbdc8dd43	-0.09807827
69	0xbcb24d03	-0.021765238
70	0xbd700667	-0.058599856
71	0xbbd68126	-0.0065461574
72	0xbd677a8f	-0.056513365
73	0xbcdf303b	-0.027244678
74	0xbde8a8f8	-0.11360353
75	0xbc8c8387	-0.01715256
76	0x3c713443	0.014721933
77	0x3c9eaf2a	0.019370634
78	0x3da805ec	0.082042545
79	0x3d8a3fd0	0.067504525
80	0xbd951c53	-0.07280793
81	0xbd65dd9d	-0.05611955
82	0xbdd63c23	-0.10460689
83	0xbd670ef6	-0.056410752
84	0xbd92d10c	-0.07168779
85	0x3c270957	0.010195098
86	0xbd2151c2	-0.03938461
87	0xbd919748	-0.07108933
88	0xbc8e16b6	-0.017344814
89	0xbd408b50	-0.04700786
90	0x3daca9dd	0.08430836
91	0x3d186baa	0.03721205
92	0xbd688cf1	-0.056775037
93	0xbd38739f	-0.04503214
94	0x3d7c3ba5	0.06158032
95	0x3d468fe1	0.048477057
96	0x3d25ff86	0.04052689
97	0xbc0c0e12	-0.0085482765
98	0xbc1f09ba	-0.009706909
99	0xbd54fef6	-0.052000962
100	0x3da8596d	0.082201816
101	0xbca09a53	-0.019604838
102	0xbcb0f5bc	-0.02160155
103	0x3cae9eb5	0.021315912
104	0x3bdc5832	0.006724381
105	0xbbc12142	-0.005893857
106	0x3de24af1	0.1104945
107	0xbaf4ba2e	-0.0018671209
108	0x3ca35ce7	0.01994176
109	0x3dcf5b8f	0.10124885
110	0xbc17f26c	-0.0092741065
111	0xbd5c39cd	-0.05376606
112	0x3ceee922	0.0291639
113	0x3d8925f5	0.06696693
114	0x3c94b977	0.018154843
115	0x3d05a2c3	0.032625925
116	0xbc25afad	-0.010112685
117	0x3cd4c377	0.025972111
118	0x3daaf406	0.08347325
119	0x3dca1ec5	0.0986915
120	0xbc5464c7	-0.01296348
121	0x3ce706bc	0.028201453
122	0x3c2807ad	0.010255736
123	0x3cc38e27	0.023871494
124	0x3c9e122d	0.019295776
125	0xbd9ebc9d	-0.07750819
126	0xbb49ece2	-0.003081136
127	0xbdbfad9f	-0.093592875
128	0x3dbb6a24	0.09151104
129	0xbe1358cf	-0.14389347
130	0x3ca926dd	0.020648414
131	0xbe246175	-0.16052802
132	0x3f30229b	0.68802804
133	0x3ef42a56	0.4768855
134	0x3efd0f41	0.494257
135	0x3f0441a7	0.5166268
136	0xbdc75d94	-0.097346455
137	0xbb62e278	-0.003461985
138	0x3e599f1e	0.21252105
139	0xbe3603c4	-0.17774874
140	0x3e98ba2f	0.29829547
141	0xbe83a607	-0.25712606
142	0xbc7b94b7	-0.015355281
143	0xbe21e903	-0.15811543
144	0x3f035df6	0.5131525
145	0x3e991d49	0.29905155
146	0x3ee59313	0.4483877
147	0x3e4255af	0.18977998
148	0xbe1f6ea8	-0.15569556
149	0xbd21aa70	-0.039469182
150	0x3d4e815f	0.050416347
151	0xbdce8a6b	-0.10084995
152	0xbedf4e70	-0.4361453
153	0xbde76988	-0.11299425
154	0xbe6e5168	-0.23273242
155	0xbd759505	-0.05995657
156	0xbe1f196b	-0.1553704
157	0x3dc779ba	0.097400144
158	0xbe8caf18	-0.27477336
159	0xbdd0b025	-0.10189847
160	0xbe34507e	-0.1760883
161	0x3cb32546	0.02186836
162	0xbc7eeac4	-0.015558902
163	0x3e075a17	0.1321796
164	0xbdc0dcfd	-0.0941715
165	0x3d5d536e	0.054034643
166	0x3e5f00ea	0.21777692
167	0xbd14351b	-0.036183458
168	0x3dfc5bbe	0.12322186
169	0x3e462f4f	0.19353984
170	0xbecac802	-0.3960572
171	0x3dca40a3	0.0987561
172	0xbe7e0921	-0.2480817
173	0x3dd67b96	0.10472791
174	0xbf1ddf32	-0.61668694
175	0x3e59d5cc	0.21272963
176	0x3e592fe1	0.2120967
177	0xbeaa758c	-0.33292806
178	0x3e955ff9	0.29174784
179	0xbe0251f0	-0.12726569
180	0xbd179720	-0.03700936
181	0x3d959f78	0.07305807
182	0xbeb6fac4	-0.35738194
183	0x3d06f08f	0.03294426
184	0xbea3fa27	-0.3202679
185	0xbea4c39c	-0.32180488
186	0xbee54aee	-0.4478373
187	0xbe9443ae	-0.28957886
188	0xbd2be0e6	-0.041962527
189	0x3cd41405	0.025888452
190	0x3e550f27	0.20806561
191	0x3e0166c5	0.1263686
192	0x3d241ae6	0.040064715
193	0xbdf61871	-0.120163806
194	0x3f13488a	0.5753256
195	0xbd847020	-0.06466699
196	0x3e88b62e	0.26701492
197	0x3e7b0e8b	0.24517266
198	0x3e3371ff	0.17523955
199	0x3e252e28	0.16130888
200	0xbf0de6b5	-0.55430156
201	0xbea47697	-0.32121727
202	0xbd7171c6	-0.058946393
203	0x3e3f5530	0.1868484
204	0x3f254f92	0.6457454
205	0x3e9ccbde	0.30624288
206	0x3f108de5	0.56466514
207	0x3eba7c73	0.36423072
208	0x3e1b2541	0.1515093
209	0x3e7ae38b	0.24500863
210	0x3ec674d2	0.38761002
211	0x3e4abbdd	0.19798227
212	0xbe204fa0	-0.15655375
213	0xbe003350	-0.12519574
214	0xbd938146	-0.07202391
215	0x3f04b924	0.51845
216	0xbece5522	-0.40299326
217	0x3d251681	0.040304665
218	0xbe67926d	-0.22614451
219	0xbe32b007	-0.17449962
220	0x3dba9baa	0.09111722
221	0xbd86e9f2	-0.0658759
222	0xbe65d156	-0.22443137
223	0xbe3d0264	-0.18457943
224	0x3ece6407	0.4031069
225	0x3d728ebc	0.059218153
226	0x3ec6a5c3	0.3879834
227	0x3c51a7a6	0.012796318
228	0xbe5b1a33	-0.21396713
229	0x3ddb983b	0.10722395
230	0xbe1a4fc4	-0.1506949
231	0xbe25a306	-0.1617547
232	0x3ea3c4c5	0.3198606
233	0x3e7c1efd	0.24621196
234	0x3f146b5f	0.57976335
235	0x3e8fd3a3	0.28091154
236	0x3dac1cec	0.08403954
237	0xbd0380da	-0.032105304
238	0x3dcb1121	0.099153765
239	0x3eae9c3f	0.3410358
240	0x3bf83fce	0.0075759655
241	0xbf1c2a8d	-0.6100243
242	0xbdeb8116	-0.114992306
243	0xbea39567	-0.31949922
244	0x3e4145af	0.18874238
245	0x3e95c194	0.2924925
246	0x3e2872a1	0.16449977
247	0x3d9f8c8b	0.07790478
248	0xbc9ae8e8	-0.018909886
249	0xbe06ff1c	-0.13183254
250	0x3ec90cd7	0.3926761
251	0x3d84db61	0.06487156
252	0x3da2cab8	0.07948822
253	0x3e8f2318	0.27956462
254	0xbc0cd41a	-0.008595491
255	0x3e628f5a	0.22124997

module.up8.up.bias f4 [32]
0	0x3ca0760a	0.019587535
1	0xbde75422	-0.11295344
2	0x3dcbc7c8	0.099502146
3	0x3d5f5b36	0.054530345
4	0xbe0dbd4e	-0.13841745
5	0x3dd835d3	0.10557141
6	0xbd1d432a	-0.03839413
7	0x3dba2ec3	0.0909095
8	0xbcbefd9f	-0.023314295
9	0xbd0f6b6f	-0.035014566
10	0x3da844c9	0.08216245
11	0x3cb11074	0.02161429
12	0xbc0eb99e	-0.008711247
13	0xbd384e90	-0.044996798
14	0x3dcb1313	0.099157475
15	0xbd5c4bd1	-0.05378324
16	0xbba250cd	-0.00495348
17	0xbc5eeb66	-0.013605928
18	0xbd931370	-0.07181442
19	0x3c4b609f	0.012413173
20	0xbb85f3f2	-0.0040879184
21	0xbc006145	-0.007835691
22	0x3d09243b	0.033481818
23	0x3cc82c79	0.024435269
24	0x3d9343f3	0.07190695
25	0x3d3765a7	0.044774678
26	0x3d8e0198	0.06933898
27	0xbd635dc9	-0.055509362
28	0xbcdd2a04	-0.026997574
29	0xbd1a517a	-0.03767536
30	0x3b9e3cd9	0.004829031
31	0xbd7ebf2f	-0.062194046

module.up8.conv.conv.0.bias f4 [32]
0	0x3e4845ce	0.19557878
1	0xbe107842	-0.14108375
2	0x3e301979	0.17197217
3	0x3e562a21	0.20914508
4	0x3e6313e4	0.22175556
5	0x3e2a50bd	0.16632362
6	0xbdf8c611	-0.12147153
7	0x3ce5c13b	0.028046241
8	0x3debeee3	0.115201734
9	0xbe4da6d0	-0.20083165
10	0x3e2ec69c	0.17067951
11	0x3e94910d	0.29016915
12	0xbe681962	-0.22665933
13	0x3ddb7fee	0.1071776
14	0x3c9dc51b	0.019259026
15	0x3e7f29f4	0.24918348
16	0x3e79abc6	0.24381933
17	0x3eab76e0	0.33489132
18	0x3bdb3a06	0.0066902665
19	0x3e96c360	0.29445934
20	0x3dfcf911	0.12352193
21	0x3f2e5050	0.680913
22	0x3eb03343	0.3441411
23	0xbd16fb81	-0.036860947
24	0x3e68e24f	0.2274258
25	0x3ec6eeaa	0.3885396
26	0x3e91f1f9	0.28504923
27	0x3e617cc2	0.22020248
28	0x3c3af7ba	0.011411602
29	0xbf2edc21	-0.6830464
30	0xbed57f44	-0.41698658
31	0xbf19dbbc	-0.60100913

module.up8.conv.conv.0.weight_g f4 [32, 1, 1, 1]
0	0x3f8292d9	1.0201064
1	0x3fa6fdf0	1.3046246
2	0x3ff89b92	1.9422476
3	0x3f66aba1	0.90105635
4	0x3f146026	0.5795921
5	0x3f25c79f	0.6475772
6	0x3f8a1510	1.0787678
7	0x40714e83	3.770417
8	0x3f98773a	1.1911385
9	0x3f691259	0.9104362
10	0x3fb88b00	1.441742
11	0x405159a7	3.271097
12	0x4041d6ee	3.0287433
13	0x3fa66f8f	1.3002795
14	0x3fa0c174	1.2559037
15	0x40b931bd	5.7873216
16	0x40304077	2.7539346
17	0x3fce3f45	1.6113058
18	0x401961ec	2.3966017
19	0x4012a3f8	2.2912579
20	0x403f7cb6	2.9919868
21	0x3f8a60af	1.0810755
22	0x3f8f7a01	1.1209108
23	0x3fb7555c	1.4322925
24	0x3f16436a	0.58696616
25	0x403d17cf	2.9545782
26	0x3fbeeaa9	1.4915363
27	0x40359142	2.8369908
28	0x4037cd43	2.8719032
29	0x4020d2d6	2.5128684
30	0x3fd1a680	1.6378937
31	0x3fa6b7ee	1.3024881
