learned_models/inpaint/ACS-WFC-F606W-2-32.pth (torch_old, 417988 bytes, 39 tensors)

module.inc.conv.conv.0.weight f4 [32, 2, 3, 3]
000000 1f e6 a6 3c a0 6e 17 bf 9f d0 76 3d 45 c0 6a 3e
       0.020373402 -0.59153175 0.06025755 0.22924908
000010 6a 1e 6d be df 75 9b 3d 1a 2a 2b bc 23 2b 9c bc
       -0.23156133 0.075908415 -0.0104470495 -0.019063538
000020 d4 39 41 3d 56 f4 2b bf 39 28 85 bf d9 85 0d 3f
       0.04717429 -0.671697 -1.04029 0.5528236
000030 66 79 29 3c 90 a4 00 bf 6f 62 5e bf 93 70 60 3d
       0.010343885 -0.502511 -0.8686895 0.05479486
000040 53 2c 14 3f f7 2a 30 bd 92 eb 0a c0 a9 04 0c c0
       0.57880133 -0.043009724 -2.170628 -2.1877844
000050 fd 0f e8 3d 4b 5f 0c c0 3f 81 05 c0 de 7a dc 3d
       0.113311745 -2.1933162 -2.0860136 0.107656226
000060 84 57 09 3e 5c 4f c2 3d 5b 3a 86 3d 69 01 27 bb
       0.13412291 0.09487793 0.06554099 -0.0025483018
000070 7b c3 cd 3e f7 99 4b 3e 98 ed 1a 3e 33 61 33 3f
       0.40188202 0.19882952 0.15129697 0.7007019
000080 de 45 2d 3f e2 b4 ae 3e fc bb 1d 3e 00 bc df 3e
       0.67684734 0.34122378 0.15403742 0.4369812
000090 a0 44 c6 bb f7 c0 4e 3d 70 66 19 bf cb 75 21 3c
       -0.006050661 0.050476994 -0.5992193 0.009854744
0000a0 93 ac 28 3e 87 50 2c be 97 7d 0b bd e5 af 20 be
       0.16472082 -0.16827594 -0.03405532 -0.15692098
0000b0 e5 8d 35 bd 9e a1 7a 3f 6c f2 9a be 3c 28 da bf
       -0.044324774 0.9790286 -0.30263078 -1.7043529
0000c0 46 81 79 3e 0b 67 c9 be 54 6a 40 3f bc 6c ff 3d
       0.2436572 -0.39336428 0.75162244 0.12471911
0000d0 54 51 a8 bf ec 2e c4 be f2 75 e8 3d 46 15 b2 be
       -1.3149819 -0.3831705 0.11350621 -0.34781855
0000e0 91 4e 1e 3e 17 fe 98 3d c3 8c 01 bf a4 cc f1 be
       0.15459658 0.07470339 -0.5060541 -0.4722644
0000f0 48 77 f4 3c cd d7 f4 3d aa ae 90 3d 2f 3a 1d 3e
       0.029842034 0.11955223 0.070645645 0.15354227
000100 85 58 a3 bf 0a 13 d1 3e 08 71 ca be aa 71 cd bf
       -1.2761389 0.40834838 -0.3953936 -1.6050313
000110 29 4a c9 3e 2d a6 04 3f 85 91 b7 bb c9 ae fe 3e
       0.39314392 0.51816064 -0.005602064 0.49742725
000120 c3 78 bb 3d 0b cd be 3d 0e c3 11 3c 3c 49 1f bf
       0.09153893 0.093164526 0.008896602 -0.6222112
000130 6e d1 5c bf 12 b8 a6 3b b2 b0 c5 3d 72 e9 94 bf
       -0.86257064 0.005087861 0.096528426 -1.1633742
000140 88 f0 cd 3d 55 d9 1e 3f 81 15 f5 3e 3f 2b 37 3f
       0.10055643 0.6205037 0.4786797 0.71550363
000150 32 41 36 3f 12 25 ce 3d 04 82 13 3b ff f3 38 3c
       0.7119323 0.10065664 0.0022507915 0.011288642
000160 aa 15 0b bf 5d b0 fc 3e 5c 61 6d 3b 09 9e 36 bd
       -0.5432993 0.49353305 0.003622136 -0.044584308
000170 35 69 d5 3b 5b 74 20 3e b9 9e 50 bf c5 ac 42 3e
       0.006512786 0.15669386 -0.8149219 0.19011219
000180 89 ec 2c bc f4 e2 e3 3d 9f 44 44 be f5 8a df 3d
       -0.010554441 0.11127272 -0.19166802 0.10915176
000190 54 8d 1b bf 62 3d cc 3e 37 09 fd 3d c4 b8 a7 bd
       -0.60762525 0.3989058 0.12355273 -0.08189538
0001a0 3b c8 db 3e 94 c9 c6 be 9c b9 ce 3c bb 92 ae 3e
       0.429262 -0.38825667 0.02523499 0.3409632
0001b0 24 e9 65 3e ff ff 42 3d f7 b6 c7 3d e2 fb 73 3c
       0.22452217 0.04760742 0.09751695 0.0148915965
0001c0 53 ea 37 be 3e 19 3d bb 35 9a 26 3c 15 39 43 bb
       -0.17960481 -0.0028854157 0.010168602 -0.0029788662
0001d0 78 dc 95 bc 1a 11 be 3f 4a 45 07 3e a4 27 75 3f
       -0.018293604 1.4848969 0.13210025 0.9576361
0001e0 91 23 a2 3d c0 61 18 c0 60 5b c7 bd fc c1 d1 3d
       0.0791694 -2.3809662 -0.09734225 0.10242078
0001f0 79 ff aa bf cc e3 92 be 1c 2b 9a be 08 1c 11 3e
       -1.3359214 -0.2868942 -0.30111015 0.1417085
000200 88 e7 e8 be 3b e0 3d bf 9d 75 16 3e 93 8f 5f 3d
       -0.45489144 -0.74170274 0.14693303 0.054580282
000210 d6 0c 29 bd 77 45 92 3d 80 0e be 3c 2a 16 0a bf
       -0.041272007 0.071421556 0.023200274 -0.5394007
000220 05 8e 19 be 78 cc 16 be 0d 6e 00 be be c0 0b 3e
       -0.14995582 -0.14726436 -0.12541981 0.13647744
000230 4f b2 a1 be 7c 1a d1 3e e3 f0 05 3f 5b a9 a7 3c
       -0.3158135 0.40840518 0.5232069 0.020466497
000240 12 cc bc 3d d4 59 0a 3e 1a bc 38 3d dc b6 66 bf
       0.09218611 0.13510829 0.045101263 -0.9012277
000250 19 17 b9 bf 1b 1b ec 3d e6 d3 00 3e f6 85 d3 3d
       -1.4460174 0.115286075 0.12580833 0.103282854
000260 20 6e 0a 3b c2 04 62 be 08 b7 ae 3d dc 6e 94 3e
       0.0021122769 -0.22072127 0.08531004 0.2899083
000270 8e ed 5a be 97 b9 86 3b 8f 76 21 bf 6a b6 17 3f
       -0.21379682 0.0041114795 -0.6307153 0.59262717
000280 bc 42 a0 3e 33 7d fa be a7 df 20 3d 57 8b 71 bc
       0.31300914 -0.48923644 0.03927579 -0.014742694
000290 70 02 20 3e e5 ca 04 bd 96 19 ce 3b 0f 3c a0 be
       0.1562593 -0.032420058 0.006289671 -0.3129582
0002a0 31 13 34 3d 66 e5 a2 3d 58 08 84 be 94 a7 96 3f
       0.043963615 0.079539105 -0.25787616 1.1769891
0002b0 43 e1 8b 3e 9d 4c c7 3e 7f 9c 15 3f f9 49 5d bf
       0.273203 0.3892564 0.5844192 -0.86441
0002c0 5a cf cd bf 0c bc 05 be 7a 74 58 bd 3d 10 c0 bf
       -1.6078904 -0.13060015 -0.052845456 -1.5004956
0002d0 17 d8 3e be f9 49 02 3d f2 16 dc bb 9e 7a 15 3e
       -0.18637119 0.031808827 -0.0067166025 0.14597556
0002e0 ba f3 68 be 46 d4 83 3c df 5b b7 bc 33 f3 83 3b
       -0.22749224 0.01609243 -0.022382675 0.0040267943
0002f0 b1 10 da bd 6d ab 20 c0 8e 82 ad be da 4d bc bf
       -0.10647715 -2.510463 -0.33888668 -1.4711258
000300 9a 24 29 bf ef 56 f3 bf 2f d1 e8 be fa 0f e8 bf
       -0.66071475 -1.9010905 -0.45472094 -1.8129876
000310 e6 f6 b9 bf 2b 72 2c bf 31 ba 45 bf 5d 5a a1 3c
       -1.4528472 -0.67361706 -0.7723723 0.019696409
000320 7b e2 77 bd a9 3b 9a 3d 08 4b 34 3e f6 3e 36 be
       -0.060518723 0.075309105 0.17606747 -0.17797455
000330 b8 35 5f be 55 0f a0 be c2 b0 89 be 0f 1c 30 bf
       -0.21797836 -0.31261697 -0.26892668 -0.68792814
000340 8b 0e 80 3c 31 64 b0 3e b0 a7 32 be 74 49 12 be
       0.015631935 0.3445144 -0.1744678 -0.14285833
000350 7e 79 88 3e 70 18 f0 be 2e 1d f3 be a1 2f 9c 3e
       0.2665519 -0.46893644 -0.474832 0.30505088
000360 63 b3 7b be b1 f3 b0 be ba 18 5b 3d 4f 26 61 be
       -0.2458015 -0.34560922 0.053490378 -0.2198727
000370 ef 19 80 3d ac f6 1a 3e 61 fb 34 3d 9b 65 83 3c
       0.062549464 0.1513316 0.044185046 0.01603966
000380 14 ca bd 3d 0b 1c aa bf 74 1f 2c bf b4 aa 9a 3f
       0.09267059 -1.3289808 -0.67235494 1.2083344
000390 94 31 6a bf 4f b5 8b be 21 94 a7 3f bd 4e 6b 3f
       -0.914819 -0.27286765 1.309208 0.9191702
0003a0 fd 62 b2 3e fe ad 9f 3f bd 2e 0d c0 f8 08 aa 3d
       0.34841147 1.2474973 -2.2059777 0.08302492
0003b0 09 a0 a1 be 91 14 ec 3d 29 55 2a 3d 76 cd 28 3d
       -0.3156741 0.1152736 0.04158512 0.041211568
0003c0 55 97 16 3d 51 bf 50 3d f0 90 10 bb 32 6d 4b 3f
       0.036765415 0.050963704 -0.0022059046 0.79463494
0003d0 09 55 78 bf 28 58 d3 bd 24 f7 8e 3e 44 29 39 3f
       -0.97004753 -0.10319549 0.27922928 0.7232859
0003e0 aa 95 b6 3e 17 4d a6 bd e0 b2 15 3f 28 c0 21 3f
       0.3566106 -0.081201725 0.58476067 0.6318383
0003f0 98 29 cd be 8d 7c 63 3e 31 42 c5 3c ad a0 0c bf
       -0.40070796 0.22215481 0.024079414 -0.5493267

module.inc.conv.conv.0.bias f4 [32]
000000 60 64 25 3e 0e db 9e 3e db a9 b8 bb cf 51 ca 3e
       0.16151571 0.310265 -0.0056354827 0.3951554
000010 82 d7 1c bd 91 89 ac be 17 99 a2 3b 22 67 43 bd
       -0.03829146 -0.33698705 0.0049620974 -0.047705777
000020 2e 9e 24 3e 15 d7 db 3e 67 1b ac bd 7f 34 3f 3d
       0.16075966 0.42937532 -0.08403664 0.046680924
000030 a7 97 a5 3c 01 1e 28 3e 07 30 18 3e e6 aa 4c be
       0.020213915 0.16417696 0.14862071 -0.19987068
000040 0a 71 bb bc cb 5b 01 3e 1b 61 5d bc 79 af f9 bc
       -0.02288105 0.12632672 -0.013511921 -0.03047918
000050 5b 2f da 3e 6c 68 f4 be 64 2c b8 3e bc 47 32 3e
       0.42614254 -0.47735918 0.35971367 0.17410177
000060 39 e9 39 be 0a 54 a7 3e e5 10 7d 3e 4c eb c7 3d
       -0.18155374 0.32681304 0.24713476 0.09761676
000070 79 8e 2b be fc fc c8 bd 28 2c b2 bd 6c be f8 3e
       -0.16753568 -0.09813878 -0.086998284 0.4858278

module.inc.conv.conv.1.weight f4 [32]
000000 0d d5 cb 3e 0a bb c5 3f 12 28 06 3f 22 c4 e5 3e
       0.39810982 1.5447705 0.5240489 0.448762
000010 80 1c 39 3f c6 56 39 3f fd ac 79 3e 3e 32 c4 3e
       0.7230911 0.7239803 0.24382396 0.38319582
000020 3c c2 28 3f f5 ed 7c 3e fd a3 cb 3d 36 2f 71 3f
       0.6592138 0.24700148 0.09943388 0.94212663
000030 e4 c2 bf 3e dd 8a 38 3f 45 60 47 3f e6 22 5b 3e
       0.37453377 0.7208689 0.7788127 0.21400031
000040 67 71 a7 3e 78 ba 69 3f 18 d3 39 3f 1a b9 88 3f
       0.32703707 0.91300154 0.7258773 1.0681489
000050 ca d6 6d 3e c4 f3 46 3f 23 dc 97 3f ce 46 74 3e
       0.23226467 0.77715707 1.1864055 0.23855135
000060 a1 7c b6 3e a5 6b 3a 3f 38 28 43 3f 11 96 2c 3f
       0.3564196 0.728205 0.76233244 0.67416483
000070 a3 c5 73 3f ae 6f 1c 3e 83 64 07 3e ed c0 ff 3e
       0.95223445 0.15276977 0.13221936 0.49951878

module.inc.conv.conv.1.bias f4 [32]
000000 16 ee 35 3e a8 4b a0 3e 20 d6 92 3e c3 52 93 3e
       0.17766604 0.3130772 0.2867899 0.2877408
000010 88 a8 60 be e7 b0 c1 3c 35 79 89 3d 34 2a 18 3e
       -0.2193929 0.023643924 0.067125715 0.14859849
000020 e1 bc 92 3d b7 7c e5 3e 09 a4 5e be 25 b3 c2 3e
       0.07164932 0.44821712 -0.21742262 0.380273
000030 2f 32 55 3e 95 3e 19 be 01 57 df 3e 52 c7 aa 3e
       0.20819925 -0.1496528 0.43621066 0.33355194
000040 ff 0a cc 3d b2 25 45 be dc c2 37 3e 8d 3d 3b be
       0.09963035 -0.19252661 0.17945427 -0.18285199
000050 7a b1 8a 3e 89 77 7e be 4f 4b d4 3e 3b f9 68 3d
       0.2708853 -0.24850287 0.41463706 0.05687831
000060 e7 49 cd 3d c0 ac ac 3e a0 d0 f3 3d 36 04 04 3f
       0.100238614 0.33725548 0.119050264 0.51568925
000070 0e e5 f7 3d 54 ef 94 3e bc 68 3e bd 93 85 2b 3f
       0.121042356 0.29088843 -0.0464866 0.67000693

module.inc.conv.conv.1.running_mean f4 [32]
000000 36 05 17 bf fc 82 17 c0 3a 0e 5d bf 4a 4d 4b bf
       -0.58992326 -2.3673697 -0.86349833 -0.7941481
000010 40 5b 64 be 0d 95 79 bf d7 6b 30 3f a9 6a a7 bf
       -0.22300434 -0.9749306 0.6891455 -1.3079425
000020 3a 16 8a bf 19 b9 55 be 11 1d 9b bd a4 75 05 c0
       -1.0788033 -0.2087139 -0.07573903 -2.0853052
000030 7d 61 2d bf 6b 86 83 bf 9c 80 ac bf 40 f8 a2 be
       -0.6772688 -1.0275396 -1.3476748 -0.31830025
000040 88 91 7f bf 0d f6 62 be 03 fd d9 bf ac 50 28 bf
       -0.9983144 -0.22164173 -1.7030338 -0.65748096
000050 eb 38 1b be 9b c2 86 bf 7b db ae bf 81 56 28 3e
       -0.15158431 -1.0528139 -1.366073 0.16439249
000060 40 47 b4 bf 7f d5 76 bf 91 fc 1d be db 12 8e bf
       -1.4084244 -0.9641952 -0.15428378 -1.1099504
000070 cf 68 97 be 4a d4 48 bf 89 fe 8a bd 37 b8 bb be
       -0.2957215 -0.7844893 -0.0678683 -0.36663982

module.inc.conv.conv.1.running_var f4 [32]
000000 85 c9 36 41 f1 b3 be 42 83 c4 47 41 f3 bc a6 41
       11.424199 95.35145 12.4854765 20.84226
000010 ee 9d 06 41 f0 ce 16 41 b1 6a 4c 41 c8 55 b7 41
       8.413557 9.425522 12.776048 22.916885
000020 c4 71 ae 41 25 98 84 40 7f 53 1d 40 f0 91 22 42
       21.80555 4.1435723 2.4582212 40.642517
000030 0a 38 8c 41 60 63 f4 41 a5 95 c5 41 8d 36 a6 3f
       17.527363 30.548523 24.698069 1.2985398
000040 b7 d8 25 41 58 eb 12 41 09 b6 fd 41 eb 87 64 41
       10.365409 9.182457 31.713884 14.283183
000050 61 59 14 40 93 ee 8b 41 c1 cf 01 42 35 28 ce 40
       2.3179553 17.491491 32.452885 6.442408
000060 3e 2e a0 41 7c 21 d4 41 67 d5 bf 40 b4 79 69 41
       20.02258 26.51635 5.9948 14.592213
000070 49 76 ac 40 d0 ae cc 40 40 83 59 40 ba 62 a7 40
       5.389439 6.3963394 3.3986359 5.2308016

module.inc.conv.conv.3.weight f4 [32, 32, 3, 3]
000000 f7 89 2b 3e c9 b3 44 3d c4 06 9d be be f8 40 3d
       0.16751848 0.04802302 -0.30669224 0.04711222
000010 78 e5 f1 3d ca 7f d4 be ad 16 c4 bd 68 be 4c bd
       0.11811346 -0.41503745 -0.095746376 -0.049986273
000020 22 f8 99 3c 08 38 85 3d 73 79 74 3e b7 b3 83 bc
       0.018795077 0.06504828 0.23874454 -0.016076906
000030 7c a4 b2 3e ec 1e bd bd 66 85 3d bd 12 28 a5 3d
       0.34891117 -0.092344135 -0.046269797 0.080642834
000040 41 96 36 3d 09 b7 f7 3d cd bc 29 be 6a 41 19 3e
       0.044576887 0.12095458 -0.16575928 0.1496636
000050 29 2c 93 3e e4 7e 3c be 12 ea 5c bd 56 f6 b3 bd
       0.2874463 -0.1840778 -0.053934164 -0.08787219
000060 e8 0e 51 3d df f5 20 be 79 0e 0a be 3e a4 5f be
       0.051039606 -0.15718792 -0.13482083 -0.21839997
000070 41 bd f6 3d c2 07 d6 3b 22 de c7 bd bd 59 53 3e
       0.12047816 0.0065316865 -0.09759165 0.20639701
000080 6c bc 5c 3e 45 f8 80 be ec 8d 20 3e c6 5b cd 3d
       0.21556252 -0.25189415 0.15679139 0.1002727
000090 22 4c f8 3d cc e7 19 be 7b 73 b0 be 66 e5 c6 bd
       0.12123896 -0.1502983 -0.34463105 -0.09711723
0000a0 b0 48 3d be e5 e1 b1 be 5a 53 0e 3e f3 2e 33 3d
       -0.1848476 -0.34742656 0.13898984 0.043745946
0000b0 22 68 7b 3e cd af 66 bd 22 fc 20 bf 98 0d a4 be
       0.24551442 -0.05632 -0.62884724 -0.3204162
0000c0 a4 e3 8b 3e 53 de 7e bd b6 fe 7b be 41 0c 4c be
       0.27322114 -0.062223744 -0.24608883 -0.1992655
0000d0 df 4b 8d 3e c5 f0 14 3e be c3 e3 bd 83 f1 c3 3e
       0.27596948 0.14544971 -0.11121319 0.38270196
0000e0 14 f9 b5 3e 83 fa 2a be 32 c8 6a 3e 0b 6f 7d bc
       0.35541594 -0.16697125 0.22927931 -0.015468369
0000f0 48 df b8 be 44 18 5b 3d 16 65 44 bd 86 44 a7 be
       -0.3610785 0.05348994 -0.047947966 -0.32669467
000100 e5 2b 9d bd 04 a5 19 bc 8d 9c e5 be d1 0a a9 3d
       -0.07674388 -0.009377722 -0.44846 0.08254016
000110 16 e6 2a 3e d1 fe cf bd f8 35 a8 3d 14 99 3a 3e
       0.16689333 -0.10156024 0.08213419 0.18222457
000120 4a 28 b1 3e fc 4e de be 63 9e 39 be 74 aa 19 3e
       0.3460105 -0.43419635 -0.18126826 0.15006429
000130 21 29 d1 bd 23 20 7d bd d2 c1 34 bb 56 26 07 3e
       -0.10212923 -0.061798226 -0.0027581346 0.13198218
000140 ad 87 0e 3e e8 f8 8b 3e 65 72 33 3e ff a2 38 3e
       0.13918944 0.27338338 0.17524107 0.18030928
000150 67 8c 13 3e 77 e9 0a 3e 3d 6a 76 be 88 fc 85 be
       0.14409028 0.13565622 -0.24063964 -0.2616923
000160 f2 55 fc bd 8b 6c cf be ae f9 1d 3e 36 8e 89 3d
       -0.1232108 -0.405125 0.15427276 0.06716578
000170 5f 4e 13 be 71 30 3c bd 66 4d 5b 3b db c9 e4 bd
       -0.14385365 -0.045944635 0.003346288 -0.111713134
000180 37 2b 47 bd c5 db 3c be f7 7a 84 be eb 84 73 be
       -0.048625197 -0.1844321 -0.25875065 -0.23781173
000190 a2 d4 a6 bd 1f 79 50 3e 8a 02 16 be 6d 8d b1 be
       -0.08146025 0.20358704 -0.14649406 -0.34678212
0001a0 f3 7d 1b bd 3a 05 b4 be fa 81 9f be 14 09 09 bd
       -0.03796191 -0.35160238 -0.31153852 -0.033455923
0001b0 64 d7 47 bf d3 ec d0 be 18 89 80 bc b9 6e cb be
       -0.78063035 -0.40805683 -0.015690371 -0.39732912
0001c0 6b d6 b7 bd c5 4c e3 3c c2 7f 77 bc 86 7f 10 bd
       -0.08976444 0.027746568 -0.015106143 -0.035277866
0001d0 3c 03 b5 3d ad 11 39 bc 83 68 fc 3d 4a 8e 9f bd
       0.088385075 -0.011295718 0.123246215 -0.07790811
0001e0 4b 88 e7 bd 92 0e 7a 3d 8c b0 cb be c0 18 02 be
       -0.11305293 0.06104905 -0.39783132 -0.12704754
0001f0 7e 6e dc 3d 23 28 8b be b1 a9 5f 3c 2c 33 ac 3e
       0.10763262 -0.2717906 0.013651297 0.3363279
000200 dc d0 98 3d 59 d4 5b be 4e 81 39 3f ef 1c f5 3d
       0.07461712 -0.21467723 0.7246293 0.11968409
000210 09 52 11 be dd a2 99 bd fa ef af 3d 7f 2c bf 3d
       -0.1419145 -0.07501767 0.08590694 0.09334659
000220 ce 3a cf bd c3 10 a3 bd c2 7b a2 3e aa f3 04 be
       -0.10118638 -0.079621814 0.31735045 -0.12983575
000230 23 be b4 be 11 4a 08 be 64 06 5c be 9c b5 85 bd
       -0.35301313 -0.13309504 -0.21486813 -0.0652878
000240 10 ea 83 be fe a4 47 bf b2 c3 99 bd 40 84 1c be
       -0.25764513 -0.77986133 -0.07508029 -0.15284824
000250 29 4d 4b be 1f 5c 9d bd d5 c7 68 3d 94 61 9c bd
       -0.19853653 -0.07683586 0.0568312 -0.07635799
000260 26 25 3d 3e b2 a4 d4 3d b0 67 72 be b8 4c 55 bd
       0.18471202 0.10382976 -0.23672366 -0.052075118
000270 e2 75 a0 3d 63 fa 34 3d 83 87 81 be f0 07 3a bd
       0.07834984 0.0441841 -0.252987 -0.045417726
000280 02 cf 65 3b f8 ba 3f 3d c7 33 22 3e 2e 03 83 3d
       0.0035066013 0.046809167 0.15840064 0.06397091
000290 5a 60 21 3e ff 7f ce bc d0 f5 8b 3c 12 d5 e0 3e
       0.15759411 -0.025207518 0.017084986 0.4391256
0002a0 28 c3 bd bd 46 98 29 bf 7a 26 38 be 04 19 b3 3d
       -0.09265739 -0.66247976 -0.17983428 0.08745006
0002b0 79 bb ed be 41 02 fe bd c4 5c 65 3e 90 14 39 be
       -0.46432093 -0.12402774 0.22398669 -0.1807425
0002c0 10 c9 09 bf 73 3a cb 3d a8 3c b4 3e 84 c2 09 3e
       -0.5382242 0.09923258 0.35202527 0.13453108
0002d0 c0 f3 da bd f1 55 a0 3e 8a 69 32 3d ff f6 af be
       -0.10691023 0.31315568 0.04355768 -0.3436813
0002e0 52 7a c6 3c e7 f9 35 3e 3f ef 16 3e ff ae 1c 3e
       0.024228249 0.17771111 0.14739703 0.1530113
0002f0 84 5a d7 3d 80 ee 81 be 82 5b 55 bd 90 a0 36 bd
       0.10515311 -0.25377274 -0.05208922 -0.044586718
000300 47 c1 13 be 47 f5 e2 bd 05 0d 2f bd 0d cb 4e 3e
       -0.14429198 -0.11081939 -0.042737026 0.20194645
000310 6b 6f 98 3d bb d3 da 3d 89 ff 12 3d c4 f8 27 3d
       0.07443126 0.10684916 0.03588823 0.041008726
000320 34 d5 6a 3e 83 de 1b 3e e6 b2 5a 3c 6a 88 14 3e
       0.22932893 0.152216 0.013348317 0.14505163
000330 8f 28 31 3e e5 81 ca 3e 9c 7a 5b 3d 2e 02 cd bd
       0.17300628 0.39552227 0.053583726 -0.10010181
000340 a7 33 95 3e f2 b0 b5 3d b4 19 cf be 1f 50 0a bf
       0.2914097 0.0887164 -0.40449297 -0.54028505
000350 47 6a 55 3e 36 44 81 bd 69 07 70 3e 70 28 1a 3b
       0.20841323 -0.06311838 0.23440327 0.0023522638
000360 7e 79 1a be 64 49 72 be 76 f7 6f bb 33 f8 63 3d
       -0.15085408 -0.23660809 -0.0036616004 0.055656623
000370 a5 34 ee 3d 61 a7 4b 3d da c9 bc 3c a4 c0 d2 be
       0.11631135 0.04972017 0.02304547 -0.41162598
000380 e3 51 d2 3d 19 c6 af 3e 5e d9 4a 3d 0a ac 14 3e
       0.10269525 0.34330824 0.049523704 0.14518753
000390 df 9e a9 3e 61 48 15 3e 3d 3d cc bd 84 30 ab be
       0.33129022 0.14578392 -0.09972618 -0.33435452
0003a0 53 14 40 3e c3 c4 c9 bc 43 6b 12 3e 08 49 0a bf
       0.18757753 -0.024629956 0.1429873 -0.54017687
0003b0 3d 63 dd bd e9 b2 cf 3d aa 94 9a be 46 e6 eb be
       -0.10809944 0.10141546 -0.30191547 -0.46074122
0003c0 55 a5 3f bd 26 06 64 3c b4 12 d5 3d 06 19 2b be
       -0.046788532 0.0139174815 0.10403958 -0.16708764
0003d0 c5 05 43 3e 56 f2 74 3e be 1c dc 3d 38 55 c2 3c
       0.1904517 0.23920569 0.1074767 0.023722276
0003e0 c5 e0 7d 3d 5a fe 8c 3e 2a f3 03 be 1d ef 7f be
       0.061981935 0.27537805 -0.12885728 -0.24993558
0003f0 e5 d5 be 3d 54 f4 35 bf fa 75 34 bd 8c 8c 6a 3e
       0.09318141 -0.7107594 -0.044057824 0.22905177

module.inc.conv.conv.3.bias f4 [32]
000000 53 b9 e0 3d 5c 33 21 3d 64 25 af 3d 56 34 8c 3e
       0.10972848 0.03935562 0.085520536 0.2738368
000010 6e 35 a3 3d 85 62 b5 bc 3b d9 ab bc 3e 94 e9 3e
       0.07969175 -0.022141704 -0.020977607 0.45620912
000020 1b e8 1a 3e be 0c 4b 3e 7b e8 8a bd 5b 46 5b 3e
       0.15127604 0.1982908 -0.067826234 0.21413557
000030 84 f0 9b 3e 21 33 ba 3e 97 6e bf 3e bf 4b b8 3e
       0.30456936 0.36367133 0.3738906 0.3599529
000040 91 73 97 3e da 65 e1 3d 88 f5 c2 3e ce ee 93 3e
       0.29580358 0.11005755 0.3807795 0.2889313
000050 92 30 4b 3e c4 90 79 3e 55 a6 9a bd b4 05 13 3c
       0.19842747 0.2437163 -0.075512566 0.008973528
000060 d0 eb 97 3e b6 26 80 be a5 40 58 bc 4b 43 ac 3e
       0.29672098 -0.25029534 -0.013199006 0.3364509
000070 48 84 58 be 50 ca 0e 3c 1f 4f 37 3e 22 62 81 3e
       -0.21144211 0.008715227 0.17901276 0.25270182

module.inc.conv.conv.4.weight f4 [32]
000000 af 2e d9 3e 6c fa df 3e 67 0a 00 3f ae ce a8 3f
       0.4241843 0.43745744 0.5001587 1.3188074
000010 c8 b6 03 3f 9e 59 4f 3f 0e d3 02 3f be 38 a3 3f
       0.5145078 0.8099612 0.51103294 1.2751691
000020 cb 78 5a 3e c5 02 75 3f d7 8f 1f 3f ac 35 c6 3f
       0.21335141 0.9570735 0.6232886 1.5485129
000030 27 6e cf 3f 61 2d 15 3f 75 17 4d 3f 8a ce 62 3f
       1.6205491 0.5827237 0.8011392 0.88596404
000040 14 47 7f 3f 77 1b d5 3e ac 5f 9e 3f b9 89 b6 3e
       0.9971783 0.41622517 1.2372947 0.3565195
000050 0d 73 3b 3f 53 fe 74 3f 9d fb 3a 3e 8b dc 76 3f
       0.7322243 0.9570057 0.18260045 0.9643027
000060 d0 a9 72 3f 3b b7 80 3e 9c 1e 1c 3f d3 24 1a 3f
       0.94790363 0.25139794 0.60984206 0.6021244
000070 7e e1 96 3e 95 43 10 3f 21 8a 0b 3f ef dc 2d 3f
       0.29468912 0.5635312 0.54507643 0.6791524

module.inc.conv.conv.4.bias f4 [32]
000000 33 20 c7 3e ba 42 56 3e ac a7 6f 3d 27 f3 84 3e
       0.38891754 0.20923892 0.058509514 0.2596676
000010 2e 32 c4 3d b0 95 f3 3c a3 bb 30 bc 96 7f 98 3e
       0.095798835 0.029734462 -0.010786924 0.2978484
000020 bb dc 9c bd 71 8a 2c 3e cb 20 e5 bd fd c5 93 3e
       -0.076592885 0.16849686 -0.111878954 0.2886199
000030 31 3b ea 3e 23 77 20 3f 57 0d 15 3f e0 78 67 3e
       0.45748284 0.6268179 0.5822348 0.22604704
000040 39 e5 94 3e 6c bf 35 3d 75 df b9 3e 08 6c 10 3e
       0.29081133 0.044372007 0.36303297 0.1410371
000050 de d5 02 3f e1 b0 fd 3e c6 0a ca 3b 79 10 3f 3d
       0.51107585 0.4954901 0.006165835 0.04664657
000060 8b 51 d7 3e a2 6a 08 bf 71 50 86 be 27 23 01 3e
       0.420544 -0.5328771 -0.26233247 0.12611066
000070 30 2e 6d be b5 4f 49 3e fc 72 11 3f 1b dc 8e 3e
       -0.2316215 0.19659312 0.5681608 0.27902302

module.inc.conv.conv.4.running_mean f4 [32]
000000 6b 4e 99 3e 08 f8 c6 be d0 d0 b4 bd 02 e7 c8 be
       0.2994264 -0.38861108 -0.0882889 -0.39238745
000010 8c 30 38 bf 8b 22 63 bf 37 dc 19 bf 2a 39 89 be
       -0.71949077 -0.88724583 -0.60101646 -0.26801425
000020 5e ae 83 3f db c2 33 bf 27 79 3f bf 51 2e 65 bf
       1.0287588 -0.702192 -0.7479424 -0.895238
000030 d9 fe 13 bf 01 2b 47 bf 82 7b 99 be 82 b3 f2 be
       -0.5781074 -0.77799994 -0.2997704 -0.4740258
000040 6b 4d 50 bf a8 55 9f 3f e3 a9 3c bf 3e ee 59 3e
       -0.8136813 1.2448015 -0.73696727 0.21282288
000050 cb 7c c7 bf 1a 1a 01 be af 39 6b 3f af ab a4 be
       -1.5584959 -0.12607613 0.91884893 -0.32162234
000060 c8 d7 90 bf 18 41 b9 40 65 13 fd bf 28 75 b5 bf
       -1.1315851 5.789196 -1.9771544 -1.4176378
000070 60 ff 60 bf 4d 0e b6 3d a1 db 2f bf 57 3f 88 bf
       -0.8788967 0.088894464 -0.686945 -1.064433

module.inc.conv.conv.4.running_var f4 [32]
000000 c5 1a 01 40 6d 60 aa 3f 88 8e f5 3f fc 41 af 3f
       2.017259 1.3310677 1.9184122 1.3692012
000010 e9 75 0d 40 50 96 d4 3f b3 fc 15 40 f2 66 09 40
       2.2103217 1.6608372 2.3435485 2.1469083
000020 0a 9b eb 3f 67 39 52 40 3e 31 92 40 b3 ef fd 3f
       1.8406689 3.2847536 4.568511 1.9838775
000030 8d 22 42 40 cf b6 d5 3f 4c f0 0b 40 59 07 1a 40
       3.0333588 1.6696414 2.1865416 2.4066985
000040 6f 88 fd 3f 7d cc e5 40 9a 03 43 40 84 5a b5 3f
       1.9807261 7.181212 3.0470948 1.4168248
000050 2e 80 d7 3f a6 33 f9 3f af 3f c1 3f 21 1d 1a 40
       1.6835992 1.9468887 1.509756 2.408028
000060 bd dd c8 3f a3 ef bd 41 cd 56 a1 40 36 74 20 40
       1.5692669 23.74201 5.041846 2.507093
000070 c5 ee ed 40 f8 ed 36 40 e9 9f 53 40 a4 32 0d 40
       7.4353967 2.8582745 3.3066351 2.2062159

module.down1.mpconv.1.conv.0.weight f4 [64, 32, 3, 3]
000000 46 d8 68 3e 53 7b a8 be 05 cd 6d be 74 9a 0f 3e
       0.22738752 -0.3290659 -0.2322274 0.14023763
000010 da ca 9d be 56 82 45 be 6d 8b 52 3e 8e c2 a5 be
       -0.30818826 -0.19288 0.20560999 -0.32374996
000020 c4 c2 3c be 72 12 20 bf 88 7e 27 bf 39 36 dd be
       -0.18433672 -0.62528145 -0.65427446 -0.4320543
000030 73 0d 24 bf d0 79 13 bf 3d ac c4 bd 42 91 1e bf
       -0.6408302 -0.57607746 -0.09603164 -0.61940396
000040 20 b9 11 bf 29 1c a8 be b5 a3 7d be f9 ad 37 be
       -0.56923103 -0.32833984 -0.2476948 -0.17937459
000050 34 be c3 3c 65 13 b5 be 8b 56 54 be 0e 57 0a be
       0.023894407 -0.3536636 -0.20736139 -0.13509771
000060 c0 c3 ee be a5 86 d7 be fb 71 9b be 45 5f 66 3e
       -0.4663372 -0.42094913 -0.30360398 0.2249728
000070 ca 9f 51 3e 5b da 4c 3e da 65 d1 3d 25 86 da 3c
       0.20471111 0.20005171 0.10224505 0.026675293
000080 5b db f3 bd b4 b6 2c 3e 1f 22 fd 3d ac 43 2f 3e
       -0.11907073 0.1686657 0.12360024 0.17115659
000090 f7 74 5e 3c b1 ee 5c be fc 93 8f be a4 50 b9 3d
       0.013577691 -0.21575429 -0.2804259 0.09048584
0000a0 0c bf fa 3d 07 40 69 be 38 e0 93 3d 91 87 8f 3d
       0.122434705 -0.2277833 0.07220501 0.07008279
0000b0 32 c1 06 be 64 03 3f be 63 88 cb 3d 5b 56 42 bd
       -0.13159636 -0.18653637 0.09938123 -0.047445636
0000c0 35 4e 75 3d 0a 59 e8 3d ce 78 df 3c e6 49 0d 3e
       0.059889037 0.11345108 0.027279284 0.13797721
0000d0 cb 6c 6a 3e 17 66 81 3d e2 7c eb 3d d1 1f 8c 3e
       0.22893064 0.063183 0.11498429 0.27368024
0000e0 af e3 86 3e 4a 5e 1f 3e 55 7f 3c 3e 57 b6 81 3e
       0.26345584 0.15563312 0.18407948 0.25334427
0000f0 01 c0 29 3e 76 c9 e6 3d c6 a8 a7 3d 2c 8a 19 3e
       0.1657715 0.112688944 0.08186488 0.14994115
000100 7e 0d 4f 3d fe 8f a6 3d 18 c7 9b bd d1 45 81 bd
       0.050549977 0.08132933 -0.076063335 -0.063121445
000110 0e 88 9a 3e c0 8b 27 bd 89 7d 2d bd ec 50 0d 3e
       0.30181926 -0.04090476 -0.042356048 0.138004
000120 54 6a d3 3d 3d 0e 59 bd f3 4d 22 3d ba 4d 26 3d
       0.10323015 -0.052992094 0.03962512 0.04060147
000130 eb 91 3b bc 05 b5 8a 3d b3 eb 25 3b c5 07 28 be
       -0.011448364 0.06772808 0.002531749 -0.16409214
000140 ed 80 33 be 77 39 12 bd 72 64 e1 3d b9 50 65 3e
       -0.1752965 -0.035699334 0.110054865 0.22394074
000150 c1 3e 09 3d ef 0c a9 3d 60 97 3e 3e e9 e4 be 3d
       0.033507112 0.0825442 0.18612432 0.09321005
000160 9c 22 a1 3e bf a9 9e 3e 80 e9 4e bd 32 17 01 3d
       0.31471717 0.3098888 -0.05051565 0.03151626
000170 de 9f 63 bd 4a 46 32 bc ae 72 bf bc 9d b6 07 bd
       -0.055572383 -0.010881016 -0.023370113 -0.033133138
000180 37 06 2d 3d 98 a2 60 3d 07 1e 05 bd 85 68 f9 3e
       0.042242255 0.05484256 -0.03249934 0.48712555
000190 8f 11 fc 3e 43 94 77 3e ea e8 9c 3e 33 48 8a 3d
       0.49232146 0.24177651 0.3064645 0.06752052
0001a0 89 5e 2b bd e8 c8 55 3e cb 06 24 3d 77 7b 87 3c
       -0.041838203 0.20877421 0.04004554 0.016538365
0001b0 09 90 c3 bc 44 86 7a 3d 07 2a ae bc 18 70 c2 3d
       -0.023872392 0.061163202 -0.021260275 0.094940364
0001c0 cd a4 12 3e ee 7e 45 3e 98 52 03 be 84 8a 50 3d
       0.14320679 0.19286701 -0.12824476 0.05091335
0001d0 fb c8 f0 3d 3c 68 a9 3d df 4d d8 bd 87 2c e2 bd
       0.11757084 0.08271834 -0.10561728 -0.11043649
0001e0 55 af 8d 3c 9a c6 53 be b1 88 2f be c2 7b 2b 3e
       0.017295519 -0.20681229 -0.17141987 0.16746429
0001f0 e5 9e 10 bd c9 df 06 3e 10 6d 4c 3e 80 22 01 bd
       -0.035307784 0.13171305 0.19963479 -0.031527042
000200 4c cc 69 be 0c 9f a0 3e d2 a1 15 be 90 c4 5f be
       -0.2283184 0.31371343 -0.14612511 -0.21852326
000210 84 bf 5e 3e e2 64 e7 3b 2a 1c 26 bd cc 38 48 3e
       0.21752745 0.0070615867 -0.040554203 0.19552916
000220 80 92 ac bd a3 bc 34 3e d0 9b e4 3d 63 2e b4 3d
       -0.0842638 0.17650084 0.111625314 0.0879791
000230 9a 89 60 3e 2f a5 80 3e 5c 5d 0b 3e 87 5b 40 3e
       0.21927491 0.25126025 0.13609833 0.18784915
000240 7c 35 3e 3d aa 29 8d bc 6a 4d 91 3e 1a cd 8c bd
       0.046437725 -0.017231781 0.28379375 -0.068750575
000250 4e d2 f3 bb e5 be 22 3e 61 49 53 3e 72 b9 6f 3e
       -0.0074408418 0.15893133 0.2063346 0.23410586
000260 26 36 be 3d 25 ae 08 bf fa b5 01 bf 11 b2 bc be
       0.09287672 -0.53390723 -0.506683 -0.36854604
000270 22 8f 22 bf ab c8 17 bf 13 08 d2 be 00 36 44 bf
       -0.63499653 -0.5929057 -0.41021785 -0.766449
000280 87 53 26 bf db f7 fd be 4d b4 93 3e 4b 5a 02 3e
       -0.649712 -0.4960316 0.28848496 0.12729757
000290 ed e8 51 3e 2c 1f 4f 3e cf 54 1d 3d c8 a6 aa 3d
       0.2049901 0.20226735 0.038410958 0.08332592
0002a0 86 af 2a 3e b8 dc bb 3d 52 dd 45 3c f7 07 8f bd
       0.1666852 0.09172958 0.012076693 -0.06983941
0002b0 dd 0a 82 be 2c 33 0c be 61 ae c6 bd 5f 11 8f be
       -0.25398913 -0.13691396 -0.09701229 -0.2794294
0002c0 5a 0f 75 be 3e 8f df 38 99 ae 53 be 99 95 eb bd
       -0.23931637 0.000106601496 -0.20672072 -0.11503143
0002d0 85 12 c3 3d ec f1 97 ba 78 06 02 be 26 60 a6 3d
       0.09525017 -0.0011592484 -0.1269778 0.081238076
0002e0 a8 28 8d 3c cd 55 a9 3d fb 40 74 3e 1d 38 f5 3d
       0.0172313 0.08268318 0.23852913 0.119735934
0002f0 74 ca 95 3e 21 8d 73 3e f0 fe 8a 3d 14 74 17 bd
       0.29256022 0.23784305 0.06786907 -0.036975935
000300 a3 22 fd bd ac 2e 0d be 7a c9 9e be af 15 0d be
       -0.12360122 -0.13787335 -0.3101309 -0.13777803
000310 1a 75 07 be 3a 91 2c be 7b 02 37 be b6 50 60 3d
       -0.13228264 -0.16852275 -0.1787204 0.054764472
000320 fb 7a 58 3d e6 a7 3f be b4 12 35 bb fb ac 4e 3d
       0.05285166 -0.18716392 -0.0027629556 0.050457936
000330 d2 b3 37 bd 26 e1 48 3c fb 48 ae 3c e9 a7 26 bd
       -0.044849224 0.012260711 0.021275034 -0.040687475
000340 5f 0a 8b bd 0a 83 26 be db 84 58 be 8e 0a b7 be
       -0.067890875 -0.16260925 -0.2114443 -0.3575024
000350 68 7b 49 be 18 c4 2e 3d c8 9b 0e bd 5d fe f7 bd
       -0.19675982 0.04266748 -0.034816533 -0.12109063
000360 1c 68 c2 3e 3e f5 fa 3d 6a 10 a9 3e 24 57 3d 3c
       0.37970054 0.122538075 0.33020335 0.0115564205
000370 50 31 5e be 82 16 8f 3e 8d ad 9a 3d f3 a6 0b be
       -0.21698499 0.2794686 0.075526334 -0.13637905
000380 cb 79 56 3e c0 5a ae be 52 62 b1 be 27 5f 6e be
       0.20944898 -0.34053612 -0.34645325 -0.23278485
000390 18 f7 af be a9 99 9a be 03 5b a2 be ee 06 e0 be
       -0.34368205 -0.30195358 -0.3171006 -0.43755287
0003a0 4d 35 e5 be 07 28 ca be 4f 44 01 bc 0e 5c 40 3e
       -0.44767228 -0.39483663 -0.007889821 0.18785116
0003b0 66 b1 84 3c 2a 9a 7f bc 07 35 f2 3d d4 e6 b7 3d
       0.016197871 -0.01560072 0.118265204 0.08979574
0003c0 80 c5 d9 3d 77 1e 96 3e e9 da 50 3d 20 62 53 3a
       0.10633373 0.29320118 0.05099002 0.0008063633
0003d0 91 3d 65 be 44 5e 1a 3d 25 46 13 be f2 85 67 be
       -0.22386767 0.037687555 -0.14382227 -0.2260969
0003e0 35 01 94 bd 31 25 bc bc c2 c0 e6 bd c6 00 10 3e
       -0.07226793 -0.022966953 -0.112672344 0.14062795
0003f0 48 1a 83 be c9 9d e0 bd d2 5b 94 3c ef 3d c3 bd
       -0.25605989 -0.10967595 0.01811019 -0.09533297

module.down1.mpconv.1.conv.0.bias f4 [64]
000000 a6 c7 71 bb 8c 62 d5 bc a6 b9 f2 3d eb 60 2e bc
       -0.0036892681 -0.026047967 0.11851816 -0.010643224
000010 3a c4 0a 3d 4e e2 22 3e 8d 04 f7 3c d0 fb e0 3b
       0.033878542 0.15906641 0.030153537 0.006865956
000020 9b 9c 81 bd 0f 62 5b 3e e8 79 4d 3d dd 40 ff 3c
       -0.06328698 0.21424125 0.050165087 0.031158859
000030 ac 7a 75 bd 75 b2 87 3d fc c0 73 3e 2c cb 51 3d
       -0.059931442 0.06625835 0.23804086 0.05121915
000040 87 ea 4a 3c 9f f5 97 bd 8e 63 f8 bc 5c b1 7c 3c
       0.012385017 -0.074198954 -0.030320909 0.015423145
000050 6f 4e 8f 3c 01 41 d4 3d 18 e2 ed bd bb 58 5b 3d
       0.017493455 0.10363961 -0.116153896 0.053551417
000060 aa d6 bb 3d be ba 9d 3b 6b f7 a3 bd d0 1c 65 3e
       0.09171803 0.004813521 -0.080061756 0.22374272
000070 e5 de 0a be ff 74 c4 bd 16 df 80 3d bb 3c e2 3d
       -0.1356159 -0.09592628 0.0629255 0.1104674
000080 17 5c 1d 3d eb b2 b9 3c 71 b6 49 be 89 ff c3 3c
       0.0384179 0.022668323 -0.19698502 0.02392556
000090 8e 32 8c 3e 01 cb dc bd 67 cb 02 3e dc 2f 66 3c
       0.2738232 -0.107809074 0.12772904 0.0140494965
0000a0 64 c8 85 bc ef 18 34 bd 44 28 d7 bd ad c8 87 3d
       -0.016330905 -0.04396909 -0.10505727 0.06630073
0000b0 86 93 d2 bd 8f 1c 59 be c9 9d b7 3d 68 ea 9c 3d
       -0.10282044 -0.212023 0.08965642 0.07661897
0000c0 7f 29 85 3d 1a f9 16 be fd 2e 51 bd c5 77 81 bd
       0.065020554 -0.14743462 -0.051070202 -0.06321672
0000d0 e0 07 09 3d bf f7 01 bd 82 49 9a 3d 3a e7 8c 3d
       0.033454776 -0.03173041 0.07533552 0.068800405
0000e0 c7 b7 6c 3c c2 c4 9e bc e0 18 4e bd 38 49 f9 bd
       0.014448113 -0.01938093 -0.05031669 -0.121721685
0000f0 c5 af 1b bb 2f aa 68 3b 2c 99 f0 bc e4 c5 e4 3d
       -0.002375589 0.0035501828 -0.029369913 0.11170557

module.down1.mpconv.1.conv.1.weight f4 [64]
000000 20 a2 69 3d ca f6 02 3f 44 de 76 3d 8e 13 28 3f
       0.05703938 0.5115782 0.060270563 0.6565484
000010 7a 49 10 3f d9 7f 27 3f 89 1e 83 3f d9 ff a8 3e
       0.56362116 0.65429455 1.0243694 0.33007696
000020 4c 9e 6e 3f 96 74 59 3f 2a c5 8b 3f 12 50 f9 3e
       0.9321029 0.8494352 1.0919545 0.486939
000030 9f 12 01 3f 96 f1 3e 3f d8 e6 27 3f 5c 3b 19 3f
       0.5041904 0.7458738 0.65586615 0.598562
000040 4c 15 f1 3e 14 d3 ff 3d f7 74 9b 3e 64 f1 39 3f
       0.4708656 0.12491432 0.30362675 0.7263396
000050 1e 11 42 3f c0 de 3f 3f a9 fa 2a 3f 79 ff 73 3f
       0.7580737 0.74949265 0.6678873 0.95311695
000060 a8 ee e0 3e 54 25 e7 3e dd ea 05 3f 4d e2 61 3f
       0.4393208 0.45145667 0.523115 0.8823593
000070 8c 64 47 3e e6 50 05 3f c7 0b a2 3e 9d fe 45 3e
       0.1947195 0.52076566 0.3164961 0.19335409
000080 22 4f e4 3e 2d 12 1b 3f eb 14 12 3f 7f 97 4b 3f
       0.44591624 0.6057461 0.5706317 0.7952804
000090 e6 8f 0d 3f 45 50 46 3f 18 17 ff 3e 52 45 40 3f
       0.55297697 0.7746623 0.49822307 0.75105774
0000a0 ee 1e b5 3e be 32 b9 3e a2 d4 87 3f 0f c6 50 3f
       0.3537516 0.36171526 1.0611765 0.81552213
0000b0 c0 7d 98 3e 83 f0 d5 3e 6e 73 5f 3f 2f 08 85 3e
       0.2978344 0.41785058 0.87285507 0.25982806
0000c0 6d a5 2c 3f 3b 26 bc 3d 4f 01 9d 3e a7 76 4e 3f
       0.6743992 0.091869794 0.3066506 0.806498
0000d0 ad 25 97 3e 25 51 1e 3f 2f 5f 5a 3e 41 fa d1 3e
       0.29520932 0.61842567 0.21325372 0.4101124
0000e0 38 20 01 3f 5b 67 da 3e b2 01 cc 3e f0 b9 29 3f
       0.50439787 0.4265698 0.39845043 0.66299343
0000f0 e3 9a c5 3e 09 40 69 3f 53 bc 31 3f 8e f6 d0 3d
       0.38594732 0.91113335 0.69427985 0.102032766

module.down1.mpconv.1.conv.1.bias f4 [64]
000000 b6 a5 92 3e e2 38 8d bc 6f b9 cf 3e 61 65 e1 bc
       0.28642052 -0.017239038 0.40571162 -0.027514162
000010 96 79 b1 3d bc fe 61 3e f5 f6 be bc 03 34 b6 bd
       0.08665769 0.2206983 -0.023311118 -0.08896639
000020 be 82 9d bd 57 85 69 3e 2a 6d 8d bd ee 4f fa 3d
       -0.07690953 0.22804771 -0.06905587 0.12222277
000030 13 3f e0 bd 25 19 77 be 26 79 2f 3e 90 70 39 3d
       -0.109495305 -0.24130686 0.17136058 0.045273364
000040 80 88 5f 3b aa d7 0d be 14 c6 7e ba d7 8f 4c 3d
       0.003410846 -0.138518 -0.0009718847 0.049941864
000050 5b e5 e5 3c 0c a8 78 3a b4 7b b5 be 44 3e e8 bc
       0.028063467 0.000948549 -0.3544594 -0.028350003
000060 f4 8f aa bd 76 2c 03 3b 37 3f b8 3d 91 f0 98 3e
       -0.08328238 0.0020015514 0.08996432 0.29871038
000070 8c 37 3f be eb 95 37 bc 5a 16 5c bb c4 ab 16 3e
       -0.18673533 -0.011205177 -0.0033582659 0.14713961
000080 7d 6a a3 3d d2 12 9c bd 11 c7 93 be 77 b9 97 3d
       0.079792954 -0.07620777 -0.28862813 0.074084215
000090 83 c9 a0 3e b3 59 ee 3d 4a 55 e3 3d ba 8d 27 3d
       0.3140374 0.116382025 0.11100252 0.040906645
0000a0 70 3c 81 3d dd dd 44 bb 5f bc 2a be 13 5d e1 bd
       0.06310356 -0.0030039467 -0.1667342 -0.110040806
0000b0 bd f9 99 be d4 3a 4a be 3b 4e 2c 3e f3 f8 00 3e
       -0.30073348 -0.19749004 0.16826718 0.12594967
0000c0 0a a1 b4 3c 4f 94 33 be 91 b5 8f be ed 77 bf 3d
       0.022049446 -0.17537044 -0.28068212 0.09349046
0000d0 d2 f4 10 3e da d0 21 3e 01 01 1e 3e a2 d3 9e 3e
       0.14155892 0.15802327 0.1543007 0.31020838
0000e0 d5 d7 39 3d ca 81 89 bd 70 88 f3 bd bf 27 6b be
       0.04537185 -0.067142084 -0.11891258 -0.2296438
0000f0 c2 bf 31 3e b5 75 61 bb 0d d9 83 be 3c 0f c5 3e
       0.17358306 -0.0034402434 -0.25751534 0.38488185

module.down1.mpconv.1.conv.1.running_mean f4 [64]
000000 e6 b3 fc 3e 43 7e ba 3f 11 9e 8a 3f 7e a6 35 bf
       0.49356002 1.4569782 1.0829488 -0.7095717
000010 54 84 bd 3d 59 a8 3d c0 02 c9 3b bf 78 19 a1 bd
       0.09253755 -2.9634001 -0.7335359 -0.07866186
000020 57 b7 47 c0 69 80 63 c0 1e 63 03 c0 49 05 3f 3f
       -3.1205652 -3.5547125 -2.0529246 0.7461744
000030 38 c3 17 bf 6a 63 90 3f 72 0d 77 c0 b9 f4 98 c0
       -0.59282255 1.1280339 -3.8601956 -4.7798734
000040 0b d0 2f c0 6c 4a fc 3e 00 93 5a bf fd fc 83 c0
       -2.747073 0.4927553 -0.85380554 -4.1246324
000050 ce 1f 19 bf db 57 bf bf 87 3d 3e c0 0c d8 87 c0
       -0.59814155 -1.4948686 -2.9725053 -4.245123
000060 5c 31 0e 40 35 54 fe bf 16 ce cb bf 1d 95 4b c0
       2.2217627 -1.9869448 -1.5922267 -3.1809762
000070 00 b6 1e 3f a8 c5 5c bf a7 5a fe 3e 6e 9e 4c be
       0.6199646 -0.862391 0.49678537 -0.19982311
000080 72 12 d1 bf 03 66 02 bf 85 e0 44 40 63 3d 2b c0
       -1.6333754 -0.5093691 3.0762036 -2.6756217
000090 4e 0e 0e c0 96 be 75 c0 d9 6c a0 bf 41 b5 0a c0
       -2.219623 -3.8397574 -1.2533218 -2.1673129
0000a0 3d 5b 5a bf 88 63 78 3f c5 87 2d c0 37 c8 43 be
       -0.8529547 0.9702687 -2.7114117 -0.19119345
0000b0 5c 53 87 40 3a 7b 5a 3e a6 e7 16 c0 f7 ff 43 c0
       4.2289257 0.2133607 -2.3578887 -3.0624979
0000c0 d3 81 84 bf 77 d6 25 c0 51 25 95 3f c8 54 be bf
       -1.0352119 -2.591215 1.1652013 -1.4869623
0000d0 bd b8 93 bf dc 66 5e c0 e8 89 8e 3d 15 18 93 bf
       -1.1540753 -3.475028 0.06959897 -1.1491724
0000e0 8a 8d e6 bf dc 68 bb be 8c 76 7e 3e 1c 3f 78 be
       -1.8011944 -0.3660344 0.2484991 -0.24242824
0000f0 1e 3f ca bf 00 44 3c c0 aa 4c 9b c0 cf fb 3b 3f
       -1.5800512 -2.9416504 -4.8531084 0.73431104

module.down1.mpconv.1.conv.1.running_var f4 [64]
000000 d1 a6 3d 40 3b 49 2a 40 4e de bb 3f 0a be c7 3f
       2.9633067 2.6607196 1.4677217 1.560487
000010 f5 bf 95 3f f4 e0 4e 40 23 0d 93 40 b2 16 de 3f
       1.1699206 3.23248 4.5953536 1.7350676
000020 81 bf 28 40 c5 3b c7 40 6a 18 11 41 5a b6 e0 3f
       2.6366885 6.226046 9.06846 1.7555649
000030 a8 61 ea 3f 06 6a 83 40 23 71 37 41 2d f9 46 41
       1.8311052 4.1066923 11.465121 12.435834
000040 66 4a 08 41 60 bd 93 40 5f 2a 01 40 23 78 8e 40
       8.518164 4.616867 2.0182111 4.452165
000050 a9 43 43 40 0b 3b f2 40 9a c5 84 41 f7 c9 3f 41
       3.0510046 7.5697074 16.596485 11.986808
000060 42 03 dd 40 3f 13 dc 40 16 30 38 40 94 d0 90 40
       6.9066477 6.8773494 2.877935 4.525461
000070 88 79 5e 40 85 ca b1 3f aa da e9 3f d7 40 ef 3f
       3.4761677 1.3889929 1.8269856 1.8691663
000080 0d 6c d1 3f 5d c0 84 40 2c 8c f2 40 b9 69 17 40
       1.63611 4.148482 7.579611 2.3658278
000090 91 7b 41 40 61 39 cb 40 ba b4 75 40 0d 06 08 40
       3.023167 6.3507543 3.8391557 2.1253693
0000a0 84 b9 54 40 19 d2 c0 3f 73 51 1f 41 8d 1d 1d 40
       3.323823 1.5064117 9.957385 2.4549286
0000b0 68 4e 77 41 bf 36 60 3f 84 e5 ff 3f 7a 13 51 41
       15.456642 0.87583536 1.9991918 13.067255
0000c0 ba 79 5f 40 49 28 0d 40 2a 1b e0 40 d4 36 9b 40
       3.4918046 2.2055838 7.003316 4.850443
0000d0 ff 1c f4 3f 2e b6 9f 40 26 e2 ea 3f f2 15 85 40
       1.9071349 4.9909887 1.8350265 4.158929
0000e0 be 9c 09 40 e4 bf 14 40 b0 cd 6c 40 da 1c a2 40
       2.1501918 2.324212 3.7000542 5.066022
0000f0 4b a9 b2 3f a2 93 ad 40 5e 80 85 41 59 38 15 40
       1.3957914 5.4242716 16.68768 2.3315642

module.down1.mpconv.1.conv.3.weight f4 [64, 64, 3, 3]
000000 7b d1 0c 3e 45 7b 0a 3c 96 7e 2e 3d 3a d0 3f 3e
       0.13751785 0.008452241 0.04260119 0.18731776
000010 bd ea 93 3e fa 15 c9 3d b4 32 c9 3d b2 67 07 3e
       0.2889003 0.09818645 0.09824124 0.1322315
000020 61 19 05 3d ad 61 86 3e 75 18 5a 3d 6a cb 2c be
       0.032494906 0.26246396 0.05324598 -0.16874471
000030 78 e9 a2 3d eb 4a 1f bd 59 26 d2 3c ba a8 d5 bd
       0.07954687 -0.038889807 0.025653051 -0.10432573
000040 22 9f 29 be 79 12 59 bd 7d 52 52 3e da 81 22 3d
       -0.1656461 -0.052996133 0.2053928 0.039674617
000050 07 e8 30 3e 0f ac 49 3d 32 12 fc bd fe d3 b1 bd
       0.17276011 0.049236353 -0.12308158 -0.086830124
000060 f9 3d 1f 3d 44 9a aa bd 63 b3 3b be b3 5b d3 bc
       0.03887746 -0.08330205 -0.1833015 -0.025800562
000070 03 85 45 3d db 74 41 be ac 95 f1 bd 8d a2 ce 3d
       0.048222553 -0.18892233 -0.11796126 0.10089598
000080 8f 36 0f bc e7 32 3e 3e 0d 00 57 3e 82 5a 79 3e
       -0.008741035 0.18574105 0.20996113 0.24350932
000090 1d e6 86 be 9f 37 1e be 5b 92 ee be 5d e0 9c be
       -0.26347438 -0.15450905 -0.46596035 -0.30639926
0000a0 00 03 3e 3c 01 71 e1 3d c1 86 37 be b9 de 42 3e
       0.011597395 0.11007882 -0.17922498 0.19030274
0000b0 71 94 73 3e 6a 84 c6 3e e1 5f 34 bd d1 c2 ff bd
       0.23787095 0.387729 -0.04403675 -0.1248833
0000c0 29 ea e8 3e 2d 6b 7a 3d a2 e5 a0 bd b3 4e dc 3e
       0.4549115 0.061137367 -0.07856299 0.43028793
0000d0 54 b8 1b 3e ee 5a 16 3d 17 6c 31 be 17 ca 2a be
       0.15207034 0.03670781 -0.17326389 -0.16678654
0000e0 6d 8a 9b be 8f 1f 0e bf 4c 59 b6 3c f5 b7 ae be
       -0.30379048 -0.55516905 0.022259377 -0.34124723
0000f0 b2 b6 8a be ae 5c 39 3c 96 4a b4 be 35 3c 6e 3c
       -0.2709251 0.0113136 -0.35213155 0.014540722
000100 32 1b 21 be 2f f9 8e be d5 bd 4f bd 08 5a 02 be
       -0.1573303 -0.27924487 -0.050718147 -0.12729657
000110 d7 28 b6 be 95 dd 52 bd c0 44 33 be 4b a9 2f be
       -0.35578033 -0.05148085 -0.17506695 -0.17154424
000120 f2 0e 80 3d 0b 18 07 3f 20 00 92 3e 3c bc b1 3d
       0.062528506 0.5277106 0.2851572 0.08678481
000130 9f 50 df 3e 87 7f a0 3e 83 7d 32 be 77 35 f4 3d
       0.43616197 0.31347296 -0.17430691 0.1192426
000140 0c e6 dd 3d e5 3d b5 3d 7a 2b a8 bd 84 37 32 3d
       0.108348936 0.08849696 -0.082114175 0.043509975
000150 36 ad cc bd 40 60 5d 3e 3e 7b 2a 3d 30 2e 4f be
       -0.09993975 0.21618748 0.04162144 -0.20232463
000160 73 71 ad 3d e1 0d 06 3d 03 7d 21 3c 09 68 49 bd
       0.08468904 0.03272808 0.009856465 -0.04917148
000170 aa a8 f9 bd 38 70 25 3e d3 ef 81 3c 6c d9 aa 3d
       -0.12190373 0.1615609 0.015861427 0.08342251
000180 3f 98 f0 bd 6e 88 9c bd 1a 48 73 3d 10 3e 32 3e
       -0.11747789 -0.076432094 0.059394933 0.17406487
000190 8e af c5 bd f0 af af be 2d 54 8c 3e de ca a6 bd
       -0.09652625 -0.34313917 0.2740797 -0.081441626
0001a0 4b 49 22 bc 3c a7 4d 3e 81 ed 9d 3e 5e 2f 90 3e
       -0.00990517 0.20083326 0.30845264 0.28161138
0001b0 76 21 65 3a 2e 19 ed 3d 4f 2f c7 3e 31 03 6d 3d
       0.0008740643 0.11577068 0.3890328 0.05786437
0001c0 62 c5 98 3d ea f6 e1 3d 4f 2f 3e 3e a3 1a 5c bd
       0.07459523 0.11033423 0.18572734 -0.05373634
0001d0 0b 91 d9 3d 87 98 f3 bd 5f e7 62 be 67 8f 25 3d
       0.10623368 -0.11894327 -0.22158574 0.040419962
0001e0 6a ae 5f be 6f a2 40 be e3 e9 2d 3e 0b 8b 5a be
       -0.21843877 -0.18811963 0.16983752 -0.21342103
0001f0 aa a6 81 be 9d 48 cf 3d 79 5e 86 bb b0 f4 8f be
       -0.25322467 0.10121272 -0.0041006175 -0.2811637
000200 0a 0d d6 be 21 72 23 3e f5 dd f7 bd 75 d8 ce be
       -0.41806823 0.15961505 -0.12102882 -0.4039952
000210 d5 4d 76 3e e3 48 73 3c 3c c1 7a be 47 27 1d 3e
       0.24053128 0.0148489205 -0.24487776 0.15347014
000220 c2 95 8d b9 39 59 b2 3e fc 9e bc bd 25 7e 85 be
       -0.00027005194 0.34833696 -0.09210011 -0.26072803
000230 fe 59 97 3c 5c 5f 51 be bc 78 25 be 6c a8 08 be
       0.018475529 -0.20446533 -0.16159338 -0.13345498
000240 50 ba 50 3c 1c 72 9b 3e 22 e1 7c 3e b2 96 6e be
       0.012739733 0.30360496 0.24695256 -0.23299673
000250 d1 0e 10 3e 61 f0 42 bd 18 3a 84 be af c9 21 3e
       0.14068152 -0.047592524 -0.25825572 0.15799592
000260 bd 81 e6 3d 02 13 03 3c 1b 5f f7 3b 57 60 ab 3c
       0.11255214 0.008000137 0.0075491793 0.020919962
000270 1d 4e 33 be 96 42 10 3e 8c 87 b7 3d 63 ba d3 bc
       -0.17510267 0.140879 0.089614004 -0.025845712
000280 57 4f 9a 3d ea eb 81 3a dc c3 e6 be 8f 9e 21 bd
       0.07534664 0.0009912227 -0.45071304 -0.039457854
000290 e9 3f 95 bd 22 a1 ca be 4a 78 c8 3d 5a 66 9a 3e
       -0.072875805 -0.3957606 0.09788568 0.30156213
0002a0 36 88 c5 be e6 b4 9c 3d 7e a4 c5 3e e5 d1 84 bd
       -0.38580483 0.07651691 0.3860206 -0.06485347
0002b0 86 19 10 be a1 8c 2b 3e 64 73 16 3d e6 4b 82 3e
       -0.14072236 0.16752864 0.03673114 0.2544853
0002c0 d1 d9 59 3d 6b 57 67 3d cc eb d2 bd 32 0b 2b 3e
       0.05318624 0.056479853 -0.10298881 0.1670349
0002d0 f8 6b 93 3c 5d d8 01 be bf 5c 3e be 25 fa 64 3e
       0.01799582 -0.12680192 -0.18590067 0.22361048
0002e0 a1 48 97 bd 69 8f 1a be d3 9c d4 3d 8e b7 bb bc
       -0.073869 -0.15093769 0.10381474 -0.022914674
0002f0 cb c2 70 3c 62 0f f3 bd 04 3b d0 3d c5 73 86 be
       0.01469488 -0.118681684 0.10167506 -0.262602
000300 c9 69 75 be 93 7d b7 3d b6 09 b9 bc b9 a8 a5 bc
       -0.23966135 0.08959498 -0.022587638 -0.020222055
000310 a0 12 10 3e 6e df 96 be 5e e3 2b bd 12 09 7a 3e
       0.14069605 -0.29467338 -0.04196488 0.24417523
000320 6c 1d 86 bd 5f a1 3e bd 93 c3 f5 3d f1 1d 8e bd
       -0.065485805 -0.046540614 0.120001934 -0.069393046
000330 34 0d c2 bd 38 de 5e bc 5a 69 50 be 66 29 9d 3d
       -0.094751745 -0.013602786 -0.20352688 0.07673912
000340 e7 66 54 be c5 c2 32 3c df 75 6f 3c 1e 2d 83 be
       -0.20742379 0.0109106945 0.014615505 -0.2562036
000350 9d cf 3b be cd 9c 2c bd 57 ae d9 bd ac 43 c3 bd
       -0.18340917 -0.042141724 -0.10628956 -0.09534392
000360 30 f3 07 3e 00 5e 63 3d b4 01 56 be c9 54 33 3e
       0.13276362 0.055509567 -0.20899087 0.17512812
000370 3b 9f 39 3d 96 87 bc be 5c 4a d6 3d 51 88 01 3e
       0.04531787 -0.36822194 0.10463402 0.12649657
000380 93 71 b9 be 0e 96 b3 bd 20 03 79 3d 2e 86 90 bc
       -0.36219463 -0.08768855 0.060793996 -0.017642107
000390 da cd 0e be df a3 1e 3d f7 87 55 bc a0 65 1a be
       -0.13945714 0.0387305 -0.013032905 -0.1507783
0003a0 a4 b6 2c bd 57 dd 60 3a b0 94 de bd f9 8c d6 be
       -0.042166367 0.0008577904 -0.10868204 -0.4190443
0003b0 3c 91 67 3d e7 6e bc be ff 70 b2 be 0f ac 6e 3b
       0.05653499 -0.36803362 -0.34851834 0.0036418473
0003c0 94 89 56 bd cf ad c7 bd 8f d6 71 3d 13 b4 27 3e
       -0.0523773 -0.09749948 0.05904251 0.16377287
0003d0 cc 97 d3 3e d7 fa f0 3e 65 c2 b7 3e 0a f8 cb 3e
       0.4132675 0.47066376 0.358905 0.39837676
0003e0 5a 2a 2e 3e 58 ea b7 3e 79 a7 81 3e af 68 80 3e
       0.17008343 0.35920978 0.25323084 0.25079867
0003f0 95 3a cf 3d e5 36 4d 37 7e 21 fd bd 14 e7 68 bd
       0.101185955 1.2231733e-05 -0.12359904 -0.056861

module.down1.mpconv.1.conv.3.bias f4 [64]
000000 2c eb 83 bd e9 2e 3a bc 3a 32 3b be bf 53 c3 bc
       -0.0644134 -0.011363723 -0.18280879 -0.023843644
000010 39 0e 00 3d 38 d9 3e be 7b 34 10 bb 88 f1 11 3e
       0.031263564 -0.1863755 -0.0022003937 0.14252293
000020 d3 f4 11 bd 75 eb 55 be 0b d2 9c 3d d7 f3 1f bd
       -0.035633873 -0.20890601 0.0765725 -0.039050903
000030 61 69 24 bd 14 d1 52 bc b9 89 b2 3c 0a 63 91 bc
       -0.04013956 -0.012867231 0.021794187 -0.01774742
000040 23 ca 44 3c bf 7f 80 3d 13 16 81 bb 95 79 a9 bd
       0.012011084 0.06274366 -0.003939399 -0.08275143
000050 5c 21 c2 3d 2c 61 6a bc 1e d9 7e be 83 2f 32 3e
       0.09479019 -0.014305394 -0.24887511 0.17400937
000060 6e 8e 45 3e 80 0e 95 3a 83 2c 6b 3c 45 44 71 3d
       0.19292614 0.0011372119 0.014353874 0.058902998
000070 cb 3c 92 3d f0 77 36 3d f4 c0 1f 3e ef 39 16 3e
       0.071405016 0.044547975 0.1560095 0.14670537
000080 7c 1c 18 be fb d4 94 b9 e3 92 11 be b1 65 7b bd
       -0.14854616 -0.00028387443 -0.14216189 -0.061376277
000090 bc f2 86 bd 43 41 75 3c 71 1e 14 be 9b b5 2f be
       -0.06589267 0.014969173 -0.14464737 -0.1715912
0000a0 31 b2 30 be 28 ce b2 bc c2 61 ed bc 25 dc 6b be
       -0.17255475 -0.021826819 -0.028977279 -0.23033197
0000b0 da 22 94 3d 88 ae d8 bc c2 5d b2 bc 98 fb bd 3c
       0.0723321 -0.02645041 -0.021773223 0.023191258
0000c0 8d 12 bc 3d aa 3b 10 bc f7 0f 84 bd bc 8b e7 3d
       0.09183226 -0.0088032875 -0.064483576 0.11305949
0000d0 e0 7b de bc c5 e4 c8 bc 75 1b b9 bd 3b e0 16 bd
       -0.027158678 -0.024523148 -0.0903844 -0.036834937
0000e0 6b 4b 59 3d 1e 4c 70 3d 6c 98 e2 bd a4 0e c2 3d
       0.05305044 0.05866634 -0.110642284 0.09475449
0000f0 94 7d 88 3c 7f 51 67 bd 5e f8 65 bb 49 f6 8f bc
       0.016661443 -0.056474205 -0.0035090665 -0.017573493

module.down1.mpconv.1.conv.4.weight f4 [64]
000000 67 b6 0b 3e 25 4d 46 3e e7 87 6c 3e 83 fe 1a 3f
       0.136438 0.19365366 0.23098718 0.60544604
000010 b1 05 29 3f c9 90 e5 3d 06 8d 8a 3d f1 df f2 3d
       0.6602431 0.11209256 0.06765179 0.1185912
000020 f7 f2 0a 3f aa bc ea 3e 36 e7 fc 3e 40 5b b5 3d
       0.54276985 0.45847064 0.4939515 0.08855295
000030 30 a3 14 3b b1 ce f7 3e 2d c2 28 3f 92 0b 40 3e
       0.0022680275 0.4839988 0.6592129 0.18754414
000040 83 f2 1b 3a 25 7d 2f 3f e0 53 e8 3e 68 fa 19 3f
       0.0005948918 0.6855033 0.45376492 0.60147715
000050 28 97 54 3e 21 e7 01 3c 83 a7 b2 3d 0f 2d 6d 3e
       0.20760787 0.007928641 0.087233566 0.2316172
000060 76 e9 97 3e 81 b8 94 3e 54 19 99 3e d2 c0 03 3f
       0.29670304 0.29047015 0.29902136 0.51466095
000070 ba 72 80 3e d6 fd 7f 3e 4e 22 79 3e 30 69 88 3e
       0.2508753 0.24999174 0.24329492 0.26642752
000080 69 fa f5 3e 8d 8d 81 3e cb 85 c6 3e 34 07 53 3e
       0.4804261 0.25303307 0.3877395 0.20608217
000090 20 19 05 3f 38 cf 17 3f 5b 03 90 3e 63 17 12 3e
       0.5199146 0.59300566 0.2812756 0.14266734
0000a0 da 34 cc 3e 08 af 40 3e 98 c9 5e 3e 79 d2 4a 3e
       0.39884073 0.18816769 0.2175659 0.19806851
0000b0 1c f5 d5 3e 05 67 ed 3e 77 76 f8 3d 1e 95 85 3e
       0.41788566 0.4636766 0.121319704 0.2609033
0000c0 56 c0 9a 3e d8 a2 08 3f 72 7f cc 3e d5 64 15 3e
       0.30224866 0.5337348 0.39940983 0.14589246
0000d0 13 4e 39 3e 00 82 04 3f 69 63 91 3e d6 5a eb 3e
       0.18096189 0.51760864 0.28396156 0.4596774
0000e0 28 5b fa 3e a2 1a 8f 3e 21 9d 0c 3f 8b 40 0e 3f
       0.48897672 0.27950007 0.5492726 0.55567235
0000f0 f1 ed 2f 3e 2b d8 03 3f ad c2 97 3e b5 54 16 3e
       0.17180611 0.5150172 0.29640713 0.1468075

module.down1.mpconv.1.conv.4.bias f4 [64]
000000 45 5a a3 be 7b 96 9e 3d b3 8b e0 be 54 24 30 be
       -0.31904808 0.077435456 -0.43856582 -0.17201358
000010 80 62 fc bd c4 75 36 be 12 96 ff 3d 36 1b de 3d
       -0.12323475 -0.17818362 0.124797955 0.10845034
000020 b1 77 16 be 31 f3 06 bf bd d3 e1 bd 12 c4 f8 3d
       -0.14694096 -0.5271483 -0.11026714 0.121467724
000030 20 b3 18 be 09 51 93 bd 5d 88 08 be 64 34 1b be
       -0.14912081 -0.071931906 -0.13333268 -0.15156704
000040 ef 6b dc bc 3d 0e 3a be a1 2e 5e be c7 e8 32 be
       -0.026906935 -0.18169494 -0.21697475 -0.1747161
000050 8d 14 83 3d a3 eb b3 be 93 44 bc be bd 72 6e 3e
       0.06400404 -0.35140714 -0.36771068 0.23285957
000060 f0 91 82 bd 8e b6 bc bc 0e 96 20 bd 2f 62 40 be
       -0.063754916 -0.023036268 -0.039205603 -0.18787454
000070 d5 e7 ff 3c 98 84 37 bd a0 40 9c 3d c3 b3 05 bb
       0.031238476 -0.044804186 0.07629514 -0.0020401336
000080 50 17 86 be 7a da c3 3b 2f 30 18 be fe 24 02 be
       -0.2618966 0.005976972 -0.1486213 -0.12709424
000090 fe de 03 bf 93 aa a8 bd 0e 74 13 bf 8f 28 09 bf
       -0.51512134 -0.082356595 -0.5759896 -0.5357751
0000a0 aa 03 a0 be 0d b7 69 3d dc 34 94 bd ee 6b 44 bf
       -0.31252795 0.057059336 -0.072366446 -0.7672719
0000b0 02 0e c3 bd ab 37 55 bd db 2c 81 3e 4d 07 5e bd
       -0.09524156 -0.052055042 0.25229535 -0.05420618
0000c0 f3 41 5f 3d 64 81 fe be 4a 36 c4 bd f9 71 2b 3e
       0.054506253 -0.49708092 -0.09580667 0.16742696
0000d0 bb eb 13 3d 1c 09 72 bd ce e8 cf bd 98 1a a6 be
       0.036113482 -0.05909072 -0.10151826 -0.32442164
0000e0 49 4e 3d bd ac f9 8f bd 92 b1 7a be 5a 1b d6 3a
       -0.046217237 -0.07030043 -0.244818 0.0016335056
0000f0 a6 d0 0d bd ef 30 50 be 9c f8 c7 bd 0a ce 3e bd
       -0.03462281 -0.20331167 -0.09764215 -0.046583213
