learned_models/inpaint/ACS-WFC-F606W-2-32.pth (torch_old, 417988 bytes, 39 tensors)

module.inc.conv.conv.0.weight f4 [32, 2, 3, 3]
0	0x3c9539ad	0.018215979
1	0xbee6b7fa	-0.45062238
2	0x3df0a299	0.11749763
3	0x3e842608	0.25810266
4	0xbe4b1c85	-0.19835098
5	0x3cb6f492	0.022333417
6	0xbb52c527	-0.003216097
7	0x3bf3e7a7	0.0074433866
8	0x3d06c9ff	0.032907482
9	0xbefccba4	-0.49374115
10	0xbf9fc131	-1.2480832
11	0x3f27bf35	0.65526134
12	0x3e619c5b	0.22032301
13	0xbeffbdad	-0.499494
14	0xbee1ac40	-0.4407673
15	0x3e185a4a	0.14878193
16	0x3eecd0e0	0.4625311
17	0xbd38e973	-0.04514451
18	0xc00019c4	-2.0015726
19	0xc018a12a	-2.3848367
20	0x3d9accaf	0.075585715
21	0xc00682a6	-2.1017241
22	0xbff9ac94	-1.9505792
23	0x3dc04862	0.09388806
24	0x3e001fe3	0.12512164
25	0x3db36cb8	0.08760971
26	0x3d844394	0.06458202
27	0x3d8d8c54	0.06911531
28	0x3f03dfae	0.51513183
29	0x3e0e48af	0.13894914
30	0x3e00c660	0.12575674
31	0x3f4c1464	0.79718614
32	0x3f359e61	0.7094479
33	0x3eae9be9	0.34103325
34	0x3e3f1271	0.18659379
35	0x3ecc2561	0.39872268
36	0x3d07a12e	0.033112697
37	0x3c91c6da	0.017795015
38	0xbef04e2e	-0.46934646
39	0x3d2c0e17	0.042005625
40	0x3de84b00	0.1134243
41	0x3d596ed3	0.053084206
42	0x3c4dd030	0.012561843
43	0xbe13cc96	-0.14433512
44	0x3b8d06ed	0.004303804
45	0x3f68f065	0.9099181
46	0xbcb0b021	-0.02156836
47	0xbfa205eb	-1.2658056
48	0x3d93affb	0.072113
49	0xbe4d8db9	-0.20073594
50	0x3f673b03	0.9032442
51	0x3da8b1cf	0.08237039
52	0xbfd2efe1	-1.6479455
53	0xbebd0b47	-0.36922666
54	0x3e46305d	0.19354387
55	0xbf8defb5	-1.1088778
56	0x3e2a060f	0.16603874
57	0xbdb82d32	-0.08992995
58	0xbf4cf5ea	-0.80062735
59	0xbf2927c2	-0.6607629
60	0x3d84b928	0.06480628
61	0x3e20bf3b	0.15697949
62	0xbeea73f9	-0.45791605
63	0x3e943752	0.28948456
64	0xbe3a42c3	-0.1818953
65	0x3f4f8e80	0.8107681
66	0x3d392e71	0.045210306
67	0xbf059548	-0.5218091
68	0x3f468d33	0.775592
69	0x3f0f1ed8	0.5590644
70	0x3ec782a1	0.3896685
71	0x3f3fdebe	0.7494925
72	0x3d2f6166	0.042817496
73	0x3e2bb71f	0.16769074
74	0x3c0cd50a	0.008595714
75	0xbdd25d13	-0.10271659
76	0xbeba65ca	-0.36405784
77	0x3d1a63b0	0.037692726
78	0x3e045e2f	0.12926553
79	0xbe69cc23	-0.22831778
80	0x3de62f7b	0.11239525
81	0x3eaf9f92	0.3430143
82	0x3e0fbb0c	0.14036196
83	0x3f060deb	0.5236499
84	0x3ea8cec4	0.3297025
85	0xbe6d9da6	-0.2320467
86	0xbe9d8684	-0.3076669
87	0xbd6345e4	-0.055486575
88	0xbf560aaa	-0.8361002
89	0x3e430f4e	0.19048807
90	0x3cca5108	0.024696842
91	0xbd683f1a	-0.056700803
92	0x3cdb051a	0.026735831
93	0x3ddf6a67	0.109089665
94	0xbef34118	-0.475106
95	0x3e042c35	0.12907489
96	0x3c0e0b87	0.0086697405
97	0x3e11bfcd	0.14233322
98	0xbdfb4004	-0.122680694
99	0x3e568b38	0.20951545
100	0xbeb1b946	-0.34711665
101	0x3ea2f828	0.31829953
102	0x3e56c5b4	0.20973855
103	0xbed91121	-0.4239588
104	0x3ef03d01	0.46921542
105	0xbe31e55d	-0.17372651
106	0x3e0782f9	0.13233556
107	0x3e988b62	0.2979384
108	0x3e3ab2d5	0.18232282
109	0x3ce58be6	0.02802081
110	0x3dc0933a	0.09403081
111	0xbc915a31	-0.017743202
112	0xbe0cd370	-0.13752532
113	0xbd14a627	-0.036291268
114	0x3d7eff6f	0.06225532
115	0xbc3b807b	-0.011444206
116	0x3c3b573d	0.011434373
117	0x3f62e5d9	0.8863197
118	0xbcff8f03	-0.031196123
119	0x3f2396b3	0.63901824
120	0x3e4dc72a	0.20095506
121	0xbffb743e	-1.9644849
122	0x3d0185e5	0.031621832
123	0x3e1d86b9	0.15383424
124	0xbf487e15	-0.78317386
125	0xbdc64650	-0.0968138
126	0xbea35d6e	-0.3190722
127	0x3e289b8c	0.16465586
128	0xbead4072	-0.3383823
129	0xbf0ebde1	-0.5575848
130	0x3de264da	0.11054392
131	0x3d290808	0.041267425
132	0xbca1ef4d	-0.019767428
133	0x3d985043	0.07437184
134	0x3bec43e9	0.007210244
135	0xbd8b7e70	-0.068112254
136	0xbe2e9d50	-0.17052197
137	0xbd1a5caa	-0.037686028
138	0xbe7962a1	-0.2435403
139	0x3e251962	0.16122964
140	0xbeb71672	-0.35759312
141	0x3ec7753e	0.38956636
142	0x3f04f532	0.5193664
143	0xbcd2e7dc	-0.025745325
144	0x3c2da7f1	0.010599122
145	0x3d984b68	0.074362576
146	0x3d4f57a4	0.05062069
147	0xbcfee770	-0.031116217
148	0xbf291eb0	-0.6606245
149	0x3d74bb10	0.05974871
150	0x3c2f15b8	0.0106863305
151	0x3e1dd170	0.15411925
152	0x3ddffcc0	0.1093688
153	0xbea94ab0	-0.33064795
154	0xbde44739	-0.11146397
155	0x3e848bdb	0.2588795
156	0xbf05f468	-0.5232606
157	0xbf1d6554	-0.6148274
158	0xbf1f2b40	-0.6217537
159	0xbccba1a9	-0.024857359
160	0x3dbdb490	0.09262955
161	0xbe0842b3	-0.13306694
162	0x3d64ed39	0.055890296
163	0x3cae1ab3	0.021252966
164	0x3e13c71b	0.14431421
165	0xbd3fa39e	-0.046786897
166	0x3d9fad15	0.07796685
167	0xbe9f7089	-0.31140545
168	0x3d1e624f	0.038667973
169	0x3d4d67f5	0.05014797
170	0xbe93b265	-0.28847042
171	0x3f6ee1fc	0.93313575
172	0x3db80c14	0.08986679
173	0x3e190130	0.14941859
174	0x3ee50524	0.44730484
175	0xbf0b8e48	-0.5451398
176	0xbfafd00e	-1.3735368
177	0xbe09a4f7	-0.13441835
178	0x3d15960c	0.03652005
179	0xbfae69df	-1.3626059
180	0xbd62abdd	-0.055339683
181	0x3d7e9a3b	0.062158804
182	0x3c9af784	0.018916853
183	0x3e0072e4	0.12543827
184	0x3a903b23	0.0011003952
185	0x3dbb78bf	0.0915389
186	0xbba3e2d4	-0.0050014053
187	0xbb3506dd	-0.00276225
188	0xbce2b848	-0.027675763
189	0xc000085e	-2.0005107
190	0xbea6c449	-0.3257163
191	0xbfa531a4	-1.2905774
192	0xbf3a6fb2	-0.72826684
193	0xbfb2950f	-1.3951739
194	0x3e3bbff5	0.18334945
195	0xbfe35af1	-1.7762128
196	0xbedfc149	-0.43702152
197	0xbd97ae70	-0.07406318
198	0xbf04896d	-0.51772195
199	0xbdd8060e	-0.1054803
200	0xbc8b45da	-0.017001081
201	0xbc0f1be4	-0.008734677
202	0x3e12a46f	0.14320539
203	0xbe965b19	-0.29366377
204	0xbe03c1d6	-0.12866911
205	0xbe99a3cd	-0.30007783
206	0xbe6681df	-0.2251048
207	0xbeedb515	-0.46427217
208	0x3d227212	0.039659567
209	0x3ef8d571	0.48600343
210	0xbe0c4ab3	-0.1370037
211	0xba096aa5	-0.00052420265
212	0x3e7b0a63	0.24515681
213	0xbeb735c5	-0.3578321
214	0xbf2589b1	-0.64663225
215	0x3e385c16	0.18003878
216	0xbe45cb5a	-0.19315854
217	0xbe8f688f	-0.2800946
218	0x3d906da1	0.0705216
219	0xbe4b5f3f	-0.19860552
220	0x3ca87d8a	0.020567674
221	0x3e12d6e7	0.14339791
222	0x3d23bfec	0.039977953
223	0x3d717df4	0.05895801
224	0x3da2f1a9	0.07956249
225	0xbf827a42	-1.019356
226	0xbeed7297	-0.46376488
227	0x3f80d002	1.0063479
228	0xbf429e85	-0.7602313
229	0xbe793b7b	-0.24339096
230	0x3f878e5c	1.059032
231	0x3ef5fb57	0.4804332
232	0x3ece925c	0.40346038
233	0x3f9057ed	1.1276833
234	0xbf77ec1d	-0.96844655
235	0xbe6e55bd	-0.23274894
236	0xbecf7958	-0.40522265
237	0xbdd94d07	-0.10610395
238	0x3d42f4d8	0.047596782
239	0x3de99e59	0.114071555
240	0x3d4b517a	0.04963825
241	0x3db513be	0.08841656
242	0xbe435881	-0.1907673
243	0x3e23e220	0.16004229
244	0xbf3d512b	-0.7395198
245	0xbdb1907b	-0.086701356
246	0x3e2de998	0.1698364
247	0x3efc8eef	0.493278
248	0x3d266170	0.040620267
249	0xbde46cd8	-0.11153573
250	0x3f0e39b3	0.5555679
251	0x3f209514	0.62727475
252	0xbe84b433	-0.2591873
253	0x3e506f6d	0.20355006
254	0x3c8943b4	0.016755916
255	0xbeaed512	-0.34146935

module.inc.conv.conv.0.bias f4 [32]
0	0x3e6d1c79	0.23155393
1	0x3e3e6aa1	0.18595363
2	0xbdef71d4	-0.11691633
3	0xbcfff17b	-0.031243077
4	0x3e8527ef	0.2600703
5	0xbd4715c9	-0.04860476
6	0x3bf7be69	0.0075605405
7	0x3ac3b2f4	0.0014930652
8	0x3ea5794a	0.323191
9	0x3ed5e395	0.41775194
10	0xbe155474	-0.14582998
11	0x3dc7c7db	0.09754916
12	0xbd5eaa0f	-0.0543614
13	0x3e3c6607	0.18398295
14	0x3e3fe55f	0.18739842
15	0xbe7f250e	-0.24916479
16	0xbdc51a56	-0.09624164
17	0x3e1e43c3	0.15455537
18	0xbcc2c91f	-0.023777543
19	0x3dbc8176	0.0920438
20	0x3e58bf4e	0.21166727
21	0xbedef5c3	-0.43546876
22	0x3e9de103	0.30835733
23	0x3e2aa7d2	0.16665581
24	0xbdf5f4ad	-0.12009559
25	0x3e8b0a37	0.2715623
26	0x3e6b14de	0.22957179
27	0xbd2a708b	-0.041611236
28	0xbe3cc3c1	-0.18434049
29	0xbd886e3d	-0.06661651
30	0xbd9c551a	-0.07633419
31	0x3ee06062	0.43823534

module.inc.conv.conv.1.weight f4 [32]
0	0x3edfb3e9	0.43691948
1	0x3faf59d7	1.3699292
2	0x3ee4aa93	0.44661388
3	0x3f12a88a	0.5728842
4	0x3efd0d48	0.49424195
5	0x3f39123e	0.7229346
6	0x3ec373cd	0.38174286
7	0x3ed4a964	0.41535485
8	0x3f149e68	0.5805421
9	0x3e34e714	0.17666274
10	0x3df337a8	0.1187585
11	0x3f61fac0	0.8827324
12	0x3eb0a323	0.34499463
13	0x3f13ce94	0.5773709
14	0x3f36fef2	0.71482766
15	0x3e621018	0.22076452
16	0x3ec1d06e	0.37854332
17	0x3f67d4b7	0.9055895
18	0x3f5ee6fd	0.8707121
19	0x3f578159	0.84181744
20	0x3ea637dd	0.32464495
21	0x3f4c42bb	0.7978932
22	0x3f86b64b	1.0524381
23	0x3e621a74	0.22080404
24	0x3efe232f	0.49636218
25	0x3f2e5950	0.6810503
26	0x3f275d55	0.6537679
27	0x3f14909b	0.5803315
28	0x3f4ede0b	0.8080756
29	0x3e120d9c	0.14263004
30	0x3db7e133	0.089785
31	0x3f25b5b6	0.64730394

module.inc.conv.conv.1.bias f4 [32]
0	0x3e6aa537	0.22914587
1	0x3e8e25d1	0.27763227
2	0x3dde4113	0.10852256
3	0xbe4bfc6d	-0.19920512
4	0x3e3e39db	0.18576758
5	0x3e582d79	0.21111096
6	0x3db20115	0.08691613
7	0x3e67c983	0.22635464
8	0x3eb083e2	0.3447562
9	0x3ea99124	0.33118546
10	0xbe850356	-0.25979108
11	0x3ed1a986	0.4094965
12	0x3e0e1c49	0.13877977
13	0xbdf0b1a1	-0.1175263
14	0x3edf8d8a	0.43662673
15	0x3e4ce763	0.20010142
16	0x3cb517b9	0.022106038
17	0xbddbd851	-0.107346185
18	0x3e043a39	0.12912835
19	0xbd83e436	-0.06440012
20	0x3d843da9	0.06457073
21	0xbe7c18de	-0.24618861
22	0x3ecb5608	0.39714074
23	0x3cec0d44	0.02881492
24	0x3e054de9	0.13018002
25	0x3ea464a8	0.32108045
26	0x3dd35692	0.10319246
27	0x3eb01a72	0.34395176
28	0x3d56fc1f	0.052486535
29	0x3e7d56e8	0.24740183
30	0x3bbdac5d	0.0057883696
31	0x3ef902bd	0.48634902

module.inc.conv.conv.1.running_mean f4 [32]
0	0xbe97cca6	-0.29648322
1	0xbfbfa0ae	-1.497091
2	0xbf39ffaa	-0.7265574
3	0xbf1cb469	-0.61212784
4	0xbe3781cb	-0.17920606
5	0xbf21093c	-0.62904716
6	0x3f1e9e27	0.6196007
7	0xbf9e6246	-1.2373741
8	0xbf44e13f	-0.769062
9	0xbdb6c2fc	-0.08923909
10	0x3e5065ab	0.20351283
11	0xbfded84b	-1.7409757
12	0xbf3e232e	-0.7427243
13	0xbf053503	-0.52034014
14	0xbf6e1c27	-0.9301171
15	0xbeb096a8	-0.34489942
16	0xbf265a40	-0.6498146
17	0xbe90f9a8	-0.28315473
18	0xbfad1975	-1.3523394
19	0xbea92168	-0.330333
20	0xbd8e6de4	-0.06954554
21	0xbf21af2b	-0.6315791
22	0xbf56a565	-0.8384612
23	0x3d1aae48	0.037763864
24	0xbf9442dd	-1.1582905
25	0xbf74e56e	-0.9566258
26	0xbe53c4bb	-0.20680515
27	0xbf50b269	-0.8152223
28	0xbeb82461	-0.35965255
29	0xbf16cf6b	-0.58910245
30	0x3e295cf8	0.16539371
31	0xbeec8b29	-0.4619992

module.inc.conv.conv.1.running_var f4 [32]
0	0x40b8f1a2	5.779496
1	0x4223f028	40.984528
2	0x41098963	8.596042
3	0x417bb3bc	15.73138
4	0x40b33b2e	5.600974
5	0x409a84cf	4.828712
6	0x411ea3da	9.915003
7	0x418f0234	17.876076
8	0x413b0812	11.68947
9	0x4067f07e	3.6240535
10	0x4034f2dc	2.827323
11	0x41d3e3ae	26.486172
12	0x418a1804	17.261726
13	0x416f5954	14.959309
14	0x414cadbb	12.792415
15	0x3f92241a	1.1417267
16	0x40b9a811	5.801766
17	0x4107e7d9	8.494103
18	0x41a20411	20.251986
19	0x40c563df	6.1684413
20	0x3fc9933d	1.5748059
21	0x40f3bfe8	7.617176
22	0x415f4d9e	13.9564495
23	0x405f988b	3.4936855
24	0x41451a14	12.318867
25	0x41a53404	20.650398
26	0x4092c93b	4.5870643
27	0x4125c483	10.3604765
28	0x408380bd	4.109465
29	0x405edee6	3.4823546
30	0x3fb98c3e	1.4495924
31	0x40d8ecbd	6.7788987

module.inc.conv.conv.3.weight f4 [32, 32, 3, 3]
0	0x3dd5548b	0.10416516
1	0xbe1f426b	-0.1555268
2	0xbe54722d	-0.2074668
3	0x3dbb75a7	0.091533
4	0x3db0e24b	0.08636912
5	0xbe60b0b8	-0.21942413
6	0xbdfd8fb7	-0.12380927
7	0xbd5af9ac	-0.053460762
8	0xbc48bc4e	-0.012251927
9	0x3e30f684	0.17281538
10	0xbe16023b	-0.14649288
11	0xbea6beff	-0.32567593
12	0x3deefe40	0.11669588
13	0xbf098ae4	-0.53727555
14	0xbe4e5775	-0.2015055
15	0x3dcf3249	0.10117013
16	0xbb2c66a9	-0.0026306307
17	0x3cdef9e0	0.027218759
18	0xbe060af8	-0.13090122
19	0x3eb657b1	0.35613778
20	0x3e17cce7	0.14824258
21	0xbdf62eb3	-0.12020626
22	0x3dd29f43	0.10284283
23	0xbdcad4c2	-0.099038616
24	0x3cdda426	0.027055811
25	0xbd33d80b	-0.043907207
26	0x3dafbef8	0.08581346
27	0xbe5ba119	-0.21448173
28	0xbe2edfbc	-0.17077535
29	0xbe85555c	-0.26041687
30	0xbd8b989d	-0.06816218
31	0xbeb93987	-0.36176702
32	0x3d0c2ee3	0.034224402
33	0x3e1ee304	0.15516287
34	0x3d85922f	0.06522023
35	0x3ba20e8b	0.0049455813
36	0xbde6d309	-0.112707205
37	0xbd82f004	-0.063934356
38	0xbe5eac4e	-0.21745417
39	0xbdb0d27c	-0.08633897
40	0xbe0c0334	-0.13673097
41	0xbd800028	-0.0625003
42	0x3d4e2751	0.050330464
43	0x3db53957	0.08848827
44	0x3d8798c2	0.06620933
45	0x3c23dc19	0.010001206
46	0xbf1c62b9	-0.6108814
47	0xbe876348	-0.26442933
48	0x3e16e3f7	0.14735399
49	0x3dfb67f4	0.12275687
50	0xbe1149b3	-0.1418827
51	0xbd884f28	-0.06655723
52	0x3e9df14f	0.30848166
53	0x3d37399e	0.044732682
54	0xbc27e5ce	-0.010247661
55	0x3e920cce	0.28525394
56	0x3e1e21d7	0.15442596
57	0x3c7d797e	0.0154708605
58	0x3e880c1c	0.2657174
59	0xbe5024b4	-0.20326501
60	0xbe6bd2fe	-0.23029706
61	0xbcc41ce3	-0.023939556
62	0xbe2b5d5d	-0.16734834
63	0xbdf4006a	-0.119141415
64	0x3ccec0fc	0.025238506
65	0xbdf58dcc	-0.11989936
66	0xbdeac706	-0.11463742
67	0x3e2d12dd	0.16901727
68	0x3de6be49	0.11266763
69	0x3cc8dd5a	0.024519611
70	0x3e2a934b	0.1665775
71	0x3eca148d	0.39468804
72	0x3e4fd55a	0.20296231
73	0xbeef5d73	-0.46750984
74	0xbe1a60ba	-0.15075961
75	0xbb85f57c	-0.004088102
76	0xbd8b68c0	-0.06807089
77	0x3d9afb8f	0.07567512
78	0xbe408d28	-0.18803847
79	0x3dee48b6	0.11634962
80	0x3dd27618	0.10276431
81	0x3e7ac8a1	0.24490596
82	0x3e3e4e7b	0.18584625
83	0x3e597bd5	0.21238644
84	0x3e0d0b06	0.13773736
85	0x3e0114bf	0.1260557
86	0x3c86ad1c	0.016439967
87	0xbe7b9431	-0.2456825
88	0xbd825715	-0.06364266
89	0xbe136163	-0.14392619
90	0x3db08c7c	0.08620545
91	0x3e02624c	0.1273281
92	0xbe044a78	-0.12919033
93	0x3deaf497	0.11472433
94	0xbe0ec1ff	-0.13941191
95	0xbd352e92	-0.044233866
96	0x3d17b54d	0.037038136
97	0xbe74d299	-0.23908462
98	0xbc175393	-0.009236234
99	0xbdca1653	-0.09867539
100	0xbd718640	-0.05896592
101	0xbd61e903	-0.055153858
102	0x3d225896	0.039635263
103	0xbe48adbe	-0.19597527
104	0xbce63bbc	-0.028104655
105	0xbccbe1ee	-0.024888005
106	0xbe1f2513	-0.15541486
107	0x3e451a81	0.19248392
108	0xbf1933cb	-0.59844655
109	0xbd37dbce	-0.044887356
110	0xbda448b1	-0.08021677
111	0xbe7be4d9	-0.24599017
112	0x3db773ac	0.089576095
113	0x3cc3c0a9	0.023895578
114	0xbdbb0618	-0.09132022
115	0xbd03fd37	-0.032223906
116	0x3d1bd076	0.0380406
117	0xbe69c74e	-0.22829935
118	0xbcbd6c78	-0.023123011
119	0xbe9aa362	-0.30202776
120	0x3d402c8a	0.046917476
121	0x3cb0d53e	0.021586057
122	0xbe1e1d12	-0.15440777
123	0xbe1dcd4a	-0.15410343
124	0xbb0cd044	-0.002148644
125	0xbe8e9563	-0.27848348
126	0x3c43f4db	0.011960234
127	0x3dc670a1	0.09689451
128	0xbe892e55	-0.2679316
129	0xbcc3987c	-0.023876421
130	0x3ddc8c2e	0.10768925
131	0xbd01be5b	-0.031675678
132	0xbe4119fb	-0.18857567
133	0xbe39c916	-0.18143114
134	0x3c351619	0.011052632
135	0x3df5456b	0.11976131
136	0x39a7efb4	0.00032031315
137	0x3c3dbbf9	0.011580461
138	0x3d65a7eb	0.056068342
139	0xbd31e2f3	-0.043429326
140	0x3dceb638	0.10093349
141	0xbe14ab93	-0.14518575
142	0xbce17be5	-0.027524898
143	0x3e455ac9	0.19272913
144	0xbd868ebb	-0.065701924
145	0xbf3d0bd8	-0.738462
146	0x3e31908c	0.17340297
147	0x3dab0005	0.08349613
148	0xbd54c902	-0.05194951
149	0x3d6b7083	0.057480346
150	0x3d85fbb6	0.06542151
151	0x3d106656	0.035253845
152	0x3e54bba0	0.20774698
153	0x3e4d5f1e	0.20055816
154	0xbe257748	-0.16158783
155	0xbe54fe25	-0.20800073
156	0xbdb8a8c4	-0.090165645
157	0x3df96880	0.12178135
158	0xbe8d5ca7	-0.2760975
159	0xbd94ab8e	-0.07259284
160	0xbd90eaa9	-0.07076008
161	0x3d4ed481	0.05049563
162	0x3dcc38e3	0.09971788
163	0xbe6e8c10	-0.23295617
164	0xbc788398	-0.015168093
165	0x3e4baa3a	0.19889155
166	0x3df0607c	0.11737153
167	0x3eae465a	0.3403805
168	0x3e5e5102	0.2171059
169	0xbeae4b3e	-0.3404178
170	0x3c2f4daa	0.010699669
171	0xbe0bd9e9	-0.13657345
172	0xbf2166d9	-0.6304756
173	0xbe0ddf90	-0.13854814
174	0x3e2aee37	0.16692434
175	0xbeadf663	-0.3397704
176	0xbe37184a	-0.1788036
177	0x3d86a8e9	0.06575186
178	0x3e4e063e	0.20119569
179	0x3d88564a	0.06657083
180	0xbe9cdd31	-0.30637506
181	0x3e3cfe74	0.18456441
182	0xbcf3b660	-0.02975005
183	0xbe829148	-0.25501466
184	0xbe6160a3	-0.2200952
185	0x3d24e10f	0.040253695
186	0x3d3c8510	0.046025336
187	0x3db51931	0.088426955
188	0x3deb5301	0.11490441
189	0xbeef3870	-0.46722746
190	0xbe79164a	-0.24324909
191	0xbcbab83f	-0.022792934
192	0x3bfddca8	0.0077472515
193	0xbe12a907	-0.14322291
194	0xbc3f41e0	-0.011673421
195	0x3e1db283	0.15400128
196	0x3e439109	0.19098295
197	0x3e5ef5c3	0.21773438
198	0xbdc98cdd	-0.09841321
199	0xbc51ec79	-0.012812727
200	0x3d92f14f	0.07174932
201	0x3e1a9bab	0.15098445
202	0x3d89a953	0.06721749
203	0xbb140ba0	-0.0022589937
204	0x3b340dc5	0.0027474028
205	0x3e50673d	0.20351882
206	0x3cb339de	0.02187818
207	0x3a172c8d	0.00057668315
208	0x3e582d49	0.21111025
209	0x3dc8debe	0.0980811
210	0xbe68ce1d	-0.22734876
211	0xbec0e25f	-0.37672707
212	0x3dd79fc3	0.10528519
213	0x3d1e0b7e	0.03858518
214	0x3e700c46	0.23442182
215	0x3de6fb92	0.11278452
216	0xbead303e	-0.33825868
217	0xbd8e598b	-0.06950673
218	0x3e6ef289	0.23334707
219	0x3e074613	0.13210325
220	0x3d622ce1	0.05521858
221	0x3e706397	0.2347549
222	0x3e3b5e99	0.18297805
223	0x3d197a11	0.037469927
224	0x3e728c3c	0.23686308
225	0x3e70fd71	0.2353418
226	0x3dfa4bf4	0.12221518
227	0x3e3d2cde	0.18474147
228	0x3e8e18e3	0.27753362
229	0x3e8c3d78	0.27390647
230	0x3df4cb55	0.11952845
231	0xbdbe9f17	-0.09307688
232	0x3d29fb4d	0.041499425
233	0xbdfeb209	-0.12436301
234	0x3cf8c831	0.030368896
235	0xbf204e90	-0.62619877
236	0x3bcd7428	0.0062699504
237	0x3c350ef0	0.011050925
238	0xbefc8cf6	-0.49326295
239	0xbe8cb49d	-0.27481547
240	0x3d86659f	0.065623514
241	0x3cc0d8c9	0.023540871
242	0x3d0dd040	0.03462243
243	0xbe696cfe	-0.22795483
244	0xbc800af5	-0.015630225
245	0x3df63254	0.12021318
246	0x3c9f06c6	0.01941241
247	0x3d9bb556	0.076029465
248	0x3e1c1af1	0.15244652
249	0x3cb56a3c	0.022145383
250	0xbcc465c2	-0.023974303
251	0xbe4d7a27	-0.20066129
252	0x3dc5e931	0.09663618
253	0xbf2d1e13	-0.67624015
254	0x3ddc8285	0.10767082
255	0x3e01f127	0.12689649

module.inc.conv.conv.3.bias f4 [32]
0	0x3e7eba82	0.24875835
1	0x3dc6191b	0.09672757
2	0xbe8a8ee0	-0.2706213
3	0x3dc4a137	0.09601062
4	0xbcc1368f	-0.023585586
5	0x3e5678c2	0.20944503
6	0xbda31c6e	-0.07964407
7	0x3e0a1df4	0.13487989
8	0x3da10487	0.07862192
9	0xbd4c4202	-0.049867637
10	0x3d10ce94	0.03535326
11	0x3e85ba1c	0.26118553
12	0x3e25e0ae	0.1619899
13	0x3ec6c59a	0.38822633
14	0x3d94ed6e	0.072718486
15	0x3e7a595c	0.2444815
16	0x3e4c7da5	0.19969805
17	0xbdbfe37b	-0.0936956
18	0x3dfd553a	0.12369771
19	0x3e8248e2	0.2544623
20	0x3dad34f1	0.084573634
21	0x3ea9861b	0.33110127
22	0x3eae5b99	0.34054258
23	0xbdb886eb	-0.090101086
24	0x3dfdce47	0.1239286
25	0xbf0f24d2	-0.5591556
26	0x3c9bf6cb	0.019038578
27	0x3e605104	0.21905905
28	0xbb8420c9	-0.0040322286
29	0xbdf9a20f	-0.12189113
30	0x3dd561bd	0.10419033
31	0x3e301e72	0.17199114

module.inc.conv.conv.4.weight f4 [32]
0	0x3edfa278	0.4367864
1	0x3f1db091	0.61597544
2	0x3f159c32	0.5844146
3	0x3f8d0799	1.1017944
4	0x3ee20ec8	0.44151902
5	0x3fa50394	1.2891717
6	0x3ed54e63	0.41661367
7	0x3f2afc6b	0.6679141
8	0x3e9cdae8	0.30635762
9	0x3ee2898d	0.44245568
10	0x3ea4f11f	0.3221521
11	0x3f9f8173	1.246138
12	0x3ebe9fc5	0.3723127
13	0x3f3bfa33	0.7342865
14	0x3ef8775d	0.48528567
15	0x3f5d2b3e	0.8639411
16	0x3f63a0cd	0.8891724
17	0x3eda0ae9	0.4258645
18	0x3f634dbd	0.88790494
19	0x3ed3f719	0.41399458
20	0x3f35a0c7	0.7094845
21	0x3f393482	0.72345746
22	0x3f25bdc3	0.6474268
23	0x3f658850	0.8966112
24	0x3ee79fac	0.45239007
25	0x3e2e787e	0.17038152
26	0x3f2ce0e7	0.67530674
27	0x3f1bacea	0.6081072
28	0x3ee2b6da	0.4428013
29	0x3f36422a	0.7119471
30	0x3f0f44cd	0.55964357
31	0x3f5620da	0.8364388

module.inc.conv.conv.4.bias f4 [32]
0	0x3ed29786	0.41131228
1	0x3e913f14	0.28368437
2	0xbeb13773	-0.34612617
3	0x3d495870	0.049156606
4	0x3e4fc856	0.20291266
5	0xbc48665c	-0.012231436
6	0xbbc1bd0d	-0.005912429
7	0x3d7c83ba	0.06164906
8	0x3d3a8ddc	0.045545444
9	0xbdc60bb5	-0.09670202
10	0xba423dc9	-0.00074097194
11	0x3e59f8dd	0.2128634
12	0xbcfcad28	-0.030844286
13	0x3eecee7c	0.462757
14	0x3e6d8778	0.23196208
15	0x3ea8d11e	0.32972044
16	0x3dfee00a	0.12445076
17	0xbdc42c2e	-0.09578739
18	0x3eaf5aff	0.34249112
19	0x3e69a09d	0.22815175
20	0x3e5f2425	0.21791132
21	0x3edf6adb	0.43636212
22	0x3e842abf	0.25813863
23	0xbc8e532c	-0.017373644
24	0x3e706ba5	0.23478563
25	0xbf2f51aa	-0.68483984
26	0xbe354447	-0.17701827
27	0x3d31158a	0.043233432
28	0x3da59850	0.08085692
29	0x3d2af3d8	0.041736454
30	0x3eae946f	0.3409762
31	0x3e861182	0.26185232

module.inc.conv.conv.4.running_mean f4 [32]
0	0xbd861bdb	-0.06548282
1	0xbecc83ac	-0.39944208
2	0x3febf656	1.8434551
3	0xbf2ee235	-0.68313915
4	0xbe61fb0c	-0.22068423
5	0xbf3ed974	-0.7455056
6	0x3d89a1f7	0.067203455
7	0xbec0e6c2	-0.37676054
8	0x3e993eb9	0.29930666
9	0x3e5d0108	0.21582425
10	0xbe3a8d3c	-0.18217939
11	0xbf0e5b87	-0.5560841
12	0xbe514301	-0.20435716
13	0xbe9c46d7	-0.30522797
14	0xbe372635	-0.17885669
15	0xbeeac73d	-0.45855132
16	0xbf2e5f13	-0.6811382
17	0x3f5b7f62	0.85741246
18	0xbf1dc4cb	-0.6162841
19	0xbec66476	-0.3874852
20	0xbf3eb8c9	-0.7450071
21	0xbf49a7f7	-0.7877192
22	0xbeab72c3	-0.33485994
23	0xbe70bd2b	-0.23509662
24	0xbf01c652	-0.5069324
25	0x4073fe4a	3.8123956
26	0xbf8424b5	-1.0323702
27	0xbf61da2d	-0.88223535
28	0xbfa3dd79	-1.2801963
29	0x3df85250	0.12125075
30	0xbf1a21ac	-0.6020763
31	0xbf479d40	-0.7797432

module.inc.conv.conv.4.running_var f4 [32]
0	0x3f7e678e	0.9937676
1	0x3f1c6642	0.61093533
2	0x409c1bfc	4.878416
3	0x3f8f34d3	1.1187996
4	0x3f63bf69	0.88963944
5	0x4035aaf2	2.8385587
6	0x3fe9790d	1.8240067
7	0x3fa674a6	1.3004348
8	0x3f5e62f6	0.8686975
9	0x3ff513a9	1.9146625
10	0x3f8bf350	1.0933628
11	0x3fcdf2ad	1.6089684
12	0x3f4a93bb	0.7913167
13	0x3f6bd023	0.92114466
14	0x3f87d2f5	1.0611254
15	0x3f8754f2	1.0572798
16	0x3f5e2642	0.86777127
17	0x406a3848	3.6596851
18	0x3f7975b4	0.97445226
19	0x3f3deb68	0.74187326
20	0x3f3691a9	0.7131601
21	0x3f5fa4bf	0.8736076
22	0x3f25937c	0.6467817
23	0x3fb18ae0	1.3870506
24	0x3f6ad015	0.9172376
25	0x411c792c	9.779583
26	0x400d5fae	2.2089648
27	0x3fb0520d	1.377504
28	0x4030d9e0	2.763298
29	0x3fbd3a76	1.4783466
30	0x3fd40004	1.6562505
31	0x3fd46079	1.6591941

module.down1.mpconv.1.conv.0.weight f4 [64, 32, 3, 3]
0	0x3dc05579	0.093913026
1	0xbd9e1cb7	-0.07720321
2	0xbdac1ac8	-0.084035456
3	0xbb8510ce	-0.004060841
4	0xbe9e7a4f	-0.3095269
5	0x3b2db51a	0.002650565
6	0x3d2f63e1	0.04281986
7	0xbe6ef881	-0.23336984
8	0x3d8d36d2	0.06895222
9	0xbe53d571	-0.2068689
10	0xbe8db4bb	-0.2767695
11	0xbd3b6517	-0.045750704
12	0xbdb8b9ea	-0.09019835
13	0xbe85bc6c	-0.26120317
14	0x3e20e070	0.15710616
15	0x3c8241d1	0.015900524
16	0xbeab474f	-0.33452842
17	0xbdf6fa89	-0.120595045
18	0xbec01234	-0.37513888
19	0xbeaf5789	-0.34246472
20	0xbe4f0a00	-0.20218658
21	0xbf0c7464	-0.548651
22	0xbecd490d	-0.40094796
23	0xbeb33acb	-0.35005793
24	0xbf20d84f	-0.6283006
25	0xbf0fbcf7	-0.5614771
26	0xbed2c06e	-0.41162437
27	0xbda45d3e	-0.08025597
28	0xbb92b492	-0.004477092
29	0x3e3218c2	0.17392257
30	0xbd85b5d2	-0.0652882
31	0xbd97902d	-0.07400546
32	0xbcfc6984	-0.030812033
33	0xbd96e0a0	-0.073670626
34	0xbe289d61	-0.16466285
35	0x3cab46e5	0.020907829
36	0x3e6ab205	0.22919472
37	0xbccc3c6f	-0.02493116
38	0xbe80cf7c	-0.25158298
39	0xbcb9a4f7	-0.02266167
40	0x3c9e9168	0.019356444
41	0xbe09ceb7	-0.13457762
42	0xbd2f980a	-0.042869605
43	0xbd8deeb6	-0.06930296
44	0xbe04aad5	-0.12955792
45	0xbc279b37	-0.010229877
46	0x3bc20373	0.0059208213
47	0x3d0ae55b	0.033910137
48	0xbe8b40b4	-0.27197802
49	0x3d414c27	0.047191765
50	0xbcb42b82	-0.021993402
51	0xbe19f4de	-0.15034816
52	0xbdcf5420	-0.101234674
53	0xbe0f360a	-0.13985458
54	0x3e0781d9	0.13233127
55	0x3db9f7fc	0.090805024
56	0x3e10066a	0.14064947
57	0xbcbc1e6c	-0.022963725
58	0x3bff7358	0.0077957325
59	0x3dffe11a	0.124941066
60	0x3c517b39	0.012785726
61	0xbd8329fa	-0.06404491
62	0x3df3312e	0.11874615
63	0xbdd42147	-0.1035791
64	0xbb853a30	-0.0040657744
65	0x3e562189	0.2091123
66	0xbdddc90f	-0.108293645
67	0xbe27a4fe	-0.16371533
68	0x3ebc3d92	0.36765724
69	0xbe0b944c	-0.1363079
70	0xbe07f6c8	-0.13277733
71	0x3e7ebe5d	0.24877305
72	0xbd9625ad	-0.07331405
73	0xbde10814	-0.10987869
74	0xbe3a59e2	-0.1819835
75	0xbe92270f	-0.28545424
76	0xbe3094f8	-0.17244327
77	0xbda2a73e	-0.07942055
78	0xbdfb556e	-0.12272154
79	0xbe803c42	-0.25045973
80	0xbd46ba5d	-0.048517574
81	0xbe1ac390	-0.15113664
82	0xbd926c9d	-0.071496226
83	0x3dc06497	0.09394186
84	0xbe6fb820	-0.23410082
85	0xbe09b435	-0.1344765
86	0x3e13f458	0.14448678
87	0xbeba653e	-0.36405367
88	0xbc223cb4	-0.009902168
89	0x3e103ff4	0.14086896
90	0x3ddb237d	0.10700128
91	0xbe1c0060	-0.15234518
92	0xbd014ca0	-0.031567216
93	0x3bb7e2be	0.0056117466
94	0xbde2de9a	-0.11077614
95	0xbd3f3619	-0.04668245
96	0xbe2e5aa9	-0.17026772
97	0xbe005f69	-0.12536396
98	0xbd8f863f	-0.07008027
99	0x3eb62edb	0.35582623
100	0x3e9b444d	0.30325547
101	0x3e6f11c2	0.23346618
102	0x3ddc981c	0.107712
103	0x3d8edef6	0.0697612
104	0xbe15b204	-0.14618689
105	0xbdcd12c0	-0.10013342
106	0xbd04014a	-0.03222779
107	0xbe604366	-0.2190071
108	0xbd9f10ea	-0.07766898
109	0x3d6ac5da	0.057317592
110	0xbda7487b	-0.081681214
111	0xbdda4ae7	-0.10658818
112	0xbe1052cb	-0.14094083
113	0xbe4dd699	-0.20101394
114	0xbe6bf4e8	-0.23042643
115	0xbe245008	-0.16046154
116	0xbe80adee	-0.25132698
117	0x3d4f0490	0.05054146
118	0x3d1d1bdc	0.038356647
119	0x3ceaff8e	0.028686311
120	0x3d8ded20	0.06929994
121	0xbe02849e	-0.12745902
122	0xbd2c0cc3	-0.042004358
123	0x3db5801f	0.08862328
124	0xbdd924aa	-0.10602696
125	0x3ddfe52e	0.109323844
126	0xbd6bf811	-0.05760962
127	0x3da0e4e3	0.07856157
128	0xbdb7fe11	-0.08984006
129	0xbda93032	-0.08261146
130	0xbd37df77	-0.044890847
131	0xbd79ae59	-0.060957287
132	0xbdb2d561	-0.08732105
133	0xbd2b6eda	-0.041853763
134	0xbd1566f5	-0.03647514
135	0xbc7eecad	-0.015559358
136	0x3d06e8ff	0.032937046
137	0x3cec267b	0.028826943
138	0x3dde2e2a	0.10848649
139	0x3d53990e	0.051659636
140	0x3ceb626f	0.02873346
141	0x3e5163e5	0.20448263
142	0x3dda0a2e	0.10646473
143	0x3e7d6748	0.2474643
144	0x3e161612	0.14656857
145	0x3d324290	0.04352051
146	0x3e20c893	0.15701513
147	0x3d177e46	0.036985658
148	0x3d94114b	0.07229861
149	0x3e609aa5	0.21933992
150	0x3ca5dbff	0.020246504
151	0x3e3513b0	0.17683291
152	0x3dd3a903	0.10334971
153	0xbec0f897	-0.3768966
154	0xbeafe9b5	-0.34357992
155	0xbe85f71b	-0.2616509
156	0xbebb56a5	-0.36589542
157	0xbed66631	-0.4187484
158	0xbeb44e65	-0.3521606
159	0xbede1d50	-0.4338174
160	0xbed945d1	-0.42436078
161	0xbed82fe4	-0.42224038
162	0x3d7fadd9	0.062421653
163	0x3c2778eb	0.0102217
164	0x3dc75017	0.09732073
165	0x3d795bda	0.060878612
166	0x3d5d73ed	0.054065634
167	0x3e567c14	0.2094577
168	0xbcd02742	-0.025409345
169	0xbcd10092	-0.025512967
170	0x3ddca92a	0.10774453
171	0xbc013de2	-0.007888289
172	0xbd9a197f	-0.07524394
173	0xbcc3d83d	-0.023906821
174	0xbd8e824a	-0.069584444
175	0xbe83c9d4	-0.2573992
176	0xbdad928d	-0.08475218
177	0x3cc009f3	0.023442244
178	0xbe606767	-0.21914445
179	0x3c260589	0.010133156
180	0x3e50eaa6	0.20402011
181	0x3dc49eda	0.09600611
182	0xbc636fc7	-0.01388163
183	0x3d51afdc	0.051193103
184	0x3e0bb84b	0.13644521
185	0x3d85386b	0.065049015
186	0x3e2ee9b6	0.17081341
187	0x3d1ecd44	0.038769975
188	0x3cff634c	0.031175278
189	0x3e7dbc8c	0.24778956
190	0x3d2897a3	0.041160237
191	0x3deec346	0.11658339
192	0x3e0a44a6	0.1350275
193	0x3c849c3a	0.016187776
194	0x3bcb7bc4	0.0062098224
195	0x3d8270f5	0.06369201
196	0x3c2afd07	0.010436303
197	0x3daec6c2	0.08534004
198	0xbd872706	-0.0659924
199	0x3e0801d3	0.13281946
200	0x3e3d51e6	0.18488273
201	0x3e16c6eb	0.14724319
202	0x3e4aa8cd	0.19790955
203	0x3e728568	0.23683703
204	0x3e32fb30	0.17478633
205	0x3e49f233	0.19721298
206	0x3e25ac92	0.16179112
207	0x3d6b4973	0.057443094
208	0x3d497662	0.049185164
209	0xbb53ec8b	-0.0032337036
210	0xbe4b6a1e	-0.19864699
211	0xbe2bbb6e	-0.16770718
212	0xbdd338f5	-0.10313598
213	0xbd7076f2	-0.058707185
214	0xbdd15ed6	-0.10223167
215	0xbe79c007	-0.24389659
216	0x3e1b94eb	0.15193526
217	0x3e06ce24	0.13164574
218	0xbc99ffd1	-0.01879874
219	0xbcafdfd9	-0.021469044
220	0xbd26f7f2	-0.040763803
221	0x3daa9c7e	0.0833063
222	0x3d17a89f	0.037026044
223	0xbdd43012	-0.10360731
224	0x3c80735b	0.015680006
225	0xbecce9bf	-0.40022084
226	0xbeadb880	-0.33929825
227	0xbdaa6467	-0.083199315
228	0xbf2b75ea	-0.669768
229	0xbf09b201	-0.5378724
230	0xbe678f13	-0.22613172
231	0xbf0f5cd5	-0.56001025
232	0xbf6a5e5f	-0.9155025
233	0xbe8f59db	-0.27998242
234	0xbce39cbb	-0.027784696
235	0x3db092b0	0.086217284
236	0x3d389431	0.0450632
237	0xbe2695f5	-0.16268142
238	0x3d49b874	0.049248174
239	0xbbe34056	-0.0069351597
240	0xbd4c9d7a	-0.04995487
241	0x3d3a5964	0.045495406
242	0x3c36a20d	0.011147034
243	0x3d0498d4	0.03237231
244	0xbe20afdc	-0.15692085
245	0x3db2a56a	0.087229565
246	0xbe18f033	-0.14935379
247	0xbd2c0074	-0.04199262
248	0x3de19c4c	0.110161394
249	0x3d5923a0	0.05301249
250	0x3d621db3	0.055204105
251	0x3e4edcdd	0.2020144
252	0x3d05adae	0.032636337
253	0xbd540ac4	-0.05176808
254	0x3e3b6a77	0.18302332
255	0x3d9a87e8	0.07545453

module.down1.mpconv.1.conv.0.bias f4 [64]
0	0x3d46cfab	0.04853789
1	0xbd690557	-0.056889858
2	0x3e0104b7	0.12599455
3	0xbd2bde7a	-0.041960217
4	0x3e107444	0.14106852
5	0x3e15c6e6	0.14626655
6	0x3d62491d	0.055245508
7	0x3da7736c	0.08176312
8	0xbba2726a	-0.004957487
9	0x3e3f00af	0.18652605
10	0x3cf50fc6	0.029914748
11	0x3d401058	0.046890587
12	0xbd38c09a	-0.045105554
13	0xbe05d10e	-0.1306803
14	0x3dd82dd7	0.10555618
15	0x3df91ca9	0.121636696
16	0xbd155e56	-0.03646692
17	0xbe316d35	-0.17326815
18	0x3d973343	0.07382824
19	0xbbdd6533	-0.0067564487
20	0x3dd635d2	0.10459484
21	0xbe323fce	-0.17407152
22	0xbe1eb6c0	-0.15499401
23	0xbdf1bb64	-0.1180332
24	0xbe0c1f9a	-0.1368393
25	0xbdf8acf8	-0.12142366
26	0xbddda542	-0.10822536
27	0x3e3d4a22	0.1848531
28	0xbe1a6cd3	-0.15080576
29	0xbd8aefe6	-0.06784038
30	0xbde0fc97	-0.10985678
31	0xbd89145b	-0.066933356
32	0xbe11d323	-0.14240699
33	0x3c971b7b	0.01844572
34	0xbd8bc391	-0.06824411
35	0x3e690a2e	0.2275779
36	0x3dc54b84	0.09633544
37	0x3d632f79	0.055465195
38	0x3d0106f9	0.03150079
39	0x3dbb78e2	0.09153916
40	0xbdf235df	-0.11826681
41	0xbd9dfd76	-0.077143595
42	0xbde45cfe	-0.11150549
43	0xbdb2eff0	-0.08737171
44	0xbdf729ce	-0.120685205
45	0xbe18b276	-0.14911827
46	0x3ddc5d7a	0.10760017
47	0xbda512d1	-0.080602296
48	0xbd6027df	-0.054725524
49	0x3cd1c663	0.025607293
50	0xbd63979b	-0.055564504
51	0xbd932a34	-0.07185784
52	0xbd784bcd	-0.060619164
53	0x3d08130d	0.033221293
54	0x3d17792f	0.036980804
55	0x3d8d38a5	0.0689557
56	0x3d29dc7a	0.04147003
57	0x3dca61e8	0.098819554
58	0xbe429ec3	-0.19005875
59	0xbdc15d2b	-0.094415985
60	0x3db01774	0.08598223
61	0x3e09e51f	0.13466309
62	0x3cac325f	0.021020113
63	0x3e0841fc	0.13306421

module.down1.mpconv.1.conv.1.weight f4 [64]
0	0x3d9da92a	0.07698281
1	0x3f1c2c4c	0.6100509
2	0x3d93635a	0.07196684
3	0x3f438164	0.7636931
4	0x3f0ee7dc	0.5582254
5	0x3efb3daf	0.49070498
6	0x3f4b122c	0.79324603
7	0x3e904b42	0.28182417
8	0x3f7dfe8d	0.9921654
9	0x3f356a62	0.7086545
10	0x3f88b510	1.0680256
11	0x3ef27704	0.47356427
12	0x3f23fa35	0.6405366
13	0x3f2fb02e	0.68628204
14	0x3f236914	0.6383221
15	0x3f2c1dec	0.6723316
16	0x3eb86ba5	0.36019626
17	0x3e155f65	0.14587171
18	0x3eb10380	0.34572983
19	0x3f17cb24	0.59294343
20	0x3f7df5c3	0.9920313
21	0x3ebd85de	0.37016195
22	0x3f328734	0.69737554
23	0x3f065b6a	0.52483237
24	0x3ec73a34	0.38911593
25	0x3f153dd3	0.5829746
26	0x3ee2324a	0.44178993
27	0x3f4d848c	0.80280375
28	0x3e2736ef	0.16329549
29	0x3e863f3c	0.2622012
30	0x3e0cf7a2	0.1376634
31	0xb971ea41	-0.00023070817
32	0x3edcbeaa	0.43114215
33	0x3f1c60c2	0.6108514
34	0x3f0c45b6	0.5479387
35	0x3f42b941	0.76063925
36	0x3ee212fb	0.44155106
37	0x3f6afd41	0.91792685
38	0x3f208f8a	0.62719023
39	0x3f64c309	0.893601
40	0x3e7b49dc	0.24539894
41	0x3eb39d5d	0.35080996
42	0x3f530b7f	0.82439417
43	0x3f17722a	0.59158576
44	0x3e8c6890	0.27423525
45	0x3f04f111	0.5193034
46	0x3f5e6fce	0.8688935
47	0x3ecbaadf	0.39778802
48	0x3f1124ff	0.56697077
49	0x3edda4a0	0.4328966
50	0x3eecf81c	0.46283042
51	0x3f30daf8	0.6908412
52	0x3e601dfa	0.21886435
53	0x3f1bd90c	0.6087806
54	0x3e3b9a20	0.18320513
55	0x3ed46659	0.41484335
56	0x3ec9204a	0.39282447
57	0x3ed5d4bb	0.41763863
58	0x3c38f719	0.011289381
59	0x3f2f4699	0.684671
60	0x3efe06e6	0.49614638
61	0x3f4cbc4e	0.7997483
62	0x3f0186a0	0.50596046
63	0x3ddfcd7c	0.10927865

module.down1.mpconv.1.conv.1.bias f4 [64]
0	0x3e93b0a9	0.28845719
1	0xbd2609c2	-0.04053665
2	0x3ea58bcb	0.32333216
3	0xbdf12560	-0.11774707
4	0x3e166626	0.14687404
5	0x3e84ec06	0.25961322
6	0xbd009fab	-0.03140227
7	0x3e47c9b7	0.19510542
8	0x3acc25c0	0.0015575215
9	0x3e757e09	0.2397386
10	0xbc0594cb	-0.008153151
11	0x3db8fb4d	0.09032307
12	0xbb629a66	-0.0034576892
13	0xbede64cd	-0.4343628
14	0x3d5c206b	0.053741854
15	0x3e2e8d52	0.17046097
16	0xbd386ff2	-0.045028634
17	0xbe644917	-0.22293507
18	0xbca04252	-0.019562874
19	0x3dae6bbd	0.08516643
20	0x3e2cd444	0.16877848
21	0xbe9d04cb	-0.3066772
22	0xbecf9e11	-0.40550283
23	0xbd27f1b7	-0.041002
24	0xbe865b89	-0.2624171
25	0xbd79e59e	-0.061009996
26	0xbd8a830c	-0.067632765
27	0x3e97880b	0.2959598
28	0xbe59da6c	-0.21274728
29	0xbe50ddff	-0.20397185
30	0xbdfa30ff	-0.122163765
31	0xbe0071e8	-0.12543452
32	0xbdfd70c3	-0.12375023
33	0xbd6bc99a	-0.05756531
34	0xbe201eed	-0.15636797
35	0x3e92c462	0.28665453
36	0x3e601df9	0.21886434
37	0x3e97a9e9	0.2962182
38	0x3d6b9242	0.05751253
39	0x3e2b7c39	0.16746606
40	0xbd3dd54c	-0.046345994
41	0x3d292a76	0.04130026
42	0xbe53076b	-0.20608298
43	0xbe24b7c2	-0.16085723
44	0xbe9e57f3	-0.30926475
45	0xbdd820b8	-0.105531156
46	0x3e59f126	0.21283397
47	0xbd21329e	-0.039354913
48	0xbe02946e	-0.12751934
49	0x3d2ac992	0.04169614
50	0xbe460f20	-0.19341707
51	0x3e0948e9	0.1340672
52	0x3c772f5f	0.015086978
53	0x3e5f9203	0.21833043
54	0x3d39d679	0.045370553
55	0x3e9c0425	0.30471912
56	0x3e36c42d	0.17848273
57	0x3d9320ad	0.07183967
58	0xbe4cc312	-0.19996288
59	0xbdd39ffc	-0.10333249
60	0x3e3eedae	0.18645355
61	0x3d0f756e	0.0350241
62	0xbe612f5e	-0.21990725
63	0x3e9295cd	0.28629914

module.down1.mpconv.1.conv.1.running_mean f4 [64]
0	0xbfdefc4a	-1.7420743
1	0x3f288aab	0.6583659
2	0xbf133942	-0.57509243
3	0xbf3b1ce0	-0.73090935
4	0xbf809f04	-1.0048528
5	0xbf8bfab1	-1.093588
6	0xc0045692	-2.0677838
7	0xbf35b8d0	-0.70985126
8	0xc0127e68	-2.2889652
9	0xc00bee9b	-2.1864383
10	0xbf32e907	-0.6988682
11	0x3caf8f9b	0.021430781
12	0xbe4ef158	-0.20209253
13	0x3fa1dac3	1.2644886
14	0xc00d2b38	-2.2057629
15	0xc09e35cf	-4.9440684
16	0xbfc2fc1b	-1.5233186
17	0x3faf11eb	1.3677343
18	0xc0944014	-4.632822
19	0xc03576d5	-2.835378
20	0xbfc9a1c1	-1.5752488
21	0x3f351835	0.7074006
22	0xbffc91f2	-1.9732039
23	0x3d3cc577	0.046086755
24	0x3f9d4036	1.2285221
25	0x3ed8e3bc	0.42361248
26	0xbf95ddc0	-1.1708298
27	0xc04d8e37	-3.211805
28	0xbd2b602a	-0.041839756
29	0xbfa928c7	-1.3215569
30	0xbf01996c	-0.5062473
31	0x3f44077f	0.7657394
32	0x3ebf7bcb	0.37399134
33	0xbfac1bc8	-1.3445978
34	0x3fe8fa2b	1.8201345
35	0xc065e0e8	-3.5918522
36	0xbfe20a90	-1.7659473
37	0xc0280006	-2.6250014
38	0xbf21e79c	-0.6324403
39	0xbf5c69e9	-0.86099106
40	0xbf8bf353	-1.0933632
41	0xbf3800fe	-0.71876514
42	0xbf1dffb9	-0.61718327
43	0xbf2f3985	-0.6844714
44	0x3fa93f54	1.3222451
45	0xc01de0ca	-2.466845
46	0xbf9f5e5b	-1.245067
47	0xbf70dafd	-0.9408415
48	0xbf29d735	-0.66344005
49	0xbef2572d	-0.47332135
50	0x402de162	2.7168813
51	0xbfa097a4	-1.2546277
52	0x3d920f19	0.07131786
53	0xbfff3b4e	-1.9939973
54	0xbf40df79	-0.7534099
55	0xbe45888b	-0.19290368
56	0xbfd81268	-1.6880617
57	0xbf378c75	-0.71698695
58	0x3efd0c87	0.4942362
59	0xbf7c434a	-0.98540175
60	0xbfafc197	-1.3730954
61	0xc029fe05	-2.6561291
62	0xc01d64fb	-2.4592884
63	0xbfe89d54	-1.8173013

module.down1.mpconv.1.conv.1.running_var f4 [64]
0	0x4050505d	3.254905
1	0x3f96c81e	1.1779821
2	0x3fd80a81	1.6878206
3	0x3f4412bd	0.7659109
4	0x402258fc	2.5366812
5	0x3f995d97	1.1981686
6	0x406e6f83	3.7255561
7	0x3f3b805d	0.7324274
8	0x404709e2	3.1099782
9	0x401cdf67	2.4511354
10	0x3faf1a40	1.3679886
11	0x403312d6	2.7980247
12	0x3f2d7f0b	0.6777198
13	0x4018f6a7	2.3900545
14	0x40a67581	5.2018437
15	0x41466bbd	12.401303
16	0x403d0ca9	2.9538977
17	0x4055fcac	3.3435469
18	0x413bce18	11.737816
19	0x4065ce6a	3.5907235
20	0x40126746	2.2875533
21	0x3fc0a25a	1.5049546
22	0x410777bf	8.466735
23	0x3f962431	1.1729795
24	0x4009bd4e	2.1521792
25	0x3f917216	1.1362941
26	0x3f8e6ac2	1.112633
27	0x406b2a78	3.674467
28	0x3fe5b3f7	1.7945546
29	0x3f79b0b8	0.97535276
30	0x3f327d61	0.69722563
31	0x3f920b24	1.140965
32	0x3fc1e89d	1.5149113
33	0x3ff46a93	1.9095024
34	0x402c22ff	2.689636
35	0x40c33724	6.100481
36	0x3fc124c1	1.5089341
37	0x4024d521	2.5755084
38	0x3f9101e0	1.1328697
39	0x3fb9f0f5	1.4526659
40	0x40013aa8	2.019205
41	0x3f662362	0.8989774
42	0x3f6f0791	0.9337092
43	0x3fa2d1e3	1.2720302
44	0x4086f893	4.2178435
45	0x40baef02	5.8416758
46	0x4008b5aa	2.136088
47	0x3fa63255	1.298411
48	0x3f760ea5	0.96116096
49	0x3fb2c7bb	1.3967203
50	0x40b8d905	5.7764916
51	0x3fc49585	1.535813
52	0x3f800d59	1.0004073
53	0x400d0b4f	2.2038152
54	0x3fbefea0	1.4921455
55	0x3fdd4331	1.728613
56	0x3f86058a	1.047044
57	0x3f6990fe	0.91236866
58	0x4006d21a	2.1065736
59	0x3fedd822	1.8581583
60	0x3ffe18a6	1.9851272
61	0x40df04cf	6.969337
62	0x40acbc1d	5.397963
63	0x4062bb2d	3.5426743

module.down1.mpconv.1.conv.3.weight f4 [64, 64, 3, 3]
0	0x3e40f23f	0.1884241
1	0x3e8c3ed9	0.273917
2	0x3e73e314	0.23817092
3	0x3e8c4703	0.27397928
4	0x3ebbab9f	0.36654374
5	0x3e867399	0.2626007
6	0x3e2584b7	0.16163908
7	0x3e83d678	0.25749564
8	0x3e1a9e7d	0.15099521
9	0xbd5cb3be	-0.053882353
10	0xbd1d20fd	-0.03836154
11	0xbdae3afc	-0.08507344
12	0xbda87df5	-0.082271494
13	0xbe064a96	-0.1311439
14	0xbdd6d586	-0.10489945
15	0xbe34c207	-0.1765214
16	0xbde40b82	-0.111350074
17	0xbe47ff2e	-0.19530937
18	0x3e568001	0.20947267
19	0x3e936067	0.28784487
20	0x3e93bf49	0.28856876
21	0x3e97e565	0.29667202
22	0x3e973355	0.2953135
23	0x3e83ece1	0.25766662
24	0x3e6a0d89	0.22856726
25	0x3e7aa86a	0.24478307
26	0x3dac8620	0.0842402
27	0x3daccab2	0.084370986
28	0xbbc87777	-0.006117757
29	0xbb20e064	-0.002454781
30	0x3cbcb8e1	0.023037376
31	0xbdcd759d	-0.100321986
32	0xbcce1726	-0.025157522
33	0x3d518eca	0.051161565
34	0xbdc66eeb	-0.09689125
35	0xbd3eb55a	-0.04655967
36	0xbe82463a	-0.25444204
37	0xbe3cae0f	-0.18425773
38	0xbe29d4e4	-0.16585118
39	0xbe9c336e	-0.30507988
40	0xbded64b9	-0.11591477
41	0xbd6ee769	-0.05832616
42	0xbdc31600	-0.095256805
43	0xbd41b6d9	-0.047293518
44	0x3c9797d1	0.018505009
45	0x3e830289	0.25587872
46	0x3c42734a	0.011868307
47	0x3da3e5ce	0.08002816
48	0x3e7e342e	0.24824592
49	0x3d3d3fda	0.04620347
50	0x3dcaf85e	0.099106535
51	0x3e4b3b0d	0.19846745
52	0x3d2ef803	0.04271699
53	0x3df9e404	0.12201694
54	0x3cc35c79	0.023847805
55	0x3d31cdfe	0.04340934
56	0x3c40b86b	0.011762719
57	0x3dfee462	0.12445904
58	0x3df552d0	0.11978686
59	0x3d871037	0.065948896
60	0x3db7ed18	0.08980769
61	0x3d2e2742	0.042517908
62	0xbd166e62	-0.036726363
63	0xbc86dcb2	-0.016462658
64	0xbe59b082	-0.21258739
65	0xbe4f1d5f	-0.20226048
66	0x3db605e7	0.088878445
67	0xbd19e0f9	-0.037568066
68	0xbe6afee7	-0.229488
69	0x3dafe9f4	0.08589545
70	0xbc0cb9ee	-0.008589251
71	0xbe70db05	-0.2352105
72	0x3d40636e	0.046969824
73	0x3dcf7924	0.101305276
74	0x3d7ccbb1	0.061717693
75	0x3e26da1b	0.16294138
76	0x3ded3589	0.11582477
77	0x3e0c7e46	0.13720044
78	0x3c83b772	0.016078684
79	0x3df6d089	0.12051494
80	0x3ddea105	0.10870556
81	0x3d5012f3	0.05079932
82	0x3d446cea	0.04795543
83	0x3d01d0e2	0.031693347
84	0x3c88a9a1	0.016682448
85	0x3d96803b	0.07348677
86	0x3d8c4ba8	0.06850368
87	0x3d04ae5d	0.03239285
88	0x3da027c5	0.078200854
89	0x3db159ce	0.08659707
90	0xbca18813	-0.019718206
91	0xbd5c4304	-0.05377485
92	0xbd45f9af	-0.04833382
93	0x3d358b29	0.044322167
94	0xbdb6ab9b	-0.0891945
95	0x3ca08166	0.019592952
96	0xbdbbd950	-0.091723084
97	0xbe07a8ab	-0.13247935
98	0xbd1c7aad	-0.03820293
99	0xbdbd2e96	-0.09237401
100	0xbe3ab975	-0.18234809
101	0xbe32f9dd	-0.17478128
102	0xbd97de7d	-0.07415483
103	0xbde99357	-0.11405056
104	0xbd7369ab	-0.059426945
105	0xbdb82cf7	-0.08992951
106	0xbd4eadba	-0.050458647
107	0x3dac7e62	0.08422543
108	0x3deec786	0.1165915
109	0xbc7ad2d9	-0.015309059
110	0x3e1cc24f	0.15308498
111	0x3d7be813	0.06150062
112	0x3e0eb4ad	0.1393611
113	0x3da15e2e	0.078792915
114	0x3d73a99c	0.059487924
115	0x3da75b2d	0.08171687
116	0xbb9ff0dc	-0.0048810076
117	0xbd88c5ed	-0.06678376
118	0xbb33ea1a	-0.0027452768
119	0x3c889aac	0.016675316
120	0xbe094e71	-0.1340883
121	0xbcac222e	-0.021012392
122	0x3dc1547e	0.09439944
123	0xbd9910fc	-0.07473943
124	0x3c95449d	0.018221194
125	0x3d21b021	0.03947461
126	0xbd0a0317	-0.033694353
127	0xbd7485e6	-0.059698008
128	0xbd9d3470	-0.07676017
129	0xbb1f3fa4	-0.0024299407
130	0x3cbfce90	0.023413926
131	0x3cc64e62	0.024207298
132	0xbd9a73fd	-0.07541654
133	0xbc033d6e	-0.008010251
134	0x3d33086b	0.0437092
135	0xbad972ed	-0.0016590037
136	0x3e43e587	0.19130526
137	0x3e5bb413	0.21455412
138	0x3d8bcaad	0.06825767
139	0x3d30479f	0.043037053
140	0x3de430bd	0.111421086
141	0x3da33231	0.079685576
142	0x3e09dfa9	0.13464226
143	0x3da3279d	0.0796654
144	0x3d663aae	0.056208305
145	0x3de98739	0.11402745
146	0x3dfa8eee	0.12234293
147	0xbd3c40d1	-0.04596025
148	0x3d92f6cd	0.0717598
149	0x3e3d0c5d	0.18461747
150	0x3ddb07ba	0.10694833
151	0x3e52f513	0.20601301
152	0x3e7be367	0.24598466
153	0x3dbb3e30	0.09142721
154	0x3d6d3b25	0.057917733
155	0xbdf309d0	-0.11867106
156	0x3d1d3e22	0.038389333
157	0x3d572be5	0.052532095
158	0xbc1f53d2	-0.009724574
159	0x3b62586e	0.0034537571
160	0xbb506dc2	-0.0031803702
161	0xbc6a9456	-0.014317593
162	0xbcefaaf1	-0.029256316
163	0x3e04b7e7	0.12960778
164	0xbd45aba9	-0.04825941
165	0x3d431c26	0.047634266
166	0xbccbd2ff	-0.024880884
167	0x393217c0	0.0001698425
168	0x3de23b77	0.11046498
169	0x3d8826a2	0.066479936
170	0x3c5a57de	0.013326613
171	0x3d6edd1a	0.058316328
172	0x3de1be0f	0.11022579
173	0x3e06679f	0.13125466
174	0x3dfb4418	0.12268847
175	0x3e2c217f	0.16809653
176	0x3e2a54ba	0.16633883
177	0x3da6bb51	0.081411965
178	0x3de8ba06	0.11363606
179	0x3e24d264	0.16095883
180	0xbd0c82c4	-0.034304395
181	0x3d7efbd2	0.062251873
182	0x3d4c96ba	0.04994843
183	0x3d51fc29	0.05126587
184	0x3dc36a1b	0.095417224
185	0xbce963bd	-0.028489942
186	0x3cc435ab	0.023951372
187	0x3d877b85	0.06615356
188	0xbce2d4ec	-0.02768942
189	0xbd45322d	-0.048143554
190	0x3e027b01	0.12742235
191	0xbda1ef6c	-0.07906994
192	0x3d04a6c5	0.032385606
193	0x3ded7e30	0.11596334
194	0xbd5bc92d	-0.053658653
195	0x3d85c192	0.06531061
196	0x3d38c316	0.045107923
197	0xbdc1cd1d	-0.094629504
198	0x3e3b44b0	0.18287921
199	0x3e13692e	0.14395592
200	0x3d122979	0.035684083
201	0x3e427c0b	0.18992631
202	0x3dae33ff	0.08506011
203	0x3d860857	0.065445594
204	0x3e014b64	0.12626415
205	0x3d22aa36	0.039713107
206	0xbd04168d	-0.03224807
207	0xbd40388d	-0.04692893
208	0x3d1ee51d	0.03879272
209	0xbb1db111	-0.0024061839
210	0xbd87fc58	-0.066399276
211	0x3d3401e6	0.043947123
212	0x3c8d891e	0.017277297
213	0xbd0155db	-0.03157602
214	0x3d402077	0.04690596
215	0xbd537a94	-0.05163057
216	0x3c64177d	0.013921616
217	0x3c025406	0.007954603
218	0xbd964e33	-0.07339134
219	0x3d456a1b	0.048196893
220	0xbcd0440b	-0.02542307
221	0xbe1129a5	-0.14176042
222	0xbcc665d7	-0.024218483
223	0xbcd68a63	-0.026189035
224	0xbda7fca5	-0.08202485
225	0xbe573569	-0.21016468
226	0xbdff032a	-0.12451775
227	0xbccae51e	-0.024767455
228	0xbe0d44a3	-0.13795714
229	0xbc88f01d	-0.016716057
230	0x3d14b65c	0.036306724
231	0xbe30f1db	-0.1727976
232	0xbd442ac6	-0.047892354
233	0x3d84303e	0.06454514
234	0xbd7717a7	-0.06032529
235	0xbdeab54e	-0.114603624
236	0xbcb51628	-0.022105291
237	0xbceebb89	-0.029142158
238	0x3a523950	0.00080194045
239	0xbd948d96	-0.07253568
240	0x3d63fbfa	0.055660225
241	0xbd26a629	-0.040685806
242	0x3dabd926	0.08391027
243	0x3d9c7a06	0.076404616
244	0x3e62ff32	0.22167662
245	0x3e6c1278	0.2305392
246	0x3e1b7a84	0.15183455
247	0x3e67847e	0.22609136
248	0x3e92c097	0.2866256
249	0x3dfa1bf4	0.12212363
250	0x3e7f60c6	0.2493926
251	0x3e52e05e	0.20593402
252	0x3d92868d	0.0715457
253	0xbbf45639	-0.0074565676
254	0xbde82834	-0.11335793
255	0x3d2cdfae	0.042205505

module.down1.mpconv.1.conv.3.bias f4 [64]
0	0xbc5204cf	-0.012818529
1	0xbde02949	-0.109453745
2	0xbe0cbebf	-0.13744639
3	0x3d9adc44	0.075615436
4	0x3c04e1f2	0.00811051
5	0xbd0c39c4	-0.034234777
6	0x3d6097bb	0.0548322
7	0x3dd22235	0.10260431
8	0xbe0d90dd	-0.13824792
9	0xbdf21c17	-0.11821764
10	0x3da659be	0.08122586
11	0x3cc2ff61	0.023803415
12	0xbb94d291	-0.004541703
13	0xbcef9121	-0.029244008
14	0xbd600c6d	-0.05469935
15	0xbe1ad3c2	-0.15119842
16	0xbbdd9693	-0.0067623346
17	0x3d300c20	0.042980313
18	0xbd8939ec	-0.06700501
19	0x3d7e010f	0.06201273
20	0xbd49ae78	-0.049238652
21	0xbd7f2d80	-0.06229925
22	0x3cbbe37a	0.022935618
23	0xbdf9b8ee	-0.12193476
24	0xbdc7a2fa	-0.09747882
25	0xbd209482	-0.039204128
26	0xbc85c1a5	-0.016327688
27	0x3caf7bb9	0.0214213
28	0x3dac9837	0.0842747
29	0xbd8ec672	-0.06971444
30	0x3c7b9de3	0.015357467
31	0xbd44fa9a	-0.048090555
32	0xbe0a70ae	-0.13519546
33	0x3d885936	0.06657641
34	0xbd89315a	-0.06698866
35	0xbdc75f3e	-0.09734963
36	0xbe4275ab	-0.189902
37	0xbdbc8fc3	-0.09207108
38	0xbe418dad	-0.18901701
39	0xbe79dd32	-0.24400786
40	0xbb81d8ec	-0.0039626267
41	0xbd14b9da	-0.036310054
42	0xbcad3bad	-0.02114662
43	0xbd94fc60	-0.07274699
44	0x3794524c	1.7681297e-05
45	0x3c8f2afb	0.01747655
46	0xbc51a84c	-0.012796473
47	0x3c6af4e9	0.014340618
48	0x3d90f892	0.07078661
49	0x3d17ac40	0.037029505
50	0x3dcfbe1e	0.10143684
51	0x3d90894d	0.07057438
52	0xbd2e1a56	-0.042505585
53	0xbdde3397	-0.10849684
54	0xbe0c30ff	-0.13690566
55	0x3d8fd775	0.07023517
56	0xbd2cc75c	-0.04218231
57	0xbdad031b	-0.08447858
58	0x39c2fb53	0.00037189815
59	0xbe57e198	-0.21082151
60	0xbd7e5fcd	-0.06210308
61	0xbddea99a	-0.10872193
62	0x3bb880ec	0.005630603
63	0x3d4f831c	0.050662145

module.down1.mpconv.1.conv.4.weight f4 [64]
0	0x3c09c3c7	0.008408493
1	0x3e64290f	0.22281288
2	0x3f079d34	0.5297425
3	0x3f2c7752	0.6736957
4	0x3efcce1a	0.49375993
5	0x3e0e4252	0.13892487
6	0x3e0824fc	0.13295358
7	0x3e273c95	0.16331704
8	0x3e94e81a	0.2908333
9	0x3f19db9d	0.6010073
10	0x3ec54783	0.38531122
11	0x3e34cf65	0.1765724
12	0x3e7bc3e2	0.24586442
13	0x3f089ba6	0.533625
14	0x3f15c9ff	0.58511347
15	0x3e5e719d	0.21723028
16	0x39f3b662	0.00046484458
17	0x3f11dd56	0.56978357
18	0x3f248c3b	0.64276475
19	0x3f36bfde	0.71386516
20	0x3ec7d98e	0.3903317
21	0x3e2cb921	0.16867496
22	0x3e8f6185	0.2800409
23	0x3e68633d	0.22694106
24	0x3e1e02ed	0.15430804
25	0x3edc2e5a	0.43004113
26	0x3eec355e	0.46134466
27	0x3ef854e8	0.48502278
28	0x3e8cce25	0.27501026
29	0x3eefae51	0.4681268
30	0x3ea7bdf2	0.32762104
31	0x3e764ff5	0.24053939
32	0x3f371979	0.71523243
33	0x3ea782b5	0.3271691
34	0x3ed91e9a	0.4240616
35	0x3ed395b4	0.41325152
36	0x3f06bfea	0.5263659
37	0x3f23ec75	0.6403268
38	0x3e2326ee	0.15932819
39	0x3e3b03d9	0.18263187
40	0x3ec2991b	0.38007435
41	0x3a0a7687	0.0005281944
42	0x3a6888c8	0.00088704797
43	0x3e119ef0	0.14220786
44	0x3ea457ff	0.32098386
45	0x3f21ad0d	0.6315468
46	0x3db2113b	0.08694693
47	0x3eb79768	0.358577
48	0x3e6dec57	0.23234688
49	0x3ecb0fa3	0.39660367
50	0x3efefd2d	0.49802533
51	0x3e3a082d	0.18167181
52	0x3e8271c2	0.25477415
53	0x3ef09923	0.46991834
54	0x3e904412	0.28176934
55	0x3f0141cf	0.5049104
56	0x3eef71e5	0.46766582
57	0x3f18487b	0.59485596
58	0x3f144242	0.579136
59	0x3ed35c77	0.41281483
60	0x3ebfc352	0.37453705
61	0x3f1b78ce	0.6073121
62	0x3eb7a79d	0.35870066
63	0x3e998b3b	0.29989037

module.down1.mpconv.1.conv.4.bias f4 [64]
0	0xbe97cf5e	-0.29650396
1	0xbe6b58e0	-0.22983122
2	0xbec3aed5	-0.38219324
3	0x3ab27ea3	0.0013618063
4	0xbde452ad	-0.11148582
5	0x3c06432c	0.008194726
6	0x3df69afd	0.120412804
7	0x3e0a31b0	0.13495517
8	0xbe10c913	-0.14139204
9	0xbebbc7f4	-0.3667599
10	0x3cac17f0	0.021007508
11	0x3e6f48e3	0.23367648
12	0xbc174e1b	-0.00923493
13	0xbdc99ae3	-0.098439954
14	0xbde7a732	-0.11311187
15	0xbefb2560	-0.49051952
16	0xbcac24fc	-0.02101373
17	0xbe2c7494	-0.16841346
18	0xbebbe458	-0.3669765
19	0xbbd6cd3c	-0.0065552276
20	0xbe145bcf	-0.14488147
21	0xbe7b932d	-0.24567862
22	0xbd1ad430	-0.037800014
23	0xbdff0a25	-0.12453107
24	0xbea4247b	-0.32059082
25	0xbd8858dd	-0.06657574
26	0xbdd064e3	-0.101754926
27	0xbe0b992c	-0.13632649
28	0xbd03618e	-0.032075457
29	0xbe6116a9	-0.219813
30	0xbdfa058f	-0.122080915
31	0xbe363389	-0.17793097
32	0xbe5ec2f8	-0.21754062
33	0x3cf4f5be	0.029902335
34	0xbe0d216f	-0.13782285
35	0xbe096dfe	-0.13420865
36	0xbeff97d3	-0.4992052
37	0xbe17d099	-0.14825667
38	0xbf0737f4	-0.5281975
39	0xbef5cd43	-0.48008165
40	0xbe04bac4	-0.1296187
41	0xbc80d729	-0.015727596
42	0xbe1a3048	-0.1505748
43	0xbebb98c3	-0.36639985
44	0xbd4c4287	-0.049868133
45	0xbce66398	-0.028123662
46	0x3e6c52b2	0.23078421
47	0xbe12a6d5	-0.14321454
48	0x3c1e18f8	0.009649508
49	0xbe4fc15c	-0.20288604
50	0x3d0de496	0.034641825
51	0x3de9be1d	0.11413214
52	0xbdae6bff	-0.08516692
53	0xbdece72e	-0.115675315
54	0xbe2f4f62	-0.17120126
55	0xbdb28918	-0.08717555
56	0xbde79291	-0.11307252
57	0xbe87d98e	-0.2653317
58	0xbe06b220	-0.13153887
59	0xbee91057	-0.4552028
60	0xbd36e12b	-0.04464833
61	0xbe675df0	-0.22594428
62	0xbcfb0422	-0.03064162
63	0x3d6dca49	0.058054242

module.down1.mpconv.1.conv.4.running_mean f4 [64]
0	0x40c62136	6.191554
1	0x3fc79f8f	1.5595568
2	0x4072695a	3.7876801
3	0xc0731521	-3.7981646
4	0xc02b2790	-2.6742897
5	0x3ee27d4c	0.4423622
6	0xc004b930	-2.073803
7	0x3f9b0b38	1.2112799
8	0xc06b8e80	-3.6805725
9	0x40a0119e	5.0021505
10	0x40098e95	2.1493275
11	0x3f047a4a	0.517491
12	0xbf919041	-1.1372148
13	0xc08287db	-4.079084
14	0xc042f5be	-3.046249
15	0x40b3126a	5.595998
16	0x3db4a81e	0.08821128
17	0xc09eeddc	-4.9665356
18	0x401793a3	2.368386
19	0xc03687e8	-2.852045
20	0xc081bb8f	-4.0541453
21	0x4093b967	4.616382
22	0xc073b8c3	-3.808152
23	0xc08667a0	-4.2001495
24	0x40c8d200	6.275635
25	0xc09118ff	-4.5343013
26	0xbfff6238	-1.9951849
27	0xbf4af66d	-0.79282266
28	0xbf751be5	-0.9574569
29	0x40554961	3.3326037
30	0xc073f6d0	-3.8119392
31	0xbfeb1194	-1.836474
32	0xbfd4b49d	-1.6617619
33	0xbf977f66	-1.1835754
34	0xbe3f9d33	-0.1871231
35	0xbf8994a2	-1.0748484
36	0x40a76406	5.23096
37	0xc039d468	-2.9035892
38	0x40abd1d9	5.369366
39	0x40a0881d	5.0166154
40	0xbf66158c	-0.8987663
41	0xc042d384	-3.04416
42	0xc09b61a6	-4.85567
43	0x4073e5c5	3.810899
44	0xc0ba00d9	-5.8126035
45	0xc06706ff	-3.609802
46	0xbf61f1d5	-0.8825963
47	0x3e929f2c	0.28637064
48	0xbf8bed23	-1.0931743
49	0x409071ba	4.5138826
50	0xc031ce02	-2.7781987
51	0xbff1b507	-1.888337
52	0xc0095f5d	-2.1464455
53	0xc03055fe	-2.7552485
54	0xc00b9b69	-2.1813605
55	0xbfee69d9	-1.8626052
56	0xc0787d68	-3.8826542
57	0xc03b56f5	-2.9271824
58	0xc0e689b5	-7.20431
59	0x407f6d16	3.991033
60	0xbfda5919	-1.705844
61	0xbfe42711	-1.7824422
62	0xbe9dc513	-0.30814418
63	0xc084fbab	-4.155721
