model/mask/ACS-WFC-F606W-2-4.pth (torch_old, 15979 bytes, 39 tensors)

module.inc.conv.conv.0.weight f4 [4, 1, 3, 3]
-0.039003585 0.041314844 0.0033487515 -0.9797613 -0.020139584 0.03720416 0.19400164 0.977623
0.022958446 0.008239889 -1.42922 0.01661045 0.016393036 -0.044628706 -0.008237247 0.44493052
0.92009795 0.033172905 -1.1543871 0.013891631 0.031073077 0.033558987 0.9034524 0.078347705
0.0021254183 0.04997527 0.0064781993 -0.09869668 -0.28312612 0.01745804 0.15082085 1.4819521
-0.5636679 -0.12328472 -0.20270659 0.04956471
00000000: 39c2 1fbd c139 293d ba76 5b3b a3d1 7abf
00000010: c5fb a4bc 6463 183d 5ea8 463e 8045 7a3f
00000020: 5a13 bc3c 9900 073c aef0 b6bf a312 883c
00000030: b04a 863c 97cc 36bd 85f5 06bc efcd e33e
00000040: 8a8b 6b3f 50e0 073d f5c2 93bf b999 633c
00000050: f78c fe3c 2675 093d a848 673f c374 a03d
00000060: 9a4a 0b3b deb2 4c3d 1347 d43b 7c21 cabd
00000070: e8f5 90be 2a04 8f3c c870 1a3e 9bb0 bd3f
00000080: 8a4c 10bf b37c fcbd 5192 4fbe 5e04 4b3d

module.inc.conv.conv.0.bias f4 [4]
-0.08284463 0.36784622 0.1401782 0.2103615
00000000: 72aa a9bd 5756 bc3e e08a 0f3e 0169 573e

module.inc.conv.conv.1.weight f4 [4]
0.9386445 1.5217406 0.9552593 0.6252818
00000000: 024b 703f 65c8 c23f e08b 743f 7812 203f

module.inc.conv.conv.1.bias f4 [4]
0.6019696 0.11268197 -0.0026026904 1.2933056
00000000: ae1a 1a3f cec5 e63d e691 2abb 0a8b a53f

module.inc.conv.conv.1.running_mean f4 [4]
0.0918432 0.054125506 0.13339376 1.039307
00000000: 4a18 bc3d b5b2 5d3d 6098 083e 0308 853f

module.inc.conv.conv.1.running_var f4 [4]
40.67016 65.114655 36.25913 59.112988
00000000: 3eae 2242 b43a 8242 5909 1142 b373 6c42

module.inc.conv.conv.3.weight f4 [4, 4, 3, 3]
0.01162285 0.028470293 -0.0016294918 0.07718733 -0.23483998 0.7298344 -0.0055679344 -0.11428579
-0.09418448 -0.049783748 -0.25216988 -0.061290376 0.09428687 -0.030130874 -0.1487121 0.00026356408
0.12367515 0.083122276 -0.024544017 0.05273442 -0.008618275 -0.12197514 -1.4253842 -0.16312392
-0.09284431 0.13205655 -0.12786882 0.15149793 -0.12546507 0.030216273 0.94445217 -2.3504448
0.031251278 0.09112116 0.2628274 -0.047998436 0.06710651 -0.38529235 -0.36122456 -0.5686345
1.1760631 0.63671374 -0.07369693 0.14918932 0.39725566 0.086138375 0.13522696 0.07571474
0.05784688 -0.2966497 -0.0984555 0.08797963 -0.038332574 -0.3231159 0.022191348 0.07183071
0.021908589 -0.023186961 0.5430957 -0.14720024 -0.09518402 -1.2397623 -0.5767819 0.08324047
-0.062064752 -0.09062305 -0.41957295 -1.159362 -0.09767307 0.48761427 0.015532171 -0.081041194
0.6637488 -0.2894126 -0.11691221 1.5943009 0.039065775 -0.29193532 0.2339461 -0.21281554
-0.31428635 0.38134727 0.37188688 -0.28261614 0.35209334 0.60143954 0.7760589 -0.16021197
0.3260332 0.3482084 -0.10790989 0.4108439 -0.33152232 -0.024608545 1.6754439 0.5476368
-0.6486615 -0.3584164 -0.68853164 0.7198026 -0.4860828 0.02511091 -0.057835132 -0.15727986
-0.06407319 -0.54388475 0.078464635 0.11292861 -0.002351838 -0.0071876333 -0.025951296 0.0068984875
-0.15091226 -1.3332394 0.16733906 -0.07275853 -0.0059755053 0.022079444 0.07766619 0.056821596
-0.036128346 0.11733452 -0.13197282 0.056876868 -3.2040532 0.10816911 0.017327085 0.02475811
0.008267521 -0.0079039605 0.14313167 0.11892968 -0.106472164 0.3196098 1.1352198 -0.018266313
-0.039952807 0.044507395 -0.08141482 0.22416523 0.01930238 0.21933272 -0.17946768 0.36665854
00000000: c46d 3e3c 883a e93c ac94 d5ba 6414 9e3d
00000010: e479 70be 6dd6 3a3f 3873 b6bb ab0e eabd
00000020: cbe3 c0bd 0bea 4bbd 691c 81be 9e0b 7bbd
00000030: 7919 c13d 06d5 f6bc fc47 18be f92e 8a39
00000040: 6649 fd3d 033c aa3d 8910 c9bc 0c00 583d
00000050: aa33 0dbc 1ace f9bd fd72 b6bf f509 27be
00000060: 2825 bebd d539 073e 0bf0 02be 4622 1b3e
00000070: ea79 00be 1e88 f73c 9ec7 713f b06d 16c0
00000080: 5701 003d bb9d ba3d 5091 863e 029a 44bd
00000090: 236f 893d 0a45 c5be 6df2 b8be 0892 11bf
000000a0: 3c89 963f acff 223f 6bee 96bd 16c5 183e
000000b0: 1865 cb3e 5169 b03d f078 0a3e 5410 9b3d
000000c0: daf0 6c3d 78e2 97be 0aa3 c9bd aa2e b43d
000000d0: 9e02 1dbd 726f a5be a1ca b53c fb1b 933d
000000e0: a479 b33c 95f2 bdbc 5208 0b3f a9bb 16be
000000f0: d7ef c2bd 88b0 9ebf fba7 13bf fb79 aa3d
00000100: 9c37 7ebd 9498 b9bd 44d2 d6be f965 94bf
00000110: d208 c8bd 94a8 f93e a67a 7e3c edf8 a5bd
00000120: 71eb 293f e32d 94be ab6f efbd 0d12 cc3f
00000130: 6f03 203d 8c78 95be 918f 6f3e 51ec 59be
00000140: 24ea a0be f33f c33e f567 be3e 10b3 90be
00000150: 9445 b43e f1f7 193f ccab 463f 9b0e 24be
00000160: d3ed a63e 5f48 b23e dcff dcbd 225a d23e
00000170: 4bbd a9be dc97 c9bc f274 d63f ed31 0c3f
00000180: ae0e 26bf 5b82 b7be 9c43 30bf fc44 383f
00000190: d8df f8be 65b5 cd3c 88e4 6cbd f90d 21be
000001a0: ce38 83bd 083c 0bbf 11b2 a03d 1d47 e73d
000001b0: 4b21 1abb 3d86 ebbb d097 d4bc b50c e23b
000001c0: be88 1abe 97a7 aabf ee5a 2b3e 6d02 95bd
000001d0: 2cce c3bb f3df b43c 740f 9f3d c3bd 683d
000001e0: 51fb 13bd 154d f03d e223 07be b8f7 683d
000001f0: 350f 4dc0 c487 dd3d 88f1 8d3c 85d1 ca3c
00000200: 7f74 073c 9d7f 01bc 1c91 123e 6791 f33d
00000210: 140e dabd e5a3 a33e e24e 913f 3ca3 95bc
00000220: 8ea5 23bd 634d 363d d0bc a6bd 928b 653e
00000230: 0620 9e3c c298 603e 60c6 37be abba bb3e

module.inc.conv.conv.3.bias f4 [4]
-0.09461998 0.25208446 -0.21242382 -0.06236041
00000000: 1fc8 c1bd 3711 813e a185 59be a16d 7fbd

module.inc.conv.conv.4.weight f4 [4]
1.2052726 0.7952086 0.22270729 0.5776984
00000000: 5f46 9a3f ca92 4b3f 610d 643e 0be4 133f

module.inc.conv.conv.4.bias f4 [4]
-0.051099434 0.0072803316 -0.062458552 -0.018606655
00000000: a44d 51bd d98f ee3b 8ad4 7fbd fc6c 98bc

module.inc.conv.conv.4.running_mean f4 [4]
-1.3592138 -0.8545151 0.3037041 -0.7272283
00000000: b8fa adbf 80c1 5abf 1b7f 9b3e a22b 3abf

module.inc.conv.conv.4.running_var f4 [4]
1.5230895 0.5304964 0.7666313 0.938306
00000000: 99f4 c23f 9dce 073f f341 443f d234 703f

module.down1.mpconv.1.conv.0.weight f4 [8, 4, 3, 3]
0.09170491 0.22202128 -0.03508856 0.027579708 -0.059033927 0.08440332 -1.0189921 -0.03240884
0.0037098345 0.008209807 -0.015667444 0.03608653 0.67064154 0.47976452 -0.035122722 -1.4235593
0.19975933 0.052298058 0.017583601 -0.00022313933 -0.09877501 -0.048238352 0.25138602 0.02004566
-0.6594099 -0.10649053 -0.007338349 0.107616454 -0.032010216 0.07099364 -0.2977888 0.07351005
0.024868075 -0.63834536 -0.23615895 0.020609306 -0.05812767 0.14952299 -0.10257768 0.17553428
0.6097554 -0.009728408 -0.06368741 -0.086982906 -0.15981026 -0.19074978 -0.009625828 0.025621044
-0.7056572 0.3776119 0.35467246 -0.08753733 0.3003698 0.19158293 0.05258247 -0.5301846
0.049962275 0.047940552 -0.2623897 0.048468184 -0.05859984 0.008496181 0.018902488 -0.03651747
-0.33199596 -0.12268778 -0.44298086 1.3163524 -0.5196241 -0.16813166 -0.36834297 -0.10938605
-0.16694959 -0.14766037 0.08670106 0.19872111 0.21911892 0.018811027 -0.10721375 -0.24029434
0.05717449 0.07769708 0.068946525 0.055689547 -0.14501649 -0.21073607 -0.34028062 0.1311863
-0.81312805 -0.28418964 0.07890998 -0.63400805 -0.12826122 -1.1037962 -1.9193673 -0.40046138
-0.34665823 0.1366741 -0.07129831 -0.7043975 -0.8704707 -0.19527711 -0.4314126 -0.676853
-0.6693876 -0.50270796 0.09180917 -0.17818172 -0.38676396 -0.23362924 -0.018082738 -0.7799913
-0.5971101 0.063173756 -0.1998535 -0.36929306 0.10880328 0.10389958 0.15568945 -0.10649907
-0.013857261 -0.9626373 0.10629343 0.067739196 -0.21683107 -0.26742822 0.06756099 -0.2268333
0.105267875 -0.017517589 1.4064294 -0.09040286 0.099832974 -0.15701534 0.047650278 0.061035223
0.15403992 0.06699713 0.35519785 0.2745293 -0.08045462 -0.007486032 0.32976478 -0.122880206
-0.6009974 -0.5048599 0.20446336 0.04071066 0.521442 0.3939293 -0.07807373 -0.108071946
0.08973925 -0.18982543 -0.6012608 0.80792546 -0.1822006 -0.8061078 0.54958385 -0.04454898
0.03826029 0.029463818 0.041072067 -0.39900446 -1.159046 0.030255679 -0.5612292 -0.13000011
0.044331018 0.08798871 -0.036124587 0.13616258 0.679545 -0.07368642 0.3422076 -0.35998383
0.08672422 0.06363564 -0.037904233 -0.07300483 0.10995339 0.09990769 0.041985195 -0.057138644
1.519633 -0.6463328 0.1800563 -0.08183083 -0.35896635 0.023198973 -0.111062564 0.07701519
-0.22259398 1.0693227 0.3898256 -0.108240664 -0.090121485 -0.10901135 0.0013426166 0.070089765
-0.03450208 -0.108962625 0.08704372 -0.45874658 -0.049130447 -0.021098595 0.0118940575 0.006798398
0.022803025 0.039786346 -0.030200375 0.086404175 -0.24315175 0.1279806 -0.26404604 -0.2539709
0.059290584 -0.17233466 -0.35581776 0.05188231 0.38363138 -0.8473996 0.02297733 0.17564303
-0.0066675916 0.09014073 0.36010057 0.092693165 0.011663837 0.8374062 -1.0252423 0.1433463
0.54805887 0.2929192 -0.006993509 -0.09739847 -0.068359114 0.07352324 -0.26966485 -2.5599499
-0.018337099 0.038842037 0.15610963 0.04424431 -0.061330598 -0.32171574 -0.031953823 -0.93222964
-0.25562087 -0.04077741 0.098575324 0.10379223 -0.8390303 -0.4945048 0.11899319 -0.047716342
00000000: c9cf bb3d 8c59 633e 06b9 0fbd d7ee e13c
00000010: 8fcd 71bd a6db ac3d 556e 82bf 22bf 04bd
00000020: b220 733b 6d82 063c 0359 80bc 78cf 133d
00000030: 2aaf 2b3f b2a3 f53e d8dc 0fbd 3137 b6bf
00000040: b68d 4c3e 7d36 563d 7c0b 903c 82fa 69b9
00000050: 8d4a cabd 9495 45bd abb5 803e cc36 a43c
00000060: 16cf 28bf b517 dabd 8876 f0bb 0466 dc3d
00000070: 251d 03bd 1d65 913d c677 98be 708c 963d
00000080: 22b8 cb3c 9a6a 23bf a7d3 71be d9d4 a83c
00000090: 4817 6ebd 8e1c 193e 3f14 d2bd 42bf 333e
000000a0: ee18 1c3f e763 1fbc 8b6e 82bd 1824 b2bd
000000b0: 4da5 23be e953 43be a6b5 1dbc 39e3 d13c
000000c0: f3a5 34bf 5956 c13e a197 b53e c646 b3bd
000000d0: 12ca 993e 512e 443e b760 573d 2eba 07bf
000000e0: 3ea5 4c3d 505d 443d f157 86be 9386 463d
000000f0: 6306 70bd 9133 0b3c 64d9 9a3c 5893 15bd
00000100: 60fb a9be bb43 fbbd 63ce e2be 3c7e a83f
00000110: 1606 05bf b52a 2cbe 7397 bcbe cb05 e0bd
00000120: d5f4 2abe 4834 17be 5390 b13d 8c7d 4b3e
00000130: b660 603e 9519 9a3c e292 dbbd b80f 76be
00000140: cc2f 6a3d a61f 9f3d d633 8d3d b91a 643d
00000150: 347f 14be 32cb 57be 4339 aebe b455 063e
00000160: 2929 50bf 4e81 91be 8e9b a13d 5a4e 22bf
00000170: e956 03be 3249 8dbf d4ad f5bf 4609 cdbe
00000180: 307d b1be 4cf4 0b3e d904 92bd 6553 34bf
00000190: 2bd7 5ebf b9f6 47be 1de2 dcbe 3d46 2dbf
000001a0: fc5c 2bbf 78b1 00bf 7206 bc3d 4575 36be
000001b0: ed05 c6be 813c 6fbe 4022 94bc 83ad 47bf
000001c0: 35dc 18bf 3e61 813d 65a6 4cbe fb13 bdbe
000001d0: 41d4 de3d 4ec9 d43d 0e6d 1f3e 2f1c dabd
000001e0: 9109 63bc 666f 76bf 5fb0 d93d d9ba 8a3d
000001f0: f708 5ebe 5aec 88be 6b5d 8a3d fd46 68be
00000200: af96 d73d 0c81 8fbc e105 b43f 2225 b9bd
00000210: 3b75 cc3d a1c8 20be f02c 433d 1200 7a3d
00000220: a4bc 1d3e cb35 893d 7edc b53e 1b8f 8c3e
00000230: 64c5 a4bd 634d f5bb eed6 a83e 9ea8 fbbd
00000240: f7da 19bf 803e 01bf d85e 513e 39c0 263d
00000250: 397d 053f 1ab1 c93e 1fe5 9fbd d354 ddbd
00000260: 36c9 b73d 9961 42be 3aec 19bf 34d4 4e3f
00000270: cb92 3abe 155d 4ebf 87b1 0c3f fe78 36bd
00000280: d2b6 1c3d 1b5e f13c 2f3b 283d 504a ccbe
00000290: 9f5b 94bf c2da f73c b8ac 0fbf c01e 05be
000002a0: 7194 353d 6d33 b43d 60f7 13bd 346e 0b3e
000002b0: a9f6 2d3f e8e8 96bd d635 af3e cd4f b8be
000002c0: 789c b13d 6753 823d 7841 1bbd 8e83 95bd
000002d0: 3e2f e13d 679c cc3d abf8 2b3d 360a 6abd
000002e0: 5683 c23f 1176 25bf ae60 383e ec96 a7bd
000002f0: 70ca b7be c60b be3c c574 e3bd 24ba 9d3d
00000300: adef 63be 91df 883f 3997 c73e 48ad ddbd
00000310: 9d91 b8bd 5841 dfbd bdfa af3a 398b 8f3d
00000320: 0e52 0dbd cc27 dfbd fa43 b23d d5e0 eabe
00000330: 023d 49bd f6d6 acbc 4bdf 423c 19c5 de3b
00000340: 69cd ba3c 02f7 223d c766 f7bc acf4 b03d
00000350: c6fc 78be 590d 033e 0b31 87be 7908 82be
00000360: afda 723d 7f78 30be bf2d b6be 8c82 543d
00000370: 556b c43e 2eef 58bf f43a bc3c c4db 333e
00000380: d07b dabb b49b b83d 1a5f b83e ead5 bd3d
00000390: ae19 3f3c 4160 563f 243b 83bf 5fc9 123e
000003a0: 964d 0c3f 81f9 953e ce29 e5bb d978 c7bd
000003b0: ddff 8bbd 5a93 963d 8311 8abe 38d6 23c0
000003c0: af37 96bc d418 1f3d 34db 1f3e 8639 353d
000003d0: cb35 7bbd edb7 a4be 03e2 02bd 9aa6 6ebf
000003e0: bde0 82be 3706 27bd dce1 c93d 0591 d43d
000003f0: b1ca 56bf bc2f fdbe b4b2 f33d 3672 43bd

module.down1.mpconv.1.conv.0.bias f4 [8]
0.055965982 -0.035202727 0.21263877 0.15681931 0.017342247 -0.27977553 0.0023075922 0.022106377
00000000: 963c 653d bc30 10bd fabd 593e 3e95 203e
00000010: 5411 8e3c bd3e 8fbe f93a 173b 6f18 b53c

module.down1.mpconv.1.conv.1.weight f4 [8]
0.6495346 0.62885666 1.3724355 0.39954916 0.56010324 0.4071516 1.4633031 1.1822824
00000000: e647 263f c0fc 203f f7ab af3f b591 cc3e
00000010: ed62 0f3f 2d76 d03e 844d bb3f 0855 973f

module.down1.mpconv.1.conv.1.bias f4 [8]
0.006110062 -0.18949103 0.106136136 0.24742791 0.31451625 -0.21435457 -0.054679886 -0.053390734
00000000: ea36 c83b f009 42be e75d d93d be5d 7d3e
00000010: 4608 a13e c47f 5bbe 04f8 5fbd 3eb0 5abd

module.down1.mpconv.1.conv.1.running_mean f4 [8]
-0.28813165 0.10026659 -0.6707747 -0.2480931 -0.21443787 -0.13868481 -0.39482364 -0.24640064
00000000: fe85 93be 9258 cd3d e4b7 2bbf 1e0c 7ebe
00000010: 9a95 5bbe 6403 0ebe 5326 cabe 7350 7cbe

module.down1.mpconv.1.conv.1.running_var f4 [8]
0.27932984 0.18984456 0.7172096 0.31608385 0.8994724 0.15043388 1.5470047 0.7620493
00000000: 5204 8f3e 9d66 423e 0c9b 373f bed5 a13e
00000010: d343 663f 570b 1a3e 4004 c63f aa15 433f

module.down1.mpconv.1.conv.3.weight f4 [8, 8, 3, 3]
0.31581602 -0.45990604 -0.5731599 0.26240784 -0.38269663 -0.37859395 0.24591702 0.0050531765
0.04066504 0.077212185 -0.09706398 -0.0051544905 -0.13486698 -0.46222547 -0.07017483 -0.13375156
-0.37114483 -0.07315225 0.70665437 0.3553698 0.049981892 -0.16915205 0.30123326 -0.12495988
0.02405538 -0.6300478 0.5468852 -0.303395 -0.07462874 -0.0016256326 -0.2347284 0.3597612
-0.13242386 -0.23633617 -0.36048993 -0.12393786 -0.42736349 -0.29447556 -0.26912814 -0.78656346
-0.2774591 0.25807157 -0.7944667 0.60238117 0.19351849 -0.2753125 0.062334146 0.082509264
-0.22219789 -0.013209741 -0.105906576 -0.19649737 0.27505568 0.2015763 -0.21793024 0.42002633
0.44923612 -1.0013169 -0.41484535 0.21331643 -0.5986126 0.0072610686 0.30834657 0.19065338
0.0073686144 0.2270558 0.1699217 -0.46290702 0.016678885 0.3386334 -0.7539423 0.013712794
0.05539705 0.014640205 -0.17781101 -0.084669456 -0.20776519 -0.5972182 0.16693845 0.054460462
-0.062481552 -0.049835414 -1.107404 -0.76448786 -1.8959571 -2.0850103 -1.3670473 -0.09497399
-2.6148014 -0.0723302 0.1401112 0.0784365 -0.27815658 0.07399053 0.8867804 0.15254074
0.17300001 0.095045656 -0.21257296 -0.43995288 0.71190965 0.1139487 -0.69840086 -0.33558062
0.097212404 0.009390244 -0.68014103 -0.019858725 0.2917206 0.04642789 0.18654242 0.4366736
-0.18563877 0.14612639 0.7024997 1.7159848 -0.09403012 0.118488 0.11083276 -0.7173608
-1.065222 -0.8719012 -1.1282032 0.039059777 -0.630145 -0.3599787 0.041374307 -0.0791884
-0.21979444 -0.12139386 -0.084923334 -0.46362963 0.28832626 0.0050110975 0.16346942 -0.2791439
-0.076341294 -0.17200114 0.11646372 -0.14947002 -0.36851305 0.09166094 -0.19029328 -0.14442906
-0.4609278 -0.56950647 0.04655072 -0.51004505 -0.11124067 -0.74101776 0.00023976034 -1.2506958
-0.11762414 -0.20434377 -0.012552451 -0.09922671 -0.24926808 -0.10895417 0.0471058 -0.115118586
-0.3080266 0.41717124 -0.65626323 0.060328294 0.19207169 -0.110364474 -0.6875508 0.4027855
-0.07072776 0.65040416 0.086307436 -0.023380706 0.53892887 -0.05879675 0.26969233 -0.25149998
-0.016273512 -0.37815976 0.21270601 -0.123451956 0.2755277 0.4383571 -0.5245709 0.8720442
-0.44118318 -0.54911286 0.11254406 0.26937714 -0.25925916 0.08588887 0.25562152 0.078619055
0.33999828 -0.4110717 -0.1604253 0.1875725 0.7337258 -0.122759275 -0.26085818 0.64407367
-0.27416778 0.6371326 0.9682377 -0.89465976 -0.72568583 0.32526276 -0.23216888 -0.4881271
0.6263059 0.004057258 -0.67661 0.004060689 0.053205032 -0.6043749 0.18229094 -0.07435477
-0.024515834 0.008866166 -0.017362356 -0.20153297 -0.34827924 -0.024812525 -0.16956969 -0.29050186
-0.5306098 0.047287818 -0.110722914 0.08054897 0.09688104 -1.074091 0.19336674 -0.0809648
0.30744243 -0.13002145 -0.24560043 -0.02513259 -0.29493257 -0.27075562 1.451554 0.05375202
-0.48017076 -0.14555357 -0.39327025 0.07542316 -0.04086237 -0.032766044 -0.1301709 -0.6148169
-0.11186083 -0.14306921 -0.16568698 0.08976108 -0.12870447 -0.12490022 0.00063711626 0.12102131
00000000: a3b2 a13e ce78 ebbe 9bba 12bf 525a 863e
00000010: d0f0 c3be 11d7 c1be acd1 7b3e 1e95 a53b
00000020: 6390 263d 6c21 9e3d 7bc9 c6bd 00e7 a8bb
00000030: 921a 0abe d1a8 ecbe d2b7 8fbd 2bf6 08be
00000040: b206 bebe d9d0 95bd 4de7 343f 08f3 b53e
00000050: d0b9 4c3d 3236 2dbe 3f3b 9a3e f7ea ffbd
00000060: ca0f c53c d04a 21bf ab00 0c3f 9756 9bbe
00000070: f4d6 98bd 2e13 d5ba a45c 70be 9f32 b83e
00000080: 1f9a 07be 1c02 72be 2392 b8be 22d3 fdbd
00000090: 63cf dabe 80c5 96be 2acb 89be 395c 49bf
000000a0: 1f0f 8ebe f521 843e 2b62 4bbf a735 1a3f
000000b0: b629 463e c3f5 8cbe 1752 7f3d 9efa a83d
000000c0: d887 63be ab6d 58bc 8ce5 d8bd 9b36 49be
000000d0: 19d4 8c3e 056a 4e3e 1b29 5fbe b10d d73e
000000e0: 4702 e63e 272b 80bf 9c66 d4be 9f6f 5a3e
000000f0: ad3e 19bf 42ee ed3b 9adf 9d3e a43a 433e
00000100: 6b74 f13b 5181 683e f4ff 2d3e 2602 edbe
00000110: 28a2 883c 5b61 ad3e 5d02 41bf a0ab 603c
00000120: 04e8 623d 78dd 6f3c 1714 36be 2e67 adbd
00000130: 66c0 54be 4be3 18bf eaf1 2a3e ef11 5f3d
00000140: a8ec 7fbd 3820 4cbd 6abf 8dbf 7ab5 43bf
00000150: b9ae f2bf cf70 05c0 68fb aebf b981 c2bd
00000160: e858 27c0 db21 94bd 4f79 0f3e 51a3 a03d
00000170: 8a6a 8ebe 5988 973d 0a04 633f a433 1c3e
00000180: ea26 313e 4ca7 c23d baac 59be 8141 e1be
00000190: b63f 363f f05d e93d 66ca 32bf 39d1 abbe
000001a0: 4c17 c73d 8ad9 193c b91d 2ebf c4ae a2bc
000001b0: 675c 953e 2c2b 3e3d fa04 3f3e af93 df3e
000001c0: 1718 3ebe 28a2 153e 05d7 333f 64a5 db3f
000001d0: dd92 c0bd d6a9 f23d 49fc e23d f5a4 37bf
000001e0: 3259 88bf eb34 5fbf f668 90bf 25fd 1f3d
000001f0: 2f51 21bf 214f b8be 1b78 293d 872d a2bd
00000200: cb11 61be 589d f8bd 49ec adbd dd60 edbe
00000210: 809f 933e 2234 a43b 8764 273e f3eb 8ebe
00000220: d358 9cbd 1121 30be 8884 ee3d ab0e 19be
00000230: bead bcbe bbb8 bb3d 3edc 42be 36e5 13be
00000240: bbfe ebbe 2dcb 11bf f8ab 3e3d 5092 02bf
00000250: 26d2 e3bd 57b3 3dbf 2d68 7b39 cd16 a0bf
00000260: ede4 f0bd 7e3f 51be cca8 4dbc 6037 cbbd
00000270: 2240 7fbe 5d23 dfbd 03f2 403d 4bc3 ebbd
00000280: aab5 9dbe 7897 d53e de00 28bf cd1a 773d
00000290: 71ae 443e c506 e2bd 5403 30bf e739 ce3e
000002a0: b7d9 90bd e380 263f f4c1 b03d e588 bfbc
000002b0: 3ef7 093f dcd4 70bd 1d15 8a3e 9bc4 80be
000002c0: 0750 85bc 289e c1be 9bcf 593e 61d4 fcbd
000002d0: f711 8d3e 5870 e03e 474a 06bf 4a3e 5f3f
000002e0: c3e2 e1be a992 0cbf 807d e63d cdeb 893e
000002f0: 9ebd 84be 81e6 af3d d3e0 823e 0703 a13d
00000300: 4114 ae3e fd77 d2be 8846 24be 0113 403e
00000310: 74d5 3b3f 3769 fbbd 348f 85be 03e2 243f
00000320: b85f 8cbe 1f1b 233f 6dde 773f 6c08 65bf
00000330: 8cc6 39bf d788 a63e aebd 6dbe cceb f9be
00000340: 9555 203f bff2 843b 5036 2dbf 870f 853b
00000350: 85ed 593d 50b8 1abf 7aaa 3a3e 5047 98bd
00000360: 6ed5 c8bc 6543 113c 803b 8ebc a95e 4ebe
00000370: a851 b2be a343 cbbc ada3 2dbe a9bc 94be
00000380: 0bd6 07bf dfb0 413d b2c2 e2bd dcf6 a43d
00000390: 9169 c63d d07b 89bf ee01 463e e0d0 a5bd
000003a0: 1869 9d3e 5824 05be ae7e 7bbe dde2 cdbc
000003b0: 6701 97be 7ba0 8abe 85cc b93f 142b 5c3d
000003c0: f1d8 f5be ff0b 15be b85a c9be 7577 9a3d
000003d0: 4d5f 27bd b035 06bd 854b 05be a464 1dbf
000003e0: 4a17 e5bd bc80 12be d9a9 29be a8d4 b73d
000003f0: 1bcb 03be b0cb ffbd 2604 273a 05da f73d

module.down1.mpconv.1.conv.3.bias f4 [8]
-0.040188726 0.031538013 0.21744066 0.20765449 0.071912445 -1.205744 0.16365291 -0.011385579
00000000: ef9c 24bd 012e 013d c4a8 5e3e 61a3 543e
00000010: d546 933d d255 9abf a194 273e 948a 3abc

module.down1.mpconv.1.conv.4.weight f4 [8]
0.41587386 0.88392204 0.25240216 0.32546654 1.1660733 0.3250856 0.5859389 0.35819238
00000000: 6bed d43e b748 623f db3a 813e 8da3 a63e
00000010: e441 953f 9f71 a63e 1700 163f fe64 b73e

module.down1.mpconv.1.conv.4.bias f4 [8]
0.12803915 0.045582805 0.00052278576 0.28335053 -0.1220203 -1.0386361 0.20445094 0.118083134
00000000: b21c 033e 09b5 3a3d 8f0b 093a 5213 913e
00000010: c7e5 f9bd 07f2 84bf 965b 513e 92d5 f13d

module.down1.mpconv.1.conv.4.running_mean f4 [8]
-0.9884947 0.36168116 0.5379266 -0.89771324 -0.03111806 1.8445226 -0.45692238 -0.68047833
00000000: fd0d 7dbf 462e b93e 8fb5 093f 89d0 65bf
00000010: 4deb febc 5119 ec3f bbf1 e9be d433 2ebf

module.down1.mpconv.1.conv.4.running_var f4 [8]
0.53772855 1.353019 0.531033 0.861093 0.7747638 0.7794614 1.1660712 0.55635273
00000000: 94a8 093f ba2f ad3f c7f1 073f 9770 5c3f
00000010: ec56 463f c88a 473f d241 953f 226d 0e3f

module.up8.up.weight f4 [8, 4, 2, 2]
0.050925016 -0.25585267 -0.36153528 -0.37349874 0.34958395 0.5684225 0.23035447 0.33534878
0.10532305 0.10061275 0.4339183 0.15949276 -0.10296579 -0.2129867 -0.05852746 -0.11066426
-0.47833428 -0.12789607 0.07644453 -0.06491898 -0.1458014 -0.20543145 -0.0745086 -0.10870905
-0.036969118 -0.8338075 -0.6862684 0.07480962 -0.03271663 -0.0744651 -0.2404316 0.41639164
-0.37600482 -0.049589917 -0.17853244 -0.16388544 -0.32735533 -0.10877144 0.2333381 -0.15476903
-0.078124434 0.0082803555 -0.33643553 -0.081769675 -0.6692432 -0.19296654 -0.49583757 -0.5678808
0.16659668 0.19361842 0.41318068 0.16914113 -0.31596893 -0.078865364 -0.061152097 0.15039596
-0.39970112 -0.3683448 -0.22021282 -0.04721892 -0.51993114 -0.67968297 -0.48275185 -0.322668
0.058177866 0.24421553 -0.49192038 0.5472988 -0.72656345 -0.50918466 -0.84637445 -0.3857661
0.5828364 -0.27216947 -0.78454006 -0.29057327 -0.0502695 0.19556877 0.12746449 -0.4326824
-0.9075773 -0.8945818 -0.67854524 -1.0331134 0.19293828 0.033133302 -0.13636483 -0.5403504
0.5968969 -0.42953452 0.46415016 -0.25426972 -0.4361266 -0.46607792 -0.63446844 -0.70862377
-0.3917917 0.024673808 0.3839463 0.3030175 0.13788426 -0.32298046 0.49319264 0.10356592
0.4996644 -0.30866608 -0.6868773 -0.30533987 0.060208827 -0.045482747 -0.28559828 -0.7494007
-0.17465727 -0.84319776 0.26991823 0.18536343 -0.34304085 -0.33512133 -0.22363132 -0.674735
0.00025824766 -0.2188514 -0.5609149 -0.09050851 0.07080208 0.17791331 -0.08619122 0.024077946
00000000: c096 503d 1fff 82be 271b b9be 3a3b bfbe
00000010: abfc b23e 2384 113f 0be2 6b3e d6b2 ab3e
00000020: 9cb3 d73d 0f0e ce3d 8a2a de3e 1252 233e
00000030: badf d2bd 2f19 5abe 7dba 6fbd f2a3 e2bd
00000040: 3be8 f4be 30f7 02be f38e 9c3d 3ef4 84bd
00000050: f64c 15be 9f5c 52be f797 98bd daa2 debd
00000060: ee6c 17bd 6974 55bf 49af 2fbf c935 993d
00000070: df01 06bd 2981 98bd b433 76be 4931 d53e
00000080: b483 c0be cc1e 4bbd 35d1 36be 96d1 27be
00000090: 1e9b a7be 90c3 debd 2ff0 6e3e c67b 1ebe
000000a0: b4ff 9fbd 54aa 073c 4741 acbe dc76 a7bd
000000b0: 8653 2bbf 0599 45be 6cde fdbe a360 11bf
000000c0: 5298 2a3e e843 463e 6b8c d33e 5533 2d3e
000000d0: aec6 a1be 2a84 a1bd 9f7a 7abd 6601 1a3e
000000e0: a0a5 ccbe b197 bcbe 787f 61be a068 41bd
000000f0: 351a 05bf b4ff 2dbf 402b f7be bd34 a5be
00000100: ea4b 6e3d a313 7a3e fddc fbbe c61b 0c3f
00000110: 1000 3abf ed59 02bf ffab 58bf 2283 c5be
00000120: c434 153f cc59 8bbe 9ed7 48bf 05c6 94be
00000130: 64e7 4dbd 2e43 483e 0d86 023e 8c88 ddbe
00000140: fc56 68bf 5003 65bf 24b5 2dbf 0f3d 84bf
00000150: 9d91 453e c9b6 073d 39a3 0bbe 6754 0abf
00000160: 3cce 183f f3eb dbbe 17a5 ed3e a42f 82be
00000170: fc4b dfbe c4a1 eebe 866c 22bf 5e68 35bf
00000180: ec98 c8be ba20 ca3c 9c94 c43e 1c25 9b3e
00000190: 8831 0d3e b25d a5be bf83 fc3e 5e1a d43d
000001a0: 03d4 ff3e 7b09 9ebe 31d7 2fbf 8255 9cbe
000001b0: 889d 763d 1e4c 3abd f039 92be b9d8 3fbf
000001c0: 5bd9 32be cfdb 57bf b932 8a3e e9cf 3d3e
000001d0: 0da3 afbe 0695 abbe 9cff 64be 6fbb 2cbf
000001e0: 6a65 8739 951a 60be 1e98 0fbf 875c b9bd
000001f0: ae00 913d e82e 363e 0685 b0bd 1d3f c53c

module.up8.up.bias f4 [4]
0.047399525 0.18232198 -0.08107581 0.1589706
00000000: 0126 423d 9db2 3a3e 130b a6bd 30c9 223e

module.up8.conv.conv.0.weight f4 [4, 8, 3, 3]
0.1543967 -0.04332113 -0.07239118 -0.05551239 -0.24068865 -0.297321 1.2136418 -0.27396587
-0.3349842 -0.12939408 -0.19998708 -0.032919277 0.05786858 0.2134844 0.08086924 0.44812182
0.69754976 0.1306381 0.116695575 -0.12012171 -0.06527696 -0.5063757 -0.51861036 -0.062251
-0.61579597 -0.63931036 0.13453746 -0.08865631 0.025036398 -0.1437116 -0.5245101 0.541589
0.25204813 -2.9804435 0.24213125 0.18731944 0.17947625 0.37660465 0.15501352 0.33152893
0.24676344 0.42914945 0.5792656 0.36405706 -0.045348596 -0.044698533 0.027394835 0.12937759
-0.13019606 -0.09155151 0.045804974 -0.34844092 -0.11973479 0.026323965 -0.046494342 0.25925347
-0.16450998 0.112427354 -0.046571743 0.122596376 0.09109612 0.0020988823 -0.30561516 0.28809234
0.07406269 0.34522983 -0.050181415 0.15302691 0.24380511 0.09583995 0.020575324 0.65612817
0.05547693 0.02840492 -0.025912687 0.011630735 0.4454345 0.4260126 -0.14096236 0.1338822
-0.289459 -0.09532703 -0.350719 -0.35329074 -0.1921028 -0.2314065 0.16388713 -0.21681334
0.10893022 -0.3691424 0.043408323 -0.101719774 -0.12888178 -0.015744772 0.07664049 -0.9171728
-0.1269392 0.14477082 0.070605524 -0.07041189 0.41569498 0.01451012 -0.15430318 -0.648181
-0.8432478 -0.18795769 0.038159534 -0.10342406 -0.040752087 0.67162406 -0.25095606 0.54711586
-0.25375342 0.13786747 0.21543191 0.3256949 -0.024249861 0.14514646 -0.05938773 0.21040055
-0.11710774 0.48597366 0.49206063 0.10843972 0.16263226 -0.057608888 -0.07419403 1.0575169
-0.1983866 0.85540354 -0.41258484 0.8259531 -0.042005196 0.59281635 -0.06779492 0.31086683
-0.14355335 0.41120183 -0.14710823 0.29900002 0.24474685 0.3380267 0.025316723 0.34351382
-0.14861575 -0.370858 0.034318853 -0.21340618 -2.601643 0.07102629 0.15569092 0.36423385
-0.07959158 -0.030775014 0.32832062 0.015116735 0.08472497 -0.28877494 -0.042561945 0.028825961
-0.46698734 -1.1190574 0.09719736 -0.24777067 0.044016864 0.30886906 -0.59838533 -0.8630538
0.062255006 -0.18753783 0.3584157 -0.0098228725 -0.27958873 0.12659584 -0.29317272 -5.5915025e-05
0.1351584 0.06993912 -0.100074306 0.32493117 0.099329 0.04939254 0.023857746 0.15090404
0.45902961 0.008344322 0.26867297 0.35679588 -0.010916508 0.104177356 0.2214016 0.012945914
0.46030527 0.3013698 0.014165694 0.07253043 -0.047651276 -0.21414609 -0.16239269 -0.268137
-0.07368921 -0.3578195 -0.33224595 -0.25090107 0.10927697 -0.11887611 -0.10911425 -0.0672298
0.18142694 0.057588656 -0.07217525 0.07336349 0.0153128365 -0.22400014 0.058282077 -0.17132972
-0.00031429002 -0.20157085 0.13490981 -0.13298477 0.10353896 -1.3947697 -0.17545448 -0.11788322
0.17582823 0.19221091 -0.18839076 -0.20827043 -0.02952781 -0.382212 -0.23227999 0.081774004
-0.102455035 0.13186158 -0.04630768 0.21141106 0.2771043 0.09335339 -0.11978318 0.14135912
0.017157475 0.059446245 0.32382292 0.013262494 0.18771319 -0.04014387 0.13092978 0.041925576
1.583503 0.12607254 0.43499944 -0.013522253 -0.15319991 0.24209651 0.45445383 0.2476758
00000000: 2b1a 1e3e 7f71 31bd d441 94bd f660 63bd
00000010: 1677 76be 753a 98be 9d58 9b3f 4145 8cbe
00000020: 0d83 abbe e27f 04be 6ac9 4cbe 5dd6 06bd
00000030: 9b07 6d3d a89b 5a3e c69e a53d 3970 e53e
00000040: 9f92 323f fec5 053e 17fe ee3d 5f02 f6bd
00000050: edaf 85bd d6a1 01bf a6c3 04bf e8fa 7ebd
00000060: cea4 1dbf d8a9 23bf 30c4 093e 7191 b5bd
00000070: 2219 cd3c 2229 13be 4b46 06bf 94a5 0a3f
00000080: 740c 813e 96bf 3ec0 41f1 773e abd0 3f3e
00000090: 9fc8 373e 53d2 c03e ddbb 1e3e 29be a93e
000000a0: 8eaf 7c3e 7ab9 db3e c04a 143f b065 ba3e
000000b0: 73bf 39bd cf15 37bd 226b e03c 8f7b 043e
000000c0: 1e52 05be 5c7f bbbd ff9d 3b3d d966 b2be
000000d0: 8337 f5bd 5ba5 d73c da70 3ebd dfbc 843e
000000e0: 4e75 28be 5040 e63d 03c2 3ebd cf13 fb3d
000000f0: 9a90 ba3d 678d 093b 9779 9cbe d780 933e
00000100: 2eae 973d f7c1 b03e 078b 4dbd 16b3 1c3e
00000110: 0ca8 793e bc47 c43d 958d a83c 04f8 273f
00000120: c73b 633d 6fb1 e83c d846 d4bc d78e 3e3c
00000130: fe0f e43e 531e da3e 7058 10be 6a18 093e
00000140: f833 94be d13a c3bd 7191 b3be 86e2 b4be
00000150: 99b6 44be d3f5 6cbe 07d2 273e 5104 5ebe
00000160: cf16 df3d 3c00 bdbe edcc 313d 7552 d0bd
00000170: 96f9 03be 2efb 80bc b0f5 9c3d d6cb 6abf
00000180: 5afc 01be cd3e 143e a199 903d 1c34 90bd
00000190: f9d5 d43e dbbb 6d3c a701 1ebe 31ef 25bf
000001a0: 16df 57bf fb77 40be 2c4d 1c3d fecf d3bd
000001b0: a9eb 26bd 8eef 2b3f 507d 80be c90f 0c3f
000001c0: f8eb 81be 212d 0d3e 2f9a 5c3e 7bc1 a63e
000001d0: a5a7 c6bc 46a1 143e 8c40 73bd 3e73 573e
000001e0: 2fd6 efbd 8ad1 f83e 5fef fb3e a515 de3d
000001f0: 1289 263e 4cf7 6bbd 0af3 97bd b75c 873f
00000200: db25 4bbe bafb 5a3f 523e d3be aa71 533f
00000210: a40d 2cbd d0c2 173f 10d8 8abd f029 9f3e
00000220: a6ff 12be 0c89 d23e 8aa3 16be 8816 993e
00000230: eb9e 7a3e d611 ad3e 0465 cf3c 0be1 af3e
00000240: ba2e 18be 1ae1 bdbe ed91 0c3d 2687 5abe
00000250: 5281 26c0 3b76 913d 716d 1f3e dc7c ba3e
00000260: e900 a3bd e21b fcbc a419 a83e 2fac 773c
00000270: 4984 ad3d 4fda 93be 6f55 2ebd 6c24 ec3c
00000280: f718 efbe 463d 8fbf 690f c73d 98b7 7dbe
00000290: 074b 343d 1624 9e3e c82f 19bf 18f1 5cbf
000002a0: 1bff 7e3d eb09 40be 4382 b73e 1df0 20bc
000002b0: 4126 8fbe 57a2 013e bc1a 96be 4d86 6ab8
000002c0: f766 0a3e 3e3c 8f3d c2f3 ccbd 615d a63e
000002d0: 016d cb3d d54f 4a3d 5271 c33c 9786 1a3e
000002e0: ee05 eb3e a0b6 083c 818f 893e f3ad b63e
000002f0: 27db 32bc f05a d53d 1ab7 623e 191b 543c
00000300: 22ad eb3e 244d 9a3e 3a17 683c d68a 943d
00000310: fc2d 43bd 1d49 5bbe 454a 26be 4149 89be
00000320: 5eea 96bd 1e34 b7be 241c aabe 1b76 80be
00000330: 9bcc df3d 5175 f3bd 4b77 dfbd c7af 89bd
00000340: fcc7 393e 15e2 6b3d 9ed0 93bd 993f 963d
00000350: b1e2 7a3c 4b60 65be 30b9 6e3d 0f71 2fbe
00000360: 4bc7 a4b9 9768 4ebe cc25 0a3e 292d 08be
00000370: 3c0c d43d d087 b2bf 57aa 33be c26c f1bd
00000380: 510c 343e f0d2 443e 82e9 40be d844 55be
00000390: 4ee4 f1bc 4bb1 c3be ceda 6dbe 2179 a73d
000003a0: f2d3 d1bd b906 073e 1fad 3dbd 247c 583e
000003b0: 9de0 8d3e 1030 bf3d e250 f5bd 72c0 103e
000003c0: d58d 8c3c e87d 733d 1ecc a53e ee4a 593c
000003d0: e337 403e e66d 24bd 7512 063e 27ba 2b3d
000003e0: 3ab0 ca3f 2919 013e 3fb8 de3e 718c 5dbc
000003f0: 70e0 1cbe 26e8 773e 2cae e83e ba9e 7d3e

module.up8.conv.conv.0.bias f4 [4]
-0.05523605 -0.11572752 0.054788776 -0.019325653
00000000: 323f 62bd 8d02 edbd 326a 603d d550 9ebc

module.up8.conv.conv.1.weight f4 [4]
0.3848567 0.41841632 0.469854 0.23013888
00000000: f00b c53e aa3a d63e b490 f03e 87a9 6b3e

module.up8.conv.conv.1.bias f4 [4]
0.22372551 0.59747607 0.23224075 0.1452313
00000000: 4d18 653e 31f4 183f 85d0 6d3e 84b7 143e

module.up8.conv.conv.1.running_mean f4 [4]
-0.7211737 -0.7046932 0.0042092633 0.14746822
00000000: d79e 38bf c666 34bf dced 893b e901 173e

module.up8.conv.conv.1.running_var f4 [4]
0.88310885 1.1954292 0.8644419 0.5602584
00000000: 6c13 623f d303 993f 104c 5d3f 186d 0f3f

module.up8.conv.conv.3.weight f4 [4, 4, 3, 3]
-0.17200585 0.005869788 0.5383325 -0.13790393 -0.07871477 0.09514526 -0.013895768 0.038300134
0.15334752 0.23907314 0.34723476 -0.13900141 0.6998264 0.831777 0.18635212 0.11026437
0.122506335 0.087493144 -0.087902516 0.20975159 0.06761887 0.15116356 -0.10451192 0.031056946
0.01668494 0.21935818 0.06259291 -0.148366 -0.52068615 -0.3538293 -1.3873353 0.06262425
-0.090691954 -0.16969863 -0.10208528 -0.07204288 -0.050569516 -0.043353915 -1.063655 -0.13571078
-0.1673669 -0.05046484 0.0894256 -0.22483045 -0.5052849 -0.0004937527 -0.119904906 -0.14534894
-0.15324113 -0.19390532 -0.37671065 -0.37265813 -0.2332032 -0.12523277 0.008517722 0.12059431
-0.16175629 0.2551275 0.9087954 0.10775518 -0.103662156 0.5499216 0.1111665 -0.064162545
-0.019427156 0.023797998 -0.100146525 -0.087999165 0.016295886 -0.39500538 -0.02800434 0.029023942
0.026110398 -0.60103536 1.328917 -0.22968578 0.23896927 -0.20180775 0.03417366 -0.25566748
0.37320173 0.17048559 -0.35611102 0.13751334 -0.022091504 0.5738161 -0.3152986 0.097861245
-0.15355897 0.11146689 0.3561331 0.36623493 0.22506249 0.18560529 -0.049358595 0.42778918
0.342836 0.23383011 0.19391254 -0.25119346 0.024648346 -0.13352056 -0.4858813 0.036425803
-0.015383036 -0.042082783 0.019018766 -0.11709202 -0.37110177 0.18017673 0.29726446 0.102691315
-0.84868056 0.12564358 -0.24044904 0.32854348 0.05990886 -0.37347358 0.3641853 -0.35122085
0.622435 -0.23221785 0.36016086 0.2708692 0.21847787 -0.48408744 0.10281522 0.58609366
0.7425335 0.48578134 -0.1964503 0.5569895 0.1816556 0.29980078 0.3204273 -0.071738034
-0.24494092 -0.034170497 -0.82012486 0.18850622 -0.19091648 0.098800436 -0.32782105 -0.024062684
00000000: 4d22 30be 5a57 c03b 29d0 093f b036 0dbe
00000010: 3635 a1bd 85db c23d 13ab 63bc 9ae0 1c3d
00000020: 2207 1d3e 97cf 743e c1c8 b13e 6356 0ebe
00000030: d327 333f 56ef 543f 17d3 3e3e 49d2 e13d
00000040: 9ae4 fa3d 9b2f b33d 3c06 b4bd 1fc9 563e
00000050: c37b 8a3d 9fca 1a3e 580a d6bd 236b fe3c
00000060: dbae 883c 6e9f 603e b630 803d 42ed 17be
00000070: b04b 05bf 1d29 b5be 3494 b1bf 2541 803d
00000080: b4bc b9bd 7ac5 2dbe 1612 d1bd 388b 93bd
00000090: fb21 4fbd e093 31bd d925 88bf c4f7 0abe
000000a0: 3b62 2bbe 38b4 4ebd c524 b73d f439 66be
000000b0: 5a5a 01bf 2f6f 01ba b490 f5bd 5ad6 14be
000000c0: 3eeb 1cbe 1e8f 46be 38e0 c0be 0ccd bebe
000000d0: d2cc 6ebe 053d 00be ea8d 0b3c 26fa f63d
000000e0: 71a3 25be 12a0 823e d1a6 683f bfae dc3d
000000f0: d34c d4bd a9c7 0c3f 43ab e33d a767 83bd
00000100: b325 9fbc 05f4 c23c 9f19 cdbd e838 b4bd
00000110: f37e 853c 253e cabe 5c69 e5bc 9ec3 ed3c
00000120: 79e5 d53c 74dd 19bf f419 aa3f c032 6bbe
00000130: 5cb4 743e b1a6 4ebe aef9 0b3d d9e6 82be
00000140: 4c14 bf3e c693 2e3e 2f54 b6be 4cd0 0c3e
00000150: 3ef9 b4bc 9de5 123f d16e a1be 7a6b c83d
00000160: 903e 1dbe c148 e43d 1457 b63e 2583 bb3e
00000170: c876 663e 500f 3e3e 3d2c 4abd 2f07 db3e
00000180: 3388 af3e 2971 6f3e 0291 463e 6e9c 80be
00000190: 54eb c93c 9db9 08be 6fc5 f8be 3933 153d
000001a0: 2109 7cbc ff5e 2cbd 3ecd 9b3c f1cd efbd
000001b0: 0d01 bebe 4080 383e 0c33 983e d34f d23d
000001c0: 2143 59bf b6a8 003e 4638 76be da36 a83e
000001d0: fe62 753d ee37 bfbe 7f76 ba3e 38d3 b3be
000001e0: e657 1f3f 84ca 6dbe 0167 b83e 5eaf 8a3e
000001f0: aab8 5f3e 4fda f7be c990 d23d 3c0a 163f
00000200: ad16 3e3f 55b8 f83e 442a 49be dd96 0e3f
00000210: ed03 3a3e 7d7f 993e 0c0f a43e 64eb 92bd
00000220: cbd1 7abe 5df6 0bbd b4f3 51bf c607 413e
00000230: 9c7f 43be e257 ca3d 29d8 a7be 1b1f c5bc

module.up8.conv.conv.3.bias f4 [4]
-0.11695443 0.40157792 0.07450224 -0.05048862
00000000: ce85 efbd 9f9b cd3e a194 983d 28cd 4ebd

module.up8.conv.conv.4.weight f4 [4]
1.8778327 1.2469732 2.1226237 2.3751884
00000000: d25c f03f d19c 9f3f 11d9 0740 1603 1840

module.up8.conv.conv.4.bias f4 [4]
1.3125182 2.0384579 1.7999064 1.7344167
00000000: 9900 a83f 1876 0240 5563 e63f 5e01 de3f

module.up8.conv.conv.4.running_mean f4 [4]
1.092695 -0.52248156 0.548676 0.1952583
00000000: 6edd 8b3f 5ac1 05bf 0876 0c3f cbf1 473e

module.up8.conv.conv.4.running_var f4 [4]
0.211155 0.35667893 1.3350044 2.0566783
00000000: 0439 583e 9f9e b63e 6de1 aa3f 9ea0 0340

module.outc.conv.weight f4 [1, 4, 1, 1]
-1.2890172 -1.375772 -1.6429744 -1.4526018
00000000: 84fe a4bf 4c19 b0bf fc4c d2bf dbee b9bf
